models/binary_label_old.pt (torch, 732821 bytes, 10 tensors)

user_id_embedder.weight f4 [5427, 16]
0	0x00000000	0.0
1	0x00000000	0.0
2	0x00000000	0.0
3	0x00000000	0.0
4	0x00000000	0.0
5	0x00000000	0.0
6	0x00000000	0.0
7	0x00000000	0.0
8	0x00000000	0.0
9	0x00000000	0.0
10	0x00000000	0.0
11	0x00000000	0.0
12	0x00000000	0.0
13	0x00000000	0.0
14	0x00000000	0.0
15	0x00000000	0.0
16	0x3f719e2d	0.9438198
17	0x3dff400d	0.124633886
18	0xbe8dc9ac	-0.27692926
19	0xbf6075fd	-0.87680036
20	0xbe62dd08	-0.22154629
21	0x3d911959	0.07084913
22	0xbf8018c4	-1.0007558
23	0xbf2f97e5	-0.6859115
24	0x3f0c6040	0.54834366
25	0xbef60230	-0.48048544
26	0xbfc3e2cf	-1.5303591
27	0xbf5339dd	-0.8251017
28	0xbfb7ed5b	-1.436931
29	0xc0407af0	-3.0075035
30	0xbf113951	-0.5672808
31	0xbe7cc7f9	-0.24685659
32	0xbf6d6fa3	-0.9274847
33	0xbfa34a1c	-1.2756991
34	0xbf0d0bcd	-0.5509613
35	0xbe0c5daa	-0.13707605
36	0xbf84fbf9	-1.0389396
37	0xbe53c484	-0.20680434
38	0x3dd82d6d	0.10555539
39	0xbee10cd7	-0.4395511
40	0x3f599015	0.84985477
41	0xc00170bf	-2.0225065
42	0xbe195730	-0.14974666
43	0x3f595d7d	0.84908277
44	0xbe20462b	-0.15651767
45	0x3e9be103	0.30445108
46	0xbf2783c3	-0.6543543
47	0xbf951b21	-1.1648904
48	0x3f86152f	1.0475215
49	0xbe674876	-0.22586235
50	0xbf44a76d	-0.7681797
51	0x3d7a1f05	0.06106474
52	0xbfc60117	-1.5469083
53	0xbfad5bba	-1.3543618
54	0x3ece6ded	0.40318242
55	0x3f2b1aa1	0.6683751
56	0xbce71f27	-0.028213097
57	0x3f1fa15f	0.6235561
58	0x3eaf0a8c	0.34187734
59	0xbfad61d9	-1.3545486
60	0x3e8b2d32	0.2718292
61	0x3ea4c4af	0.32181308
62	0x3d367b29	0.04455105
63	0x3ee7715a	0.45203668
64	0xbf57024d	-0.83987886
65	0x3f0e038a	0.5547415
66	0x3fcbde1f	1.5927161
67	0xbf50303a	-0.8132359
68	0x3f8635ba	1.0485146
69	0x3f7ee7a1	0.9957219
70	0x3f097f05	0.5370944
71	0xc02f8c67	-2.7429445
72	0xbf7c2018	-0.9848647
73	0x3e852cc8	0.26010728
74	0xbf485b06	-0.7826389
75	0x3ee57ff4	0.44824183
76	0x3f7d920d	0.9905098
77	0x4025d9b1	2.5914118
78	0xbf890fcc	-1.0707946
79	0xc02ec64e	-2.7308536
80	0xbe1f9ce7	-0.15587197
81	0x3f4c56f9	0.7982021
82	0x3dc216a6	0.09476976
83	0x3f825c8f	1.0184497
84	0xbfb58297	-1.4180478
85	0x3e91d5fd	0.28483573
86	0xbcdd12f2	-0.026986573
87	0x3f142098	0.57862234
88	0xbf8f7fef	-1.1210917
89	0xbf19a846	-0.6002239
90	0xbd3e738f	-0.046496924
91	0x3f1d9630	0.6155729
92	0x3d9df623	0.077129625
93	0xbfa0cae0	-1.2561913
94	0x3d2e853c	0.04260753
95	0xbefae3bb	-0.4900187
96	0x3c12392b	0.008924763
97	0xbf042bf1	-0.5162955
98	0xbcf20809	-0.029544847
99	0x3dea043d	0.1142659
100	0xbe054575	-0.13014777
101	0xbf14adef	-0.580779
102	0x3d9d1112	0.076692715
103	0x3e1f5dd2	0.15563133
104	0x3a7ba152	0.0009598929
105	0xbe533168	-0.20624316
106	0x3c204300	0.009781599
107	0xbe8d3693	-0.275807
108	0xbef87b4d	-0.4853157
109	0xbf12b45c	-0.57306457
110	0x3e9c0828	0.30474973
111	0x3e2d6499	0.16932906
112	0x3f062395	0.52398044
113	0xbf34ab52	-0.70573914
114	0x3ed76a6d	0.42073384
115	0x3ec5efb7	0.3865945
116	0xbe02c3cf	-0.12770008
117	0xbe916cf7	-0.28403446
118	0xbc6d53b5	-0.014485289
119	0xbe6bc73e	-0.23025224
120	0x3df9ca36	0.12196772
121	0x3f7c525d	0.98563176
122	0xbe4ab60c	-0.19796008
123	0xbe4a9807	-0.19784556
124	0xbf8ebb25	-1.1150862
125	0xbeb128c5	-0.34601417
126	0x3e872f9b	0.26403508
127	0x3effee2f	0.49986407
128	0x3e95235d	0.29128543
129	0x3f58fa95	0.8475736
130	0x3f9bf0ca	1.2182858
131	0xbf23856e	-0.6387547
132	0x3ebfc80c	0.3745731
133	0x3e3cdeac	0.18444318
134	0x3f31c801	0.69445807
135	0xbe3f0d4c	-0.18657416
136	0xbe236c5c	-0.15959305
137	0xbf9cc8a6	-1.2248733
138	0x3ef92ac5	0.48665443
139	0x3f333f05	0.70018035
140	0x3f4ff402	0.812317
141	0x3f5fde6a	0.8744875
142	0x3e8a51fd	0.27015677
143	0xbe103922	-0.14084294
144	0x3f407f35	0.751941
145	0x3ebc223a	0.36744863
146	0xbf09d0a5	-0.5383399
147	0x3f304aa8	0.68863916
148	0xbec97c85	-0.39352813
149	0xbe241731	-0.16024472
150	0xbebd2bf3	-0.36947593
151	0xbda6370e	-0.081159696
152	0x3e4376ce	0.19088289
153	0xbe5a1750	-0.21297956
154	0x3f066348	0.5249524
155	0xbec22024	-0.37915146
156	0xbd3aface	-0.045649342
157	0xbe1e0a4b	-0.15433614
158	0xbcfcee3d	-0.03087532
159	0x3f2d2cd7	0.67646545
160	0x3f2676ce	0.6502503
161	0xbf33f7e3	-0.7030012
162	0x3e3bb709	0.18331541
163	0x3edcf0a6	0.4315235
164	0xbf39497d	-0.7237776
165	0xbf9f4108	-1.2441721
166	0x3e9b27ab	0.30303702
167	0x3f43ecfb	0.7653348
168	0xbea3bdf9	-0.31980875
169	0x3e8116b5	0.25212637
170	0x3ee3aa8d	0.44466057
171	0xbf3c20fe	-0.7348784
172	0xbe68bb7b	-0.22727768
173	0xbf69f32d	-0.9138668
174	0xbf2d4c53	-0.67694587
175	0x3f197150	0.59938526
176	0x3eb19bba	0.34689122
177	0x3e237db9	0.15965928
178	0xbf89f897	-1.0778989
179	0xbf9a96a3	-1.2077221
180	0xbf5f0369	-0.8711458
181	0xbf8634a8	-1.048482
182	0x3f4dd993	0.80410117
183	0x3fb50e7e	1.4145048
184	0xbf0dc9dc	-0.5538614
185	0x3f357107	0.7087559
186	0x3f837fc3	1.0273365
187	0xbd3efdbb	-0.046628695
188	0x3f0730f5	0.5280908
189	0xbf7e478d	-0.9932793
190	0x3ef74314	0.48293364
191	0x3ef14460	0.47122478
192	0x3e8ed489	0.27896526
193	0x3f6527c2	0.8951379
194	0x3f5fb8e0	0.8739147
195	0x3e64614f	0.22302745
196	0x3e53d3fe	0.20686337
197	0xbfc003c6	-1.5001152
198	0xbe91013a	-0.28321248
199	0xbdc88bb0	-0.09792268
200	0xbdc68a0e	-0.096943006
201	0xbf80aaae	-1.0052087
202	0xbf015518	-0.5052047
203	0xbf94012a	-1.1562855
204	0xbf44df6f	-0.7690343
205	0xbec7b28a	-0.39003402
206	0xbe1f9b0c	-0.1558649
207	0xbe672ba5	-0.22575243
208	0xbf1ccefd	-0.6125334
209	0x3feb8955	1.8401285
210	0xbab7ca48	-0.0014022077
211	0x3e83b867	0.25726625
212	0x3f28cde4	0.65939164
213	0xbdd0749b	-0.10178491
214	0x3f7ae793	0.98009604
215	0x3e58aca5	0.21159609
216	0x3f1cd00e	0.61254966
217	0xbf1bd7fa	-0.6087643
218	0x3f24def6	0.6440271
219	0x3fb98786	1.4494483
220	0xbea0b4d3	-0.31387958
221	0x3f044cf9	0.5167995
222	0xbf53f982	-0.82802594
223	0x3e4e9481	0.20173837
224	0xbc483efe	-0.01222205
225	0xbce3776b	-0.027766904
226	0xbe94b179	-0.2904165
227	0x3ed3347a	0.41250974
228	0xbdb9f3ec	-0.090797275
229	0xbe3c54d2	-0.18391731
230	0xbd0ae49e	-0.033909433
231	0xbe3211a7	-0.17389546
232	0x3e356e50	0.17717862
233	0xbd9f30ea	-0.077730015
234	0x3e3e90a9	0.18609871
235	0xbea09d49	-0.3137
236	0x3d231b20	0.03982079
237	0x3d7b8784	0.061408535
238	0x3e9c59b0	0.30537176
239	0xbe957191	-0.29188207
240	0xbda4b3e1	-0.08042122
241	0x3f6b3fa2	0.9189397
242	0x3e99a995	0.30012193
243	0x3e2c354d	0.16817208
244	0xbe155030	-0.1458137
245	0x3d97b633	0.074077986
246	0x3e2b54b7	0.16731535
247	0xbe76f6b6	-0.2411755
248	0xbeb8cdb2	-0.36094433
249	0xbf8ca91e	-1.098911
250	0xbf64f1e4	-0.89431596
251	0x3dd550a7	0.10415774
252	0x3e4413e3	0.19148211
253	0x3f2f2140	0.6841011
254	0x3f1f74b9	0.6228748
255	0xbe21d57b	-0.15804093

song_id_embedder.weight f4 [3272, 16]
0	0x00000000	0.0
1	0x00000000	0.0
2	0x00000000	0.0
3	0x00000000	0.0
4	0x00000000	0.0
5	0x00000000	0.0
6	0x00000000	0.0
7	0x00000000	0.0
8	0x00000000	0.0
9	0x00000000	0.0
10	0x00000000	0.0
11	0x00000000	0.0
12	0x00000000	0.0
13	0x00000000	0.0
14	0x00000000	0.0
15	0x00000000	0.0
16	0xbe297592	-0.16548756
17	0xbee8f6ed	-0.4550089
18	0xbeef2c8b	-0.4671367
19	0x3d5dd069	0.054153834
20	0x3e8c2604	0.27372754
21	0xbec1783a	-0.37787038
22	0xbea88a9b	-0.32918248
23	0x3e0993a0	0.1343522
24	0x3ed8c064	0.42334282
25	0xbe3a7ffb	-0.18212883
26	0x3f1284a7	0.5723366
27	0x3ef598a5	0.4796802
28	0xbf5e66cc	-0.86875606
29	0xbf0be162	-0.5464078
30	0xbef34b6a	-0.47518474
31	0x3e6c8f00	0.23101425
32	0x3f447710	0.76744175
33	0xbf50c56f	-0.8155126
34	0xbed9e736	-0.42559212
35	0xbee70fc7	-0.45129225
36	0xbf84abfc	-1.0364985
37	0x3f03144c	0.51202846
38	0x3e453210	0.19257379
39	0xbee3556f	-0.44401118
40	0xbdc01b90	-0.09380257
41	0x3e278e77	0.1636294
42	0x3d15ca7a	0.03657005
43	0x3f971d1c	1.1805758
44	0xbfa1ca24	-1.2639813
45	0x3eb5e753	0.3552805
46	0xbe4ed84e	-0.20199701
47	0x3f854a6c	1.0413337
48	0x3f13b444	0.5769694
49	0xbe4edc48	-0.20201218
50	0x3e9e45f8	0.30912757
51	0x3e38f6c6	0.18062887
52	0x3e0db3f1	0.13838173
53	0x3ee8ed6c	0.4549364
54	0x3e263500	0.16231155
55	0xbf171640	-0.59018326
56	0x3e9c533e	0.3053226
57	0xbf0dc1b7	-0.5537371
58	0xbe03c9af	-0.12869905
59	0xbed57441	-0.41690257
60	0xbf1b4cb1	-0.60663897
61	0xbf014b48	-0.50505495
62	0xbec100e0	-0.3769598
63	0x3e0cbd05	0.1374398
64	0x3ebdb819	0.37054518
65	0x3d9edb0c	0.077566236
66	0xbec02908	-0.37531304
67	0x3ede787a	0.4345129
68	0x3e316c49	0.17326464
69	0xbe80ef83	-0.25182733
70	0xbeafbbe6	-0.34323043
71	0xbca4e9b0	-0.020130962
72	0xbf3b07df	-0.73058885
73	0x3f4ad40e	0.7922982
74	0xbf38fb60	-0.7225857
75	0xbec939ab	-0.3930181
76	0xbf584a92	-0.84488785
77	0x3edd4889	0.43219402
78	0xbe836def	-0.2566981
79	0x3f52a6ef	0.8228597
80	0x3f32c5f6	0.69833314
81	0x3ef31fc7	0.47485182
82	0xbec4a2cb	-0.3840545
83	0xbf22bae6	-0.63566434
84	0xbf004a8d	-0.50113755
85	0xbe8d3f64	-0.27587426
86	0xbe851ef6	-0.26000184
87	0x3f064df0	0.52462673
88	0x3cdc26b3	0.026873922
89	0x3f0eb504	0.5574496
90	0xbdae5529	-0.08512337
91	0xbe137620	-0.1440053
92	0xbf724856	-0.94641626
93	0x3ddd3b03	0.10802271
94	0xbe2b7596	-0.16744074
95	0xbedb41c0	-0.428236
96	0x3e8f8367	0.2802994
97	0x3d84c08b	0.06482037
98	0xbf375e20	-0.71628
99	0xbf4e8261	-0.8066769
100	0xbde2f669	-0.11082155
101	0xbf2732a6	-0.6531166
102	0xbea857c5	-0.32879463
103	0x3ebd2c22	0.36947733
104	0xbef7d4d6	-0.48404568
105	0xbe63d44f	-0.22248958
106	0xbf1a762a	-0.60336554
107	0xbf48129e	-0.7815341
108	0xbed54adf	-0.41658685
109	0xbf0146ae	-0.50498474
110	0xbe9395ac	-0.28825128
111	0xbdca4c51	-0.098778374
112	0x3e4ab5a0	0.19795847
113	0xbee61477	-0.44937488
114	0x3e8a5886	0.27020663
115	0xbebb3c1b	-0.36569294
116	0xbe8e1f73	-0.2775837
117	0x3d8aaebb	0.067716084
118	0x3ef59ae5	0.47969738
119	0xbe4093ad	-0.18806334
120	0xbcb82996	-0.022480767
121	0x3e24b610	0.16085076
122	0x3e849525	0.25895038
123	0xbf288b08	-0.65837145
124	0xbeb1d79c	-0.3473481
125	0xbf43807a	-0.76367915
126	0x3e7e63bc	0.24842733
127	0x3e7c9bc3	0.24668793
128	0x3f3ac8a4	0.72962403
129	0xbf38ce39	-0.7218967
130	0xbd9e80c8	-0.07739407
131	0xbf05c9f5	-0.52261287
132	0x3e54e594	0.20790702
133	0xbd08702c	-0.0333101
134	0x3e8748cd	0.2642273
135	0x3f0778f3	0.5291893
136	0x3f2ce7e0	0.67541313
137	0x3f0a5b3f	0.5404548
138	0xbd8d0b96	-0.068869755
139	0x3e9ee6b0	0.31035376
140	0xbee97b24	-0.4560176
141	0xbe96f64d	-0.29484788
142	0xbf22157b	-0.63314027
143	0x3f018089	0.50586754
144	0x3f9c686d	1.2219368
145	0xbfa376e3	-1.2770656
146	0xbf3da0ca	-0.7407347
147	0x3f57d5ba	0.84310496
148	0x3f31be0f	0.6943063
149	0x3d2f172c	0.042746708
150	0xbe6ba708	-0.23012936
151	0xbf0b6157	-0.54445404
152	0x3fa3b3d9	1.278926
153	0xbe577b2b	-0.21043079
154	0x3f911866	1.1335571
155	0xbf051f6d	-0.52001077
156	0xbf6a933e	-0.91630924
157	0xbd31d347	-0.04341438
158	0x3ed2adf6	0.41148347
159	0x3e19c497	0.150164
160	0xbf23c75d	-0.6397608
161	0x3b1dd083	0.0024080581
162	0xbf4ec89e	-0.8077487
163	0x3e7c7fa8	0.24658072
164	0xbf3c7df6	-0.736297
165	0xbf1ee2d7	-0.6206488
166	0x3eb88298	0.36037135
167	0xbe9ddaa1	-0.30830863
168	0xbe03fe3d	-0.12889953
169	0xbda095a6	-0.07841043
170	0xbf805fb1	-1.0029203
171	0xbfbdb62e	-1.4821222
172	0xbf442f13	-0.7663433
173	0xbf017a91	-0.50577646
174	0x3ed97e4e	0.42479175
175	0x3e5cdd16	0.21568713
176	0x3c5af344	0.013363663
177	0xbe7ee740	-0.24892902
178	0xbf81b6c8	-1.0133905
179	0x3f5633d8	0.8367286
180	0xbf55e7d3	-0.8355686
181	0x3d333561	0.043752078
182	0x3defe6cf	0.11713945
183	0xbf76316f	-0.9616918
184	0x3e3007ad	0.17190428
185	0xbd167935	-0.036736686
186	0xbe5e9355	-0.2173589
187	0xbf2a7abf	-0.66593546
188	0xbd886ed3	-0.06661763
189	0x3d64ba75	0.05584188
190	0x3f3fc4a8	0.7490945
191	0x3f8daf38	1.1069098
192	0xbee381d6	-0.44434994
193	0x3e5e684b	0.21719472
194	0x3e16cfb8	0.14727676
195	0xbd135911	-0.035973612
196	0xbf6b1fe9	-0.91845566
197	0xbf94c448	-1.16224
198	0xbf1b80ee	-0.60743606
199	0x3f0b7aff	0.5448455
200	0xbe0f4b94	-0.13993675
201	0x3f5df55e	0.86702526
202	0xbe3a4c5d	-0.18193193
203	0xbeb8cd37	-0.36094067
204	0xbce6c311	-0.028169187
205	0x3d9c975a	0.076460555
206	0x3f74fb03	0.95695513
207	0x3edd8bac	0.43270624
208	0xbe564cd4	-0.20927745
209	0xbf0c8c08	-0.5490117
210	0xbf5c2356	-0.8599142
211	0xbea2c526	-0.31791037
212	0xbf01633a	-0.5054203
213	0xbece1e86	-0.40257663
214	0xbebccc94	-0.3687483
215	0xbe7fa9e6	-0.24967155
216	0x3e01560c	0.1263048
217	0x3e322850	0.1739819
218	0xbf02bcad	-0.51069146
219	0xbf0693af	-0.525691
220	0xbe79c518	-0.24391592
221	0xbf0ef647	-0.5584454
222	0x3f019904	0.5062411
223	0x3e49e634	0.19716722
224	0x3eab4a00	0.33454895
225	0xbd5951fb	-0.0530567
226	0xbf298d9e	-0.66231716
227	0xbea2d97e	-0.31806558
228	0xbeb64064	-0.35596
229	0xbf168c5f	-0.5880794
230	0xbe5bbd50	-0.21458936
231	0x3e353e11	0.17699458
232	0xbe2a7bd1	-0.16648795
233	0x3e837467	0.25674745
234	0x3d3d2085	0.04617359
235	0xbe945260	-0.28969097
236	0x3cfdf9f2	0.031002972
237	0xbf07218f	-0.5278558
238	0x3e12ddfb	0.14342491
239	0x3d739a46	0.0594733
240	0x3ee74d82	0.4517632
241	0x3dce7d39	0.10082478
242	0xbe6ab500	-0.22920609
243	0x3ea6a99a	0.3255127
244	0xbe59489b	-0.21219103
245	0xbf00424b	-0.50101155
246	0xbe4f0a21	-0.20218708
247	0x3d7fd0c4	0.062454954
248	0xbf1c33df	-0.6101665
249	0x3ec2a07b	0.38013062
250	0xbe9b011f	-0.30274293
251	0xbf4720a2	-0.7778417
252	0xbd6614ac	-0.056172058
253	0xbebb48f7	-0.36579105
254	0xbe7bf85b	-0.24606459
255	0x3ba7b198	0.0051176064

user_tower.network.0.weight f4 [256, 5]
0	0xbedbaed5	-0.42906824
1	0x3ec312b9	0.38100222
2	0x3ec4acee	0.38413185
3	0xbe150b56	-0.14555106
4	0xbe857787	-0.26067755
5	0xbedc2e0e	-0.43003887
6	0x3cf4fb88	0.029905096
7	0xbdc67f01	-0.09692193
8	0x3e48ebf5	0.1962126
9	0xbed26175	-0.4108998
10	0xbd145995	-0.036218245
11	0x3e62c57e	0.2214565
12	0x3ec87bfa	0.39157087
13	0x3e8a92b7	0.2706506
14	0xbe109001	-0.14117433
15	0x3e04ae7c	0.12957186
16	0x3e357380	0.17719841
17	0x3d631de6	0.055448435
18	0xbeab9b07	-0.33516714
19	0x3dfdb3c7	0.123878054
20	0x3e1c7ded	0.15282412
21	0xbe8fcd4d	-0.2808632
22	0xbe7e694f	-0.2484486
23	0xbe92ab42	-0.28646284
24	0xbea29b8e	-0.31759304
25	0x3e8bb808	0.27288842
26	0x3d99a9fc	0.07503125
27	0xbe51a0ef	-0.20471548
28	0xbec18ed8	-0.37804294
29	0xbcc11b7b	-0.023572674
30	0xbe6e9073	-0.2329729
31	0x3e9b1a08	0.30293298
32	0x3e4909bc	0.1963262
33	0xbe28d786	-0.16488466
34	0x3e19d4b5	0.15022548
35	0x3e636917	0.22208057
36	0xbe831a4c	-0.25606
37	0xbed42b2e	-0.41439193
38	0x3ddcb93e	0.1077752
39	0xbd0af4fd	-0.033925045
40	0x3dbde2b8	0.09271759
41	0xbdf95517	-0.12174433
42	0xbe5d1fef	-0.21594213
43	0x3e13e75e	0.14443728
44	0xbe26cabd	-0.16288276
45	0xbd955904	-0.07292369
46	0x3ded68b1	0.11592234
47	0xbdc4249c	-0.09577295
48	0xbd923dfc	-0.07140729
49	0x3cc51b39	0.024060832
50	0x3bd679d8	0.0065452866
51	0xbed7d5db	-0.42155346
52	0xbccd47a4	-0.025058575
53	0x3d48dc50	0.04903823
54	0xbd17ddee	-0.037076883
55	0x3e2b72ac	0.16742963
56	0xbec5244b	-0.38504252
57	0xbe48f1c3	-0.19623475
58	0x3ddc1a33	0.107471846
59	0x3df33b0f	0.11876499
60	0x3e675832	0.22592238
61	0x3eaa3ea8	0.33250928
62	0xbd39d3b8	-0.045367926
63	0x3e0e3679	0.13887967
64	0xbdf1ee37	-0.11813014
65	0xbdddf185	-0.10837082
66	0x3e56a916	0.20962939
67	0x3c2cd6a1	0.010549218
68	0xbe5a6055	-0.2132581
69	0x3e8ea8db	0.27863201
70	0xbef149ba	-0.4712656
71	0xbd21c398	-0.039493173
72	0x3e2415e4	0.16023976
73	0x3db5a4ff	0.08869361
74	0xbdf159bd	-0.11784694
75	0xbed621d6	-0.4182269
76	0x3d3fd727	0.046836045
77	0xbedcae87	-0.43101904
78	0xbe8da870	-0.2766757
79	0x3eaf3d75	0.34226575
80	0x3e385e36	0.18004689
81	0xbe66fd97	-0.22557674
82	0xbe766902	-0.24063495
83	0x3eb98632	0.36235195
84	0xbd295943	-0.041344892
85	0x3ded2028	0.11578399
86	0xbe3c4d61	-0.18388893
87	0x3c746d5c	0.014918651
88	0x3ec80c28	0.39071774
89	0xbe35f7b5	-0.17770274
90	0xbecf4028	-0.40478635
91	0xbe490f49	-0.19634737
92	0x3d87ee83	0.066372894
93	0x3ebb0fd2	0.36535507
94	0xbedaa68c	-0.4270519
95	0x3e83d42f	0.2574782
96	0x3e67765a	0.22603741
97	0x3e5b72b4	0.21430475
98	0x3e7717db	0.24130194
99	0xbdc94eba	-0.09829469
100	0xbe0d8f6b	-0.13824241
101	0xbdd2ef33	-0.1029953
102	0x3e63b7da	0.22238103
103	0x3e706c1f	0.23478745
104	0xbe26a124	-0.16272408
105	0x3ee4bed6	0.44676846
106	0xbecc36d2	-0.39885575
107	0x3e826d3b	0.2547396
108	0xbdbb8622	-0.09156443
109	0x3dd535c9	0.10410649
110	0x3ee763b4	0.45193255
111	0xbebcb079	-0.36853388
112	0x3e4f7818	0.20260656
113	0x3eabcfdb	0.3355702
114	0xbdad5c63	-0.08464887
115	0xbccfafc5	-0.025352368
116	0x3edeeb0c	0.43538702
117	0xbec0668e	-0.37578243
118	0x3d9a626b	0.07538303
119	0xbdc1bd38	-0.09459919
120	0xbedf118b	-0.43568072
121	0xbee449a6	-0.4458744
122	0xbe138502	-0.14406207
123	0x3e63ca60	0.22245169
124	0xbc75b25b	-0.014996137
125	0xbecb80c5	-0.3974668
126	0xbedb0ab7	-0.42781612
127	0xbed8ec91	-0.42367986
128	0xbdb76409	-0.08954627
129	0x3ea804e6	0.32816237
130	0x3ed85270	0.42250395
131	0x3d9650cd	0.0733963
132	0xbeac6eaa	-0.3367818
133	0x3ec9e98b	0.39435992
134	0xbd9bd2c4	-0.0760856
135	0x3edc98bf	0.43085286
136	0x3e268358	0.16261041
137	0x3dfa6882	0.122269645
138	0xbc940d83	-0.01807285
139	0xbadb9440	-0.0016752556
140	0x3ed77d78	0.42087913
141	0x3e32f33b	0.17475598
142	0x3dceb11b	0.10092374
143	0x3e892812	0.26788384
144	0x3c8a5448	0.016885892
145	0x3e7803e0	0.24220228
146	0x3e9f786e	0.31146568
147	0x3eca8dd4	0.3956133
148	0x3e053b6d	0.1301095
149	0xbe5203d5	-0.20509274
150	0xbeaf2855	-0.34210458
151	0x3e8b9296	0.27260274
152	0xbe6aedea	-0.2294232
153	0x3eda71d3	0.42664966
154	0x3ecc060a	0.39848357
155	0x3e71c2e2	0.23609498
156	0x3e14870c	0.14504641
157	0x3e93f96a	0.28901225
158	0x3dfcb64f	0.1233946
159	0x3eadfe53	0.33983096
160	0xbea875fa	-0.3290251
161	0x3eb5a85c	0.3548001
162	0xbd7e4495	-0.062077124
163	0x3d8e964d	0.06962261
164	0xbe31ff9b	-0.17382662
165	0x3ea0e904	0.31427777
166	0x3e3f4a38	0.18680656
167	0xbd346c2a	-0.044048466
168	0x3e2caa42	0.16861823
169	0x3e58c778	0.21169841
170	0xbdb7defe	-0.08978079
171	0x3e3caa74	0.18424398
172	0x3e9de92f	0.30841967
173	0xbeae72bf	-0.3407192
174	0x3ed6e760	0.419734
175	0xbe276f50	-0.16351056
176	0x3ec7b7be	0.39007372
177	0x3e395307	0.18098079
178	0x3dc2e680	0.09516621
179	0xbea41d03	-0.32053384
180	0x3e70c326	0.23511943
181	0x3d86efc4	0.065887004
182	0xbe9ae62f	-0.3025374
183	0x3ec35258	0.3814876
184	0x3d233f61	0.039855365
185	0xbd641a86	-0.055689357
186	0xbe1f841f	-0.15577744
187	0xbe91e97f	-0.28498456
188	0x3e3da239	0.18518914
189	0xbdd9eb3d	-0.10640571
190	0x3d95d925	0.07316808
191	0x3da9c4b8	0.08289474
192	0xbe41dfd2	-0.18933037
193	0x3a909a8d	0.0011032388
194	0x3e2aa645	0.1666499
195	0x3e4736a1	0.19454433
196	0x3c2acac3	0.010424319
197	0xbe802a04	-0.25032055
198	0x3e00f9d2	0.12595299
199	0xbdf0ea12	-0.11763395
200	0xbeaf98b9	-0.34296206
201	0xbe9d3bd6	-0.30709714
202	0xbebc7b86	-0.3681299
203	0xbed44104	-0.41455853
204	0xbec62449	-0.38699558
205	0xbea2d768	-0.31804967
206	0x3df9808c	0.121827215
207	0x3ea6398e	0.32465786
208	0xbed1386c	-0.4086336
209	0xbdbfa253	-0.09357133
210	0x3eb463ac	0.35232294
211	0xbd2c6d8e	-0.042096667
212	0xbda7d83f	-0.081955425
213	0x3edcad7c	0.43101108
214	0x3e9e86aa	0.30962116
215	0xbea7b458	-0.3275478
216	0xbe68b103	-0.22723775
217	0xbba56590	-0.0050475076
218	0x3ed2b971	0.41157106
219	0x3eacfde6	0.3378746
220	0xbe9ccad1	-0.30623487
221	0x3eba1639	0.3634508
222	0x3e55026b	0.20801704
223	0x3ec9ad72	0.3939014
224	0x3dce0f1c	0.10061476
225	0xbea4bc98	-0.32175136
226	0xbe843ced	-0.25827733
227	0x3df399f6	0.118946
228	0xbc8909f0	-0.016728371
229	0xbe88d4e0	-0.2672491
230	0xbeb5d4a8	-0.35513806
231	0xbdf1ce08	-0.118068755
232	0x3e1f5634	0.15560228
233	0xbd6d5e63	-0.057951342
234	0x3e1c39ff	0.15256499
235	0xbcf60e9a	-0.03003626
236	0x3d1bc59a	0.038030244
237	0x3d70b71c	0.058768377
238	0xbe968a9e	-0.29402632
239	0xbe8d35a1	-0.27579978
240	0xbede55cf	-0.43424842
241	0xbd27804b	-0.040893834
242	0xbe976339	-0.29567888
243	0x3eaff08d	0.34363213
244	0x3ebc9fd7	0.36840698
245	0x3e6b0255	0.22950108
246	0xbea39384	-0.31948483
247	0xbec8a904	-0.3919145
248	0xbea692cb	-0.3253387
249	0xbcab1e95	-0.020888606
250	0x3f03a573	0.5142433
251	0xbde34242	-0.11096622
252	0xbbe19cd6	-0.0068851514
253	0x3e0090b3	0.12555198
254	0x3eae0c0c	0.33993566
255	0xbea8747c	-0.3290137

user_tower.network.0.bias f4 [256]
0	0x3e20ed81	0.157156
1	0x3e0e7229	0.13910736
2	0x3d6050c0	0.05476451
3	0x3eacfe6c	0.33787858
4	0xbcdac9ed	-0.026707614
5	0x3edc75f0	0.4305873
6	0xbcae7f5b	-0.021300962
7	0x3e4547f5	0.1926573
8	0xbe1df038	-0.15423667
9	0x3d696302	0.056979187
10	0xbd55c5c4	-0.052190557
11	0x3e1e2602	0.15444186
12	0x3ef21e2b	0.4728864
13	0x3e89ef8b	0.2694057
14	0xbeb862de	-0.3601293
15	0xbe43fc2e	-0.19139168
16	0x3eca14c9	0.39468983
17	0x3ec50500	0.38480377
18	0xbccfbdf4	-0.025359131
19	0xbe8e236c	-0.277614
20	0xbc3faebd	-0.011699376
21	0x3df955da	0.12174578
22	0xbe2394f2	-0.15974787
23	0xbe369171	-0.17828919
24	0xbee4d38d	-0.4469265
25	0xbeaa0fd3	-0.33215198
26	0x3ddee95c	0.108843535
27	0xbeae9ecc	-0.34105527
28	0xbe2ae07b	-0.16687195
29	0xbe827780	-0.25481796
30	0xbed5b302	-0.41738135
31	0xbda1d36b	-0.07901653
32	0xbe0613d7	-0.13093506
33	0xbe927e03	-0.28611764
34	0x3e0bcd9b	0.13652651
35	0xbcdbcf4b	-0.026832243
36	0xbdccdf59	-0.10003538
37	0x3e820eff	0.25402066
38	0xbd3096ec	-0.04311268
39	0x3e99f443	0.3006917
40	0xbe96c514	-0.29447234
41	0xbec6b9b8	-0.38813567
42	0x3ed96d76	0.42466325
43	0x3e63c450	0.22242856
44	0xbe1d4173	-0.15356998
45	0xbe404022	-0.18774465
46	0x3e4720b3	0.19446068
47	0x3bd32b9f	0.006444409
48	0xbe003c71	-0.12523057
49	0x3e7caa9d	0.24674459
50	0x3e3d368e	0.18477842
51	0x3d345097	0.04402217
52	0x3ed38ee4	0.41319954
53	0xbde056c0	-0.10954046
54	0xbe6bf682	-0.23043254
55	0x3c96b9b3	0.018399095
56	0xbce4893c	-0.02789747
57	0x3df62a19	0.12019748
58	0xbe85a841	-0.2610493
59	0xbe41da46	-0.18930921
60	0xbecec972	-0.40388066
61	0xbec83ed3	-0.3911043
62	0xbe35d3e8	-0.17756617
63	0x3ebfa55d	0.3743085
64	0x3e4b878b	0.19875924
65	0x3d261185	0.04054405
66	0xbe6e7993	-0.23288564
67	0xbeb139c6	-0.3461439
68	0xbecd9cb2	-0.40158612
69	0xbdd59f75	-0.10430805
70	0xbe02c8ee	-0.12771961
71	0xbdf4d8eb	-0.11955436
72	0xbe2c4c67	-0.1682602
73	0x3ea2dc37	0.31808636
74	0x3dc00ff3	0.09378042
75	0x3ea0edc6	0.31431407
76	0x3e0ba805	0.13638313
77	0x3deb1230	0.11478078
78	0xbec83931	-0.39106134
79	0xbe5fd3f5	-0.21858199
80	0xbe292b2c	-0.16520375
81	0x3e616b04	0.2201348
82	0xbd59801b	-0.053100687
83	0x3e8ed7a2	0.2789889
84	0xbe45aeec	-0.19305009
85	0xbe345f12	-0.17614391
86	0xbe6ab973	-0.22922306
87	0x3ed9eebf	0.4256496
88	0x3eab789b	0.33490452
89	0x3df72922	0.12068392
90	0xbed4778c	-0.41497457
91	0x3ed3d935	0.41376653
92	0xbe5aa3f1	-0.21351601
93	0xbe33c27b	-0.17554657
94	0xbe868828	-0.26275754
95	0x3e518183	0.20459561
96	0xbe832e6b	-0.25621352
97	0xbea60b6e	-0.32430595
98	0xbe579978	-0.21054637
99	0x3e0eca7f	0.13944434
100	0xbd8893c5	-0.0666881
101	0xbe2fd848	-0.17172348
102	0xbd70fce4	-0.058834925
103	0x3e4a72e6	0.19770393
104	0x3eb171f5	0.34657255
105	0xbdc04f49	-0.093901224
106	0xbd276fbd	-0.040878046
107	0x3e0de8a9	0.13858284
108	0x3ee4297c	0.445629
109	0xbe8df2b4	-0.2772423
110	0xbe24a0ec	-0.16077012
111	0xbd6d24d2	-0.057896443
112	0xbea26c9c	-0.31723487
113	0xbd32830a	-0.043582
114	0xbec31fd1	-0.38110211
115	0xbd95aac8	-0.073079646
116	0xbe1826be	-0.14858529
117	0xbcf14ddc	-0.029456072
118	0xbe9c4459	-0.30520895
119	0xbd979cb8	-0.074029386
120	0xbe922f5b	-0.28551754
121	0x3e85a450	0.26101923
122	0xbe1cdb4d	-0.15318032
123	0xbddbd2eb	-0.10733589
124	0x3e80b9c7	0.25141737
125	0xbedfb3e2	-0.43691927
126	0x3ecba5d1	0.39774945
127	0x3e426763	0.18984751
128	0x3e0a1a25	0.13486536
129	0xbec69360	-0.38784313
130	0xbec65b96	-0.3874175
131	0x3e879c27	0.26486322
132	0x3e459df9	0.19298543
133	0xbe04cd21	-0.12968875
134	0xbe8d05c5	-0.27543464
135	0x3ea89ae2	0.32930666
136	0xbdcdfe27	-0.10058241
137	0xbc27ceb7	-0.010242156
138	0x3e7f3c48	0.24925339
139	0x3da7dee6	0.081968114
140	0xbe083f2b	-0.13305347
141	0x3e335b68	0.17515337
142	0xbea7c62b	-0.32768378
143	0x3bba85c8	0.0056922175
144	0x3dcc4045	0.09973196
145	0x3ec97b71	0.3935199
146	0x3d9f789f	0.077866785
147	0x3e003305	0.12519462
148	0xbe238c57	-0.15971504
149	0xbee2cfa9	-0.44299057
150	0x3de59d1d	0.112116076
151	0x3ead8b06	0.3389513
152	0xbe9385a7	-0.28812906
153	0x3e7eab7f	0.24870108
154	0xbdef00c1	-0.11670066
155	0x3ec1eb99	0.3787506
156	0x3e02de64	0.12780148
157	0xbe3505bd	-0.1767797
158	0x3ea58105	0.32324997
159	0xbd8f877d	-0.07008264
160	0x3edf8a0c	0.4366001
161	0xbd7c4261	-0.06158674
162	0x3d3a971d	0.04555427
163	0x3e8690e9	0.26282433
164	0x3e66308a	0.22479454
165	0x3e11bd4e	0.1423237
166	0xbed37dfe	-0.41307062
167	0xbe9a492f	-0.3013396
168	0x3a947da0	0.0011328943
169	0x3ee3030d	0.44338265
170	0xbbbb3075	-0.0057125636
171	0xbe622b89	-0.2208692
172	0x3d06bc77	0.032894578
173	0x3e1419bf	0.14462946
174	0xbec3fcef	-0.3827891
175	0x3e163f4e	0.14672586
176	0xbe54c68c	-0.20778865
177	0x3cb44b68	0.022008613
178	0x3e38931f	0.18024872
179	0x3edad5a8	0.42741132
180	0xbb9f61fb	-0.004863975
181	0x3d6aadb9	0.05729458
182	0x3d9ae785	0.0756369
183	0x3e32e0d3	0.17468576
184	0xbe4cc3d8	-0.19996583
185	0xbee2633d	-0.44216338
186	0x3e1d8641	0.15383245
187	0x3e5a6ca0	0.213305
188	0xbdbd7b04	-0.09251979
189	0x3ecd11ae	0.4005255
190	0x3ed564ec	0.4167856
191	0xbd898b1c	-0.06715986
192	0x3ed2b054	0.41150153
193	0x3ea373b8	0.31924224
194	0x3ed311bb	0.41224465
195	0x3e6df5b4	0.2323826
196	0x3edda617	0.4329078
197	0x3ee3b945	0.44477287
198	0x3e2f6ce5	0.17131384
199	0x3e3377f9	0.17526235
200	0x3e820f99	0.25402525
201	0x3ec2f1ea	0.3807519
202	0x3eccc192	0.39991432
203	0x3e55392b	0.20822589
204	0xbee0388d	-0.43793145
205	0x3e685287	0.22687732
206	0x3e4c7a76	0.1996859
207	0xbeccf91f	-0.40033814
208	0x3e80727b	0.25087342
209	0x3e308819	0.17239417
210	0xbdf10c52	-0.11769928
211	0xbeccc554	-0.399943
212	0xbda1eff8	-0.079070985
213	0xbe754364	-0.23951489
214	0xbccfb9a7	-0.02535708
215	0x3d633443	0.055469763
216	0x3d981570	0.07425964
217	0x3eb771d9	0.35829046
218	0xbd177f50	-0.03698665
219	0x3da12511	0.07868398
220	0xbe915199	-0.28382567
221	0xbde3d35a	-0.111242965
222	0x3e484cb9	0.19560517
223	0xbe8aabd0	-0.27084208
224	0xbe3ae957	-0.18253075
225	0xbe0193a6	-0.1265398
226	0x3eb99fe6	0.36254805
227	0xbe5b8398	-0.21436918
228	0xbc2f92d9	-0.010716164
229	0xbe7ca18c	-0.24671
230	0x3e89e28a	0.26930648
231	0xbd4b08e5	-0.04956903
232	0xbe4281be	-0.18994805
233	0xbedfa4b2	-0.4368034
234	0xbe96121b	-0.29310688
235	0xbd5c79a7	-0.053826954
236	0xbdfadfcc	-0.12249717
237	0x3eac718c	0.3368038
238	0x3e1136bb	0.14181034
239	0x3d674b59	0.05646834
240	0x3eef3147	0.46717283
241	0x3eb1de61	0.34739974
242	0xbdaa00bf	-0.083009236
243	0x3eca8bc4	0.39559758
244	0xbe41c57d	-0.18922992
245	0x3eb06f1e	0.34459776
246	0x3ebfda4c	0.37471235
247	0xbef7ec8d	-0.4842266
248	0xbeb746eb	-0.35796294
249	0xbdae4e50	-0.08511031
250	0xbe8b7a9d	-0.27241984
251	0x3e36940e	0.17829916
252	0xbddfecee	-0.109338626
253	0x3e6edf34	0.23327333
254	0xbebe46cc	-0.3716339
255	0xbe52eb3a	-0.20597544

user_tower.network.2.weight f4 [16, 256]
0	0xbd0e3980	-0.034722805
1	0x3d20de68	0.039274603
2	0xbd3d7797	-0.046256628
3	0x3b12fc69	0.002242828
4	0x3d2d6a62	0.042337783
5	0x3d6cd370	0.05781883
6	0x3d177e48	0.036985666
7	0xbca65548	-0.020304337
8	0x3d418fec	0.047256395
9	0xbcf028c0	-0.029316306
10	0x3d520554	0.051274613
11	0xbd2cea3a	-0.042215563
12	0xbdd3ac62	-0.10335614
13	0x3d163079	0.03666732
14	0x3d534162	0.051576026
15	0xbd267328	-0.040637165
16	0xbcbe28ad	-0.023212755
17	0xbd8b9448	-0.06815392
18	0x3d8e3c7c	0.0694513
19	0xbd35a319	-0.044344995
20	0xbc452ba4	-0.0120343305
21	0xbd881e4f	-0.06646406
22	0xbd4d998f	-0.050195273
23	0xbc953ce4	-0.018217511
24	0x3d56a8d2	0.052407093
25	0xbbb52ae0	-0.0055287927
26	0xbc2a3113	-0.010387677
27	0xbd5c5ac8	-0.053797513
28	0xbdc17359	-0.09445829
29	0xbc211094	-0.009830613
30	0xbd084030	-0.03326434
31	0xbcfd8a53	-0.030949747
32	0x3cd8ef7c	0.026481383
33	0xbd150139	-0.03637812
34	0xbba464b6	-0.0050168885
35	0xbc0dc0c1	-0.008651913
36	0xbc7a843d	-0.015290317
37	0xbd1e888c	-0.03870444
38	0xbb4a60e0	-0.0030880496
39	0x3c7baa23	0.015360388
40	0x3cd3b520	0.025843203
41	0x3c1ebca0	0.009688526
42	0xbd055599	-0.032552335
43	0x3d26991b	0.040673357
44	0xbcfe7dc9	-0.031065838
45	0x3d15af11	0.03654391
46	0xbbbb0c8d	-0.0057082833
47	0x3db65a57	0.0890395
48	0x3b9532d0	0.0045531765
49	0xbc802af4	-0.015645482
50	0xbdae253a	-0.08503194
51	0xbd13d625	-0.036092896
52	0xbce3e203	-0.027817732
53	0xbd490ca4	-0.04908432
54	0x3cdeb60c	0.027186416
55	0xbd44019a	-0.04785309
56	0xbdbaafa2	-0.091155306
57	0xbcc1eb24	-0.023671694
58	0x3bc0fbc5	0.0058893883
59	0x3ce44040	0.027862668
60	0x3d57e6c6	0.052710317
61	0xbd123fce	-0.03570538
62	0x3d831872	0.06401147
63	0xbdb9b688	-0.09068018
64	0x3d3eddf0	0.046598375
65	0xbcb13b30	-0.021634668
66	0x3d3bd6b4	0.045859054
67	0x3ba04110	0.0048905686
68	0xbbbfe6a0	-0.00585635
69	0xbd11d936	-0.03560754
70	0xbc947b56	-0.018125217
71	0xbd74d056	-0.059768997
72	0x3c2c4073	0.010513413
73	0xbc8a11ec	-0.016854249
74	0xbddda163	-0.10821798
75	0xbd174508	-0.036931068
76	0x3df3a0b5	0.11895887
77	0x3c5067a4	0.012720022
78	0xbcc63f85	-0.02420021
79	0xbcee43e6	-0.02908511
80	0xbd7bb960	-0.061456084
81	0x3dcd9f45	0.10040144
82	0xbbbb71a0	-0.0057203323
83	0x3caa8955	0.020817438
84	0xbd9bd3d3	-0.07608762
85	0xbcb47764	-0.022029586
86	0xbd231d1c	-0.039822683
87	0x3c12eb28	0.008967198
88	0x3d159358	0.03651747
89	0xbd935109	-0.071931906
90	0xbd752c4a	-0.05985669
91	0xbbedfca0	-0.0072627813
92	0x3cc8b7ec	0.024501763
93	0xbd230945	-0.039803762
94	0x3caa6f08	0.020804897
95	0xbd158919	-0.0365077
96	0x3d55261b	0.052038293
97	0xbc55f806	-0.013059622
98	0xbd6acf56	-0.057326637
99	0x3c105294	0.008808751
100	0xbcdd22c0	-0.02699411
101	0xbd1ea918	-0.03873548
102	0xbd6a00ce	-0.057129674
103	0xbd7958f2	-0.06087584
104	0x3d5ce891	0.05393273
105	0xbc307868	-0.010770895
106	0x39d00caf	0.00039682302
107	0xbd1223f0	-0.035678804
108	0x3d72eb66	0.059306525
109	0xbd0e8f97	-0.034804907
110	0xbd9c3b16	-0.07628457
111	0xbcd9b104	-0.026573665
112	0xbd14b6a6	-0.036307
113	0xbccd4dc0	-0.025061488
114	0x3c337840	0.010953963
115	0x3c3d8ee0	0.011569709
116	0xbcc8f525	-0.024530957
117	0xbcf03138	-0.029320344
118	0xbc4fc572	-0.012681352
119	0xbd094c26	-0.033519886
120	0x3d7b2970	0.061318815
121	0x3bff21c7	0.007786009
122	0xbcd008d8	-0.025394842
123	0xbdc2490f	-0.09486591
124	0x3d72a858	0.059242576
125	0x3c8fc6ee	0.017550912
126	0x3c749857	0.014928899
127	0xbbeba4d9	-0.007191282
128	0xba723380	-0.00092392415
129	0x3d2185bc	0.03943418
130	0xbc58a0e2	-0.013221951
131	0x3d04e813	0.032447886
132	0xbd058a41	-0.032602552
133	0xbd1171ff	-0.035509106
134	0xbd508608	-0.050909072
135	0xbd204a60	-0.03913343
136	0xbd09717d	-0.033555496
137	0xbd377aa8	-0.04479471
138	0xbd01d478	-0.031696767
139	0x3b03e513	0.0020125553
140	0x3c0a1c5b	0.008429612
141	0xbd3f4296	-0.04669436
142	0xbcb88798	-0.022525594
143	0x3c2c81f2	0.010529028
144	0x3cb62d38	0.022238359
145	0xbc9bc7bf	-0.019016145
146	0x3d48f82c	0.0490648
147	0xbc8fafa0	-0.0175398
148	0xbd336ad6	-0.04380306
149	0xbc2c6f00	-0.010524511
150	0x3c1a8db0	0.009433195
151	0xbb91f890	-0.00445468
152	0xbd984191	-0.07434381
153	0x3d5eaa8e	0.054361872
154	0x3d19d936	0.037560664
155	0x3d46a1ad	0.04849403
156	0xbccd38c8	-0.02505149
157	0x3c989498	0.018625543
158	0xbd04537a	-0.032306172
159	0xbd662a5c	-0.05619274
160	0x3cb6e348	0.022325173
161	0x3da597b9	0.080855794
162	0x3b62fdf8	0.003463624
163	0xbd4bd38e	-0.0497623
164	0xbb3523e4	-0.00276398
165	0x3c9d204d	0.019180441
166	0xbd7d8acc	-0.061899945
167	0xbd27810a	-0.040894546
168	0x3b2078a7	0.0024485977
169	0xbd98b4f2	-0.074563876
170	0xbbc170c0	-0.0059033334
171	0xbd2c9f34	-0.042144015
172	0x3d4a8056	0.049438797
173	0xbd595106	-0.053055786
174	0xbd12f6e4	-0.035879984
175	0x3d449aae	0.047999077
176	0x3ce2598c	0.02763059
177	0x3cc94181	0.024567368
178	0xbd71f85a	-0.059074737
179	0x3c89978c	0.016795896
180	0x3cc2a09c	0.023758225
181	0x3cf9f210	0.030510932
182	0x3d69e8af	0.05710667
183	0xbcea9c2a	-0.028638918
184	0x3d9d5ece	0.07684098
185	0xbd539225	-0.051653046
186	0xbd2e6fb6	-0.042587005
187	0xbca5f2ac	-0.020257317
188	0xbb764760	-0.0037579164
189	0xbd110cad	-0.03541248
190	0xbd9e1ae4	-0.07719973
191	0x3cde6230	0.027146429
192	0x3b81a5f0	0.003956549
193	0xbd30034d	-0.042971898
194	0x3d54c46e	0.051945142
195	0x3d7f699e	0.062356584
196	0xbc0bd578	-0.008534782
197	0xbca24a08	-0.019810691
198	0xbc9b395c	-0.01894825
199	0xbd3bf684	-0.045889392
200	0x3d7c6f30	0.061629474
201	0x3c832810	0.016010314
202	0xbd62d645	-0.055380125
203	0xbd49e452	-0.04929001
204	0xbd2dce47	-0.04243305
205	0x3b9ceed7	0.004789214
206	0x3d40e248	0.0470908
207	0xbd4c7b05	-0.049922008
208	0xbd9af1c9	-0.07565648
209	0xbc824db2	-0.015906189
210	0xbd408b7a	-0.047008015
211	0x3d3b85d0	0.04578191
212	0xbd6e60fd	-0.058197964
213	0x3d650172	0.05590958
214	0xbdbb7f23	-0.09155109
215	0xbdab6632	-0.083691016
216	0x3d8263db	0.06366702
217	0xbc67e206	-0.014153009
218	0xbd5f8a1a	-0.054575063
219	0xbd4a57c1	-0.049400095
220	0xbcce4eaa	-0.025183994
221	0xbd8e6acf	-0.06953966
222	0xbc857ca0	-0.016294777
223	0xbd12a4d0	-0.03580171
224	0xbd5d3e68	-0.054014593
225	0xbd77610c	-0.060395285
226	0xbca19c75	-0.019727925
227	0x3cbca8f8	0.02302979
228	0x3d0de39d	0.034640897
229	0x3d890c4a	0.06691797
230	0xbcf7872c	-0.030215822
231	0xbb1117a0	-0.0022139326
232	0x3c6cee18	0.014461063
233	0xbc0e9a28	-0.008703746
234	0xbda7bb3c	-0.08190009
235	0xbd193a42	-0.037409075
236	0xbd9475ee	-0.07249056
237	0x3d95e021	0.0731814
238	0xbd396603	-0.0452633
239	0x3cda83ca	0.02667417
240	0x3d4b2662	0.04959715
241	0xbc43dfa2	-0.011955174
242	0xbd8125d4	-0.06306043
243	0xbcb13a34	-0.021634199
244	0xbcf1b1d5	-0.029503742
245	0x3d26a7ce	0.040687375
246	0xbc5f5727	-0.013631619
247	0x3d558bd2	0.052135296
248	0x3cdecb85	0.027196655
249	0xbdaaa8fb	-0.08333012
250	0x3cb64809	0.022251146
251	0xba8edd40	-0.0010899678
252	0x3b771c20	0.0037705973
253	0xbd33faec	-0.04394047
254	0xbddf436b	-0.10901531
255	0xbd4ad14d	-0.04951601

user_tower.network.2.bias f4 [16]
0	0xbc88b78f	-0.01668909
1	0x3d37f293	0.04490907
2	0xbd251424	-0.04030241
3	0xbce1f9d8	-0.027584955
4	0xbd7ae0a7	-0.0612494
5	0xbc0d13c2	-0.008610668
6	0x3cf78bac	0.030217968
7	0x3c19436c	0.0093544535
8	0xbd75f5ec	-0.060048983
9	0x3d0f20a8	0.034943253
10	0xbd09c33e	-0.033633463
11	0x3c96190f	0.018322496
12	0x3d07467d	0.033026207
13	0x3d770580	0.06030798
14	0x3d4336e5	0.047659773
15	0x3c3e4874	0.011613954

item_tower.network.0.weight f4 [256, 128]
0	0xbdc30a7d	-0.09523485
1	0x3d2e5f5d	0.042571414
2	0x3d8ea23b	0.06964537
3	0xbc6d842c	-0.014496844
4	0xbc95341b	-0.018213322
5	0xbac45b82	-0.0014980885
6	0x3dd647a8	0.10462886
7	0x3db140da	0.086549476
8	0xbe1a651a	-0.1507763
9	0x3d73e7dd	0.059547294
10	0xbdabd44b	-0.08390101
11	0xbd2be178	-0.04196307
12	0x3d3a3099	0.045456503
13	0xbcb73032	-0.022361849
14	0xbd4b4e06	-0.049634956
15	0x3d52d388	0.051471263
16	0x3d49974e	0.04921656
17	0x3d72a65f	0.059240695
18	0x3b28888e	0.0025716159
19	0xbc9bf1d5	-0.019036213
20	0xbc6e0832	-0.014528321
21	0x3c03b53c	0.008038815
22	0xbc20a768	-0.009805538
23	0xbdb29613	-0.08720031
24	0xbdb52b51	-0.088461526
25	0xbdec82b4	-0.11548367
26	0x3c788d37	0.015170387
27	0xbdebe2c2	-0.1151786
28	0xbd5ee5b9	-0.0544183
29	0xbdfc1b04	-0.1230984
30	0x3db1f432	0.08689155
31	0x3c5d2ff0	0.013500199
32	0x3e1a09db	0.15042822
33	0xbd0bcb78	-0.03412959
34	0x3df2858b	0.118418775
35	0x3de19f1c	0.11016676
36	0x3d939728	0.07206565
37	0xbb234701	-0.0024914148
38	0xbc72ea01	-0.014826299
39	0xbdd43fd1	-0.103637345
40	0xbb06720f	-0.0020514762
41	0x3d8c17c1	0.06840468
42	0xbe3ca1bd	-0.18421073
43	0x3ddff0dc	0.10934612
44	0xbc18065c	-0.00927886
45	0x3cb7bc9c	0.022428803
46	0xbda4e526	-0.08051519
47	0x3d5bd622	0.05367101
48	0x3bf5ee85	0.0075052404
49	0x3d7b97d4	0.06142409
50	0xbd7027a2	-0.058631547
51	0xbe064d6f	-0.13115476
52	0x3cff977c	0.031200163
53	0xbdaded63	-0.084925435
54	0x3d1154bc	0.0354812
55	0x3e06d0ac	0.1316554
56	0xba20a600	-0.00061282516
57	0x3e3ebf63	0.18627696
58	0x3ba5f124	0.0050641466
59	0xbcce35c9	-0.025172131
60	0x3cb5ace1	0.022177162
61	0x3db49009	0.08816535
62	0xbd6a61d9	-0.05722222
63	0xbb76ad10	-0.0037639774
64	0x3d8bc693	0.068249844
65	0xbdf2e187	-0.11859422
66	0xbd415357	-0.04719862
67	0xbc78f020	-0.015193969
68	0xbc8e89c0	-0.017399669
69	0x3c5640d5	0.013076981
70	0xbd18a66d	-0.03726809
71	0x3cebc28f	0.028779296
72	0xbdbe5a57	-0.09294575
73	0x3c0f0d59	0.00873121
74	0x3d342dc5	0.04398896
75	0xbe4ed2e5	-0.20197637
76	0x3dd0210b	0.101625524
77	0x3e1699ab	0.14707057
78	0xbe0dbc86	-0.13841447
79	0xbdabbe17	-0.08385866
80	0xbb2e51e7	-0.002659911
81	0xbbb53ffe	-0.00553131
82	0x3d563130	0.052293003
83	0xbcba84ed	-0.022768462
84	0x3d9a729c	0.07541391
85	0x3d876000	0.066101074
86	0x3e192cde	0.14958522
87	0xbd5e097a	-0.054208256
88	0xbc38cfe2	-0.011280032
89	0x3a33350a	0.00068362115
90	0xbd15dcb9	-0.03658745
91	0x3c50a9fe	0.012735842
92	0xbe11501a	-0.14190713
93	0xbd8ad944	-0.067797214
94	0x3d1975e0	0.03746593
95	0xbc84fb92	-0.01623324
96	0xbdd82a1b	-0.10554906
97	0xbdc18da4	-0.09450844
98	0xbc125a18	-0.008932613
99	0x3d9c1ab7	0.07622283
100	0xbdd86c49	-0.10567529
101	0xbe154fb8	-0.14581192
102	0xbe33479f	-0.1750779
103	0x3d995085	0.07486061
104	0x3be44aae	0.0069669103
105	0x3ccaf586	0.024775278
106	0xbc8dc18a	-0.0173042
107	0xbbf498d3	-0.007464507
108	0x3da898d5	0.082322754
109	0x3e232d43	0.15935235
110	0xbb349ffe	-0.0027561183
111	0x3deacb8e	0.11464606
112	0x3cb42023	0.02198798
113	0x3d758244	0.059938684
114	0x3c9c0974	0.019047476
115	0x3e30b5c7	0.17256843
116	0xba7daf7d	-0.0009677334
117	0xbd616daf	-0.055036243
118	0xbd9cce0b	-0.07656487
119	0xbdce3803	-0.10069277
120	0x3d5fa1a7	0.054597523
121	0x3e58982f	0.21151803
122	0xbc7a55f0	-0.015279278
123	0x3c310a3d	0.010805664
124	0xbe39e742	-0.18154624
125	0x3dd5f4e3	0.10447099
126	0x3defac36	0.117027685
127	0xbd92c870	-0.07167137
128	0xbdb40ef9	-0.08791918
129	0xbc241aff	-0.010016202
130	0x3e73f7ad	0.2382495
131	0xbd05a22e	-0.03262537
132	0x3e8f0ffd	0.27941886
133	0x3e804c15	0.25058046
134	0x3d3bd265	0.045854945
135	0x3ea12082	0.31470114
136	0x38f892f8	0.000118529366
137	0xbdaa5a86	-0.08318047
138	0xbd123bbb	-0.035701495
139	0x3dab0ffa	0.08352657
140	0x3ce684d9	0.028139519
141	0x3f175344	0.5911143
142	0xbe4dafbf	-0.20086573
143	0x3cf35830	0.029705137
144	0xbea21624	-0.31657517
145	0x3d3d306d	0.04618876
146	0xbe2b4a76	-0.16727623
147	0xbe5df687	-0.21676074
148	0xbe06ac39	-0.13151635
149	0xbed9b527	-0.4252102
150	0xbdc40c0f	-0.095726125
151	0xbcc13265	-0.0235836
152	0x3e39419e	0.18091437
153	0xbe8fbb61	-0.28072646
154	0x3d8b5b36	0.068045065
155	0x3e2ec400	0.17066956
156	0x3e4957ed	0.19662447
157	0xbcf8edc2	-0.03038681
158	0xbe163414	-0.14668304
159	0xbe390802	-0.18069461
160	0x3d77c4a3	0.06049026
161	0x3e0b9577	0.13631235
162	0x3eb2c044	0.34912312
163	0xbd06258d	-0.032750655
164	0x3ea9d770	0.33172178
165	0x3f0d21d0	0.5512972
166	0xbeadc67d	-0.33940497
167	0xbd6ff264	-0.05858077
168	0x3ef111d1	0.47083905
169	0x3e092e29	0.13396515
170	0x3d40d24f	0.047075566
171	0x3e3a03c7	0.18165503
172	0xbe5313b9	-0.20612992
173	0xbbd88d42	-0.006608636
174	0xbd00fc93	-0.031490874
175	0xbd88cef8	-0.06680101
176	0xbe3d4339	-0.18482675
177	0xbe124630	-0.14284587
178	0xbe7a060d	-0.2441637
179	0xbe2c8c06	-0.1685029
180	0xbe9421e5	-0.2893211
181	0x3e8dcd0d	0.27695504
182	0xbe727eac	-0.23681134
183	0x3f03fe85	0.5156024
184	0x3d02ab9c	0.03190194
185	0xbe818209	-0.2529452
186	0xbee51d2a	-0.44748813
187	0xbcf88cc3	-0.030340558
188	0xbd5e1ed6	-0.054228626
189	0x3d447d30	0.04797095
190	0xbedc38ab	-0.43011984
191	0x3dfee33f	0.124456875
192	0xbdd9edc0	-0.1064105
193	0x3dda4fa6	0.10659723
194	0xbe6707c6	-0.22561559
195	0x3e44b035	0.19207843
196	0x3e30772e	0.17232963
197	0xbe849a7f	-0.2589912
198	0x3eacdef9	0.33763865
199	0x3d0d2198	0.034455866
200	0xbe06c34b	-0.13160436
201	0x3dd6ba48	0.10484749
202	0x3e09c776	0.13454995
203	0x3e033854	0.12814456
204	0xbdec3589	-0.115336485
205	0x3eee2ca7	0.46518442
206	0x3db54467	0.08850937
207	0x3dcefc7a	0.1010675
208	0x3d3b80c2	0.04577709
209	0x3e9aa4cc	0.30203855
210	0x3de01e15	0.10943238
211	0xbdc27fa2	-0.09497
212	0x3ec1098d	0.377026
213	0xba59c2e6	-0.0008306935
214	0x3d0dba83	0.0346017
215	0xbd496787	-0.049170997
216	0x3f018997	0.5060057
217	0xbdca5273	-0.09879007
218	0x3dc9ee52	0.09859909
219	0x3d800107	0.06250196
220	0x3ddffa52	0.10936417
221	0x3e9eb9ae	0.31001037
222	0xbe2c671a	-0.16836205
223	0xbdb09500	-0.086221695
224	0x3e8a2dbe	0.26988024
225	0xbea044d1	-0.31302503
226	0x3cdea33b	0.027177444
227	0x3ea2a05a	0.31762964
228	0x3d7f2dd8	0.06229958
229	0x3df2721c	0.11838171
230	0xbe5354ac	-0.20637769
231	0xbdf2930d	-0.11844454
232	0xbdd759df	-0.105151884
233	0x3d1fd2fb	0.039019566
234	0xbe6e014f	-0.23242687
235	0xbeaa3eb3	-0.3325096
236	0x3defafec	0.11703476
237	0x3e89a29c	0.26881874
238	0x3e6c2375	0.23060401
239	0x3ebe332f	0.37148425
240	0x3da78428	0.08179504
241	0x3dd2c229	0.10290939
242	0x3e25791c	0.16159481
243	0x3e948839	0.2901018
244	0x3e0b106f	0.13580488
245	0xbe866453	-0.26248416
246	0x3d26d22e	0.040727787
247	0x3d015361	0.031573657
248	0xbe252546	-0.161275
249	0xbdce1bcb	-0.10063895
250	0xbd98506f	-0.074372165
251	0xbedf0a3e	-0.43562502
252	0x3e208b65	0.15678175
253	0x3e520b00	0.20512009
254	0x3ddf7903	0.10911753
255	0x3e42b4ef	0.19014333

item_tower.network.0.bias f4 [256]
0	0xbd9d7e6d	-0.076901294
1	0xbce05cb2	-0.02738795
2	0xbdaf3e06	-0.08556752
3	0xbc0fb5ff	-0.008771419
4	0xbdb83fa2	-0.08996512
5	0x3d45b43e	0.048267595
6	0xbe183b28	-0.14866316
7	0xbe37b151	-0.17938735
8	0xbe5b7e8b	-0.21434991
9	0xbdb13565	-0.08652762
10	0xbbb6ce03	-0.0055787577
11	0xbc2f2a55	-0.010691245
12	0xbd913945	-0.070910014
13	0xbe8d1d14	-0.27561247
14	0xbe3ad3a5	-0.18244798
15	0x3d8f3517	0.06992548
16	0xbd7f0105	-0.06225683
17	0xbe502295	-0.20325692
18	0xbdd86452	-0.105660096
19	0xbdc2bd7b	-0.09508797
20	0xbe67f73f	-0.2265291
21	0xbd15fa3e	-0.036615603
22	0xbc4f612b	-0.012657444
23	0xbe120c0a	-0.14262405
24	0xbd84d528	-0.06485969
25	0x3d968023	0.07348659
26	0xbda81224	-0.08206585
27	0xbe3200c6	-0.17383108
28	0xbe49de9c	-0.19713825
29	0xbe7c4477	-0.24635492
30	0xbe6cfc77	-0.23143183
31	0xbdf163cd	-0.117866136
32	0xbda00bcf	-0.07814752
33	0xbe30e124	-0.17273384
34	0xbdfe41e8	-0.12414914
35	0xbe609158	-0.21930444
36	0xbe3c7342	-0.18403342
37	0xbdb173e6	-0.08664684
38	0xbced91b9	-0.02900015
39	0xbe491ffa	-0.19641104
40	0x3dcd8154	0.10034433
41	0xbe36d3d1	-0.17854239
42	0xbe3ea042	-0.18615821
43	0xbe58b67e	-0.21163365
44	0xbe5498fe	-0.20761487
45	0xbe8ec4a6	-0.27884406
46	0xbddf1f96	-0.108946964
47	0xbdd43da0	-0.103633165
48	0xbdc287d9	-0.09498567
49	0xbe7e2f77	-0.24822794
50	0xbdde4503	-0.10853007
51	0xbe1e3036	-0.15448079
52	0xbe5ba1aa	-0.21448389
53	0xbdb183d2	-0.08667721
54	0xbd9cea01	-0.0766182
55	0xbe673884	-0.22580153
56	0xbdac29a2	-0.08406378
57	0x3c84468a	0.016146917
58	0xbd267f43	-0.04064871
59	0xbe5cc2df	-0.21558712
60	0xbc08f164	-0.008358333
61	0xbe66a868	-0.2252518
62	0xbdabcf8c	-0.08389196
63	0xbe6e0967	-0.23245774
64	0xbda62f1a	-0.08114453
65	0x3c706ccf	0.0146743795
66	0x3d3ffcec	0.046872064
67	0xbe7807bf	-0.24221705
68	0xbdbffe6a	-0.093746975
69	0xbe1bc509	-0.15211882
70	0xbe927b96	-0.28609914
71	0xbe31a28a	-0.1734716
72	0xbe5af2a8	-0.21381629
73	0xbd67bf4b	-0.056578916
74	0xbe1cee22	-0.15325215
75	0xbe1d791a	-0.15378228
76	0xbd762b67	-0.060099985
77	0x3d7a57bc	0.061118826
78	0xbe0881a6	-0.13330707
79	0xbe0e04c7	-0.1386901
80	0xbe3adb1a	-0.18247643
81	0xbe00887c	-0.12552065
82	0xbd93c08c	-0.0721446
83	0xbdb829fc	-0.08992383
84	0xbe1331e3	-0.14374499
85	0xbdd132c9	-0.102147646
86	0xbe3c35c1	-0.1837988
87	0xbe0af793	-0.13571005
88	0xbe55bb55	-0.20872243
89	0xbdfa0036	-0.122070715
90	0xbe7aba17	-0.2448505
91	0xbe2e5f40	-0.17028522
92	0xbdcb9ef8	-0.0994243
93	0xbe040b83	-0.12895016
94	0xbe88b90a	-0.26703674
95	0xbddcbb5d	-0.10777924
96	0xbe542b94	-0.20719749
97	0x3ae0065d	0.001709174
98	0xbe61a883	-0.22036938
99	0xbdace759	-0.084425636
100	0xbe522259	-0.20520915
101	0xbd642952	-0.05570347
102	0xbb3d6a26	-0.002890238
103	0xbe2288a3	-0.15872435
104	0xbe33f816	-0.17575106
105	0xbdd0a61d	-0.101879336
106	0xbe0bc952	-0.13651016
107	0xbe131fd8	-0.14367616
108	0xbe5188b8	-0.2046231
109	0xbdfbde34	-0.12298241
110	0xbdcd7ac7	-0.100331835
111	0xbd6a286d	-0.05716746
112	0xbe44cb05	-0.19218071
113	0xbe0ceb4f	-0.13761638
114	0xbd95fdc5	-0.07323793
115	0xbe0e737c	-0.13911241
116	0xbdcc723e	-0.099827275
117	0xbe99f6c8	-0.30071092
118	0xbd83c27b	-0.064335786
119	0xbcd228b9	-0.025654184
120	0xbe437bd4	-0.19090205
121	0xbe7953ac	-0.24348325
122	0xbea510f5	-0.322395
123	0xbe92210f	-0.28540847
124	0xbe1406df	-0.14455746
125	0xbe35a956	-0.17740378
126	0xbe02a2e5	-0.12757452
127	0xbe2aee5c	-0.1669249
128	0xbe1cf583	-0.1532803
129	0xbe695088	-0.22784626
130	0xbd925ba6	-0.07146387
131	0xbdfba69c	-0.122876376
132	0xbe20385d	-0.15646501
133	0xbc80ff65	-0.015746782
134	0x3d2e5361	0.042559985
135	0xbd88914b	-0.066683374
136	0xbd590c30	-0.05299014
137	0xbd96e80d	-0.07368479
138	0xbe0f33ba	-0.13984576
139	0xbd638aba	-0.05555222
140	0xbdf8f6f2	-0.12156476
141	0xbd8302a2	-0.063969865
142	0xbe12ece5	-0.1434818
143	0xbdf56f76	-0.1198415
144	0xbdd42f12	-0.103605404
145	0xbdfced81	-0.12349988
146	0xbe8dc2fa	-0.27687818
147	0xbcba50e4	-0.02274365
148	0x3d1e7ec8	0.038695127
149	0xbe38f806	-0.18063363
150	0xbe457976	-0.19284615
151	0xbdd9bdf4	-0.10631934
152	0xbdeb1ae2	-0.11479737
153	0xbc9ec8c3	-0.01938284
154	0xbe6ebc47	-0.2331401
155	0xbd9aaa9e	-0.07552074
156	0xbe166bba	-0.14689532
157	0xbdd8c2bf	-0.1058402
158	0xbd72e436	-0.05929967
159	0xbdeb261e	-0.1148188
160	0xbdf21780	-0.118208885
161	0xbe05816c	-0.13037652
162	0xbe33a4d1	-0.17543341
163	0xbe00707a	-0.12542906
164	0xbd89ebfe	-0.06734465
165	0xbdcedaf0	-0.10100353
166	0xbd6de991	-0.058084074
167	0xbdeb9057	-0.1150214
168	0xbdfb4e45	-0.12270788
169	0xbe280cd9	-0.16411151
170	0xbe6c18e5	-0.23056372
171	0xbe0e30ec	-0.1388585
172	0xbdb6bb14	-0.08922401
173	0xbd9a2bff	-0.07527923
174	0xbdb2f01b	-0.08737203
175	0xbdbc3d6c	-0.09191403
176	0xbe0860ee	-0.13318226
177	0xbdbc67f2	-0.091995135
178	0x3cd6164e	0.026133683
179	0xbd1255f8	-0.035726517
180	0xbe246df2	-0.16057566
181	0xbe20f1f4	-0.15717298
182	0xbe93c5cf	-0.28861853
183	0xbe454481	-0.19264413
184	0xbe1a069c	-0.15041584
185	0xbe886609	-0.26640347
186	0xbdb17533	-0.08664932
187	0xbe4029eb	-0.1876599
188	0xbe8a9ff0	-0.27075148
189	0xbe1334de	-0.14375636
190	0xbe08fc10	-0.13377404
191	0xbe143c6b	-0.14476173
192	0xbd268e50	-0.040663064
193	0xbe59af55	-0.2125829
194	0xbe147002	-0.14495853
195	0xbd7b97ad	-0.061423946
196	0xbe45b9bc	-0.19309133
197	0xbcb7b579	-0.0224254
198	0xbe4be992	-0.19913319
199	0xbe962151	-0.29322293
200	0xbdce88c1	-0.100846775
201	0xbe905d4d	-0.28196183
202	0xbde77a0a	-0.11302574
203	0xbd82be30	-0.06383932
204	0xbe155e84	-0.14586836
205	0xbde136b5	-0.10996763
206	0xbd93e647	-0.07221656
207	0xbe0a6349	-0.13514437
208	0x3c8c8e0a	0.017157573
209	0xbe146101	-0.14490129
210	0xbdfa6168	-0.1222561
211	0xbe3dbbb2	-0.18528631
212	0xbdcd97e1	-0.10038734
213	0xbdc326f0	-0.09528911
214	0xbdd07460	-0.10178447
215	0xbdc8b889	-0.09800822
216	0xbc6efb37	-0.0145862615
217	0xbd459a17	-0.048242655
218	0xbe817dd4	-0.25291312
219	0xbd1fde29	-0.039030228
220	0x3c2a16bf	0.0103814
221	0xbd8acec1	-0.067777164
222	0xbe6bfd11	-0.23045756
223	0xbe0e6e0c	-0.13909167
224	0xbcc95497	-0.024576468
225	0x3b9e4aa5	0.0048306757
226	0xbe81b193	-0.2533079
227	0xbcb033df	-0.021509109
228	0xbe128e0b	-0.14311998
229	0xbe694a96	-0.22782359
230	0xbe1d21c2	-0.15344909
231	0xbde1a17e	-0.1101713
232	0xbd633131	-0.055466834
233	0xbdb7d5c7	-0.08976322
234	0xbe3ad170	-0.18243957
235	0xbd852350	-0.06500876
236	0xbe161682	-0.14657024
237	0xbe26d95a	-0.1629385
238	0xbd325bec	-0.043544695
239	0xbe043854	-0.12912112
240	0xbddc1e4b	-0.107479654
241	0xbe5e8f05	-0.21734245
242	0xbd3585e7	-0.044317152
243	0xbdf883cc	-0.12134513
244	0xbe0c6081	-0.13708688
245	0xbda5536c	-0.08072552
246	0xbe0b6431	-0.13612439
247	0xbd08b4f9	-0.033375714
248	0xbe01dc68	-0.12681735
249	0xbd98b365	-0.07456092
250	0xbe182401	-0.14857484
251	0xbe19ea08	-0.15030682
252	0xbe0d2fa6	-0.13787708
253	0xbe51920e	-0.20465872
254	0xbe41ee04	-0.18938452
255	0xbdf6b6a4	-0.12046555
