models/binary_label.pt (torch, 732821 bytes, 10 tensors)

user_id_embedder.weight f4 [5427, 16]
00000000: 0000 0000 0000 0000 0000 0000 0000 0000
00000010: 0000 0000 0000 0000 0000 0000 0000 0000
00000020: 0000 0000 0000 0000 0000 0000 0000 0000
00000030: 0000 0000 0000 0000 0000 0000 0000 0000
00000040: 97e1 fabe 6d79 973e 4640 d23f 527f 1dbe
00000050: 4d7b 6ebf 6b6a 843f 24ff 1b3f 0f72 fdbe
00000060: f498 b3bf f0ad 91bf 1e33 053e 0f57 063f
00000070: 7252 81be 0135 303f ebc6 2a40 a1f9 9d3f
00000080: 3de7 de3d 1563 413f 208c a7bf 3dbd 2440
00000090: 604a a9bf 3058 f6be 27cb eb3e df1c f53e
000000a0: 8f5e 5dbe d6f7 a9bf 909a 8bbf e5dd 0640
000000b0: 8908 90bf d23a 57bf 0dee 17bf 58e8 5e3f
000000c0: 5353 53bf 540d c93e 0d9e f5bf a2a5 213f
000000d0: 0088 f73d 580f ac3f 660b a93f 64fa 0ac0
000000e0: 53f2 e5be f2dc 9cbf ea91 883f b822 0140
000000f0: 6a93 f33e 20ec a03e 5b5e a43f 80ca 283f
00000100: f59e e9bd 49f5 863f 5335 8ebc 01c6 1d3e
00000110: ae68 503e f6e4 ebbe 9aa4 06c0 415a 51bf
00000120: 5583 1e3e 1d3d c8be 075a 003f 6a4d 75be
00000130: 5b7d 953e 696f a9bf 1baa c0bf 56b6 20bf
00000140: e9ca bd3f 2beb 87bf aea3 61bd 8ff3 46bf
00000150: d630 8cbf 0059 50bf 11bb 8fbe a64f 1bbf
00000160: 99ee dabe 4804 96bf c9a3 0240 b570 3e3f
00000170: 919a adbc 1784 1cbf cdf8 07bf f735 77be
00000180: 3ba3 333e f36d ed3d e45c 1ebe a18e b1bf
00000190: cac6 58bd df7d 373e ef9c 8fbe 1105 983f
000001a0: b360 b1bd 57f0 483f b51e ecbe d7db c43f
000001b0: 4b7a 373f 7731 5f3b 4b33 99be 3bba acbd
000001c0: 40d5 f63e db3c 9a3f 0fd4 bdbf 821d 913e
000001d0: 2df6 66be cd1f ddbd 978b 69bf ca4b 00be
000001e0: c9bb 4abf 240e 8c3f 37c4 4c3f bece e03e
000001f0: 1925 433f 2264 a83f 23e4 2d3f 5cb6 9e3f
00000200: 56b9 d5be 119a 0cc0 ded9 0abe b1b3 563c
00000210: 58c6 96bf 7688 b23f beb9 12bf fb88 5cbf
00000220: 97e7 603f c606 223f 2a5d 4bbf 9dca e73f
00000230: 46c6 983f 4659 42be d366 ae3f ca79 6e3f
00000240: 0d9a 1e3e 8dea abbe ce89 193f 804a 063f
00000250: 9555 83bd 9d9f 5a3d 7a84 8ebf d371 28be
00000260: 22e6 5abf 06bf 003f dbd8 6ebf 7386 b13f
00000270: 9858 60bf b955 263f a941 493f c91d f63f
00000280: 0dbe afbe e21a dc3e 561c bebf 5833 52bf
00000290: 2b99 29bf 6cb0 17bf d28d df3e e098 36bf
000002a0: 5689 0ebf 2dbf 34be 082d c33e c4ce c8be
000002b0: cdfa 893f 9a06 073f 8ef5 803f 7c8f 91be
000002c0: 57c7 37be bfd7 25bf e54e 92bf a9d0 a7be
000002d0: d0fe 19bf 2cf0 fd3e 9220 213e 015b 0dbe
000002e0: d19f e03d 1ce1 41bf 0686 523f d1aa b3bf
000002f0: 6eac 2f3f febf 993e 03d3 3bbc 5bfd ca3f
00000300: 73a6 2abf 515a ee3e 9de3 cabf 006e 9a3e
00000310: c3cd 41bf 1416 b03e 8096 7c3c 124c 4dbf
00000320: 468f 573e 06eb 983f cb50 ed3e 9a76 13be
00000330: 9076 05c0 6511 853d c615 04bf 26f5 683e
00000340: 82ee cebe d951 20bf 25a1 4cbf b84a cfbb
00000350: 10e3 6ebf c0ee 9b3d f86a 3f3f ea2a 9dbd
00000360: 7599 c7bd 8271 09bf 8e07 2a40 9581 f2bf
00000370: 36cf 28be b2fa 9dbf 6306 413f db16 86bf
00000380: e326 5f3f f687 51bf 8b79 9e3d 8756 913c
00000390: 4843 58bf 42da 5a3c d10c 203f 6ccb 4ebf
000003a0: f3f4 b73f 76f8 0b3f d1ad 873f 3a43 283f
000003b0: 0f94 b83e 018d a73f aa93 88bf 146e 8a3e
000003c0: 2a8f ab3f 072e 1cbf adc0 81bf c52d fdbd
000003d0: 20f4 24be d5f9 9bbf 33dc 8e3f d516 473f
000003e0: 3d75 533f 8157 41be eb9e 73be 67d4 223f
000003f0: b243 f0be 21ef 4c3e 97bc 2bbf 22bd 273f
0.0 0.0 0.0 0.0 0.0 0.0 0.0 0.0
0.0 0.0 0.0 0.0 0.0 0.0 0.0 0.0
-0.49000236 0.29584828 1.6425865 -0.153806 -0.9315689 1.0344976 0.6093619 -0.49501082
-1.4031053 -1.1381207 0.13007781 0.5247659 -0.25258213 0.6883088 2.668391 1.2341806
0.10883949 0.7554181 -1.3089638 2.5740502 -1.3225822 -0.48114157 0.4605343 0.4787359
-0.21618102 -1.3278759 -1.0906544 2.1072934 -1.1252605 -0.8407413 -0.5934761 0.8707328
-0.8254902 0.3926798 -1.9188858 0.6314336 0.12086487 1.3442183 1.3206604 -2.1715326
-0.4491144 -1.2254927 1.066953 2.017744 0.47573406 0.3143015 1.2841295 0.6593399
-0.11407272 1.0543605 -0.017359411 0.15407564 0.20352432 -0.4607312 -2.1037965 -0.8177834
0.15479787 -0.39109126 0.5013737 -0.23955312 0.291972 -1.3237125 -1.5051912 -0.6277822
1.4827548 -1.0618643 -0.055087738 -0.7771539 -1.0952404 -0.81385803 -0.28072408 -0.6066841
-0.4276016 -1.1720057 2.0412467 0.7439073 -0.021191867 -0.61139053 -0.53114015 -0.2414168
0.17542736 0.11593237 -0.15465122 -1.3871652 -0.052923955 0.1791911 -0.28049418 1.1876546
-0.08661022 0.7849173 -0.46117178 1.537959 0.7167098 0.0034056583 -0.29921946 -0.08433958
0.48209572 1.2049822 -1.483034 0.28342825 -0.22554846 -0.10797081 -0.9122862 -0.12528911
-0.7919279 1.0941815 0.799869 0.43907732 0.7622848 1.3155558 0.67926234 1.2399402
-0.41742963 -2.1969035 -0.13559672 0.013104365 -1.177928 1.3947895 -0.5731467 -0.86146516
0.8785338 0.63291585 -0.7943903 1.8108708 1.1935508 -0.18979368 1.362513 0.93154585
0.15488453 -0.33577386 0.599759 0.5245743 -0.06412808 0.053374875 -1.1134179 -0.1644967
-0.85507405 0.5029148 -0.93299645 1.3869156 -0.87635183 0.6497455 0.78615814 1.922784
-0.34324685 0.4298926 -1.4852397 -0.82109594 -0.6624934 -0.59253573 0.43662888 -0.7132702
-0.5567831 -0.17651053 0.38120294 -0.3922025 1.0779663 0.5274445 1.0074937 -0.28429782
-0.17947136 -0.6478233 -1.1430327 -0.32776383 -0.6015444 0.495973 0.15735081 -0.13804246
0.109679826 -0.75734115 0.82235754 -1.4036504 0.6862248 0.3002929 -0.011463883 1.5858568
-0.6666023 0.4655328 -1.5850712 0.30162048 -0.7570459 0.34391844 0.015416741 -0.801942
0.21050748 1.1946723 0.46350703 -0.14400712 -2.0853615 0.06497458 -0.51595724 0.22749767
-0.40416342 -0.6262489 -0.7993339 -0.006326046 -0.9331522 0.07613897 0.74772596 -0.07674201
-0.097460665 -0.53688824 2.656711 -1.8945795 -0.16485295 -1.2342131 0.7540037 -1.0475725
0.8716871 -0.81848085 0.07738026 0.017741455 -0.84477663 0.013357701 0.62519556 -0.8077915
1.4371628 0.54675996 1.059992 0.6572758 0.3605046 1.3089906 -1.0670063 0.27037108
1.3403065 -0.6100773 -1.0136925 -0.123622455 -0.16108751 -1.2185618 1.116095 0.77769214
0.82600766 -0.18881036 -0.23791091 0.6360535 -0.46926647 0.20013095 -0.6708464 0.6552297

song_id_embedder.weight f4 [3272, 16]
00000000: 0000 0000 0000 0000 0000 0000 0000 0000
00000010: 0000 0000 0000 0000 0000 0000 0000 0000
00000020: 0000 0000 0000 0000 0000 0000 0000 0000
00000030: 0000 0000 0000 0000 0000 0000 0000 0000
00000040: e562 c2be 1efa 373e 5156 45bf 4371 bc3c
00000050: fd48 bdbe 3aec 0bbe ce15 0abe 3de5 11be
00000060: 7825 6c3d dbc1 ea3d 5ce6 993c a266 793e
00000070: f6a9 fdbd 2b9b a3bd 324d 953e b713 cb3c
00000080: dd76 cb3e cc24 e2bd 1cda d6be 6b8d b2bd
00000090: 07d4 4bbe 20d2 893e c5aa 9bbe 19e1 f93d
000000a0: e3df e8be 28b6 7b3d 61c2 ebbd eccd b33e
000000b0: 8757 c3bd c48d c03e 258a cbbd 72f4 06bf
000000c0: 4970 2a3d 21ff febd fec7 36be ca5c 833e
000000d0: a7f3 9cbd ab63 d63d c90f 883e 512b c63d
000000e0: d8ff a1bd 7492 4dbd 1a97 2fbe 4568 6e3e
000000f0: 5395 29be 853e 28be 8068 6fbc d68d eb3e
00000100: f709 3d3d 009a 02bb 3de7 b93e 6ad2 ce3b
00000110: e113 87be 31bd 313e e774 413e a18c 843e
00000120: b1c4 033d 8ea3 263d 38fd 943e a669 76be
00000130: a376 a53e 3363 ebbd 17c1 1e3e ca95 5d3d
00000140: f189 ad3c cb6e 8b3e 23bd 5dbd 95ac 0c3e
00000150: f4b4 5fbe eb0f 053e ed81 2bbe cc46 803e
00000160: 6588 18bd 8c8b 5abe 36cf edbc 78b1 f4bd
00000170: ffda 6f3e 4fef aa3d 9f25 f23d eb50 993e
00000180: 6b4b 8fbc bb8e 16bd 747d c0be 9d95 50be
00000190: ad87 b63d d052 513e 766d 013d 2763 b5bd
000001a0: 7941 bfbd 5b13 0abe 905d 673e ddaa bc3b
000001b0: 115e f33d 8342 fd3c 604a 3e3e e4ba d23e
000001c0: e547 b7bd a5ee 713d 0bff d4bd 42ed 593d
000001d0: bf40 853d 612e 9b3c 26bb 87ba 6590 15bd
000001e0: 3a15 47be 4d61 903d 76e3 b8bd 7a03 ae3e
000001f0: d605 573e 361a 20be a3b7 0b3e 8625 2a3e
00000200: 735c df3d 7feb 463e dd15 153e d5e6 17bc
00000210: 8d90 a53e 6344 093f 4c8b fc3e 6f19 f73e
00000220: 28b6 a53e f96f 4f3e f8e4 5e3e 4ea5 a0bd
00000230: ec35 b5bd 5737 6d3d 90db e1be 0af2 803e
00000240: 9d86 f9be bf00 023e 9d0b 623e 6dee 91be
00000250: 0842 94be 5296 20be 4869 2a3e 2367 61be
00000260: 73ed fc3e c426 c23c 74de 0c3e f0be 2abf
00000270: 6c3e ecbe 7b4c 26be e6dd 05bd d81c 1cbe
00000280: d3b7 dd3e 545a 553e 79e2 3dbe 1368 c53e
00000290: b577 583e 2eb1 653f fd02 70be 47fa 7d3e
000002a0: db5d 87be 3f84 82be ab16 f8bd 581f d9bd
000002b0: bfdc 963d 5e7b 9abe 0023 24bc a75c d33b
000002c0: 058f 07bf 8231 69be 8da6 1e3e 809e 033e
000002d0: 599b 8cbe dec4 efbc f482 eebe 01ee 64be
000002e0: e955 743e 0f8b 813d a008 01bf a54c 5cbf
000002f0: bbb2 ddbe afaf 58be 414f 2c3f 97c7 6c3e
00000300: 4df5 833e abc7 2c3e d24c e33e cca7 cdbe
00000310: ba2a 943e 42e3 9dbd 177f ecbc 704f 9f3e
00000320: ba31 ba3d 9e0a 82bd 2e88 32bf b2bb 09bf
00000330: 42ae 24be 455e af3d d1c7 c63e eb50 863e
00000340: 6878 99bd 0d98 e7bd 2ba0 9bbb 5d88 a7bd
00000350: 2793 05be 4de7 bfbd dd9b 05be bf7a f8bd
00000360: 79d3 1cbe 92d3 05be af47 1a3e 6a1f 6cbd
00000370: 0755 573e 3b12 2b3e 1e3b 3fbd b40f 8d3d
00000380: e0d8 dfbd e585 8d3d 1ba5 24be e1c2 0bbe
00000390: a3b8 843b 3cbb 7f3d 5c53 debc 4d5e 1ebe
000003a0: 2f92 21be e1d4 28be d2a9 38be f698 a3bc
000003b0: 8171 0f3d b437 b2bd 2d39 163d cc14 56bd
000003c0: 3183 fabd 2e93 9c3d 8f03 c0bd ede7 b4bd
000003d0: 14c8 8cbd e732 9cbd 159f 49be 1117 dfbd
000003e0: ca5c 0dbd f362 44be 1d9d 7fbd 4dbf 2fbd
000003f0: 9151 113d 25ae dfbd 75e8 85bc 0979 803d
0.0 0.0 0.0 0.0 0.0 0.0 0.0 0.0
0.0 0.0 0.0 0.0 0.0 0.0 0.0 0.0
-0.37966076 0.17966506 -0.77084833 0.023003226 -0.36969748 -0.13664332 -0.1348488 -0.14247604
0.05765292 0.11462756 0.018786602 0.24355558 -0.12385933 -0.0798858 0.29160458 0.024789674
0.39739123 -0.11042175 -0.4196328 -0.087183796 -0.19905101 0.26918125 -0.30403724 0.12201137
-0.45483312 0.061453015 -0.11511684 0.35118043 -0.09538179 0.3760816 -0.09938458 -0.52716744
0.04161099 -0.12451006 -0.17849728 0.2565673 -0.076636605 0.10468229 0.26574543 0.09676231
-0.079101264 -0.050188497 -0.17147484 0.23281963 -0.16560869 -0.164301 -0.014612317 0.4600665
0.04615208 -0.0019928217 0.36309233 0.0063117044 -0.26382354 0.17357327 0.18892251 0.2588854
0.03217 0.04068332 0.2909944 -0.24063739 0.32317075 -0.1149353 0.15503345 0.054097928
0.02118394 0.27232966 -0.054135453 0.1373771 -0.21846372 0.12994353 -0.16748782 0.25054014
-0.03723945 -0.21342295 -0.02902947 -0.11947912 0.23423384 0.08346426 0.11823582 0.29944548
-0.017492017 -0.036757212 -0.37595713 -0.20369573 0.08912597 0.20441747 0.03159853 -0.088568024
-0.0933866 -0.13483946 0.22594285 0.005757673 0.11883176 0.030915504 0.1858306 0.4115821
-0.0894926 0.05906548 -0.10400208 0.053204782 0.0650649 0.018943014 -0.0010355457 -0.03651466
-0.19441691 0.07049809 -0.0902776 0.33987027 0.2099832 -0.15634999 0.1364427 0.16615877
0.10906305 0.19425772 0.14559121 -0.009271343 0.32336846 0.53619975 0.49325025 0.48261592
0.32365537 0.20257558 0.21767032 -0.07844029 -0.088481754 0.057914104 -0.44112825 0.2518466
-0.48735514 0.12695597 0.22074743 -0.28502217 -0.28956628 -0.15682343 0.16641724 -0.22012
0.4939991 0.023700126 0.13756734 -0.666976 -0.46141374 -0.16240112 -0.032682322 -0.15245378
0.4330431 0.20835239 -0.18543424 0.38555965 0.21139415 0.8972348 -0.2343864 0.24802504
-0.26438794 -0.2549152 -0.121136986 -0.106016815 0.07366323 -0.30172247 -0.01001811 0.006450254
-0.52952605 -0.22772792 0.15493222 0.12853432 -0.2746227 -0.029268678 -0.46584284 -0.22356416
0.23860897 0.063253514 -0.50403786 -0.8605445 -0.43300423 -0.21160768 0.6730843 0.23123012
0.25773087 0.16873042 0.44394547 -0.4016708 0.28938848 -0.077093616 -0.028869195 0.31115294
0.09091516 -0.06349681 -0.69739044 -0.53802025 -0.16082099 0.08562902 0.38824323 0.2623361
-0.07493669 -0.11308298 -0.004749318 -0.08180306 -0.13044415 -0.09370289 -0.13047738 -0.12132787
-0.15315045 -0.13068989 0.15066408 -0.057647146 0.21028529 0.16706173 -0.046687238 0.06887761
-0.109300375 0.06910304 -0.16078608 -0.13648559 0.0040503307 0.06243442 -0.027139358 -0.1546566
-0.15778421 -0.16487457 -0.18033531 -0.019970398 0.035020355 -0.08702031 0.03667562 -0.052265927
-0.12232054 0.0764526 -0.09375679 -0.08833299 -0.068740994 -0.07626896 -0.19689591 -0.108930714
-0.03451232 -0.19178371 -0.062405694 -0.042907048 0.03547818 -0.10921887 -0.016346196 0.062730856

user_tower.network.0.weight f4 [256, 5]
00000000: 0b32 543c 93a9 ce3c abb7 89bc c075 49bd
00000010: efee 703d a553 41bf d49d 573f eb62 4b3e
00000020: 7674 5abd 074f 2140 3cca 5dbf 8be0 893e
00000030: 6a9b 853e 3de4 b73c 6bf5 2a40 4dad 12bf
00000040: 7876 f9be 700c 913e b5ae bbbe 32e0 8c3f
00000050: 9c2d 063e 2cb4 31be 69c9 a7bd 7104 bbbe
00000060: 3dbb cfbf e0e5 96be 509f 853d 69b9 1fbe
00000070: 9b6d 633e e117 bcbd 9da3 84bd d9bb 85be
00000080: f438 41bd 3d10 a83d bb6e aebe 79c4 e03e
00000090: 49ff 5bbf aa6c b03d 59b4 51bd 33dc 2fc0
000000a0: 99e7 24bc 02dd a9be b11a c03c 35e5 ddbe
000000b0: f2be c43d 7db0 88be bd84 48be 157a 6d3d
000000c0: dfd5 04bf 673f f4be 521c 183f 4600 45bf
000000d0: 669b 0ebd e8bf 763e 11c0 34c0 e74d 9a3e
000000e0: 67cb 8ebe 58d6 aebd 0941 cebe ab27 e6bf
000000f0: 66e0 c7be 7b4e 5a3e 99af 08be e84a c6bd
00000100: 7e80 dbbe a79c 6dbe 9834 143c f4d3 363d
00000110: c6cc 0dbf ba4b 023f 5cba 09bf 6aa5 2e3f
00000120: 2a6a 343e 4581 95be ecd6 3240 2291 30bf
00000130: eab2 943e b293 4b3e ffb2 85be 18da 0840
00000140: b651 353f 6f0e 4ebe e135 b9bd 67ac 123d
00000150: c14a 59c0 9f20 59bf c2bf 733c 511e b13e
00000160: dd6f 97be 8bba 1740 d86f ea3e 37df eabe
00000170: 0f6c 943c 7f28 2abe 2bc4 f5bf 392e 9dbe
00000180: ff88 a6be fd5a 5bbe 2380 2d3d 4a6d 03be
00000190: 275d ed3e 53e9 763e e083 2dbe 24ad 0abe
000001a0: 7b9a e2bf 100d 433e 146e 61bf 905e d03d
000001b0: 556c 9d3d c8c5 c5bf c4fe 59be 1d9c df3e
000001c0: b0e3 74be ff2c 2d3e fd6e 35be c812 2ebf
000001d0: df1f 603f eca7 8b3e 2a7a f8be bd6e 0040
000001e0: 6281 57bf c51d 36be 2f53 963e 8e34 f83d
000001f0: 30c5 d73f 6f1f 2a3f 6537 52be 71af e6bd
00000200: 4c28 afbd 41ca 49c0 87e0 5fbe e3e5 033e
00000210: 273b e9bd 7047 e83d 7923 8a3e 197e 1ebf
00000220: c648 513e a87d 673d 9ad4 8d3e 5735 aa3f
00000230: 1eca d03e e018 ffbe 2084 d0bc 43f4 fabe
00000240: 0fd7 1ec0 3120 45bf c889 0bbe db8d c03d
00000250: 8242 ef3d a62c 923f eee7 a7bd 00a9 10bf
00000260: fd3d b83c 8d9e 9dbe 9c6e 4bbe 5653 45bf
00000270: a930 8cbe d533 ad3e 90e3 73bd 368b 243f
00000280: d969 d6be 7ed3 5e3f 1667 63bd b097 c13e
00000290: 416d 1440 2a9e dfbe 604a 893e f728 03bd
000002a0: 2002 28be 8fcc af3d d159 35be e23c 8c3d
000002b0: cf77 dbbe dee8 e23e 5bd1 a93e 8f30 43be
000002c0: 99b9 843e 6226 51be 6acf 51be cbc3 55bd
000002d0: c390 5f3f a579 33bf 3e8e f4bd 40b9 ca3e
000002e0: eca9 50c0 3efb 3dbf cc68 ba3e f5c4 9c3e
000002f0: d089 b5be 2328 3140 1a2d b2bc 69d2 aabe
00000300: 1658 a4be 186c ca3d 427c 123e e6b3 613f
00000310: 9540 e1bd 2591 9abd 7141 593e 98bd 59c0
00000320: 8920 e5bc 90f0 60be 8705 143c ff12 5fbe
00000330: e720 0bbe d161 6abe 433d a83d e969 22be
00000340: a719 163e 1fcb 753e a19b a63e e2dc 22be
00000350: a22d d5be 4010 963e ce6b 9cbe da52 cf3e
00000360: 434c 91be 7537 9dbe 7ae1 e4be 3deb 0b3e
00000370: 88e2 93be 8ea1 d5bd 167a abbe 7533 a3be
00000380: 8b1f acbe 8320 09bf 7734 803f 1b61 ecbc
00000390: c640 d13e c708 1740 bac5 12bf f3d9 833f
000003a0: c4cd 153d c251 2e3e 63a8 4440 d9d5 babe
000003b0: 4bf2 6c3f 0a01 dfbc 6bc4 043e a6e6 1240
000003c0: 0592 c5be 546d e13e 0a3f b8be a3b9 473e
000003d0: b13a b43e a06d 9a3e 7429 d8be 4f29 b9be
000003e0: 5f23 903d e413 df3d 4c36 1bbf 52cb 92bd
000003f0: 797f 6a3e 9754 45be e17f c63f f0ad 4cbf
0.012951384 0.025227344 -0.016811213 -0.04918456 0.058821615 -0.75518256 0.842252 0.19861953
-0.053333722 2.5204484 -0.8663671 0.26929125 0.26095134 0.0224477 2.6712291 -0.57295686
-0.48723197 0.28329802 -0.36656728 1.1005919 0.13103336 -0.17353886 -0.08192713 -0.36526826
-1.6229016 -0.29472256 0.06524527 -0.15598072 0.2220978 -0.09184242 -0.06476519 -0.2611988
-0.047173455 0.08206222 -0.34068856 0.43899897 -0.8593641 0.08614476 -0.051197384 -2.747815
-0.010064983 -0.33176428 0.023450227 -0.43338934 0.096067324 -0.2669715 -0.19581886 0.057977755
-0.5188884 -0.47704622 0.59418213 -0.7695354 -0.03481617 0.24096644 -2.8242228 0.3013756
-0.2788956 -0.085369766 -0.40283993 -1.7980856 -0.3903839 0.21319 -0.13348235 -0.09682256
-0.4287147 -0.2320429 0.009045742 0.044635728 -0.55390584 0.508968 -0.53799987 0.6822115
0.17618623 -0.29200187 2.7943678 -0.68971455 0.2904275 0.1988056 -0.26113126 2.1383114
0.70827806 -0.20122693 -0.0904348 0.035808947 -3.3951876 -0.848154 0.014877262 0.34593442
-0.29577532 2.3707607 0.45788455 -0.45873424 0.018117933 -0.1661701 -1.9200491 -0.30699328
-0.32526395 -0.21421428 0.04235853 -0.12834659 0.46360132 0.24112444 -0.16944838 -0.1354261
-1.7703394 0.19047952 -0.8805859 0.10174286 0.07686678 -1.5450983 -0.21288592 0.43673792
-0.23914981 0.16911696 -0.1771812 -0.6799741 0.8754863 0.27276552 -0.48530704 2.006759
-0.841818 -0.17784794 0.2936034 0.12119399 1.6857052 0.66454214 -0.20528944 -0.112639315
-0.08552608 -3.1529696 -0.21862994 0.12880664 -0.113882355 0.113417506 0.26980188 -0.6191116
0.20437917 0.05651632 0.27701265 1.3297528 0.40779203 -0.49823666 -0.025453627 -0.49014482
-2.4818761 -0.77002245 -0.13626778 0.09402057 0.11682607 1.1419876 -0.08198534 -0.56507874
0.022490496 -0.30785027 -0.19866413 -0.77080286 -0.27380875 0.33828607 -0.059543192 0.6427492
-0.4187763 0.8704146 -0.055518232 0.3781104 2.3191683 -0.43675357 0.26814556 -0.03202149
-0.1640706 0.08583938 -0.17710043 0.0684755 -0.42864844 0.4431829 0.33167538 -0.19061492
0.2592285 -0.20424798 -0.20489278 -0.052188676 0.87330264 -0.7010749 -0.11941193 0.3959446
-3.2603712 -0.7421149 0.3640808 0.30619016 -0.35456705 2.7680748 -0.021750022 -0.33363655
-0.32098454 0.098838985 0.14305213 0.8816513 -0.10998646 -0.07547215 0.2121637 -3.402197
-0.027969616 -0.21966767 0.009034521 -0.2178459 -0.1358677 -0.22888876 0.0821481 -0.15860714
0.14658223 0.24003266 0.3254061 -0.15904573 -0.41636378 0.29309273 -0.30550998 0.40492898
-0.28378496 -0.30706373 -0.44703275 0.13663955 -0.28883767 -0.10431205 -0.33491582 -0.31875196
-0.33617815 -0.53565234 1.0016011 -0.028854897 0.4086973 2.3599107 -0.57332957 1.0300888
0.036573187 0.17023376 3.0727775 -0.36491278 0.9255721 -0.027222175 0.12965553 2.2953277
-0.38587967 0.44028723 -0.35985595 0.19504409 0.35201028 0.30161762 -0.42219126 -0.36164328
0.070379965 0.10892466 -0.60629725 -0.071676865 0.2290019 -0.1927055 1.5507776 -0.7995291

user_tower.network.0.bias f4 [256]
00000000: 27b7 0bbc 5e64 593f 038a 2d3f c422 9dbe
00000010: 4017 dfbe 99ae ad3e a0cd bdbe c68c 21bf
00000020: b842 0dbe a07d 76be 23a3 76bf f0d9 14bf
00000030: 8665 bbbd 04c6 18bf 3021 6d3f 9c79 ee3d
00000040: 9f5b 0fbf 58d7 8d3e affa afbe 2e4a d4bc
00000050: 1bab 84bd 508b 7cbe 2576 7b3e beaf 083f
00000060: e8d9 973d 4db6 a2be 203c 7e3d 5d41 983d
00000070: 5055 a2be 6561 7abe fafa 65bc dec4 8c3e
00000080: 6ebc 893f 103b a9be 77ba 9fbe 2158 863e
00000090: 79f0 47bf 5dc4 9c3e 771c 3e3e 84a5 fdbe
000000a0: 8e29 953e f62b 56be 63c0 b83e 8479 a03d
000000b0: ad11 9ebe d0b6 243f e432 1f3f 3c79 1d3f
000000c0: 523d f2bb 673e 47be ddcb 1bbe f9d5 2f3f
000000d0: 0295 7cbf 90ff 99be d0ab 74bd 067b 1c3d
000000e0: 9b1f 3c3e 5d1c bf3e 7c27 c6be 32b7 843e
000000f0: 1a01 c2be 4aac acbe 2000 b1be 5d93 84bd
00000100: 252f a33d 35e7 753d 3126 bdbe cc2d 49be
00000110: 8798 94bf 0f2c 783b e61c 0dbd 01c0 973e
00000120: 6fe5 50bf d1ec 413e 7b33 463e df13 98be
00000130: c2cd ba3e 13ce 40bf c9bd 36be 0919 a13e
00000140: 2199 cf3e d94c 363e a8c0 ec3e e09b 57be
00000150: 7a40 e13e 0a4f ba3e c254 3bbe 4457 c93e
00000160: 5a6e ee3e 21f6 3e3f d6c2 b0be 1937 1b3f
00000170: 042c 613e 3e6f 1b3e 8d42 51bf 3b63 48be
00000180: 3693 84bf 66d3 debe a878 2fbe 7849 bf3e
00000190: 3482 e7be 690b 7f3e 9b49 213f 114d e8bd
000001a0: d295 b0be 6acc 873e bd30 02bf 1654 423d
000001b0: 0ece 32bf 4eb4 dd3e 9820 e0be 4caa ebbe
000001c0: 5247 bd3e ce66 d6bd 42f1 303e 8ed7 bc3e
000001d0: d93d 94be cb2b a03e c98f 1cbf 58a1 183d
000001e0: a11c 0e3e f191 1b3f 4123 1ebe 87fa e3be
000001f0: f20b 33bf 183e 88bc 0f22 94bd 41d2 c63e
00000200: 5e35 ae3e 9cbe 1f3e 79ab abbc bc5f 0fbf
00000210: 7eb2 a8be 60a0 793e 6a48 6a3e edc6 5dbe
00000220: 9f16 fd3e 5500 50bf e9f9 e9bd f3ba fb3d
00000230: 2a46 0cbe e4a1 743d b1af 943b 4f02 76be
00000240: 6214 dfbe 98ce 993e 2bb1 a83e 002c ae3e
00000250: a106 f93d 9610 ca3d 7d4b 0bbf 9ebc bc3e
00000260: 66de 063e 9cb1 d33e 36be 9b3c 66ab d93d
00000270: fe49 0d3e 30a2 46bf c5f4 2dbf 1ccf 51bf
00000280: d172 c5bc 8abb b93e e9d6 73be 895f 503e
00000290: 0fc3 f1be 7a3d 093e baf4 68bf a4a0 3e3e
000002a0: 164b 22bf 1b01 033e 7eeb 23be 1875 a03e
000002b0: 81cb a33e c12a 27bf 30f0 093e f7eb d33d
000002c0: 6e3a 44bd 6d6a 5fbd 45df a8be 4205 fabe
000002d0: 430c f9be c788 30be 327a 843d 3b4d 8abe
000002e0: 3aae eabd e05f 04be a722 263e e56a cc3d
000002f0: a6d5 763e 5ff2 6b3d 78f7 a33e 1019 de3d
00000300: 29ad 34bf dc26 33be 5a4f 23be 9f5f 95be
00000310: faa6 e2be a9a7 c4be 8057 6dbe ce1d 313f
00000320: 8ea3 85be 9d87 803e 31d4 903e 6894 e2bc
00000330: 8f96 b9be c194 cebe a795 413e 3775 5fbe
00000340: c49f 113e 834e 1c3e 650d 3dbf f1eb 433e
00000350: 21f1 2abf 5270 283e 96b2 163f 974a cfbd
00000360: df5e 803e a39f 2dbe 903d 31be 69ec 95be
00000370: d7f7 f93d 2725 133e 0c88 f4be c18c f63e
00000380: 2913 003f 6152 15be 507e 66bd 8f35 1e3f
00000390: d638 bebd 8ff7 3c3f 697f e13c 6367 d53c
000003a0: cd98 42be fa26 9f3d 31f4 783e cd95 603f
000003b0: 0d40 55bf 6523 28bf 6a1b 1bbe 5090 483c
000003c0: 6444 5abe c715 54be fe31 54bf 4b01 ea3e
000003d0: d249 a1bd 9b1b 0fbf 320a a1be f94f 51be
000003e0: 553c 1cbf 8866 a9be 8ce5 cfbe 5fee db3a
000003f0: ccc5 223f 93e4 e6bd e526 0abe 9918 01bf
-0.008527554 0.84918773 0.67788714 -0.30690587 -0.43572426 0.3392227 -0.37070942 -0.6310543
-0.13794982 -0.2407136 -0.96342677 -0.58145046 -0.091502234 -0.5967715 0.92628765 0.11644289
-0.5599918 0.27703357 -0.34370944 -0.025914278 -0.06477948 -0.24662519 0.24556787 0.5339316
0.07414609 -0.3177971 0.06206906 0.07434342 -0.31705713 -0.24451216 -0.014036888 0.27493948
1.0760629 -0.33052874 -0.3119695 0.26239112 -0.7810131 0.30618563 0.18565546 -0.4954034
0.29133266 -0.20915207 0.3608428 0.07835677 -0.3087286 0.6434145 0.6218703 0.61513114
-0.007392564 -0.19457398 -0.15214486 0.6868587 -0.9866487 -0.3007779 -0.059734166 0.03820326
0.18371432 0.37326327 -0.38702 0.25921017 -0.37891465 -0.33725196 -0.34570408 -0.0647342
0.079679765 0.06003495 -0.369432 -0.19646376 -1.1609048 0.0037868058 -0.034451388 0.29638675
-0.8160009 0.18937995 0.19355576 -0.2970266 0.36485106 -0.75314444 -0.17845835 0.31464413
0.40546516 0.17802753 0.46240735 -0.21055555 0.43994504 0.36388427 -0.18294051 0.3932439
0.46568567 0.7459431 -0.34523648 0.6063095 0.21989447 0.15179154 -0.81742173 -0.19569103
-1.0357425 -0.4352066 -0.1713587 0.3736074 -0.45216525 0.24906696 0.6300294 -0.11342824
-0.34489304 0.26523143 -0.5085562 0.04744347 -0.69845665 0.43301624 -0.43774867 -0.46028364
0.36968476 -0.10468827 0.17279533 0.36883205 -0.28953436 0.3128341 -0.611569 0.037263244
0.13878109 0.60769564 -0.15443136 -0.44527075 -0.699401 -0.016631171 -0.07233059 0.38832286
0.3402509 0.15600055 -0.020955788 -0.56005454 -0.3294868 0.24377584 0.22879186 -0.21657915
0.4943132 -0.81250507 -0.1142462 0.12291517 -0.1369864 0.059724703 0.0045375456 -0.24024318
-0.43570238 0.3004043 0.32947668 0.34017944 0.121594675 0.09866445 -0.5441206 0.36862653
0.13170776 0.41346443 0.019011598 0.10628395 0.13797757 -0.7759123 -0.67951614 -0.8195665
-0.0241026 0.36275893 -0.2381245 0.20348944 -0.4721913 0.13402358 -0.90998423 0.18615967
-0.6339582 0.1279339 -0.16007802 0.31339335 0.319912 -0.6529961 0.1347053 0.10347741
-0.047907285 -0.054544855 -0.3298284 -0.48832136 -0.48642167 -0.17239676 0.064686194 -0.27012047
-0.11459012 -0.12927198 0.16224156 0.09981326 0.24104938 0.05760419 0.3202474 0.10844624
-0.7057672 -0.17495292 -0.15948239 -0.29174516 -0.44268018 -0.38409165 -0.2317791 0.69186103
-0.26101345 0.25103465 0.2828689 -0.027658656 -0.3624768 -0.40347865 0.18904744 -0.21822058
0.14221102 0.15264325 -0.73848563 0.19132973 -0.66774184 0.16449097 0.5886625 -0.10121649
0.2507238 -0.16955428 -0.1730864 -0.2928193 0.12205475 0.14369641 -0.47760046 0.48154262
0.50029236 -0.14582206 -0.056272805 0.61800474 -0.09288184 0.73815244 0.027526574 0.026050275
-0.19003601 0.07771106 0.24311902 0.8772858 -0.8330086 -0.6567901 -0.15147176 0.012241438
-0.21315151 -0.20711432 -0.8288878 0.4570411 -0.07875408 -0.559015 -0.3145309 -0.20440663
-0.6102956 -0.33086038 -0.40604818 0.0016779414 0.63583064 -0.11274066 -0.134914 -0.5042816

user_tower.network.2.weight f4 [16, 256]
00000000: 70d1 96bb 3051 5ebd 0cdc de3c 6ab9 193d
00000010: 006d d3ba 7abf 60bd 44b9 56bd 20ba eb3c
00000020: 9c58 c2bc 98fb 6ebc c06e 9bbc 8022 17bd
00000030: b0c2 3b3c 68d9 443c 687e e53c 18b0 793c
00000040: 02dc 523d e4e6 303d c4ff f7bc 4819 ca3c
00000050: 4221 56bd a0ec 293b 98a2 423c 4e8d 50bd
00000060: ec35 f0bc fe18 01bd 4057 c3bc 4a7c 383d
00000070: 32eb 143d 56e2 5d3d 2ce4 b73c a0c7 64bc
00000080: 20ee 3ebb 6022 08bb e677 61bd de5d 513d
00000090: 1435 99bc 54f6 b13c d630 3cbd 1ad5 7fbd
000000a0: 5864 52bc 40ee 9bba 5a3b 3c3d 84c2 32bd
000000b0: 00cd 6d3a 223e 133d 40b1 8b3c 7876 a43c
000000c0: 9862 0ebd 486d 10bc a0eb 5dbd 6042 6ebc
000000d0: eca5 93bc 10d4 ddbc 701f 043c 5497 41bd
000000e0: caca 29bd 547d c3bc 2eac 1ebd 0e64 663d
000000f0: 6849 19bd 0266 733d 54a9 cc3c d479 7a3d
00000100: 6852 b5bc 9cda 9a3c 2ee0 613d daca 46bd
00000110: 50c9 6c3c 0001 793b 54ff 863c 9838 3dbd
00000120: f075 4e3d c229 1bbd c0ab d13c 1aaa 373d
00000130: 7611 4f3d 3c3c b63c ac73 44bd 8c41 e33c
00000140: a8d8 28bc 706a 35bd e039 82bc 78b8 7ebc
00000150: d646 5c3d 4421 6ebd 24de 493d 4406 13bd
00000160: e491 f83c 749c 96bc 18e7 e8bc b411 ccbc
00000170: 88a1 48bd 46fe 70bd 00d2 2b3b f019 85bb
00000180: 5ecd 48bd 5844 ebbc 2c3e 78bd 4067 283d
00000190: 70a5 64bc 0473 34bd 4257 0d3d 1490 0b3d
000001a0: bc35 57bd 2824 7bbc 2869 31bc 183f 343d
000001b0: 72f0 3fbd b858 803c 44a7 8b3c d011 a2bb
000001c0: f445 1cbd 60d5 eabc 2cee 68bd d4b4 91bc
000001d0: 0454 3e3d 60db 1bbb 1e8a 433d 86f1 05bd
000001e0: 48d2 103c 4495 38bd 52dc 37bd 581f 68bd
000001f0: 9834 3d3c 564e 6bbd 7c8c 193d 6064 6bbd
00000200: 1ab5 083d 8296 743d fe88 653d 7cca b7bc
00000210: 1859 0e3d 067d 5e3d e4ac 43bd e0b9 743b
00000220: 4a90 493d 66a4 3fbd 002e 65bc 008d 7f3c
00000230: 4a0c 12bd 3049 8cbc 5686 05bd 0060 92b7
00000240: 04bb 48bd 3e4e 0b3d 9454 4ebd 688b 5fbd
00000250: 8a00 34bd 100d cb3c 3af7 3abd 9060 e3bb
00000260: b064 733d 9ccb bc3c 946f 023d 6cd9 813c
00000270: d094 583d 3ec1 69bd a8b6 83bc 4c7e e83c
00000280: 8478 733d e095 38bd 30b5 863c 5041 85bb
00000290: c0b5 b43b 8842 38bd f850 4e3c 00b9 f8bb
000002a0: 685f 4a3c 301d 0c3c c22a 093d 148e 54bd
000002b0: 3659 313d 6812 1e3c e44d dcbc a8d0 3f3d
000002c0: 00ad d93b 1440 1cbd d432 ebbc 800f 7cbb
000002d0: 0058 25ba 90e3 3ebd 9e2d 153d fc4e 043d
000002e0: 1046 d9bc f811 513d a0db cf3c c4a4 cebc
000002f0: f649 31bd 0812 16bd 1e3f 533d 04df 713d
00000300: 20ff c9bc 2cb2 e0bc 0011 a5b9 50a6 373d
00000310: e492 5ebd 541d 17bd 3e96 7dbd d49e d1bc
00000320: 2678 13bd f08b 60bc c041 f3ba 4c03 64bd
00000330: 3844 81bc 50e3 4fbd e86c e33c 34f6 2ebd
00000340: 5cfa dfbc c005 e6bb 0074 8e39 f89b 60bc
00000350: 0edc 5c3d 3074 983c 5427 8f3c 00fe 503d
00000360: 70a3 4dbc de6d 463d 804c 2abd 8267 163d
00000370: 680d 1e3c 5c15 d83c bc83 45bd 2466 09bd
00000380: 3879 41bd e871 f13c b0e3 9f3b ac52 753d
00000390: c01e 693b c8ea 1b3d 9026 cb3b 4088 4cbd
000003a0: 1876 273d 2862 c8bc 1e8f 5cbd 30a4 14bd
000003b0: 8cab 3abd f00d 4fbd bae4 2b3d 0452 80bc
000003c0: b857 5d3c 1c32 a63c f8ee 16bd e42e a2bc
000003d0: c8b7 7dbc 6c2b 60bd 14f7 72bd 4aa8 623d
000003e0: 1053 67bd 888d babc 0833 553d a01d 98bc
000003f0: ee82 663d 6620 0f3d d0cc 1c3c a665 51bd
-0.0046026036 -0.054276645 0.027204536 0.03753034 -0.0016130507 -0.054870106 -0.052422777 0.028775275
-0.023723893 -0.014586352 -0.018973708 -0.036898136 0.011459991 0.012014724 0.028014377 0.015239738
0.051479347 0.043188944 -0.030273326 0.024670258 -0.05227781 0.0025928393 0.011879586 -0.05091601
-0.029322587 -0.031517975 -0.023845315 0.045040406 0.036357112 0.05417093 0.022447668 -0.01396361
-0.0029133633 -0.0020772442 -0.055045985 0.05111491 -0.018702067 0.021723904 -0.04594501 -0.06245909
-0.012841307 -0.0011896566 0.04595504 -0.043642536 0.000907138 0.035947926 0.017052293 0.020076022
-0.034761995 -0.008815117 -0.054179788 -0.014542192 -0.018023454 -0.027078658 0.008064136 -0.04726346
-0.04145316 -0.023863472 -0.038738422 0.056247763 -0.03742352 0.059423454 0.024983086 0.06115134
-0.02213402 0.01890307 0.055145435 -0.048533298 0.0144522935 0.003799498 0.016479172 -0.04619655
0.050405443 -0.03788162 0.025594592 0.044839956 0.05055376 0.022245519 -0.047961876 0.027741216
-0.010305561 -0.04429096 -0.015896738 -0.01554691 0.053778492 -0.058137193 0.049284115 -0.035894647
0.030343004 -0.01838515 -0.028430507 -0.024910785 -0.048982173 -0.058836244 0.00262177 -0.00406193
-0.04902398 -0.028719112 -0.060606167 0.041114092 -0.013955459 -0.044055 0.034507044 0.03407295
-0.05254148 -0.015328445 -0.010828294 0.044005483 -0.046860166 0.015667304 0.017047532 -0.004945971
-0.03815265 -0.028666198 -0.056867763 -0.01778642 0.046466842 -0.002378188 0.04773914 -0.032701038
0.008839197 -0.045064226 -0.04488785 -0.056670517 0.011548184 -0.057447754 0.037487492 -0.057468772
0.033375837 0.059713848 0.05603885 -0.02243542 0.034752935 0.05431845 -0.047772303 0.0037342235
0.04920987 -0.046787642 -0.013988018 0.015597582 -0.03565625 -0.017124742 -0.032598816 -1.744926e-05
-0.049006477 0.034010164 -0.05037363 -0.054576308 -0.043945827 0.024786502 -0.04564593 -0.0069390014
0.059422195 0.023046307 0.03184469 0.015850745 0.052876294 -0.057069056 -0.016078308 0.028380536
0.059441105 -0.045064807 0.016443819 -0.0040666237 0.0055148304 -0.044985324 0.012592547 -0.007590413
0.012351848 0.008551881 0.033488043 -0.05189331 0.04329797 0.009647943 -0.02689261 0.04682985
0.0066429377 -0.038147047 -0.02871076 -0.0038461387 -0.00063073635 -0.04660374 0.036420457 0.032301888
-0.026522666 0.051042527 0.02537328 -0.02522505 -0.043283425 -0.03663829 0.051573865 0.059050575
-0.024657786 -0.027428709 -0.00031483918 0.044836342 -0.054339305 -0.036893204 -0.06191086 -0.02558843
-0.036003254 -0.013705239 -0.0018559024 -0.055667207 -0.0157796 -0.05075389 0.027761891 -0.042715266
-0.02734106 -0.0070197284 0.00027170777 -0.013709061 0.053920798 0.01861009 0.017474808 0.051023483
-0.012551174 0.04844462 -0.041576862 0.036719806 0.009646751 0.026377372 -0.048221335 -0.033544675
-0.047234744 0.02947326 0.0048794374 0.059893295 0.0035571307 0.0380657 0.0061996654 -0.049934626
0.040884107 -0.024460867 -0.053847425 -0.036289394 -0.045573756 -0.0505504 0.041966178 -0.015664108
0.013509683 0.020287566 -0.036848992 -0.01979775 -0.015485711 -0.05472891 -0.059317663 0.055336274
-0.0564757 -0.022772565 0.05205062 -0.018568814 0.056277208 0.034943007 0.0095703155 -0.05112233

user_tower.network.2.bias f4 [16]
00000000: 04ea a0bc 7f57 a03d c14e aabb 8875 59bc
00000010: 813c 0abd 6477 5a3f 5367 5f3f 3550 0ebd
00000020: 5714 f3ba 33b4 ddbc 3edd 053c f275 c83d
00000030: 6a71 78bd c5eb a6be 6e58 2c3c bbf5 5a3b
-0.019642837 0.078291886 -0.0051973765 -0.013272651 -0.033749107 0.85338426 0.87267035 -0.03474446
-0.001854549 -0.027063465 0.008170424 0.09788121 -0.060655035 -0.32601753 0.01051913 0.0033410627

item_tower.network.0.weight f4 [256, 128]
00000000: 11eb a83d 5a78 9e3c 93de 05be ce5a 0dbd
00000010: 5ab0 a53d be0f e73c 9a41 523c 3951 953c
00000020: cb41 e33c 43c3 073d fd58 b9bd aea0 88bc
00000030: 371b 9c3d 0eba 24bd 4a2b 3abc c2a0 943d
00000040: 65a6 d73d a17b 983d ccf1 07bd 4f68 4e3d
00000050: 9e8a 7c3d 694c d03d d75b 913d 5430 b4bc
00000060: c381 3b3d 51ae 12bd ab28 013d 208c 53bd
00000070: cffb 8cbd 9076 253d 53de 383b ea7c af3d
00000080: 9667 92bd 1bb0 52bd 8fee f03c 39af 963d
00000090: bc0c 1e3d 0473 aabd 5d64 8abc 6dba 6fbd
000000a0: 0da9 0d3d 0339 943c b85d c5bd 8500 a23d
000000b0: 373f c63d 077a 303c 7e76 aa3c d988 e5bc
000000c0: bd30 213d 38e0 8c3c 3164 793d a650 263d
000000d0: ac78 4dbd b9ee 40bd d820 a2bc 81f0 5c3d
000000e0: aca3 31bc 63be 0c3e 757b 44bd b125 a93c
000000f0: c07c 423d 2fd3 d73d 96c6 89bd 6155 983d
00000100: 0bd1 e43b 657b 4dbd 9554 0d3e db3e 07bd
00000110: 1533 f6bb 5e24 753d 0434 1a3d 020f 293d
00000120: 012f 87bd 94b9 97bc b86d ac3d 2d2f a7bd
00000130: 3af6 df3b 7d74 ef3c 4c57 4e3d a1c1 6d3c
00000140: 04b3 aa3d 7c8f 11be b0b6 f53d f424 55ba
00000150: 54a6 3dbd 2d78 113d f9d6 b43d 0e12 fbbd
00000160: 5f7e bb3d 78c4 b03c 3060 ca3d 25be 953d
00000170: 7381 d43b 286b a23d 67d4 b2bd 4ebf 02bd
00000180: cdfd 4f3d 9cdb 193d fc8a 373d 458c a2bc
00000190: b64e dd3c 3b4c 9a3c 746f 88bb 182b d03a
000001a0: f037 80bd bc6a 5dbd 7461 d0bd 3c7d a1bd
000001b0: 19aa b83d 3b23 903d 46a5 623c cd6c b3bd
000001c0: efa5 863d 37e2 343d 5745 ebbd 9b95 2abd
000001d0: ec35 af3c 4c62 b9bc 5b4c aabd 93e6 14be
000001e0: 7823 3b3d 49a2 9d3d 50d2 163c 372d 083d
000001f0: 0113 17bc e5b1 29bd 920b cdbc 9285 fabd
00000200: a7cd 06bd d1a7 52bd c5a0 0dbe 17cd 50bd
00000210: eebf aa3c fdd4 b7bd 85c4 60bb 464e 9c3d
00000220: c675 043d 2f26 9dbd 080e a1bd 6c27 a43d
00000230: acbf dabc 5881 57bd 9591 ac3d 4785 a43d
00000240: 113a 043e 30b6 d93c 9246 ad3d 2343 973d
00000250: b7ca 06bd 19ee d4bc ef9e ba3b c76f cfbd
00000260: 357b a73d 2210 8bbd 0398 ed3d 4946 0c3d
00000270: ab5d 08bd 146d 3e3d 9105 3ebd a9c0 563d
00000280: 37fd a7bd fefc 0dbe f2b8 513d 7790 4a3d
00000290: a3f8 ca3c 7193 e1bd 2395 cd3d 09ea 943c
000002a0: b9cb 0bbd abf7 39bd 0244 c6bd d4ab e3bb
000002b0: 61ad bf3d 928c 983d 22f0 62bd a968 133d
000002c0: af2e 613d f57b 9dbc 9cd9 a43c 2ce7 9e3d
000002d0: dcc3 d33a 5fce 65bd 4224 b33c 7e49 1d3d
000002e0: ef6e c2bd 9b22 693c c7d4 22bd e9e2 e13d
000002f0: 42a9 643c 89f4 4b3d 2084 223d cba4 f53d
00000300: e092 5b3d 5c55 be3c 4c28 4b3d 6dbc 7b3d
00000310: 8026 88bd 2239 483d b71c ccbd 2a4e 90bb
00000320: 52df b03b e8f4 8cbd 4878 ca3c 7808 abbc
00000330: bd68 5b3d 7034 6dbd ec00 e93c 39dd 62bd
00000340: cf5b 563d 550b cabd cd08 b83d 585f 08be
00000350: f0f0 2c3d 92f4 2c3c 6216 c0bc a247 453c
00000360: 1277 aabc 37e5 e2bc b98e 39bc 42e7 4b3d
00000370: ac9f 57bd 57fe 2dba bd1f a2bd 14ca 933d
00000380: 28ab 7e3d 1577 ddbc a9a6 703c d720 c9bd
00000390: c134 023e 72b0 153d ae1f 84bc c977 43bd
000003a0: 33e3 a33d e0fd 3f3d a694 923d 6ead b3bd
000003b0: 8cbd cebd 1456 513d f3db 703d acbe 20bd
000003c0: 48fe c53d 9db7 d5bc 9ab5 bebd b9dd 803c
000003d0: 4b56 7abd ae70 1a3d c37b c43d a35a 16be
000003e0: cb40 563d 571c 86bc 262f e5bc a45f 883c
000003f0: 4bd4 9dbd a470 82bc 3279 e4bd b062 bcbd
0.0824796 0.019344497 -0.13073187 -0.034510426 0.08090277 0.028205749 0.012833023 0.018227207
0.027741333 0.0331452 -0.09050176 -0.01667818 0.07622378 -0.040216498 -0.01136286 0.072572246
0.10529784 0.07445455 -0.03318958 0.050392445 0.061655633 0.10170824 0.07097595 -0.0219957
0.045778047 -0.035810772 0.031532925 -0.051647305 -0.06883966 0.040396273 0.0028208687 0.08568747
-0.07148664 -0.05143748 0.029410629 0.0735764 0.038586363 -0.08322719 -0.01689356 -0.0585274
0.034585048 0.018093592 -0.09637016 0.07910255 0.09680026 0.010771281 0.020808455 -0.028019356
0.03935312 0.01719676 0.060886566 0.040604256 -0.05016391 -0.047102664 -0.019791052 0.0539403
-0.010842245 0.13744502 -0.0479693 0.020647855 0.047482252 0.10538327 -0.067273304 0.0743816
0.0069829277 -0.050166506 0.13801797 -0.033018928 -0.0075134137 0.059849136 0.037647262 0.04127408
-0.06600762 -0.018521108 0.08419365 -0.08163295 0.0068347724 0.02923035 0.05037622 0.014511497
0.08334926 -0.14214891 0.119977355 -0.00081308116 -0.0463012 0.035515 0.08830065 -0.12259303
0.09154963 0.021578059 0.098816276 0.07311658 0.006485158 0.07930595 -0.08731919 -0.031920724
0.050779153 0.03756295 0.04481028 -0.019842276 0.027015071 0.018835178 -0.004163677 0.0015881984
-0.06260669 -0.054056868 -0.10174838 -0.07885215 0.090168186 0.0703797 0.01383335 -0.087609865
0.06574618 0.044161048 -0.11487835 -0.04164658 0.021388017 -0.02262988 -0.08315345 -0.14541082
0.045688123 0.07696969 0.009205416 0.033246245 -0.0092208395 -0.04142942 -0.025029931 -0.12232508
-0.03291097 -0.051429573 -0.1383086 -0.05097684 0.020843472 -0.08976171 -0.0034296822 0.07632117
0.03233888 -0.076732986 -0.078640044 0.080153316 -0.026702724 -0.052613586 0.08426205 0.08033233
0.12912776 0.026576132 0.08460726 0.07385852 -0.032908168 -0.02599244 0.005695216 -0.10128742
0.08177797 -0.067901865 0.116012596 0.034246717 -0.033292454 0.046490744 -0.046392027 0.05242983
-0.08202594 -0.1386604 0.05120177 0.04945418 0.024776762 -0.1101445 0.10038211 0.018178003
-0.034129832 -0.04540221 -0.0968094 -0.0069479737 0.09359241 0.07448687 -0.05540479 0.035988484
0.05497616 -0.019224146 0.020123295 0.07758936 0.0016156393 -0.056105014 0.021867875 0.038400166
-0.09493815 0.014229442 -0.0397537 0.11029608 0.01395637 0.049793754 0.039676785 0.119943224
0.053606868 0.023234062 0.049598977 0.061458994 -0.06647968 0.04888261 -0.099664144 -0.004403849
0.0053977156 -0.0688265 0.024715558 -0.020878062 0.053566683 -0.057911336 0.028442822 -0.055386756
0.05233365 -0.09865443 0.089860536 -0.13317621 0.042221963 0.010556357 -0.023448173 0.012041004
-0.02080873 -0.027697189 -0.011325532 0.04978109 -0.05264251 -0.0006637326 -0.0791621 0.07216278
0.062174946 -0.027034322 0.014688172 -0.09820717 0.12715437 0.036545224 -0.016128387 -0.047721658
0.08002319 0.046872973 0.07157259 -0.087733135 -0.10094747 0.05110748 0.05880351 -0.03924434
0.09667641 -0.02608853 -0.093119815 0.015730726 -0.06111745 0.037705116 0.09593918 -0.14683013
0.052307885 -0.016370935 -0.027976584 0.016647168 -0.07706507 -0.015922852 -0.11155929 -0.09198511

item_tower.network.0.bias f4 [256]
00000000: 67bf 4a3d 60a8 a53d dfa8 ee3d e391 153a
00000010: be11 b83c 7a81 2dbb df84 4b3d f92c 03be
00000020: fda7 1ebd 1a37 cbbc 8a13 a93d 31b7 51bc
00000030: 1987 5d3d 8639 d5bc bab0 033e 702c e6bd
00000040: a8a8 31bd 638c be3d ab7f 22ba 030e 8a3d
00000050: 7103 aebd 2259 88bd aa77 9c3b 2f61 a5bc
00000060: 3f83 babc 1c92 cbbd 4f47 1bbe b821 043e
00000070: 2a93 3ebd 5d04 073c 0cbb dcbd 4cd9 afbc
00000080: b084 06be 35ca 4cbd c79c 9b3d e730 21bd
00000090: c723 c5bd 4b41 e93d cdb2 5ebc dac0 d2bd
000000a0: c999 8bbd 1b3a 1b3d 93e7 dcbd 1d2b bbbd
000000b0: 4053 453d 0886 e7bd 32c6 db3d 2112 863d
000000c0: 6377 393d a38c 16bb 9340 de3d b6f2 aabd
000000d0: 5379 803c 5fbc 0fbd 0103 1b3e 330c b6bd
000000e0: ec79 023e 011e 39bd 5d48 c4bd a38a e93d
000000f0: de47 aebd a883 993d bc46 9d3d 295c 3abd
00000100: a4b9 adbd 74e5 cabd ed7d 83bd e5ed 0abd
00000110: 632f 3f3d 24d0 f8bd 31c0 0d3e 1c79 233d
00000120: f09a b9bd 4029 f23d dc32 41bd 33b6 6e3c
00000130: d7f6 d73d 13a7 59bd 5e85 bcbd cee9 99bd
00000140: 61b5 6fbc 1587 efbd 6c4e 6d3d 7481 5b3d
00000150: 411a c8bc 11a3 5dbd 0876 103d 8f7f 7ebd
00000160: bcc6 babd f43c b53d d8ce 36bd 1ef5 b03d
00000170: bf1b b2bc f18e 92bd 88d0 f6bd 7ad1 d7bc
00000180: 4238 72bc cbe7 41bd 4b65 033e bfd5 ecbd
00000190: 574f 083e 4b07 173e f7c2 14bd ec5a 873c
000001a0: 9448 05bd bab2 6a3d 6a56 c3bd b741 7b3c
000001b0: 03f5 6c3c a144 bbbd 081c 2dbd e0a5 113d
000001c0: c3e2 cc3d edb6 c43d a35d f63d 14cc 8bbc
000001d0: 032c c23d a6d2 e2bc 2112 12bb e182 50bc
000001e0: 7e6e 25bd 4398 8abd 1bc6 b33d 0234 61bd
000001f0: ebd7 853c 4899 2d3d 0760 803d 5b3d 2cbd
00000200: 42fd 04bd a456 4c3e 1a20 a03c 3f19 81bc
00000210: 845a 94bd 9578 a03d a7dd b53d fc7e 95bd
00000220: cc07 a5bd 774a e8bd 9869 66bd 9113 b2bd
00000230: 657e d63d 954f b83d 74be 21bc 7b0c 003d
00000240: ca60 083d 1ffc 83bd 7ce3 dbbd 4c8e 98bd
00000250: c6e1 e3bd 3694 2fbc 314c 33bd 67c9 4abd
00000260: dd3a 9fbd aaae a3bd c2ee 5abd 737c 1cbd
00000270: dc78 033e 298a f6bd 44ac 773d 8467 8bbd
00000280: b5c8 2f3d fd8d a8bd dbc9 edbc eaa9 4d3e
00000290: bf7f 933d 1914 15be edcb 76bd d668 acbd
000002a0: a547 76bc 7f7b 383d c6eb 4dbd cb4d 0b3e
000002b0: 1b85 d73d 3f51 32bd 4e7b a9bb 9762 2ebd
000002c0: b186 d0bd 6b25 7f3d b391 94bd f32b d4bd
000002d0: 0690 e83d 16da b03b 02cf 053e de5e aabd
000002e0: d565 e6b9 20e5 a0bc 4b9f 69bd 7356 97bc
000002f0: 6501 f9bd 943a 783d cb37 8d3d df08 03be
00000300: 824f bebd 26c4 1e3d 8f8b ae3d 9141 f1bd
00000310: 569c 003e 3f35 8c3c e926 14bd c13c 39bd
00000320: 5178 2f3d 81ef 5bbd 0a94 63bd 5f28 bd3d
00000330: aca7 88bc 0e95 933d d895 d5bd 012e f3bd
00000340: 6777 55bb f1b2 afbd 332a b7bd 7ae3 b73c
00000350: 8a93 423c cda6 aabb 7ac2 13bd 8587 95ba
00000360: 4826 933c a8d7 2b3d ad26 113e 4700 ab3d
00000370: c74c 2c3b 2d93 593a adc6 52bd 7887 9c3c
00000380: e877 57bd 0fa7 783d c37f 39bd 54d9 193e
00000390: 87c6 b7bd 32c2 e8bc bf23 923c da9a b73d
000003a0: 26d5 863d 8c29 393d 0efb ddbd 9552 10bc
000003b0: 4365 6ebd 7a2a df3d b12c 8cbd 4f03 03be
000003c0: 60c3 efbd aebe 883d b86d 8b3d 8e02 9bbb
000003d0: c8f4 a93d b7e5 83bd 7c07 f1b9 8fed 94bd
000003e0: d8fc afbd 37db 11bb e853 3dbd fad6 acbd
000003f0: 8f69 dabc 799f b23d 3eab 9dbd c30f 98bd
0.04949894 0.080887556 0.11653303 0.0005705638 0.022469398 -0.002647488 0.049687263 -0.12810124
-0.038734425 -0.024806548 0.0825568 -0.012800024 0.054083917 -0.026028406 0.12860385 -0.112389445
-0.043373734 0.093041204 -0.00061988336 0.06740954 -0.0849675 -0.06657626 0.0047750073 -0.020187942
-0.022767661 -0.099399775 -0.15163921 0.12903488 -0.046527065 0.008240786 -0.10777864 -0.02146592
-0.13136554 -0.049997527 0.07598262 -0.039353278 -0.096259646 0.11389407 -0.013592434 -0.1029069
-0.068164416 0.03789721 -0.10786357 -0.091390826 0.048175097 -0.11304861 0.10731162 0.065464266
0.04527987 -0.002297201 0.1085216 -0.08347075 0.015682852 -0.035091754 0.15137865 -0.088890456
0.12741822 -0.04519463 -0.09584115 0.11403396 -0.08509801 0.074958146 0.07679507 -0.045498047
-0.08482674 -0.09907046 -0.06420503 -0.03391828 0.04667605 -0.12149075 0.13842846 0.03991042
-0.09062755 0.11824274 -0.047167644 0.014569807 0.10545128 -0.05313785 -0.09205125 -0.07515298
-0.014630646 -0.11695687 0.057936117 0.053590253 -0.024426581 -0.05411059 0.035268813 -0.062133368
-0.09119937 0.088495165 -0.044630855 0.086405024 -0.021741746 -0.0715617 -0.12051493 -0.026345003
-0.014783921 -0.047340196 0.12831609 -0.11564206 0.13311516 0.14748876 -0.036318745 0.016522847
-0.03253992 0.057299353 -0.095379665 0.015335492 0.014462712 -0.09143949 -0.04226306 0.03555858
0.10004189 0.09605203 0.120295785 -0.017065085 0.09481051 -0.027688336 -0.0022288638 -0.012726516
-0.040388577 -0.06767323 0.0877802 -0.05498124 0.01633831 0.04238251 0.06268316 -0.0420507
-0.032468088 0.19954926 0.019546557 -0.015759109 -0.07243827 0.07835499 0.088801675 -0.07299611
-0.08058128 -0.11342328 -0.056253046 -0.08695138 0.104733266 0.08999554 -0.009872068 0.031261902
0.03329543 -0.06444573 -0.107367486 -0.07449016 -0.11127047 -0.010716489 -0.043773834 -0.04950848
-0.07774899 -0.07992299 -0.053450353 -0.03820462 0.12839073 -0.12038071 0.06046702 -0.068068534
0.04291602 -0.08230207 -0.029026916 0.20084348 0.072021 -0.14558448 -0.060253073 -0.08418433
-0.01503173 0.04503965 -0.05027368 0.13603894 0.10523435 -0.043534514 -0.00517217 -0.04257449
-0.1018194 0.062291544 -0.072543524 -0.10359945 0.11355595 0.0053970916 0.13067248 -0.08318876
-0.0004394489 -0.019640505 -0.05703668 -0.01847384 -0.12158469 0.06060274 0.06895407 -0.12796353
-0.09292509 0.03876128 0.085227124 -0.11780084 0.12559637 0.017115233 -0.03616992 -0.045223955
0.042839352 -0.053695206 -0.055561103 0.09236216 -0.016681515 0.07206164 -0.10428971 -0.11874009
-0.003257239 -0.08579052 -0.08943596 0.022447336 0.011875996 -0.0052078725 -0.03607414 -0.0011408186
0.01796259 0.041953713 0.1417491 0.08349662 0.002629088 0.0008299824 -0.051459003 0.019107565
-0.052604586 0.060706194 -0.04528786 0.1502431 -0.08973413 -0.028412912 0.01783931 0.089650825
0.065836236 0.045205638 -0.108389005 -0.008808752 -0.05820204 0.10896774 -0.06844462 -0.12794231
-0.11707187 0.06676994 0.068080366 -0.004730529 0.082986414 -0.06440299 -0.00045972678 -0.07271873
-0.08593148 -0.0022255906 -0.046222597 -0.08439441 -0.026661662 0.08721823 -0.076986775 -0.07424881

item_tower.network.2.weight f4 [16, 256]
00000000: 5067 5b3c 8c8a a3bc 1730 3f3d 33e1 b83c
00000010: 48d1 cf3c 93ff 353d 49af 77bd dbd0 b53b
00000020: 091e 23bd 552a 32bd 1013 98bb 8b0c 43bd
00000030: cf25 3fbd b097 adbb cdd5 1a3d a367 60bd
00000040: 3aaa e83c f55b 603d 769c b53c f5fe ba3c
00000050: cc6b 383d 3039 823c 90ca 3dbd e56e 473d
00000060: f6cf 2fbd e8b6 5dbc ac5c 283d ce65 41bd
00000070: 4142 843d 1a4e e4bc de0a 103d d16f 423d
00000080: c5a3 b3bc 6519 883d 8407 49bd 2e43 a2bd
00000090: ce69 9e3b 4a38 41bd a202 2ebd f7d3 8abc
000000a0: b85e 07bd 0dbf 833b a467 633c 459a 83bc
000000b0: d5d6 743c 6de9 1cbd 30d0 b9bb 98f7 39bd
000000c0: 93eb 813c 0143 32bd e5bd 0dbd 77e4 c83c
000000d0: 43d2 60bd db52 4fbd ebc1 3cbd 027c c0bc
000000e0: 7876 bb3c a5c7 683c d00b 883d 7d09 343d
000000f0: 9832 223d a212 e5bc 809f 59bd 480a 18bd
00000100: 6f01 00bd 7143 30bc 1a4a 24bd 3708 36bd
00000110: dd80 84bc deca 433a 1662 ccbc 3377 2b3d
00000120: 6251 f23c 1e89 393d db95 2e3d c935 8f3c
00000130: 958a ce3c c142 b0bc ac79 513d 6232 0e3d
00000140: 241e e93c 0a4b 97bc d108 4d3c 70a9 5fbb
00000150: 4a43 84bc 436f 6abd 2b9e 6d3d a840 a4bb
00000160: 0200 3cbd 209f 5ebd d2be 113d dd76 773c
00000170: 9db0 3d3c bc50 8fbd 1227 953c 8568 10bd
00000180: 4933 433d 75ef 6bbd 07d2 d63c 65b4 0d3d
00000190: 3922 35bc d403 9fbb 0cf2 13bd 6d93 843c
000001a0: 6625 33bd 55ba 8ebd 4e05 413c c6e9 37bc
000001b0: 3969 64bd b37b 96bc e392 0c3d 4798 3f3d
000001c0: c501 69bd b0d1 81bd 5a4d debc ff21 84bd
000001d0: 0985 03bd 5c94 5abd a56f a6bd 3a8d efbb
000001e0: dff4 013d 725c 27bd f3d8 8dbb 126d fe3c
000001f0: 478c 193d 1cc7 843c b560 0ebd 9af0 82bd
00000200: 417a f9bc 46b5 86bd 3e5f 153c 03d6 73bd
00000210: 1450 f8bc 3240 80bd 37a1 45bd eb0e 96bd
00000220: 7665 19bd 03ed 463d 1f45 053d a2a1 243d
00000230: 4553 28bd a42f 793d 01d5 8dbd 446d 85bd
00000240: 137f 97bd 44dd 9a3d 6fc3 d0bc 0e52 b53c
00000250: 0d38 aabb a6d0 903c abbc 65bd e5c8 82bd
00000260: b7f2 0a3c b61a e9bc 2b0d 193d 2319 0cbd
00000270: 87b7 56bc 3af5 623c 1884 8abd 0ee5 2a3d
00000280: 02e9 0d3d af42 cdbc 2e69 87bd aa78 29bd
00000290: 179b 0fbc 43d0 2fbb 24b4 5e3d dae5 143d
000002a0: 0feb 90bc 2ad7 223b 5959 95bc 2055 153d
000002b0: e339 45bd 7272 753d d275 063d 6d5f aa3c
000002c0: 9174 943c ed51 3abd 9b81 803d 9c1d b43c
000002d0: 1020 043d 3ea9 27bc 3c4f 263d cf96 69bc
000002e0: 3ba9 b9bc 46b1 493c 5a8b a73b bd85 8c3c
000002f0: 823d 13bd da30 313c 55da 1fbc f25d b63c
00000300: c708 d3bc 8a7e e43c 69b9 203d e7ad 6fbd
00000310: ec63 b13c e45c 07bd 5350 42bd eb08 d4bc
00000320: 7c5c 90bc 681a 32bd b0e3 183d 911a 4dbd
00000330: 7b87 01bd b486 993c a85e e03c 3efd 513d
00000340: 45dd 2ebd 37a3 ea3b 3bb2 043d 9e6e e23c
00000350: 316d 15bd a6fb eebb 0ccf b73c 13a0 a33c
00000360: 5010 aabd 3d3d 38bd 41a2 a8bc 92f0 cabc
00000370: 8b5a 75bd 30ae bcbb ac13 a8bc dfe8 5e3c
00000380: 27aa 033c 328b 74bd 7767 b23b c6a8 373d
00000390: beb9 10bc 15cf 14bc 91d4 d0bc 079e dcbc
000003a0: b5ec 7bbb a000 c7bc 47e9 e93c 87dd e53c
000003b0: f6a0 cebc a9a4 0d3d ffe7 67bc 5718 373d
000003c0: a2ce 4c3d a122 b43a 2793 643c 59f1 e6bc
000003d0: 1a53 d8bb d467 02bd c670 1fbd 66ae 1fbd
000003e0: 37f9 0fbd 7069 b73c 1152 0c3d 85e5 c3bb
000003f0: 6344 a1bc 3b25 143d 04e9 94bc e873 bfbc
0.013391331 -0.019963525 0.04667672 0.02256832 0.025368348 0.044433188 -0.0604699 0.005548579
-0.039823566 -0.043497402 -0.0046409443 -0.047619384 -0.046666916 -0.0052976236 0.037801553 -0.054786336
0.028401483 0.054775197 0.022169333 0.022826651 0.045024678 0.01589641 -0.046335757 0.04868974
-0.042922936 -0.013532378 0.041104004 -0.04721623 0.064579494 -0.027869273 0.035166614 0.047469918
-0.021928677 0.066454686 -0.049079433 -0.0792297 0.0048343902 -0.047172822 -0.04248298 -0.016946776
-0.033049315 0.0040205778 0.01387969 -0.016064772 0.014943798 -0.03830855 -0.00567057 -0.04540214
0.0158594 -0.04352093 -0.034604926 0.024523003 -0.05488802 -0.050616127 -0.046083372 -0.023496632
0.022883639 0.014207755 0.06642878 0.04395436 0.03959903 -0.027962986 -0.053130627 -0.03711918
-0.031251367 -0.010758267 -0.04010973 -0.044441428 -0.016174728 0.0007468889 -0.024949115 0.041861724
0.029579822 0.04529678 0.042623382 0.017481701 0.025212565 -0.021516206 0.051141426 0.034716018
0.028456755 -0.018468399 0.012514309 -0.0034128092 -0.016145367 -0.057235014 0.05801217 -0.0050125904
-0.045898445 -0.054350972 0.03558237 0.015104023 0.011577752 -0.06997821 0.018207107 -0.035255928
0.04765633 -0.05760141 0.026223196 0.034595866 -0.011055523 -0.0048527513 -0.036119506 0.01618358
-0.043736838 -0.06969134 0.01178105 -0.0112251695 -0.05576441 -0.018369531 0.03431977 0.046776082
-0.056886453 -0.06338823 -0.027136493 -0.06451797 -0.032109294 -0.053364143 -0.08126763 -0.0073105367
0.031727668 -0.040859647 -0.004328841 0.031057868 0.037487295 0.016208224 -0.034760196 -0.06393547
-0.030453803 -0.06577544 0.009116946 -0.05953027 -0.030311622 -0.06262244 -0.04824945 -0.07327064
-0.037450276 0.048565876 0.032536622 0.040193208 -0.041095037 0.06083645 -0.06925393 -0.065149814
-0.07397284 0.07561734 -0.025483815 0.022133853 -0.00519467 0.017677616 -0.05608813 -0.06385974
0.008480719 -0.02845512 0.037366074 -0.03420366 -0.01310528 0.013852412 -0.06763476 0.04172235
0.03464604 -0.025056211 -0.06611858 -0.04137484 -0.008765004 -0.0026827015 0.054371014 0.036352016
-0.01769021 0.0024847486 -0.01823108 0.036458135 -0.04815091 0.059923597 0.032827206 0.020797456
0.01812199 -0.045488287 0.0627472 0.021986775 0.03225714 -0.010233222 0.040602908 -0.014257147
-0.022663703 0.012310332 0.0051130475 0.017153615 -0.03594733 0.01081487 -0.009756644 0.022261593
-0.025761021 0.02789237 0.03923932 -0.058515456 0.021654092 -0.03304757 -0.047439884 -0.025883159
-0.017622225 -0.043482214 0.037326515 -0.050074164 -0.031623345 0.01874099 0.027388886 0.0512669
-0.042691488 0.00716057 0.032396536 0.027640637 -0.036481086 -0.0072931824 0.022437595 0.01997379
-0.083038926 -0.044980276 -0.020585181 -0.024772916 -0.0599008 -0.0057580695 -0.020517193 0.0136053255
0.008036173 -0.05970306 0.005444463 0.04483869 -0.008833347 -0.009082575 -0.025491985 -0.026930822
-0.003844065 -0.02429229 0.028553618 0.028059734 -0.025223237 0.03458086 -0.014154433 0.044700947
0.050001748 0.001374323 0.0139510995 -0.028191255 -0.0066017034 -0.0318373 -0.03892591 -0.03898468
-0.03514978 0.022389144 0.034257952 -0.0059782886 -0.01968593 0.03616832 -0.018177517 -0.023370698
