models/continueous_label.pt (torch, 732901 bytes, 10 tensors)

user_id_embedder.weight f4 [5427, 16]
000000 00 00 00 00 00 00 00 00 00 00 00 00 00 00 00 00
       0.0 0.0 0.0 0.0
000010 00 00 00 00 00 00 00 00 00 00 00 00 00 00 00 00
       0.0 0.0 0.0 0.0
000020 00 00 00 00 00 00 00 00 00 00 00 00 00 00 00 00
       0.0 0.0 0.0 0.0
000030 00 00 00 00 00 00 00 00 00 00 00 00 00 00 00 00
       0.0 0.0 0.0 0.0
000040 d3 19 f8 bf 49 7e df be dc 64 6b be a2 d9 17 be
       -1.9382881 -0.43651035 -0.22987694 -0.14829114
000050 92 36 75 bf ab 69 ea 3f 98 1c cf 3f 50 9e 87 bf
       -0.9578639 1.8313497 1.6180601 -1.0595188
000060 7c 17 79 3f 2a 95 d8 3e ae ab d0 3f 43 77 d1 3d
       0.9730146 0.42301303 1.6302392 0.102278255
000070 94 60 49 bf 4f 0b a3 3e ae f1 0f c0 b1 58 08 40
       -0.7866299 0.31844565 -2.249126 2.1304133
000080 9f ce ab bf 32 95 f0 bf c2 41 23 3f 18 6c 25 bf
       -1.3422431 -1.8795531 0.63772213 -0.6461806
000090 fd 67 75 bf 96 fd cb 3d 64 b3 0b bf ca 52 45 40
       -0.958618 0.09960477 -0.54570603 3.083178
0000a0 53 0a 84 bf 9d d4 0c 3f 9b d4 fe be cf 66 57 bf
       -1.0315651 0.5501192 -0.4977158 -0.8414125
0000b0 fb 49 aa 3f 7f 2e c2 3f 4e 53 31 bf c0 6d 9f 3e
       1.3303827 1.517044 -0.6926774 0.3113842
0000c0 87 2a bb bf 18 b7 2f 3f b2 d7 02 bf 89 3b 78 be
       -1.4622353 0.68638754 -0.51110375 -0.24241461
0000d0 39 03 66 3e 53 83 6f 3f 91 d8 88 bd ce 23 82 3f
       0.22462167 0.9355976 -0.06681932 1.0167177
0000e0 cf 14 15 be f3 9d 53 bf 2b b2 9b 3e bb 64 5d 3f
       -0.14558719 -0.82662886 0.3040937 0.8648183
0000f0 e7 00 12 3d 3b e8 59 bd 67 a8 1f bf ef dd aa 3f
       0.03564539 -0.053199988 -0.62366337 1.3348979
000100 d2 c4 32 3e f7 ed 8c bf 99 88 f4 3e 79 34 97 be
       0.17457893 -1.1010121 0.47760466 -0.2953222
000110 62 8a 7d be 03 e4 90 bf 48 df 6c 3f 91 a8 2b bf
       -0.2475982 -1.1319584 0.925282 -0.67054087
000120 9e fb 6e be cf d8 ff be cc 8b 29 bf 4c eb 88 bf
       -0.23338172 -0.499701 -0.6622894 -1.0696807
000130 50 99 7a 3d 05 b4 30 3f 14 a6 b0 3f d5 e2 ee bf
       0.061181366 0.6902469 1.3800683 -1.8662974
000140 46 d2 bc 3d 1b 36 a2 3c 71 33 03 be 25 6c 6d bf
       0.09219794 0.01980119 -0.12812592 -0.9274314
000150 dc 6a 6c be a2 3f 54 3e db b0 6e 3e 43 a1 a0 3e
       -0.23087639 0.20727399 0.23309653 0.31373033
000160 97 26 e6 3f f2 0b 8e be 55 cc a7 be bc f8 c5 3e
       1.7980527 -0.2774349 -0.3277308 0.38666332
000170 29 4e de bd 76 4f 52 be 1f 29 f4 3e 1a 74 a9 3f
       -0.108547516 -0.20538124 0.47687623 1.3238556
000180 41 65 d1 be 9d 93 07 bf 71 d2 bc be 87 ab 07 3e
       -0.40897563 -0.52959615 -0.36879304 0.13249026
000190 2a 8d c8 bc a1 60 94 3d 16 55 2f bf 8e d1 87 3d
       -0.024481375 0.07244993 -0.68489206 0.06631766
0001a0 4d ab 9b 3e 87 1c 6c be f9 3c 99 3e 01 88 ed 3e
       0.3040413 -0.23057757 0.2992933 0.46392825
0001b0 bc 01 df 3d 0b fa 56 be 01 6e 44 bf 82 09 42 3f
       0.10889003 -0.20993821 -0.7673035 0.7579576
0001c0 49 55 b9 3d 86 dd 84 3c 21 60 3e bf 76 a2 a7 bf
       0.0904947 0.016218912 -0.7436543 -1.3096454
0001d0 e7 31 fb be d5 44 71 3f 3f 1d e1 bd fe ac d7 3e
       -0.4906151 0.94245654 -0.109919064 0.4212417
0001e0 99 cb bf bd e7 e5 0d 3f 81 e4 c9 3e 99 f5 74 3f
       -0.09365005 0.5542893 0.39432147 0.9568725
0001f0 57 25 4f bd 1f ff 8c 3e 0e b8 0c bf 34 9e 66 3f
       -0.05057272 0.27538392 -0.54968345 0.9008515
000200 41 97 49 3f 25 55 a8 bf c3 78 96 be 32 41 bd be
       0.7874642 -1.3150984 -0.2938901 -0.36963803
000210 2d c5 53 3e 2f ab 57 be a6 d7 4e 3f 97 c6 04 3d
       0.20680685 -0.21061395 0.80797803 0.032415953
000220 ea 57 47 3f d3 76 2c bf df 90 f4 3d 07 2f 3d 3f
       0.7786852 -0.6736881 0.119416945 0.73899883
000230 75 23 6b 3e 12 52 f6 be 75 2e 51 3e 42 33 eb 3e
       0.22962745 -0.4810949 0.20427878 0.45937544
000240 30 6f 7f 3d 1f b2 57 3e e7 34 04 bf 07 a5 71 be
       0.062361896 0.21064042 -0.5164322 -0.23598109
000250 d1 de 01 be 94 44 74 3f 16 99 6f be ba f3 5c 3f
       -0.12682654 0.9541714 -0.23398241 0.863094
000260 a5 37 22 3e 56 b1 45 bd 11 8b 3c 3e 13 ad 1d 3f
       0.15841539 -0.048264824 0.18412425 0.61592215
000270 91 75 1c be 74 95 1e 3f dc 98 9d be f2 eb 3a 3f
       -0.15279223 0.619468 -0.30780685 0.73016274
000280 c3 89 20 3e bd 0b 22 bf bc 62 d5 be 81 61 c6 be
       0.15677552 -0.6329916 -0.4167689 -0.38746265
000290 0e 55 81 bf 37 ae 03 3f 94 4d a5 bf 25 6f 69 3e
       -1.0104082 0.51437706 -1.29143 0.22796305
0002a0 fa 73 50 3f 37 d2 ef be 11 76 c9 3e 48 e9 c2 3d
       0.81426966 -0.4684007 0.3934789 0.09517151
0002b0 a7 2d 19 be c5 b0 51 3f d4 ce 2e bf 0d b9 f3 3f
       -0.14958821 0.81910354 -0.68284345 1.9040848
0002c0 a8 5c c5 bc e0 98 05 3f 8f 03 97 bf c0 88 6b bf
       -0.024092034 0.52186394 -1.1797961 -0.9200554
0002d0 be 79 0c bf 0a 98 99 3f 8b 28 5e bf e6 f5 9e 3f
       -0.54873264 1.1999524 -0.86780614 1.2418792
0002e0 b6 b7 69 3f 60 3c a5 be 77 9c 34 3f 5f 93 0c 3f
       0.91295946 -0.32272625 0.70551246 0.5491237
0002f0 cc 82 58 3e 33 c7 7e bf a3 91 62 be d1 c5 78 3f
       0.21143645 -0.99522704 -0.22125868 0.97176844
000300 a9 1c 95 bf 2a 70 5c bf 92 26 d2 bf 85 8c df bf
       -1.1649371 -0.8610865 -1.6418021 -1.7464758
000310 02 a4 49 bf 4b 0c 70 3f 4f 61 34 3e 21 8f 85 3f
       -0.7876588 0.9376876 0.17615245 1.0434304
000320 8e 04 83 3f f8 1d 88 bf 81 c3 9d be d2 b8 a6 bf
       1.0235765 -1.0634146 -0.3081322 -1.3025153
000330 a8 b6 6b 3f d9 38 12 be cd 48 96 bf 4f de 10 3f
       0.92075586 -0.14279498 -1.1740967 0.56589216
000340 14 cb 14 bf 5e 8e 41 be 25 5a 3f 3f 06 0e 2f bf
       -0.5812237 -0.18901965 0.74746925 -0.68380773
000350 0d 86 3f be 08 4a b4 3f d5 a3 aa bf 6a 15 a7 3f
       -0.1870348 1.4085093 -1.3331248 1.305341
000360 24 a4 7f 3d e5 9a e2 3d e4 f9 6c be 8b 77 89 3e
       0.062412396 0.110647 -0.231422 0.26849017
000370 94 bd 36 3d 9a a2 87 bf 34 b5 84 3d 26 ef bf 3e
       0.04461439 -1.0596497 0.06479874 0.37487143
000380 20 25 09 bc ab d1 65 3d 71 97 a9 bd c5 60 1d bd
       -0.008370668 0.056108158 -0.08280838 -0.038422365
000390 e7 6e aa be e5 43 10 3f b1 0b ad be 83 fd e0 bd
       -0.33287737 0.563536 -0.33797982 -0.109858535
0003a0 39 48 2b bd 66 aa 5f be 43 4f 0f 3f 03 d1 03 be
       -0.041816924 -0.21842346 0.5598032 -0.128727
0003b0 4d 27 92 3e c4 2e d2 3e ac 0a 82 be cd 8f cb 3e
       0.2854561 0.41051304 -0.25398767 0.3975815
0003c0 86 d4 1b 3f 0c ea f3 be 18 6a cf be a0 22 da bc
       0.6087116 -0.476395 -0.4051063 -0.026627839
0003d0 f1 01 4a 3f 65 7c 47 be 75 0b c9 3d fd 28 67 be
       0.7890921 -0.19481046 0.098166384 -0.2257423
0003e0 14 24 95 be b0 58 76 bd 7f 10 64 bd d1 81 9e be
       -0.29129088 -0.060143173 -0.055679794 -0.30958417
0003f0 6e b9 05 be 94 a4 0f 3d f7 75 56 3e 04 ec 28 3f
       -0.13059017 0.035069063 0.20943438 0.6598513

song_id_embedder.weight f4 [3272, 16]
000000 00 00 00 00 00 00 00 00 00 00 00 00 00 00 00 00
       0.0 0.0 0.0 0.0
000010 00 00 00 00 00 00 00 00 00 00 00 00 00 00 00 00
       0.0 0.0 0.0 0.0
000020 00 00 00 00 00 00 00 00 00 00 00 00 00 00 00 00
       0.0 0.0 0.0 0.0
000030 00 00 00 00 00 00 00 00 00 00 00 00 00 00 00 00
       0.0 0.0 0.0 0.0
000040 96 b7 32 be f2 3e d1 be 62 fe 4d be b2 d7 44 be
       -0.17452845 -0.40868336 -0.2011657 -0.19222906
000050 94 db 72 bd 8c 3e 41 bb 5b 9d b0 be d7 5c 22 bd
       -0.059291437 -0.0029486744 -0.34495053 -0.03963932
000060 12 46 95 bb 93 f3 c9 3e 75 8a 39 3e a7 82 f2 3d
       -0.004555472 0.39443645 0.18119223 0.11841326
000070 84 01 b6 be 49 96 f2 3c 57 a4 9c bf cf 34 e6 3e
       -0.3554803 0.029612677 -1.2237653 0.44962165
000080 5b c5 f0 be 8b 7f 7f be d3 6e 4b be f5 04 db 3d
       -0.4702557 -0.24950998 -0.19866495 0.10694305
000090 6f 84 d7 be f5 fd 20 3e 80 58 e0 3c 1a a2 18 be
       -0.42093226 0.15721877 0.02738595 -0.14905587
0000a0 d6 26 ad 3e 4a bd d9 3c 43 31 da 3e c2 92 2f 3f
       0.33818692 0.026579518 0.4261571 0.6858331
0000b0 5c db a6 3e 75 c9 51 be c7 8f 12 3d c8 c2 af 3e
       0.32589233 -0.20487006 0.035781648 0.34328294
0000c0 7a d5 ef bd bf 49 59 bf a8 10 8b 3e 5e 70 1a 3f
       -0.11710639 -0.8487815 0.27161145 0.6032771
0000d0 78 aa 00 bf 32 dc a7 bd 7d b0 20 bf f1 fd 05 be
       -0.50260115 -0.08196296 -0.627693 -0.13085152
0000e0 9e af 50 be 41 68 9d be 79 e6 b4 3e fa 1b 0d 3f
       -0.20379493 -0.30743602 0.35332087 0.55120814
0000f0 14 96 c5 be a2 77 d9 3d fe c4 83 bc 49 e7 97 3d
       -0.38591063 0.10618521 -0.016085144 0.07417161
000100 95 16 01 bf 9f cb a4 3d d1 c9 88 bd c6 15 e5 be
       -0.5042508 0.0804665 -0.066791184 -0.44743174
000110 93 c3 30 bf 16 73 96 3d f8 28 2b 3e 3c 1b 0d bf
       -0.6904842 0.0734617 0.16714847 -0.5511968
000120 00 60 8c be a6 ae 96 be c9 3a 1b bd 3e d3 b7 3e
       -0.27416992 -0.2943012 -0.03789786 0.35903352
000130 2b 53 a9 3e 12 a5 81 be 86 7f 11 bd 6f 16 8d 3d
       0.33071265 -0.2532125 -0.035522006 0.068890445
000140 93 32 77 3d 4f f3 c7 be b1 8e 9b be 97 35 f9 be
       0.060350966 -0.39052817 -0.30382302 -0.48673698
000150 dd 5e b3 be bb 12 b7 3e fc ec a6 be 8d fc 4d be
       -0.35033312 0.35756478 -0.3260268 -0.20115872
000160 ea a2 34 3c ac b5 8e 3e d7 57 4f bc ed 23 cf 3e
       0.01102517 0.2787298 -0.01265522 0.40457097
000170 4d 96 24 be 25 fa 5f be df 84 24 bf 82 4c f7 3e
       -0.1607296 -0.21872766 -0.64265245 0.48300558
000180 02 5b 02 3d e1 56 8e 3d 9d 59 6f be 52 f2 cc be
       0.031825073 0.069501646 -0.23374029 -0.40028626
000190 80 f1 fe be ec ce 13 3d d8 18 c9 bd d2 38 d2 3e
       -0.49793625 0.036086008 -0.09819192 0.41058975
0001a0 b0 63 da 3e 69 64 e0 3d b1 be 89 3f 0d 8f 1b 3f
       0.4265418 0.10956652 1.0761319 0.60765153
0001b0 d2 bc aa be 54 13 80 3e 53 e9 42 be 79 ec 2a 3f
       -0.33347183 0.25014746 -0.19034319 0.6676708
0001c0 db 6d d4 3c 28 8a 91 be f8 03 32 bf b8 91 f1 3e
       0.02593129 -0.28425717 -0.69537306 0.47181487
0001d0 55 d7 f1 3e 9e 39 03 3f ed 35 34 bd 40 1f a6 3e
       0.47234598 0.5125979 -0.04399674 0.32445717
0001e0 00 3b 0e 3f 0a 3b ba 3d d8 5c f6 be b4 9a 10 be
       0.55558777 0.09093292 -0.4811771 -0.14121515
0001f0 51 03 3b 3f fb a2 10 3e 99 ef bb be 0a d9 9f 3f
       0.73051935 0.14124672 -0.36706236 1.248811
000200 a2 0b 55 bd da b5 bc be 86 8b 7d bf 69 6f 27 3e
       -0.052013047 -0.36857492 -0.9904102 0.16351093
000210 47 fd 6b be 18 de b2 3f 61 45 ec 3e 5f 2f 07 bf
       -0.23045836 1.3974028 0.46146682 -0.5280666
000220 12 f7 93 be b2 4a 04 bf 71 47 c1 bd cd cc c0 3d
       -0.28899437 -0.51676476 -0.094374545 0.09414063
000230 c4 d0 95 3e 4e ce 89 bf e9 6b 09 3f 61 5e 5c 3f
       0.29260838 -1.0766084 0.5368028 0.8608151
000240 c3 e3 14 3e 3f cd 21 be d3 cd 16 3f 53 86 28 bf
       0.14540009 -0.15800951 0.5890781 -0.6582996
000250 d9 20 f8 3d f6 32 af 3e 48 ff 11 bf 35 b0 c1 bc
       0.1211564 0.34218568 -0.57030153 -0.023643592
000260 72 e6 a7 3e b4 50 25 3d 6e 25 5c 3e f6 ca 48 3e
       0.32793003 0.040360168 0.21498653 0.19608673
000270 ea 89 57 be e2 14 2d 3e 27 0e 05 bf d8 3e 1f 3f
       -0.21048704 0.16902497 -0.5197472 0.62205267
000280 c7 b2 9d be 8f 3f 24 bf 64 ab bd be 74 9c 6d 3e
       -0.3080046 -0.6415948 -0.37044823 0.23204213
000290 3e 53 59 3e 85 9e 81 bd 3b 7f 79 bf 09 4b a2 be
       0.2122316 -0.06329063 -0.97459763 -0.31697872
0002a0 3a 95 f8 3e 6a 40 58 bf 22 0e 0e bf 62 b2 1b 3f
       0.4855135 -0.8447329 -0.55490315 0.60819066
0002b0 06 cf a3 3e 26 98 eb 3e b7 cf 19 bf 6d 87 1c 3f
       0.31993884 0.46014518 -0.6008257 0.61144143
0002c0 42 1c 0f bf 61 88 08 3f e3 fe 06 3f ad 33 40 bf
       -0.55902493 0.533331 0.52732676 -0.7507885
0002d0 3a 43 fc be f1 a8 27 be dd 80 46 bf 2a bb 61 be
       -0.4927004 -0.1637304 -0.7754038 -0.22044054
0002e0 71 3b 47 3d fb 48 45 3f b2 cc 42 3f 6b f2 ab bc
       0.048640672 0.77064484 0.7609359 -0.020989617
0002f0 6e 49 f3 be 99 c5 4f 3f 62 2d d1 bd 31 32 6f 3f
       -0.4751696 0.81160885 -0.10213734 0.9343596
000300 11 90 19 3e 13 8e 42 3f 93 65 d8 be b1 cb e5 3e
       0.14996363 0.7599804 -0.42264995 0.44881967
000310 ab 56 64 3e 2c 1b 89 3f a4 95 47 3e 9b 80 56 3f
       0.22298686 1.0711417 0.19490677 0.83789986
000320 29 41 e2 3e ad 56 54 3e 10 2d a8 3e ca a8 0f 3f
       0.44190338 0.20736189 0.3284688 0.56116927
000330 1a 9e 2f 3e 98 e4 8b bd 97 74 ba 3c 61 41 70 3e
       0.17150155 -0.0683071 0.022760672 0.2346244
000340 43 0a dd bd 5a 68 38 3e 10 0b da bd 1f 2b 96 3d
       -0.10792973 0.18008557 -0.10646641 0.073324434
000350 a6 ac 88 be 30 05 96 bc a6 cd f4 be c1 ba 1c be
       -0.2669422 -0.01831302 -0.47813147 -0.15305616
000360 d8 fd b1 bd 56 96 71 bd b7 ec 85 3e 69 14 40 3f
       -0.08690995 -0.058981262 0.26157162 0.75031143
000370 1e a9 3b 3f e6 93 d7 3e 60 31 f5 3d 19 29 96 3e
       0.7330493 0.42105025 0.11972308 0.2932823
000380 98 16 19 be 30 b9 2c 3e ee bb 28 3c be 01 50 bf
       -0.14950025 0.16867518 0.010298712 -0.8125266
000390 36 52 b2 be 2e 24 21 3f 57 5a 01 bf 26 b4 bd 3d
       -0.34828347 0.6294583 -0.5052847 0.09262876
0003a0 74 75 a5 be 3c ae 8e 3d 1b 59 07 3e 35 e0 1b 3f
       -0.32316172 0.06966826 0.13217585 0.6088899
0003b0 90 fa 7a 3e 91 41 ae 3e 6a fa 32 3e 64 e1 30 3e
       0.24509645 0.34034398 0.17478338 0.1727348
0003c0 be 7f 11 bf 76 43 95 be 54 3b 0c be 73 fb 4e be
       -0.56835544 -0.2915303 -0.13694507 -0.20213108
0003d0 95 2a 8c be 79 c7 56 3d fe 33 a6 be d6 e9 ac be
       -0.27376238 0.052436326 -0.32461542 -0.33772153
0003e0 5f 87 80 be 5c 5d 0f bd ad 45 12 3f a0 f1 59 3e
       -0.2510328 -0.035001144 0.57137567 0.21283579
0003f0 31 5e f9 3e 64 30 8d be 73 1c 0e 3e b3 6c 31 3e
       0.48704675 -0.27575982 0.1387804 0.17326622

user_tower.network.0.weight f4 [256, 5]
000000 49 83 b0 be 9f e3 51 3e 1c 30 e0 be c0 cf a7 3e
       -0.34475163 0.20496987 -0.43786705 0.32775688
000010 56 16 76 be d4 d6 62 be c9 8f d1 be 71 70 8d 3e
       -0.24031958 -0.22152263 -0.40930012 0.27624848
000020 a2 89 7c 3e af dc 56 3c 12 37 5b bd 57 3e c0 bd
       0.24661878 0.0131141385 -0.053519316 -0.093868904
000030 2d 2e c6 3e 34 01 b5 3c 49 0d 11 bb 4d 99 a3 be
       0.38707104 0.0220953 -0.0022133163 -0.31952897
000040 6c fc 7d 3e 83 65 aa 3e b6 32 a3 3e 64 45 ae 3e
       0.24803323 0.33280572 0.31874627 0.34037316
000050 6f 13 c0 3d 4e 76 b2 bd 70 0d 95 3e a1 1f 4c be
       0.09378707 -0.08713971 0.29111814 -0.1993394
000060 c5 18 4e be c1 7b cb 3c 7a 38 c1 3e 0f e2 c5 3e
       -0.20126636 0.024839284 0.377384 0.38649032
000070 08 a3 1c be a0 37 aa 3c 38 32 0e be 62 05 be 3e
       -0.15296566 0.020778477 -0.13886344 0.37113482
000080 f9 02 09 bd d3 61 13 bd 26 af 71 be 2f 8e b6 be
       -0.0334501 -0.035981964 -0.2360197 -0.35655352
000090 2b 96 af 3d 9e c1 a7 bd ae ee 9f 3e 7b 2b 94 3d
       0.08573564 -0.081912264 0.31236786 0.07234856
0000a0 c7 00 b5 3d 5b 99 b5 3e d3 d0 67 be 0e 26 fc bd
       0.08838039 0.35468563 -0.22638254 -0.12311946
0000b0 21 08 26 3e 6b b0 70 3d 73 90 e5 3c 98 63 a4 be
       0.16214038 0.058761995 0.02802298 -0.32107234
0000c0 48 3c 0d 3e c3 22 88 be 45 90 ee bc ea 2e d5 3e
       0.13792527 -0.2658902 -0.029121527 0.41637355
0000d0 77 2c c1 be 0a 7e aa be 49 00 89 3e e7 4f c9 bc
       -0.37729236 -0.33299285 0.2675803 -0.024574233
0000e0 25 ee 7f be b9 8b a0 3e 15 7c bf be 1f 41 c4 bd
       -0.24993189 0.313566 -0.37399355 -0.09582733
0000f0 aa 9e 91 3e 6d ab e6 bd c0 ad ce be 4d 9e e3 be
       0.28441364 -0.112631656 -0.40366936 -0.4445671
000100 e2 15 01 be 17 38 e6 bd 52 eb d0 3e e2 a3 58 3e
       -0.12606004 -0.11241167 0.40804535 0.21156266
000110 64 7c 7b bd 8d cd cc be fe 74 bb be f1 e3 92 3e
       -0.061397925 -0.40000573 -0.36612695 0.2868953
000120 dd aa 22 3e 84 23 c8 be 84 a7 94 3c 8d d6 b4 be
       0.15885492 -0.39089596 0.018146284 -0.3531994
000130 2b df ae be eb 31 95 3e 68 25 a7 be 20 74 b1 be
       -0.3415464 0.29139647 -0.32645726 -0.3465891
000140 1f 25 76 3d c9 fe 09 be 2c c5 d5 be a1 3e 51 3e
       0.060093995 -0.13476099 -0.41751993 0.20434047
000150 f6 70 e0 3e b3 e1 91 3e 6e ad 40 3e a8 b2 5e 3e
       0.43836182 0.28492507 0.18816158 0.2174784
000160 79 ef b2 3e 39 0c 4e be c1 d3 cb 3e ec 67 57 be
       0.34948328 -0.2012185 0.39809993 -0.21035737
000170 a2 39 0a 3b b4 5f c0 3d 89 40 a6 be 0b 54 b0 3d
       0.002109148 0.09393254 -0.3247111 0.0860978
000180 06 a4 92 3e d9 23 b0 bd 91 10 c8 3e 6a 6b 5b be
       0.28640765 -0.086005874 0.3907514 -0.21427694
000190 8e e5 d8 bc 38 01 80 3e 90 2a bf 3e 84 4d da 3e
       -0.026476648 0.2500093 0.3733716 0.42637265
0001a0 2d 4f 80 3e 72 fb d1 3e 54 2a 4c be 4d 94 a4 bd
       0.25060406 0.4101215 -0.19938022 -0.08036099
0001b0 0f 6b 70 3e a1 74 85 3e 03 91 c5 be 82 44 d4 bd
       0.2347834 0.26065543 -0.38587198 -0.10364629
0001c0 be ae 69 be 3a f4 d9 3e dc d8 41 3e c8 82 8d 3e
       -0.22820565 0.42569143 0.18930382 0.2763884
0001d0 8c ab ca 3e b3 7f 96 3e a9 67 89 3d 28 f2 36 3e
       0.39584005 0.29394302 0.06709225 0.17865813
0001e0 e5 fa 77 be 19 92 5d 3e 4f 38 9d 3e db 48 9e 3e
       -0.24216802 0.21637763 0.30707023 0.3091496
0001f0 e8 9f 4a be b4 54 89 3e be 46 b6 3e a0 22 65 be
       -0.19787562 0.26822436 0.35600847 -0.2237649
000200 1d 33 33 be 9a ae 93 3b 40 c3 10 3e 5f 55 fe 3d
       -0.17499967 0.004506898 0.14136982 0.12418627
000210 0b 47 c3 3e e5 b5 d4 3e e8 90 87 3e ec d3 84 be
       0.3814014 0.41545025 0.26477742 -0.25942934
000220 a0 65 a6 3e 2f b9 ea bc d1 6a c1 be d8 bc 8b 3e
       0.3249941 -0.028652756 -0.37776807 0.27292514
000230 5b 00 91 be 69 52 46 3e f4 31 a4 bd 39 01 5c 3e
       -0.28320584 0.19367374 -0.0801734 0.21484841
000240 72 6b bd be 6b 14 66 be 65 b6 de bd 94 a7 d5 be
       -0.36996037 -0.22468726 -0.10874633 -0.41729414
000250 99 e1 af be 7f b4 23 bd c6 90 c1 3e 90 6d cb 3e
       -0.34351805 -0.039967056 0.37805766 0.39732027
000260 be 6b 33 be c4 11 d9 be 7c eb 42 be f3 69 d9 be
       -0.17521569 -0.42396367 -0.19035143 -0.42463645
000270 65 68 f0 3d 9c cf 7d 3c bf 90 95 bd 44 a2 d4 3e
       0.11738662 0.015491392 -0.07302999 0.4153005
000280 e3 f6 bd be 4a 33 64 bc 17 54 ce bd ff bd 38 3e
       -0.37102422 -0.013928244 -0.100746326 0.18041228
000290 4a e2 5c be ec 3b 4d bc 03 e4 c8 be e8 e7 ab 3d
       -0.21570697 -0.0125264935 -0.3923646 0.08393842
0002a0 1c 20 0e be 4e 94 d7 be cc 45 05 3e f4 72 b0 3e
       -0.13879436 -0.42105335 0.13014907 0.34462702
0002b0 f8 be ad bd b1 02 9d 3e 1f a5 20 bd e0 a2 a0 3d
       -0.0848369 0.30666116 -0.03921997 0.07843566
0002c0 c8 33 c6 be fa f1 6f bd 03 cb 49 be 06 bf ca be
       -0.3871138 -0.058580376 -0.19706349 -0.39598864
0002d0 e1 b3 cd be 52 df ce be 9a 8e 87 3e c2 95 24 be
       -0.401763 -0.40404755 0.26475984 -0.16072753
0002e0 92 80 bb be d6 f6 ba be 4b e5 d3 3e 23 30 ed 3e
       -0.3662153 -0.36516446 0.41385874 0.46325788
0002f0 12 d3 2e be 24 19 ba be 2c a9 64 be a3 33 aa be
       -0.17072704 -0.36347306 -0.22330159 -0.3324252
000300 d5 d2 8c be f9 a6 61 3e 17 ce 87 be 31 37 ab 3e
       -0.27504602 0.22036351 -0.26524422 0.33440545
000310 6a b2 bc 3d fc fe a2 be ea 2c 37 be eb 02 85 be
       0.09213717 -0.31835163 -0.17888227 -0.2597879
000320 f4 19 38 be b4 0f 26 3e 41 1f a0 be eb 22 62 be
       -0.1797865 0.16216928 -0.31273845 -0.22083633
000330 db ce b3 be 79 56 0e 3e 7b 51 13 be 8e 11 83 be
       -0.35118756 0.13900174 -0.14386551 -0.2559933
000340 d5 e9 07 bd 36 f3 ec bd 4a ab e4 3e 2e 36 da 3c
       -0.033181984 -0.11569826 0.44661933 0.026637163
000350 49 55 a3 bd 82 80 34 be c8 11 75 be 96 5e 01 be
       -0.07975251 -0.17627147 -0.23932564 -0.12633738
000360 c1 fb e6 3d f4 a5 ea bc 57 db 93 be 83 79 c7 3e
       0.11278487 -0.028643586 -0.2887828 0.38959894
000370 51 fb 10 3d 82 53 22 be 20 95 3c be 50 7e b8 3d
       0.035395924 -0.15852168 -0.18416262 0.09008467
000380 ed d7 bb 3e 70 2c 3e be f2 a0 95 be 70 d1 1c 3e
       0.36688176 -0.18571639 -0.29224354 0.15314269
000390 45 a7 92 3e d8 cf 94 ba 62 09 be 3e 36 f8 27 bd
       0.28643242 -0.0011353446 0.37116534 -0.041008197
0003a0 a9 f9 1f be ed e7 bb 3e 06 c0 a6 be ab 5e a0 bd
       -0.15622582 0.36700383 -0.32568377 -0.078305565
0003b0 5b d1 02 3e d3 7a 2d be 39 79 b2 3e 28 59 d4 be
       0.12775175 -0.16941385 0.3485811 -0.4147427
0003c0 28 83 be be 0e 76 e4 3e 4b 41 7d be 11 02 55 be
       -0.3720944 0.4462132 -0.24731939 -0.2080157
0003d0 fd b3 4d 3e 7a 73 ea 3d ad 09 bb 3e 76 d4 2f bd
       0.20088191 0.11447807 0.3653082 -0.042927228
0003e0 50 d2 a6 be dc 96 5b be bd 93 b1 3d 0b 8c b4 3e
       -0.3258233 -0.21444267 0.08670757 0.35263094
0003f0 9c a6 b9 be a3 28 9b be 45 6a d7 bd 5f 27 85 be
       -0.36259925 -0.3030444 -0.10518316 -0.260066

user_tower.network.0.bias f4 [256]
000000 e9 62 d1 be de 4f 9b bd 74 72 4d 3d bc 6a 21 be
       -0.40895775 -0.07583593 0.05015798 -0.15763372
000010 1a de 4a 3e 96 91 15 3e 31 b7 0e bd 0a b3 92 bd
       0.19811288 0.14606318 -0.034842674 -0.07163055
000020 33 ba a3 bb 6d 22 fe 3d eb 9e 5f bb 40 95 aa bd
       -0.004996562 0.1240891 -0.0034121822 -0.083292484
000030 41 8a cc 3e 18 c9 7c 3e 4f 36 31 be 5d 9a 86 3e
       0.3994923 0.24686086 -0.17305873 0.26289645
000040 7f b0 c0 3e 54 11 bd 3e 0d 9f 43 be 7b dd d5 be
       0.37634656 0.36927283 -0.19103642 -0.4177054
000050 8f 71 99 be b6 22 d3 3e 55 3d 5a be 91 dd ba 3e
       -0.2996945 0.4123742 -0.21312459 0.36497167
000060 21 dd ea bd 38 6d aa 3e 86 9d b9 3e 91 7f dd 3e
       -0.11467958 0.33286452 0.36252993 0.43261388
000070 23 6d 19 be e4 04 cd be e4 83 a8 be 7b dc 2b be
       -0.14983039 -0.40042794 -0.32913125 -0.16783325
000080 6e 31 28 3e 0a ce 9d 3d 8b c8 a8 3d 3f a6 bf be
       0.16425106 0.077053145 0.082413755 -0.37431523
000090 30 a1 93 3e 5f 57 62 be 04 0f 82 be be fe 9d 3e
       0.28833914 -0.22103642 -0.2540208 0.30858415
0000a0 4a cb 96 3e f3 23 b3 be c8 31 a7 bb 47 a9 78 be
       0.29451972 -0.34988365 -0.00510237 -0.24283324
0000b0 bd dd f7 3d b6 38 91 be 56 87 3d 3e 64 24 5c be
       0.1210284 -0.2836358 0.18508658 -0.21498257
0000c0 18 e6 66 3e 00 44 9a 3e 38 98 2e 3e f0 e4 d8 be
       0.22548711 0.30130005 0.17050254 -0.42362165
0000d0 65 27 b4 3e e3 ad 73 be 74 61 c7 3d 81 0c 84 3e
       0.35186306 -0.23796801 0.097353846 0.2579079
0000e0 66 40 69 3e 56 65 9d be 07 f8 97 be 13 b7 9b 3e
       0.22778472 -0.30741376 -0.29681417 0.30413112
0000f0 6a 26 eb bd 0b 5a 8a be c6 11 e5 be d3 8d 83 3d
       -0.11481936 -0.27021822 -0.44740123 0.06423535
000100 f6 ba 76 be 31 07 cb be cd ea e5 3e df 65 91 be
       -0.24094757 -0.39653924 0.449057 -0.28398034
000110 0f 88 1d 3e a5 ea be be a8 c9 33 be 4c 79 c9 be
       0.15383933 -0.37288395 -0.17557395 -0.39350355
000120 9a 9e 8e bd b3 3e 42 3e 91 53 a5 be 2d 3a 44 be
       -0.069638446 0.1896923 -0.3229032 -0.19162817
000130 04 08 91 3e 3f 86 a2 3e 06 bb 56 be d3 15 e1 be
       0.28326428 0.31743047 -0.20969781 -0.43961963
000140 a6 c7 b8 be 94 0e da be 8d 32 1e be 20 be 03 be
       -0.3608982 -0.42589247 -0.15448971 -0.12865496
000150 ae 26 b4 be 22 36 86 be 0c 2d 32 3e 5a 44 45 bd
       -0.3518576 -0.26213175 0.17399997 -0.04816089
000160 9e 90 c2 3e 17 45 8e be 43 ff 79 3d bc 8b 54 3e
       0.3800096 -0.27787086 0.061034452 0.2075643
000170 8e 83 9d 3e 32 00 6c 3e d0 38 bd 3a cb 7b e1 bd
       0.3076443 0.2304695 0.0014436487 -0.1100994
000180 e5 e4 41 3e 46 f2 51 3e ee 67 08 be 0a 41 51 3e
       0.18934973 0.20502576 -0.13320896 0.20434967
000190 7e ae b9 3e 01 1a 94 3e 76 a0 9e be cc 75 d5 3e
       0.3626594 0.2892609 -0.30981797 0.41691434
0001a0 db 5d 75 3e 13 54 85 3d 6c fc af bc 57 c6 27 3e
       0.23961584 0.065101765 -0.021482669 0.16384254
0001b0 2c 76 03 3e 70 36 ef 3d 44 91 9d be 07 73 35 3e
       0.12838048 0.11680305 -0.3077489 0.1771966
0001c0 5e f7 38 be ca 37 4e be 3d 6a 81 3e c0 a5 97 bc
       -0.18063113 -0.2013847 0.25276366 -0.018511653
0001d0 1f 95 1e 3e 3a 2e 9b be c0 57 25 be bc f1 aa 3e
       0.15486573 -0.30308706 -0.16146755 0.33387554
0001e0 8e 15 6b 3e de 41 f7 bd 15 25 e0 3c 4e fb a7 be
       0.22957441 -0.1207311 0.027361432 -0.32808918
0001f0 eb 49 dc be c9 f7 03 3e f9 b6 9b bd ec 2c 91 be
       -0.43025145 0.12887491 -0.07603259 -0.28354585
000200 8e e2 9f 3e f7 2f a1 3d 82 5c a9 be f0 0a bc 3e
       0.31227535 0.07870477 -0.3307839 0.36727095
000210 88 38 75 bc 4d e4 18 bd 25 2e 5c be 62 c9 08 3e
       -0.014967091 -0.0373271 -0.21501978 0.13358071
000220 9e b3 43 3e d5 4d 98 3e f6 d9 89 3c bd b9 9b 3e
       0.19111487 0.2974688 0.016827565 0.30415145
000230 eb 16 e9 be f3 3b 2d 3d 3e d6 28 bd f9 7f ca be
       -0.45525298 0.0422935 -0.041219942 -0.3955076
000240 2b 76 e1 be e6 2a 8b be 42 11 60 be c7 70 3d 3e
       -0.44035468 -0.27181166 -0.21881583 0.18500052
000250 14 54 11 be 68 2f c6 3d d7 62 ae be 9a 02 90 be
       -0.1419223 0.09677011 -0.34059784 -0.28126985
000260 d3 06 8e 3e b7 72 2f be 8d f1 d1 be f4 09 8a 3d
       0.2773958 -0.17133604 -0.410046 0.0674018
000270 ef 1f a0 bd 35 f3 62 be e7 23 a8 be 96 84 8e 3e
       -0.07818591 -0.22163089 -0.3283989 0.2783553
000280 d7 b6 66 3e f4 01 97 3d 57 91 5a 3e 09 4c 96 3d
       0.22530685 0.073734194 0.21344505 0.07338721
000290 8d 96 c2 3d 70 ba a8 3e 31 62 74 be 6c 0e 91 3e
       0.095013715 0.3295474 -0.23865582 0.28331316
0002a0 97 d5 b2 be 68 79 11 bd 9c 7d 2b be 2d 09 aa 3d
       -0.3492858 -0.035516173 -0.16747135 0.083025314
0002b0 d0 f8 d4 be f6 4c e0 be bf 11 50 be 94 0b 1c bc
       -0.4159608 -0.43808717 -0.2031927 -0.009524245
0002c0 f8 94 e0 bd 21 11 62 3d 3e d7 d7 3e 88 3b ad 3e
       -0.109659135 0.055192117 0.42156404 0.3383448
0002d0 e4 5f b7 3e 1e 3b c1 3e 48 c1 aa 3e cd cc 1b 3e
       0.35815346 0.37740415 0.33350587 0.15214844
0002e0 da 65 c7 3e e0 e7 6b 3e 01 d0 26 3e 10 92 ff bd
       0.38944894 0.23037672 0.16290285 -0.12479031
0002f0 92 67 be bd 88 5d 09 3e f6 9d 36 be c3 20 0b 3c
       -0.09297098 0.13414586 -0.17833695 0.008491698
000300 07 ac e1 3e 3f 90 dc 3e dd a7 df 3a 90 96 95 3d
       0.4407656 0.430788 0.0017063577 0.07304108
000310 e4 fa 6f 3e f7 85 b7 3e 7b 2b 80 3e 75 23 99 3e
       0.23435551 0.35844395 0.25033173 0.29909864
000320 65 80 32 bd df be 2a be 03 8f 6d 3e 3f 13 9f 3e
       -0.043579478 -0.16674374 0.23199086 0.3106937
000330 db ef 51 be 25 b9 52 be 2b 15 00 be 6d 03 e9 be
       -0.20501654 -0.2057844 -0.12508075 -0.45510426
000340 2b cf 27 bd b9 aa 28 3e 62 a5 ab 3d 50 82 c6 be
       -0.040969055 0.16471376 0.08381154 -0.38771296
000350 76 82 d6 3e 3e 8b aa 3e f9 e6 92 bc 22 58 8c 3d
       0.4189641 0.33309358 -0.017932402 0.068527475
000360 8b 4c a9 bd 8d 9d 8c be e6 dd b1 3e 58 87 e2 be
       -0.082665525 -0.27463952 0.34739608 -0.44243884
000370 59 d3 46 3e 78 a1 b8 be 3d 08 78 be 4e 2a e2 be
       0.1941656 -0.3606069 -0.24221893 -0.441729
000380 3c 5f bc 3e 36 c2 17 be 0b 57 23 be 37 ae b5 39
       0.36791408 -0.1482018 -0.15951173 0.0003465281
000390 c2 8f 59 3e c7 af cc be 75 ee c4 3e 3d 09 a7 3e
       0.21246246 -0.39977857 0.38463178 0.32624236
0003a0 ae 0b ba be 0b 6c 38 be ca f0 c7 be 0a 21 91 be
       -0.36337036 -0.18009965 -0.39050895 -0.2834552
0003b0 40 36 8f be 04 1a f0 3d 62 2b f1 3c 21 f2 b6 3e
       -0.27971077 0.11723712 0.029439632 0.35731605
0003c0 7b 46 c7 be ea e3 0c 3e 94 bd ba bc d6 68 83 3e
       -0.3892096 0.13758817 -0.022795476 0.2566592
0003d0 e0 fe b3 bd 9e d2 d3 be aa 9e 22 bc a1 a9 2e 3b
       -0.08788848 -0.41371626 -0.009925524 0.00266514
0003e0 4c 51 1a be 67 e3 c7 3e a1 be ed 3e fe 6b 89 be
       -0.15070075 0.39040682 0.464345 -0.26840204
0003f0 07 b5 d0 bd 25 a7 b3 3e 73 c4 80 bd b3 87 55 be
       -0.10190778 0.3508846 -0.0628747 -0.20852546

user_tower.network.2.weight f4 [16, 256]
000000 2c 65 9d 3c 50 15 4d 3c 2a bd 33 bd a8 4d d5 3c
       0.019213282 0.012517288 -0.043881573 0.026038006
000010 f6 0a 7b bd 82 e3 70 bd 10 1d 61 bd 08 61 39 bd
       -0.06128975 -0.05881072 -0.054959357 -0.04525855
000020 84 77 32 bd a6 25 47 bd 28 e6 45 bd 6c 4b 6c bd
       -0.04357101 -0.04861989 -0.048315197 -0.057689115
000030 6e 53 00 bd b0 53 27 3c 48 5e bd bc a8 82 d6 bc
       -0.031329565 0.010212824 -0.023116246 -0.026185349
000040 26 89 4f 3d b8 53 cd bc a8 4e 55 3c 20 44 d2 bb
       0.050667904 -0.025064334 0.013019241 -0.0064168125
000050 ae da 5f bd 64 e1 4d 3d 40 9a ad ba 12 66 3f bd
       -0.05465191 0.050263777 -0.0013244823 -0.0467282
000060 c0 e2 71 3d 74 e7 57 3d 0c 71 3f bd 20 44 fb bc
       0.059054136 0.052710965 -0.04673867 -0.030672133
000070 30 90 a6 bb 5c 9e 1a bd 2c 0a c8 3c 8a 55 46 bd
       -0.0050831065 -0.03774868 0.024418913 -0.04842142
000080 9c 4e b1 3c f8 09 18 bd fa 7c 39 bd 18 be 0d 3c
       0.02164393 -0.037118882 -0.045285203 0.008651279
000090 da 7b 5e bd 0a 4d 15 bd e4 f7 23 3d 12 8a 0a 3d
       -0.054317333 -0.036450423 0.04003133 0.03382308
0000a0 6e d2 34 3d 98 53 2d bc 00 d9 ac bc 54 fd 1b 3d
       0.044145994 -0.010579012 -0.021099567 0.03808339
0000b0 78 ae 9f bc 80 2d 4e 3b 68 bf 96 bc 4a 1a 1b bd
       -0.019492373 0.0031460226 -0.018401816 -0.037866868
0000c0 68 31 04 bd 5c bf 28 3d 4a 52 2a bd a8 59 90 3c
       -0.03227368 0.04119812 -0.041582383 0.017620876
0000d0 26 5d 70 bd 4c 5f 74 3d 38 e9 50 bc 50 ac d2 bb
       -0.058682583 0.059661195 -0.012750916 -0.0064292327
0000e0 38 05 a5 3c f8 ad 86 bc 4c 0c 88 3c 48 52 35 bc
       0.02014409 -0.016440377 0.016607426 -0.011066981
0000f0 e0 65 f5 3b ec a2 87 3c 2c 11 82 bc 10 ea 86 3c
       0.007488951 0.01655718 -0.015877329 0.016469032
000100 54 18 aa bc 34 64 ff bc 6c 1c 40 3d f0 6d 97 bc
       -0.020763554 -0.03117571 0.046902105 -0.01848504
000110 60 67 f7 3b a0 47 4e bb dc 1f cc bc b8 ce 82 3c
       0.007550165 -0.0031475797 -0.024917535 0.015967712
000120 24 68 75 3d 72 9d 7a 3d 40 0d 70 bb cc 70 be bc
       0.05991377 0.061185308 -0.0036628991 -0.023247145
000130 38 5a 42 3d 98 3c 8c 3c 90 0d 0d bc 18 11 47 3c
       0.04744932 0.017118737 -0.008609191 0.012150072
000140 7a aa 10 3d 64 fa ed 3c 9c 0f 03 bd c4 9a 31 3d
       0.03531883 0.02905006 -0.031997308 0.043360487
000150 00 82 30 3a 34 84 31 bd 00 af b7 b9 5a 88 5b 3d
       0.00067332387 -0.04333897 -0.00035034865 0.05359683
000160 60 4a ee 3b 98 b4 96 3c b4 72 f8 bc 24 60 85 3c
       0.00727205 0.01839666 -0.030328132 0.016281195
000170 fa 72 43 3d f0 89 e3 bb 60 98 0d 3c ca 93 0b bd
       0.047717072 -0.0069439337 0.008642286 -0.03407649
000180 90 2d 58 bc 40 1b b2 bc e2 81 6b 3d 98 fe 8e bc
       -0.013194457 -0.02174151 0.057496913 -0.017455384
000190 e8 ce 5e 3d a8 55 bc 3c 64 38 a5 3c c0 00 ad 3c
       0.05439654 0.022990063 0.02016849 0.021118522
0001a0 5e 5f 65 bd 50 18 99 bb 80 84 c3 bc 60 74 22 3b
       -0.055999152 -0.0046720877 -0.023866892 0.0024788603
0001b0 4a 4c 5f bd 58 66 09 bd a0 04 54 3d 04 6d e6 3c
       -0.054516114 -0.03354487 0.051762223 0.028128155
0001c0 88 40 7c bd 00 b1 73 3c 04 95 e6 bc fc 01 1c bd
       -0.06158498 0.014873743 -0.028147228 -0.03808783
0001d0 9e af 69 3d 1c 70 34 3d 20 8c 13 3c 40 84 15 3c
       0.057052247 0.04405223 0.009005576 0.009125769
0001e0 e0 41 74 bd f0 22 e8 bb 40 d4 be bb c8 04 71 bc
       -0.059633136 -0.007084243 -0.005823642 -0.014710613
0001f0 cc 46 ab bc 0a cf 32 bd 58 49 21 bc 18 f8 1f 3d
       -0.020907782 -0.04365448 -0.009844147 0.03905496
000200 bc 7d da bc 68 33 06 bd 68 f9 33 bd c4 da cb bc
       -0.026671283 -0.03276387 -0.043939024 -0.024884589
000210 90 43 47 bd f0 e7 de 3c 60 3a 4b bb b8 54 a1 bc
       -0.048648417 0.027210206 -0.0031010136 -0.019693717
000220 88 ce 27 bc 0c 48 49 3d fe 88 34 bd 36 6e 5e bd
       -0.010242112 0.049140975 -0.04407596 -0.054304324
000230 94 60 c6 3c f4 fe c3 bc 5e 0f 01 3d 08 03 60 3d
       0.024215974 -0.023925282 0.031508796 0.05469039
000240 60 90 2f bd 48 86 11 3d d6 32 24 bd e8 75 2c bc
       -0.042862296 0.03552845 -0.040087543 -0.010526158
000250 00 d4 40 bd 48 31 bf bc 96 81 6c 3d e0 30 36 3d
       -0.04707718 -0.023338929 0.05774077 0.044480205
000260 9a 9a 5f bd 72 6e 41 3d 16 6f 65 3d 1e ba 43 bd
       -0.0545908 0.04722447 0.056014143 -0.047784917
000270 74 84 64 3d 14 ea df bc fc bc db 3c 7e b6 77 3d
       0.05579038 -0.027333297 0.026823513 0.060476772
000280 38 25 9d 3c e8 5a e7 3c 6c f0 ec 3c dc fd 79 bd
       0.019182786 0.02824159 0.028923236 -0.061033115
000290 c0 8b 8e ba e0 5d 23 bb b4 9e 4f bd ec fc c7 bc
       -0.0010875389 -0.002492778 -0.05068846 -0.024412595
0002a0 2a c6 0c 3d 78 d8 a4 bc 60 50 69 bb a8 51 07 3d
       0.03436867 -0.020122752 -0.0035600886 0.033036858
0002b0 4c fa 69 bd 60 42 38 bd 3c 67 dc bc e8 f9 7d 3d
       -0.057123467 -0.044985175 -0.026904695 0.062005907
0002c0 60 9c e4 3c 08 ec cf 3c 7a 27 07 3d f4 4e 8d 3c
       0.027906597 0.025381103 0.032996632 0.017249562
0002d0 54 c7 f8 bc 98 16 46 3c 1c 07 5b bd 8c 8b ea bc
       -0.030368485 0.012090348 -0.053473577 -0.028630994
0002e0 14 71 1d bd 88 16 74 bd e6 28 0f bd 9a f1 1e bd
       -0.038437918 -0.0595918 -0.034951113 -0.038804628
0002f0 98 1e 06 3c 80 49 1d 3d 90 e1 b2 bc aa 4f 06 3d
       0.008186005 0.038400173 -0.021836072 0.032790817
000300 8a ec 25 3d bc e7 21 bd 3c cf 6c 3d 20 12 05 bb
       0.040508784 -0.03952764 0.05781482 -0.0020304993
000310 80 82 14 bb 8a 14 5d 3d dc 73 57 3d 8c 8f f4 bc
       -0.0022660792 0.053974666 0.052600726 -0.029853605
000320 5c dc 47 bd 00 29 d2 bb 58 5a 47 3d b8 e2 e5 bc
       -0.048794135 -0.006413579 0.048670143 -0.02806221
000330 5e 73 14 3d 78 15 a7 bc b8 1e 71 bc 60 20 27 bd
       0.036242835 -0.02039598 -0.014716797 -0.04080236
000340 80 c4 83 ba e0 53 3d 3c f8 db 53 bc 70 e7 2e bd
       -0.0010053068 0.011555642 -0.012930863 -0.042701185
000350 20 0c ac 3c 10 7a 52 3d 96 41 30 bd d8 19 78 3d
       0.021001875 0.05138594 -0.043031298 0.06057152
000360 8c 48 92 bc a0 09 d7 3b 00 bc ba ba dc ab 7e 3d
       -0.017856859 0.0065624267 -0.0014246702 0.062175617
000370 38 f8 b2 3c 1c 50 a6 3c 18 7d d2 bc e4 5b 5b bd
       0.021846876 0.020301871 -0.025694415 -0.05355443
000380 42 4c 0f bd 68 c7 ff bc 40 82 9b ba ec 1d 53 bd
       -0.034984834 -0.031223014 -0.0011864379 -0.051542208
000390 50 8e f8 bc 02 a1 5b 3d a4 6b 4a bd c6 41 37 3d
       -0.030341297 0.053620346 -0.04941906 0.04474046
0003a0 a0 9e 7b bc 70 de 60 bc e6 41 42 3d ec 8a c4 bc
       -0.015357643 -0.013724908 0.047426127 -0.023992024
0003b0 84 57 ac bc c0 92 77 bb e6 9b 3a bd 12 0a 50 bd
       -0.021037824 -0.0037776679 -0.045558833 -0.050790854
0003c0 68 55 7f 3c fe 5e 03 bd 78 8d 81 bc 50 52 c5 bc
       0.015584327 -0.032073013 -0.015814528 -0.024087101
0003d0 00 59 0f 3a 84 7b b2 3c a0 86 32 bb da c1 49 3d
       0.0005468279 0.021787412 -0.0027240887 0.049257137
0003e0 18 6f d1 bc 30 e6 06 bd d0 ba 0b 3c c4 f5 20 bd
       -0.025565669 -0.032934368 0.008528426 -0.03929688
0003f0 60 0e 1e bb fa 07 78 bd 3c d4 6e 3d 80 24 aa bc
       -0.0024117455 -0.060554482 0.05830787 -0.020769358

user_tower.network.2.bias f4 [16]
000000 3c 6f 6a bd 7d 91 37 bd f7 14 44 3d e2 05 56 3d
       -0.057234988 -0.044816483 0.047871556 0.052251704
000010 48 0f 57 bd a4 c2 cc bc 9e 84 0b 3d 1d f1 16 3d
       -0.052504808 -0.024995156 0.03406202 0.036851037
000020 aa 21 36 bd d6 e2 4a 3d a2 f1 e2 3c 8f b6 52 bb
       -0.0444657 0.049532734 0.02770311 -0.003215227
000030 06 20 7a bc 30 05 47 3c cd f9 1e 3d 4e e1 e5 bc
       -0.015266424 0.012147233 0.038812447 -0.028061535

item_tower.network.0.weight f4 [256, 128]
000000 99 32 77 bc 3b 63 0c 3d 87 f9 2c 3d 1b 2d b7 3d
       -0.015087747 0.03427432 0.042230155 0.0894415
000010 03 62 73 bd 0e 7c 54 bc 81 9a 94 bc 7c 04 49 bd
       -0.059419643 -0.01296903 -0.01814008 -0.049076542
000020 88 10 b4 bd 88 02 4b bd e0 a7 9b bd db 3c 21 bd
       -0.087922156 -0.04956296 -0.07600379 -0.039364677
000030 68 7f e7 ba 4f fd 1a 3d 27 88 2f bd c9 36 ce bc
       -0.0017661871 0.03783923 -0.042854454 -0.025172608
000040 25 a9 c9 3d c2 ed a6 bd fe 00 f5 bc 69 98 e3 bc
       0.09846715 -0.081508175 -0.0299077 -0.027782636
000050 56 d6 ed 3b 7c 42 60 3c 7d 37 7c bd 64 09 8b bd
       0.007258217 0.013687726 -0.061576355 -0.067889005
000060 9b 8e 95 bc 57 c0 1e bd 89 2d 99 3d 6d cb 94 3c
       -0.018256476 -0.03875765 0.07479388 0.018163407
000070 55 75 14 bd 16 18 a7 bd 60 c0 83 bd 46 93 9d 3d
       -0.03624471 -0.08158891 -0.06433177 0.07694106
000080 3b 3f 45 3d 45 70 90 3d ea 3c 08 3c 1d 48 3c 3d
       0.048156004 0.07052664 0.008315304 0.04596721
000090 78 3b 90 bc 53 af 91 3d 60 9e 54 bd 82 da 9b bd
       -0.017606482 0.071135186 -0.05190885 -0.076100364
0000a0 d7 79 93 bd c4 70 48 bd 6a 2c 5d bd fd 01 07 3d
       -0.072009735 -0.048935667 -0.053997435 0.03296088
0000b0 69 0f 34 3d fb 5b 5a 3a 1e e6 8b 3d 9d b3 e3 bc
       0.04396001 0.0008329746 0.06831001 -0.027795607
0000c0 45 12 aa 39 3f dc ea 3c da 98 27 3d f3 70 a2 bd
       0.0003243854 0.028669475 0.040917255 -0.079316996
0000d0 e1 02 0b 3d 6a 74 02 bd 37 48 56 3c bf 94 07 bc
       0.033938292 -0.031849302 0.013078741 -0.00827521
0000e0 f9 f4 e4 bc f1 d1 28 bc 4d 32 33 bd 59 f8 8b bc
       -0.027948843 -0.01030396 -0.043749142 -0.017086195
0000f0 0f 26 ea bc c1 8f 8a bd 17 28 6f 3d ca 3e 3f 3d
       -0.0285826 -0.067657 0.058387842 0.04669074
000100 17 b8 61 3d bd bb 42 3d 5d a2 7e bb 17 80 aa bd
       0.055107202 0.047542322 -0.00388541 -0.083252124
000110 8e 61 89 ba 3c 6d 5b bc c4 f6 ce 3c 3d 40 30 bd
       -0.0010481344 -0.013392743 0.025264151 -0.043030012
000120 d5 0a 11 bd 0e f6 e5 3c 6f 61 93 3c ab d6 08 bd
       -0.03541072 0.02807143 0.017990796 -0.03340785
000130 06 c7 8d 3d 7b e8 35 3d 65 40 18 3d 44 32 3b bd
       0.06922726 0.044411164 0.037170786 -0.045702234
000140 5a 93 8e ba f7 78 01 bd 4b bc a9 3d 85 e2 01 3d
       -0.0010877654 -0.0316095 0.08287867 0.031710166
000150 ac e8 2f bd 9c a9 74 3d d5 4d 20 3d ca 5b 6c bc
       -0.042946503 0.059732065 0.039136726 -0.014426181
000160 e3 89 55 3d 14 5f f7 3c b4 2b a1 bd 6f 8e 08 3d
       0.052133452 0.030196704 -0.07869664 0.03333896
000170 20 f6 97 bd cb 96 46 3c cc 3c 6b bd 6c 1c b3 3d
       -0.074199915 0.012120913 -0.057431027 0.087456554
000180 fb b0 05 bd 7d 11 d9 bb a3 fa a1 bd 92 d7 cf 3d
       -0.032639485 -0.006624399 -0.07909133 0.10148539
000190 eb 15 94 3d 07 1b c5 3b 4e 75 92 3d ea 62 19 3d
       0.07230743 0.006015185 0.0715128 0.037447847
0001a0 fc eb 3f 3d dd 52 c8 3c 43 85 2e 3d 06 ea 03 bd
       0.04685591 0.024453575 0.042607557 -0.032205604
0001b0 44 59 97 bd 8b 51 50 3c 86 a0 b6 bc 4f e6 0c bd
       -0.07390073 0.012714754 -0.02229334 -0.034399327
0001c0 35 02 86 3b 18 11 71 3d ba b8 98 bd d0 0a 80 bd
       0.0040896186 0.058854192 -0.07457109 -0.06252062
0001d0 f5 f5 96 3d a6 87 c3 bd fc 37 70 bd cd fb aa 3d
       0.07371131 -0.09547357 -0.05864714 0.083488084
0001e0 87 d7 aa bd f9 b0 2b 3b 65 2c 8f bd 28 d9 50 bd
       -0.0834189 0.0026198013 -0.069908895 -0.050988346
0001f0 fc cb 4a bd 12 82 95 bd 41 e9 80 bd f4 40 58 bb
       -0.04951094 -0.073001996 -0.0629449 -0.00329977
000200 8c c6 6f bc 39 1c 05 bd c0 4c 29 3c 3a f8 91 bd
       -0.01463474 -0.03249762 0.01033324 -0.071274236
000210 d9 b0 bc bd 3b db 74 3a cd b0 d0 3c d5 a6 72 bc
       -0.092134185 0.0009340529 0.02547493 -0.014810284
000220 38 df af 3d f7 02 60 3d ac b9 a0 bd 36 b5 21 bd
       0.085874975 0.054690327 -0.07847914 -0.039479457
000230 4a c3 0e 3d 24 9c 50 bc 93 2a a2 3c e6 54 2b bd
       0.03485421 -0.012732539 0.019795692 -0.041829012
000240 84 87 aa 3c c5 04 d4 3c ca fb b0 ba 52 c1 06 3d
       0.020816572 0.02588118 -0.0013502773 0.03289921
000250 f1 75 5f 3d 47 35 a2 3c b1 ac dd 3c 0a 9a 4f 3c
       0.054555837 0.019800795 0.027059885 0.012671003
000260 eb 90 ee 3b 3e 81 d6 3c 71 9b b0 3d 58 90 5a 3d
       0.007280459 0.026184674 0.08623398 0.053360313
000270 2f 3e 84 3d db d0 b7 3d fd 59 24 bd 37 cf a1 bd
       0.06457173 0.08975383 -0.040124882 -0.07900851
000280 c5 3a 38 3d d2 73 6c 3d f1 a6 68 bd f6 c9 52 bd
       0.044977922 0.057727642 -0.056799833 -0.051462136
000290 95 36 c4 3c b6 c3 8c bc ea f5 c9 bd c1 de 3d 3a
       0.023951808 -0.017183166 -0.098613575 0.0007242971
0002a0 36 23 29 3d c3 52 35 3d 4e 73 5f bc 6a 10 92 bd
       0.041293345 0.04426838 -0.013638331 -0.07132037
0002b0 c1 b0 b5 3c 69 70 f3 bb 7a d8 7d bd e2 de 2c bc
       0.02217901 -0.007429172 -0.061974026 -0.010551186
0002c0 42 c4 93 bd 14 90 7c bd 01 68 8a 3d 15 15 58 bd
       -0.072151676 -0.06166084 0.067581184 -0.05275448
0002d0 a9 41 b7 3c 8c 24 6c 3d 01 f3 17 bc 2d 6c 79 3d
       0.022370176 0.05765204 -0.009274245 0.06089418
0002e0 10 23 9b bc c3 45 aa bd aa 2f 24 bd 9b 0b 1f 3d
       -0.018937618 -0.08314087 -0.04008452 0.038829427
0002f0 c2 b0 50 bd 27 9b 8d bd a4 5a 84 bc 41 33 94 bd
       -0.05094982 -0.069143586 -0.016156502 -0.072363384
000300 dc b9 bb bd a8 1b 6c 3d 85 31 ca 3c 73 2e 3e bd
       -0.09166309 0.057643563 0.024681816 -0.046431016
000310 9b 53 4a 3d a0 2b 84 bd 13 71 8e 3c fb 82 5e bc
       0.04939614 -0.06453633 0.017387902 -0.013581033
000320 5d c9 9b 3d 18 a4 7b bd cf 65 ac 3c 9e c5 bc bc
       0.076067664 -0.06143579 0.02104464 -0.02304345
000330 d5 a4 0d bc 51 79 7b bd 87 50 ae 3c bc 4f 30 bc
       -0.008645256 -0.061394993 0.021278633 -0.010761198
000340 ec cc 50 bd 15 14 81 bc 24 18 b7 3d 92 8d b4 bc
       -0.05097668 -0.015756646 0.08940151 -0.022040162
000350 50 d6 af bc a0 62 e2 bc e5 29 81 bc ff 83 70 3d
       -0.021464497 -0.027634919 -0.015767047 0.05871963
000360 2a 13 9c bc 9e 36 56 bd 5e d9 80 bd 22 c7 89 bc
       -0.019052107 -0.05229818 -0.062914595 -0.016818587
000370 2a ba 7c bd 5e ef 75 3d 13 55 9c 3b e6 b8 88 bc
       -0.061700977 0.06004273 0.004770884 -0.016689729
000380 f6 b8 e0 3c d4 65 93 bd 17 8d 01 3d a2 5a 65 bd
       0.027431946 -0.071971565 0.031628694 -0.055994637
000390 28 1d a1 3c cf cd b7 3d 3e c6 88 3d 8e 35 25 3c
       0.019667223 0.08974802 0.06678437 0.010083569
0003a0 2d 75 82 3d af 93 52 3d 17 7b 93 bd 8f f1 b3 3c
       0.06370006 0.051410373 -0.07201212 0.02196577
0003b0 61 70 86 bd c3 16 63 bd a6 c3 29 3b b5 f7 c4 bd
       -0.06564403 -0.05544163 0.002590397 -0.09617559
0003c0 f2 a9 3b 3d e9 e1 8b 3d 4a 49 95 3c 22 4f 49 3d
       0.04581637 0.06830198 0.018223424 0.049147733
0003d0 33 b8 63 bb e2 b6 c8 3d 6e 15 23 bd 20 bd 8f 3d
       -0.0034747242 0.09800507 -0.03981536 0.070184946
0003e0 20 28 22 3d 8f 13 09 3b e3 13 74 3d 74 b6 0e 3d
       0.039589047 0.00209162 0.059589278 0.03484197
0003f0 60 25 8d 3c ed d7 b8 bd ac 98 16 bd 96 1e 65 3a
       0.017229736 -0.090255596 -0.036766693 0.00087402144

item_tower.network.0.bias f4 [256]
000000 3b 34 5f 3d 0d dc 81 3d d3 ab 4f bc 6e d8 c1 3d
       0.05449317 0.063407995 -0.012675243 0.09465109
000010 14 a7 2a 3d cf 25 bc bd 0a 7c 8f bc e8 ac 82 3d
       0.041663244 -0.09186899 -0.017515201 0.063806355
000020 bf 0e 69 bd 66 10 5a bd 31 38 87 bd 66 3e c2 bd
       -0.05689883 -0.053238295 -0.066025145 -0.09484558
000030 9d 14 36 bd c2 f6 06 bd 50 43 e0 bc 8e 0b 7d 3d
       -0.044453252 -0.03295017 -0.027375847 0.061778598
000040 a1 27 a1 3d 57 b1 ac 3d 0c 6e 6d 3c 37 75 82 3d
       0.07868887 0.084322624 0.014491569 0.06370013
000050 2d ab fd 3c 92 59 b9 3d 6a e5 46 bd 02 3c 23 bb
       0.030965412 0.09050287 -0.04855863 -0.0024907594
000060 e6 84 65 3d 1e 5f 3a bd 8f a4 88 bd 5b 39 c5 3c
       0.056034945 -0.045500867 -0.06672012 0.0240752
000070 06 dc cd 3d cd c1 e8 3c b3 d9 4c bc 46 56 8b 3d
       0.10051732 0.028412724 -0.012503075 0.06803565
000080 05 0e 93 3d 4a f0 23 bd aa 5a 38 bd ab 24 a2 bd
       0.071804084 -0.04002408 -0.04500834 -0.0791715
000090 82 74 63 bd 4a c3 98 3d 51 c0 d6 3c c2 c5 42 bc
       -0.055531032 0.074591234 0.02621475 -0.011887969
0000a0 f2 c6 35 3d 93 3d 6f bd 66 53 9a 3d c4 70 40 bd
       0.044379182 -0.05840833 0.07535438 -0.04698254
0000b0 74 26 c8 bc ad f7 1d bd 75 6f 92 bd 97 5f 08 bd
       -0.024432398 -0.03856628 -0.07150165 -0.033294287
0000c0 e3 c6 51 bd e6 d4 93 3d 16 29 1e bd 88 0d cd bc
       -0.051215064 0.072183415 -0.0386134 -0.025030866
0000d0 8a cb 93 b9 2c c8 9e 3d 9f f5 8d 3d 5f 4b a5 3d
       -0.00028189673 0.077530235 0.06931614 0.080710165
0000e0 f4 2b 8e 3d e6 90 25 bc 9b 48 33 3d eb 03 a9 bd
       0.06941977 -0.010105347 0.043770414 -0.082527004
0000f0 19 a9 0f 3d be 31 08 3b a1 fe be 3c 27 a7 30 bd
       0.035073373 0.0020781602 0.023314776 -0.04312816
000100 46 76 ea 3b bb 95 b2 bd 98 b3 0c 3d f7 6b 0d bd
       0.0071552126 -0.08719965 0.03435096 -0.03452679
000110 a2 a7 6f 3c d7 8b 5e 3d 61 74 89 3d 35 2b 91 3d
       0.014627369 0.05433258 0.06711651 0.07088319
000120 6f 66 50 bd 95 20 2b bd 90 c7 00 bd ef f5 5f bd
       -0.05087894 -0.04177912 -0.031440318 -0.0546779
000130 97 72 28 bd 68 b2 23 3d 39 8c 14 3d ec 1c 07 3d
       -0.041124906 0.039965063 0.03626654 0.032986566
000140 da ba d3 3c 04 de 17 bb cc 4f 59 3d af 3e a5 bd
       0.025845934 -0.0023173103 0.053054616 -0.080685966
000150 10 19 8e 3d 3a b5 04 bd a5 cc a4 3d 97 17 c5 3d
       0.06938374 -0.032399394 0.08046845 0.0962364
000160 b4 d1 b4 3d be 1a 6c bc e0 24 6b 3c e9 c5 5d 3c
       0.0882906 -0.014410673 0.014352053 0.013535955
000170 9c 37 96 bc a9 11 0d bd 2c d9 af bc 19 b2 40 3d
       -0.018337063 -0.03444067 -0.02146586 0.047044847
000180 12 56 95 3c c7 a5 95 bc c8 aa 95 bd bc a7 9c 3d
       0.018229518 -0.018267525 -0.073079646 0.0764918
000190 de 94 cd 3d 34 93 b1 bd 3d 32 23 bd 8d 66 aa bd
       0.1003816 -0.08670655 -0.039842833 -0.08320341
0001a0 6f a8 13 3d 6e 57 3c 3d a9 c9 39 3d b2 fb 3f 3d
       0.036049303 0.045981817 0.045358334 0.046870895
0001b0 ea 7a a0 bd 40 98 c5 3c 18 32 a1 3d 4e b0 75 3d
       -0.07835944 0.02412045 0.07870883 0.05998259
0001c0 01 db 7b 3d 0f 0f a7 bd b7 f6 42 bd 9a d2 f9 bc
       0.061488155 -0.08157169 -0.047598567 -0.03049593
0001d0 43 b7 2e 3c ed 6e b2 bd 96 e0 d2 bc 5d 3f cd 3c
       0.01066381 -0.08712564 -0.025741857 0.025054628
0001e0 c1 16 9d 3d f8 70 a0 3c 93 be a9 3d e5 4e 52 bd
       0.076703556 0.019585118 0.08288302 -0.05134477
0001f0 58 57 b7 3d a4 ba af 3d bb cd 89 3c 4a a7 88 bd
       0.089522064 0.08580521 0.016821733 -0.06672533
000200 19 08 e2 bc 0f 58 58 3d 8e a4 6c 3d 00 e2 ef 3b
       -0.027591752 0.052818354 0.05777412 0.0073206425
000210 bf d8 71 bd fe b3 6f bd 98 ff c3 3c 70 85 96 3d
       -0.059044596 -0.058521263 0.023925588 0.0734967
000220 84 fa 8a bd 66 71 c4 bd b7 3e c6 bc ac ae 83 bd
       -0.06786063 -0.095919415 -0.024199827 -0.064298004
000230 9b fc 8b 3c cd 5c 29 bd aa 25 e1 bc f5 f9 b1 3c
       0.017088225 -0.041348267 -0.02748378 0.021725634
000240 e2 b5 29 3d c5 b2 bd 3c d9 3a 20 bd 8a 3d b6 bd
       0.041433223 0.023156533 -0.03911862 -0.088984564
000250 d7 62 36 bd 1f 83 f7 bc d1 d7 a2 bc 43 a5 3f bd
       -0.044527855 -0.03021389 -0.0198783 -0.046788465
000260 3a 29 9e bd b2 6c 5d 3d 3f c4 89 bd d5 5b 39 bd
       -0.07722707 0.054058738 -0.06726884 -0.045253593
000270 1d ae b4 3d 38 9c dd 3d bc a5 53 3d 8a d9 81 3d
       0.08822272 0.10820812 0.05167173 0.063403204
000280 86 6a 47 3d f1 67 08 bd 39 0c 95 bd fa 64 79 3d
       0.048685573 -0.03330225 -0.07277722 0.060887314
000290 67 79 82 3d 38 25 a5 bd b3 04 0e bd c5 9f 86 3d
       0.06370812 -0.080637395 -0.03467245 0.06573442
0002a0 c1 cb 8c bd 60 77 75 3d ce 2a a2 3c 33 e9 24 bd
       -0.068748005 0.059928298 0.019795801 -0.04026146
0002b0 5d 43 7b 3d b0 38 98 bd 51 36 cd 3c 81 0f 2c bd
       0.06134354 -0.07432687 0.025050314 -0.042006973
0002c0 bc 4e 36 bd 93 d6 0a bd f7 2c 92 3d 46 53 11 3c
       -0.04450868 -0.03389604 0.071374826 0.008869952
0002d0 44 c2 e3 3c cd 65 8c 3c f0 49 90 3d 53 52 7c 3c
       0.027802594 0.017138386 0.070453525 0.015400487
0002e0 dc 8a 8e bc 7b 9c 8f 3c 57 f3 31 3c eb dc 1c bd
       -0.017400198 0.01753067 0.010861239 -0.03829662
0002f0 2e bf 16 3d bc 26 0d 3d ae e2 09 3d f6 85 d7 bc
       0.036803417 0.034460768 0.033663444 -0.026308995
000300 31 f1 3d 3d 98 00 c5 bc dc 90 23 bd a9 2e d1 3b
       0.046372596 -0.024048135 -0.03993307 0.006383736
000310 0b 10 62 3d 7c 06 2f bd b0 4d c4 3d bf 3f 8a 3d
       0.05519108 -0.042730793 0.0958513 0.0675044
000320 9f 30 12 bc ea 5e 19 bd 6f 81 a5 3d 45 62 09 3d
       -0.008922725 -0.037444033 0.08081328 0.033540983
000330 34 d7 4a bc df d1 8e bd db 87 04 bd e5 08 b8 bc
       -0.01238041 -0.069736235 -0.032356124 -0.022465179
000340 1c ae 51 3d e3 dd 10 bc b4 14 86 bd aa 15 51 3d
       0.051191434 -0.008841964 -0.065469176 0.05104605
000350 2b 8e b1 3d b0 1d 16 3d 6b 0b ad bd ff 17 2c 3d
       0.086696945 0.036649406 -0.084494434 0.042015072
000360 a6 f2 3a bd a8 4b 6a 3d 08 05 54 bd 58 c4 5f bc
       -0.045641564 0.057201058 -0.05176261 -0.013657652
000370 03 d2 23 3d d3 6f 8d 3d 88 98 70 3d ba f0 1f 3d
       0.039995205 0.069060944 0.058739215 0.039047934
000380 3d b1 44 3c 5d f0 8e 3d ea 72 74 3d db 1e 64 3d
       0.0120051475 0.069794394 0.059679903 0.05569349
000390 be fc 95 3c fe cf 0d bd ad 69 04 bd f5 0b 46 bd
       0.018308993 -0.034622185 -0.032327343 -0.048351247
0003a0 9b e4 09 3d 5f e3 b1 3d 60 80 8c 3c 90 19 83 bd
       0.03366528 0.08685946 0.017151058 -0.0640136
0003b0 a8 54 d3 3d 93 8c 8a 3c 88 f0 d3 3a a1 f2 a4 3c
       0.10318881 0.016912734 0.0016169706 0.020135226
0003c0 37 18 c3 bd 51 18 92 39 a0 bd 07 3d 0f ea 85 bd
       -0.09526103 0.00027865407 0.033139825 -0.06538784
0003d0 bd 7b f0 bc 93 da 9b bc de 25 31 bd 7c 7b 92 3d
       -0.029355878 -0.019025123 -0.043249004 0.07152459
0003e0 a6 18 de 3c b4 29 b0 bd 34 b3 bb 3d bd 41 f8 3b
       0.027111363 -0.08601704 0.0916504 0.007576196
0003f0 c4 39 4d 3d 7d 3e 0b bd af f3 bd 3c 0a 95 c1 bd
       0.050103918 -0.03399514 0.023187486 -0.09452255
