models/continueous_label.pt (torch, 732965 bytes, 10 tensors)

user_id_embedder.weight f4 [5427, 16]
00000000: 0000 0000 0000 0000 0000 0000 0000 0000
00000010: 0000 0000 0000 0000 0000 0000 0000 0000
00000020: 0000 0000 0000 0000 0000 0000 0000 0000
00000030: 0000 0000 0000 0000 0000 0000 0000 0000
00000040: e30e c93d 88e3 bfbd b277 a63e 9daa c3be
00000050: b376 1d3f 7464 66be 5022 67bf 6068 58bf
00000060: 0be2 693f 025e 67bf a6aa 8b3f 4135 e73e
00000070: 673b bb3e dc01 913e cfc0 883f 994f a1bf
00000080: d2b6 83bf 7801 653f c31a 983f dc39 943f
00000090: 5c01 06bf 44fb a43e 2c29 81bf 5e88 7dbf
000000a0: ba3f e83f ba19 ad3e d2cc 25be 065e 3cbf
000000b0: 1727 05c0 d96f ab3f 5f41 8fbf 9b4b bfbe
000000c0: f7be 45bf 7dca 1e3f cdaa 63bf f6d5 163e
000000d0: cf06 0340 39fe 613f 5756 c1bf d717 a13e
000000e0: caca ae3f 8e51 8abe b0c0 24bf 918f f0be
000000f0: a9a7 aebe 3a11 643f 75d2 30bf 398a 80bd
00000100: 0db2 09bd 8c36 803e 0ed7 853f 0ff5 49bf
00000110: d35d 01bf c358 3b3f 6bfc 883f 37f3 82bf
00000120: 114f 793e ad1f 03bf b24a da3f 2685 64bf
00000130: 8317 573f d1d2 89bf 8749 cf3d 4ed8 bfbf
00000140: 4b18 9dbe bdfe 9a3f 59d4 ca3f d0b1 1dbf
00000150: 29ec 39be 7187 dfbf 5c7c 743e cca8 5040
00000160: cac5 4b3e 1c6c ebbe 65b1 30bf b15d 05c0
00000170: 6db4 cebf bb40 1ebf a2d7 fe3e d2f9 c03d
00000180: f206 02bf af01 8d3e 322a 3dbf ed52 9f3f
00000190: 62d3 4d3e 1df2 d7bd bef7 613f d77b 2f3f
000001a0: a305 283f 6c3e aebf 3c74 f33d 446b 813e
000001b0: 2087 babe 94b1 253f b339 973e c852 813f
000001c0: b5d8 c43f 2583 6ebf 367b 88bf 91b3 10be
000001d0: d8cd d5bf 1e0d 29bf f3e6 babe ca70 613f
000001e0: 2187 a03f 5ab1 10bf 340b fdbf 94dc 873e
000001f0: 70b1 2cbf f17f 08be aa6e a63e 71ee 37be
00000200: 5a2b 3d3f 203b 15c0 74ef 063f 7c97 6c3f
00000210: fe31 3fbf ea6f cfbe 6436 c1be 886e 063f
00000220: 5fac a23e f005 143f 39d6 9fbf 286c c9be
00000230: f7a4 7bbf 05ac a8bf 94cb 973e 7c30 653f
00000240: efba 813f 8fd9 9cbe 4bca 4abe 6d3a 56bd
00000250: e6ea b43d ecda d6be 19a7 02c0 3ee7 df3f
00000260: d48b c5bd ba00 9bbf ef85 473e 18e6 a13f
00000270: 0aa5 a6bc 0981 aa3f e83c 153f 1fee f2be
00000280: a893 9e3f f694 c73e a8eb 8fbf 9285 fe3e
00000290: 2a59 6e3f 85a9 c4bf 4927 bfbf 81d6 fe3d
000002a0: f222 d2be 1a73 14c0 0d00 1abf cf04 abbd
000002b0: 3e31 53bf a51f 353f 6bb9 bb3e 3da3 893e
000002c0: 54c3 e93f 7059 663f 8e39 c63f 6500 9bbe
000002d0: ebce 043f 495f 083e 82c0 cc3f 6084 e23f
000002e0: 2f72 0b3f e93a 76be c182 b7bd 306c debe
000002f0: baa4 b1bf 34da 05bf 263b e03e d676 0d40
00000300: 85fb 2dbf 101a c03f 8f9e ef3e e5ef 753f
00000310: 38a2 44bf db51 a6bd 6579 6e3f ae21 cbbe
00000320: c008 863f 77e6 c03f b63d 673e 6af3 5e3f
00000330: d787 2fbe 5fe9 733f 0b6e 683f dccb 483e
00000340: d8bb 583f 07e2 1b3f ea96 0f3e a44e 8fbf
00000350: 3343 863e 7f54 00bf ac15 5b3f 2ea6 433e
00000360: 42d0 d73f 502f b13e 279b fe3e e694 e0bd
00000370: 7420 843e eb0d ccbf 6151 99be e691 3bbf
00000380: 448f bc3f 76c4 b1bd 0df4 463e 3d76 67bd
00000390: d4a4 78be ec63 88be 0657 53bf c3e1 553e
000003a0: 4c2f 1abf 71fb acbf f821 883e 7c89 63bf
000003b0: 5f05 6c3f 7a90 81bf 07b5 5e3e b3b5 e93c
000003c0: 5cf3 1c3f 9baa 093f bd4d 613f af89 063f
000003d0: 762d 093f 414a 66be b642 6f3f 9038 04bf
000003e0: 99d8 1b3f 14b1 7c3f 4bbd e2be b173 50bf
000003f0: ad93 dd3e ce3d 7cbf 074f d7be b59a c63f
0.0 0.0 0.0 0.0 0.0 0.0 0.0 0.0
0.0 0.0 0.0 0.0 0.0 0.0 0.0 0.0
0.098172925 -0.0936957 0.32513195 -0.38216105 0.61509246 -0.22499257 -0.9028673 -0.84534264
0.9136054 -0.9037782 1.0911453 0.45157817 0.36568758 0.2832173 1.068384 -1.2602416
-1.0290167 0.89455366 1.1883167 1.1580157 -0.52345824 0.3222295 -1.009069 -0.99036205
1.8144448 0.3380869 -0.16191414 -0.7358097 -2.0805109 1.3393508 -1.1191825 -0.3736237
-0.77244514 0.6202772 -0.88932496 0.14730057 2.0472906 0.8827854 -1.5104474 0.314635
1.3655636 -0.27015346 -0.6435652 -0.46984532 -0.3411229 0.89088786 -0.6907113 -0.06276364
-0.033617068 0.25041616 1.0456254 -0.78889555 -0.5053379 0.73182315 1.0702032 -1.0230473
0.24346568 -0.5122021 1.7054045 -0.8926567 0.8402025 -1.0767461 0.10121446 -1.4987886
-0.30682597 1.210899 1.5846053 -0.61599445 -0.18156494 -1.7463208 0.23875564 3.2603025
0.1989967 -0.45980918 -0.6902068 -2.0838435 -1.6148812 -0.6181752 0.4977389 0.094226494
-0.5079185 0.27540347 -0.7389251 1.2447182 0.20100167 -0.10544226 0.8826865 0.6854834
0.656336 -1.36128 0.11887404 0.2527715 -0.36431217 0.6472409 0.2953621 1.0103388
1.5378634 -0.9316886 -1.0662601 -0.14130999 -1.6703444 -0.6603564 -0.36504325 0.8806273
1.2541238 -0.56520617 -1.9769044 0.26535475 -0.6745825 -0.13330056 0.32506305 -0.17962052
0.73894274 -2.3317337 0.52709126 0.92418647 -0.7468566 -0.4051507 -0.3773681 0.5251241
0.31772134 0.5782156 -1.248725 -0.3934033 -0.9829859 -1.3177496 0.29647505 0.89527106
1.0135173 -0.30634734 -0.19803731 -0.052301813 0.08833866 -0.419639 -2.0414488 1.7492445
-0.09645811 -1.2109597 0.19484685 1.2648344 -0.020342369 1.3320628 0.5829606 -0.47447297
1.2388811 0.38980836 -1.1243792 0.4971128 0.93104804 -1.5364233 -1.4933864 0.12443257
-0.41042286 -2.3195252 -0.6015633 -0.083505265 -0.8249701 0.7075141 0.366649 0.26882353
1.8262734 0.8998022 1.5486314 -0.30273739 0.5187823 0.13317598 1.5996249 1.7696648
0.54471105 -0.2404591 -0.08960486 -0.43441916 -1.3878396 -0.52286077 0.43795127 2.2103782
-0.67961913 1.5007954 0.46800658 0.96069175 -0.76810026 -0.081210814 0.93153983 -0.39674133
1.047142 1.5070332 0.22582135 0.8709017 -0.17141663 0.9527797 0.9079291 0.19609016
0.84661627 0.60891765 0.14022413 -1.1195874 0.26223144 -0.5012893 0.85579944 0.19106361
1.686043 0.3460641 0.49727747 -0.109659 0.2580601 -1.5941747 -0.299449 -0.732695
1.4731221 -0.0868005 0.19429035 -0.056509245 -0.24281627 -0.26638734 -0.8255466 0.20886903
-0.6022842 -1.3514234 0.26588416 -0.8888166 0.92195696 -1.0122216 0.21748744 0.028529024
0.61308837 0.5377595 0.88009244 0.5255384 0.5358499 -0.22489263 0.9346117 -0.5164881
0.60877377 0.987077 -0.44285044 -0.8142653 0.4327673 -0.98531806 -0.4205248 1.5515963

song_id_embedder.weight f4 [3272, 16]
00000000: 0000 0000 0000 0000 0000 0000 0000 0000
00000010: 0000 0000 0000 0000 0000 0000 0000 0000
00000020: 0000 0000 0000 0000 0000 0000 0000 0000
00000030: 0000 0000 0000 0000 0000 0000 0000 0000
00000040: d732 383e 9cf6 6c3e d6ab c2be 0fef f73c
00000050: b043 933d 4c46 73be 5080 2e3d 1cb4 433d
00000060: 76a5 263e 9592 9dbd 3eaf 603d 53ab c33d
00000070: f560 c1bd f0c0 afbd d411 1bbd 9f49 4d3d
00000080: 100f 893e a291 adbf 1d61 90bf a005 6ebf
00000090: 1718 10bf 3a34 e33e a970 683f bd37 183e
000000a0: a2cb 153f d0e1 363f 3c2f 7abe d61a 383f
000000b0: baab 97be 4447 9d3f c6a8 b7bc e452 71bf
000000c0: 1f40 543e 7be1 a6bc 6361 873b 26b6 c33e
000000d0: 3957 f8bd 7277 d7bd b40a b8bc 633a f0bd
000000e0: a4fa af3b 042b d8bd cb50 29be 6ec8 db3e
000000f0: 22d2 17bd 8a15 f23d 9b07 7e3e 31da 25bd
00000100: 6419 90be 48e2 50be f390 263f 55aa a83e
00000110: e444 ef3e 49b5 7dbf 9e6e ba3f f3a3 3f3e
00000120: 0721 adbd 0f63 8bbf e29b 593f 2c88 f8be
00000130: 18b9 efbc 1fd9 393f 52f9 bf3d 91af 8c3f
00000140: 146e 403e b498 7f3c 4981 c9be c36a 003e
00000150: 9558 533e 78ba 11be 3de9 b43c 6953 be3e
00000160: 3375 8c3e 936f 92be 9e7a 4bbd f2b6 3cbe
00000170: 624e b6be 7b3b a13e b588 80bd 8e3f debd
00000180: 1e16 a23e b697 5cbc 7379 893d 86cc 5b3e
00000190: 4cb9 b9be 17aa 91bd c427 88be 8b8b 873e
000001a0: 656c 333e f169 a1be 3988 bbbe 0b8e c93e
000001b0: 52b2 76be fdfc 47bd 9b97 3e3e 95f0 75be
000001c0: 3b72 f8bc fb5a df3e d3c0 42be 22dc a7bc
000001d0: 82bc c6bc d939 8cbf 08df 0cbe 2b4e 30bd
000001e0: b975 123e d980 4dbe 929e 873e 74dd 0d3f
000001f0: cee8 85be e29f e4be a595 b0be 2b21 3abe
00000200: dc66 943e 1989 213e 266a 86be c25f 06bd
00000210: 5b91 dfbc 822b 3fbf c1d8 04be b442 9b3e
00000220: 2129 c43e 7f10 a9bd 1249 62be 6dc2 a33c
00000230: 3c6f b2be af61 47bd 97a7 9dbe 302b fe3c
00000240: 4e89 103e 5cc4 d13d 3f57 343d bfd7 533d
00000250: b068 f83d 393c afbd e6b7 c8bd df36 773e
00000260: 1257 0dbd 3ca4 733b fb6a 57bf faef 46bd
00000270: 58ab a33c 9bab b83e a7fe 053e 9652 7f3e
00000280: 7e0f 853e 038e 263e 41dd 86bd c5c2 4ebc
00000290: 9fce 9e3e b238 5abd bc1c f9bd 93e8 e93b
000002a0: 1f83 a9bd d77c 9fbe 8784 1dbe ac45 48be
000002b0: cabb cfbd f0cc 913e f41e 673b 142a 3bbe
000002c0: 1543 5fba 500d bfbd b709 3e3e 375e 3f3e
000002d0: f442 893d 8a66 6d3e be07 b73c 14cd febd
000002e0: ffa3 153e 271d c5be f20d 30be ab69 37be
000002f0: 0c53 913e 6559 77bd 76cb cd3c 957d ba3d
00000300: 7cc8 cd3d d9e6 82bd 4673 34be 218d 65be
00000310: 3b4c 11bd 9ed0 2ebf bf90 353d 7fb5 aebe
00000320: 7607 ed3e 3cc1 483e 2d2c 63be 34e3 d6bd
00000330: bddf 253d c491 6a3d 45e5 023d 4448 d1be
00000340: f39c 9fbd 5f66 b13c 452f 07be 11bf 1a3e
00000350: 7a08 cdbd 4e64 d5bd 1a86 a3bd 612c 01be
00000360: c85d ab3d 0051 9fbe 774c a4be c792 8c3e
00000370: 38d9 53bd b641 123e 8b91 063e 4eb5 37bd
00000380: f49e 22bd 6a37 323e e4df 3dbe 7f90 36bd
00000390: 5285 5b3e aeab 66be 4f32 cc3d c74f a43d
000003a0: a685 a63d 23b9 bfbd 9ff0 5abe 2b23 b03d
000003b0: 2291 97be e776 833e 5822 0d3e b4d0 053e
000003c0: ac90 ec3d 1e79 0bbe dd8a 29be 3f2e 0b3e
000003d0: 76f1 eb3d de30 1dbe c95f 5a3c 258d a7bc
000003e0: d923 44bb 87de e3bd 04b4 a7bd c216 b6bc
000003f0: 76bc b7bd cdfe 693e e157 f73d c4f0 93bd
0.0 0.0 0.0 0.0 0.0 0.0 0.0 0.0
0.0 0.0 0.0 0.0 0.0 0.0 0.0 0.0
0.17988144 0.23140949 -0.38021725 0.03026536 0.07190645 -0.23757285 0.042602837 0.047779188
0.16274056 -0.07693974 0.054854624 0.09554162 -0.09442321 -0.08581722 -0.0378588 0.05011904
0.26769304 -1.3560069 -1.1279637 -0.92977333 -0.5628676 0.44375783 0.90796906 0.14865012
0.58513844 0.7143831 -0.24432081 0.7191595 -0.29623204 1.2287374 -0.022419345 -0.94267106
0.20727585 -0.02037119 0.0041314824 0.38224906 -0.121260114 -0.10520829 -0.022466041 -0.117298864
0.005370455 -0.105550796 -0.16534726 0.42926353 -0.037065633 0.118205145 0.24807589 -0.040491287
-0.28144372 -0.2039882 0.65064925 0.32942453 0.46732247 -0.99104744 1.4565008 0.18714885
-0.08453565 -1.0889605 0.85003483 -0.4854139 -0.029263064 0.72596925 0.09373726 1.0991079
0.18791991 0.015600372 -0.3935645 0.12540726 0.2063926 -0.14231288 0.022083873 0.37173012
0.27433166 -0.2860075 -0.049677484 -0.18429163 -0.35606676 0.31490692 -0.06276075 -0.10851966
0.316575 -0.013463905 0.06712618 0.21464738 -0.36274183 -0.0711252 -0.2659284 0.2647365
0.17521818 -0.3152614 -0.36627367 0.39366183 -0.24091461 -0.048825253 0.1861252 -0.24017556
-0.030327907 0.436241 -0.19018869 -0.02049071 -0.02425981 -1.0955154 -0.13756955 -0.043043297
0.1430272 -0.20068683 0.26488167 0.55416036 -0.26154178 -0.4465323 -0.3448917 -0.18176715
0.28984725 0.15774955 -0.2625286 -0.032806166 -0.02729099 -0.7467576 -0.1297331 0.30324328
0.3831263 -0.082550995 -0.22098187 0.01999017 -0.3485049 -0.048677143 -0.30791923 0.031026453
0.14114878 0.10242531 0.044028517 0.051719423 0.121293426 -0.085564084 -0.09800701 0.24142025
-0.034506865 0.0037176749 -0.84147614 -0.048568703 0.019979164 0.36068425 0.13085423 0.24933848
0.25988382 0.1626511 -0.065851696 -0.012619679 0.31017014 -0.053276725 -0.12163684 0.0071383207
-0.082769625 -0.31149933 -0.15382586 -0.19557828 -0.1014324 0.28476667 0.0035266252 -0.1827777
-0.0008516771 -0.09328711 0.18558393 0.18688284 0.067022234 0.23183647 0.022342559 -0.12441459
0.14613341 -0.38498804 -0.1719282 -0.17911403 0.28383672 -0.060387988 0.025121432 0.09105984
0.10048005 -0.06391687 -0.17622098 -0.22417118 -0.03547309 -0.68287075 0.044327494 -0.34122846
0.46294755 0.19604963 -0.2218482 -0.10492554 0.040496577 0.05726792 0.03195693 -0.40875447
-0.077936076 0.02165526 -0.13201626 0.15111949 -0.100113824 -0.10419522 -0.07984562 -0.12614585
0.08367497 -0.31116486 -0.32089588 0.27455732 -0.051720828 0.14282879 0.13141458 -0.04485064
-0.03970237 0.17403951 -0.18542439 -0.044571396 0.21437576 -0.22526428 0.09970533 0.08023029
0.0813096 -0.09361484 -0.21380852 0.08600458 -0.29602915 0.25676653 0.13782632 0.13067895
0.115510315 -0.13620421 -0.16556878 0.1359186 0.115206644 -0.15350673 0.013328501 -0.020453045
-0.0029928593 -0.11126428 -0.08188632 -0.022227649 -0.08971493 0.22851105 0.120773084 -0.07223657

user_tower.network.0.weight f4 [256, 5]
00000000: 7511 fcbd b192 78be 01bf dfbe 8cb6 d5be
00000010: d7dd 833e 189d c8be df60 863d 9866 b0be
00000020: 8125 bb3e a0a7 493e 88c1 33bf f951 883f
00000030: 3be0 f73d 3e96 bdbb 7341 8b40 5dcf c9be
00000040: 2b3e bdbe 61ad 9cbe 2cc4 903e 45ba 673e
00000050: 0a01 723f 3b4b bcbe 794b e6bd 4869 b93e
00000060: aa37 a3c0 8682 b6be 4097 d8be 2e24 603e
00000070: a28d f4bd 48f0 823f c6da 633e 4855 dfbc
00000080: 8acb 75be 8892 bebe d72e 63bf 7b8b 673e
00000090: 7795 cdbd cbab 45be 8c74 33bf a0a7 7fbf
000000a0: fc9d 1bbf 1890 813f 73f5 733d f5e4 ff3d
000000b0: 476f 8b40 fe57 2ebf 2ce7 8a3f 482b 623d
000000c0: caaa 493e a687 9a40 e7e7 f23d 96c7 b5be
000000d0: 8fb1 92be 48e0 c8bd ebd1 9cbd d947 16bf
000000e0: 8f68 993f 6f1c 243e b625 b7be ab16 7b40
000000f0: 8fc4 1dbe 95ef cf3e cda1 5abe ca95 9cbe
00000100: 90b1 c23e bf93 11bf 3834 debe 302f 803d
00000110: 113c 033e 7085 ce3f 9583 77be 9d2a 19be
00000120: 55dc 1ebe 8406 043e 5f9f 3dbe 5a10 28be
00000130: cbd7 203d 0e61 9dbe 60d5 ae3e 1d02 213d
00000140: 3c3a 823d dd3c adbe 910d 5cbe 14f9 f8bd
00000150: dddc 003e 66cf c9be e1cf 71be 0608 a9be
00000160: fcba 33be 2a00 2ebe 32a9 92be b07e 02bd
00000170: bf10 88be aa05 a23e 9024 0b3b c12f bbbe
00000180: 5723 00bc fe89 85be 9943 20bc 573b a9bd
00000190: aa67 a5be 4181 21bf 095d 833e ff90 0fbe
000001a0: 6456 b13f d5af 82bf df41 eb3c 476c 6c3e
000001b0: 59f6 183e 09cf 6940 41e4 68bf e695 323f
000001c0: b020 993e 0a0e 99be f244 8440 aaf1 a8be
000001d0: 6b05 f33d 294b 47be 630d c1be 6367 bd3e
000001e0: 42ae 3e3c 1af4 5abe 6f7b 83be 0078 a53e
000001f0: 6cfe debd f74a b3be c120 e0bd 8384 44bc
00000200: 8ddc eb3d 0bb6 9f3d c732 593f 294c 0dbf
00000210: 86cd c2bd 3bed 3e3e ce2d 90c0 a4c9 27bf
00000220: 02fa f8be 9575 613e 0bab 553e 721c ee3f
00000230: 65fd b6be 8a2b 2b3e 46d3 8abe dd1d 3dbe
00000240: 5e29 dd3e d8d4 d0be ffb2 853e c292 80be
00000250: e947 85bd 5f3e b0bd 8c84 fd3e 9e61 7c3e
00000260: d3e0 3cbe 46f4 c23d 9cb4 1cc0 bbe3 21be
00000270: de95 87bd 7c8b a6be 471f 0a3d cfa5 df3e
00000280: 4a04 5cbd 5be7 44bc f399 89bc c472 d7be
00000290: 5feb 8cbe 6128 1dbf 06d8 ee3d ccc7 783d
000002a0: 16ad e9be 6966 763f 5b3c ecbe a14b 993d
000002b0: f270 343d 8947 f4be 7509 8d3f c979 aa3c
000002c0: e7c9 64be a978 c4bc 08f6 4abe eab1 b7be
000002d0: 909b 013f fa5f fbbe 5765 f5bd 21ff b13e
000002e0: 3740 74c0 da03 c53d 4b84 2fbe 1f4b b3bd
000002f0: 3614 2dbf 4edf 31bf 19c8 293f fb6b 77bf
00000300: ca5d ed3c 1a05 443e 0e0e 9dc0 2fa4 533f
00000310: 3be7 a0be 394f 663c e7c5 83be 6d87 9ac0
00000320: 53ce febd e58e 5c3e 4ec7 cabe e1c4 ddbe
00000330: 0855 85be deef 14be 23e4 293e bfe1 edbc
00000340: b6be 0abd c2b8 7e3e 5228 eebd eba1 c23e
00000350: c010 c3be 556d 83bd 86e9 e2be fa67 35bf
00000360: a930 89bd cd26 283e 734c ff3d e8a0 2340
00000370: 6bc2 8bbe cda1 ffbd 3c2a 253e c6cd b0be
00000380: acae 5f3f 5175 1abf 9db1 aabe cb29 1e3e
00000390: 665f ac3e 87e2 ea3f f534 59be b574 5dbd
000003a0: 5049 e1be fe0f dd3e c32e 6d3e 43da aebe
000003b0: 31a9 453e 5bd2 b23c ae4a 4bbe 8c04 ce3f
000003c0: 3d51 1cbf eb1c 94bd 78d5 7e3e 64f3 0fbf
000003d0: 11b8 3240 6187 693f 52a8 c0be ae5c 13be
000003e0: d455 ca3e 1b8e 99c0 7344 c9be 7121 7c3e
000003f0: 336b bcbe 75c3 103e 4d41 9c3e 3bea 953e
-0.12308017 -0.24274708 -0.43700412 -0.41740835 0.25755188 -0.39182353 0.065614454 -0.34453273
0.3655205 0.1969285 -0.7021718 1.0650016 0.121033154 -0.0057857325 4.3517394 -0.39416018
-0.36961493 -0.30601028 0.28274667 0.2262965 0.94532835 -0.36776146 -0.11244864 0.36213136
-5.100545 -0.35646456 -0.42302895 0.21888801 -0.11941077 1.0229578 0.22251424 -0.027262345
-0.24003425 -0.3722117 -0.88743347 0.22611801 -0.10038274 -0.19303815 -0.7009971 -0.9986515
-0.6078794 1.0122099 0.05956025 0.12494842 4.3573337 -0.68103015 1.0851798 0.055217057
0.19694057 4.8290586 0.11860638 -0.35503834 -0.2865109 -0.09808403 -0.07657226 -0.5870338
1.1985034 0.16026472 -0.3577096 3.9232585 -0.15407012 0.40612474 -0.21350785 -0.3058303
0.38026094 -0.5686607 -0.43399215 0.06259 0.12815882 1.6134472 -0.24171288 -0.14957662
-0.15513737 0.1289311 -0.18517826 -0.16412488 0.039268296 -0.3073811 0.34147167 0.039308656
0.063587636 -0.33835497 -0.2148955 -0.12156883 0.12584253 -0.39416045 -0.23614456 -0.33013934
-0.17551798 -0.1699225 -0.2864471 -0.0318591 -0.26575276 0.31644946 0.002123151 -0.3655987
-0.007820926 -0.26081842 -0.009781742 -0.08263271 -0.32305652 -0.6308785 0.25656918 -0.14020155
1.3854489 -1.020991 0.028717933 0.2308818 0.14937724 3.6532614 -0.9097329 0.69759977
0.2990775 -0.29893523 4.133416 -0.32996875 0.11866268 -0.19462265 -0.37705526 0.3699294
0.011638226 -0.2138218 -0.2568011 0.32318115 -0.10888371 -0.3501813 -0.10943747 -0.011994484
0.11516676 0.07798394 0.84843105 -0.55194336 -0.09511857 0.18645184 -4.5055914 -0.65542054
-0.4862824 0.2201751 0.20866029 1.8602431 -0.357402 0.16715828 -0.27114314 -0.18468423
0.43195623 -0.40787387 0.26113126 -0.25111967 -0.065078564 -0.08605646 0.49515188 0.24646613
-0.18445139 0.09519248 -2.4485235 -0.15809529 -0.06620382 -0.32528293 0.033721235 0.4368119
-0.053715028 -0.01201805 -0.016797042 -0.42079747 -0.27523324 -0.6138974 0.11662297 0.060737416
-0.45639867 0.96250015 -0.46139798 0.07485128 0.044053026 -0.47710827 1.1018511 0.020810025
-0.22342645 -0.023983316 -0.19820416 -0.35877925 0.50627995 -0.49096662 -0.1198222 0.3476496
-3.8164194 0.09619875 -0.1714031 -0.087545626 -0.67608964 -0.6948136 0.6632095 -0.9664914
0.028975386 0.19142571 -4.9079657 0.826724 -0.31426415 0.014056974 -0.25736925 -4.8290315
-0.12441697 0.21538885 -0.39605182 -0.4331427 -0.26041436 -0.14544627 0.16590934 -0.029038308
-0.033873282 0.24875167 -0.11628784 0.3801416 -0.38098717 -0.06417338 -0.4431879 -0.7086178
-0.06698734 0.16421051 0.124657534 2.556696 -0.27296767 -0.12482033 0.16129392 -0.34531993
0.87375903 -0.6033526 -0.33338633 0.1544563 0.33666533 1.8350381 -0.21211608 -0.05406638
-0.44001245 0.43176264 0.2316237 -0.34150895 0.19302823 0.02182882 -0.19852707 1.6095138
-0.6106146 -0.07232078 0.2488612 -0.5623076 2.7924845 0.91222197 -0.37628418 -0.14390823
0.39518607 -4.798597 -0.39310035 0.24622132 -0.36800537 0.14137061 0.3051857 0.29280266

user_tower.network.0.bias f4 [256]
00000000: a52f b03e 0720 e23e 31b7 853f b378 dabe
00000010: 8a36 55bf 9b21 5b3e d4d0 b0be 5c97 24bd
00000020: 14ef 903f 5149 873f 835b 20be 1b69 0a3f
00000030: 8ab3 5b3d fd09 783e 4f09 28bd ae86 89be
00000040: c0d6 8f3e 352b db3e 7afe b6be 5ec2 88be
00000050: 65a4 a0be 9371 053a 46a1 ff3e 365b 42be
00000060: 0f9d 96be e5e6 05bf e8c3 30bf 5e74 06be
00000070: 859b a53e d1ae e1be cff7 7fbe 04d8 183e
00000080: 8d2b 53be c057 cabe 3060 7f3e f897 283d
00000090: e75b dabe bbd2 333b 8730 8dbf 2074 033d
000000a0: 7ac7 b33e 2203 873e 0693 56bc baf6 323e
000000b0: 1f1f 1abe 3ef0 603e 3f30 6f3e 0ebd 223f
000000c0: f86a 5a3e 5d42 66bf adf8 173e 8251 a8be
000000d0: d9af d9bd 3f35 66bf fa02 993e 19f3 a73e
000000e0: 8796 1ebe 6de5 3a3f a045 0d3f e667 0fbf
000000f0: 9f90 32be 1802 e43c c28d 61bd 7081 3c3e
00000100: ce3e 28bd 9439 3ebe 3c36 2d3d 105b 2f3e
00000110: 1658 da3e 9fde 623e 0dde 8d3f 3b24 45bb
00000120: ec76 c93e ff44 98bf 05d9 94bf 69ca 773d
00000130: 2536 9d3e 09a1 d8be a634 a83d 5a43 0f3f
00000140: 7451 d13d 2648 f13d 682a 7ebe 79c2 d6bd
00000150: 54e7 6abe 08b1 c83e 6507 46bf 6d12 983e
00000160: 2af1 28be 8836 21bf 818b 7c3f 68ef 893d
00000170: ca2d 893e 0a62 82bf e140 913e cf6a b5be
00000180: e38b 4ebe a947 253f 2b57 fe3c a63c a6be
00000190: 5691 9cbe 2d80 d7bd 7b5f 19bf 55a9 16bf
000001a0: b28f 28bf 2f82 c9be 0a35 c4be 2b65 18bf
000001b0: 27ff 9a3e 0b19 9b3e e172 d6ba 13b0 79bd
000001c0: b6df 8cbe 0a10 49bf e580 433f b76c ddbe
000001d0: 9261 a83e 72ac 32be ed08 e03d c202 e5bd
000001e0: 6834 a53e 96de d6be d466 4bbc d01f 8cbd
000001f0: 3a89 943e dc58 4cbf bbd8 8f3e 36f8 8d3e
00000200: 3b83 24be efdc b63e ec08 75bf a66a 34bf
00000210: 249d 1dbf 4827 d43c 6389 cebe 38d8 54bf
00000220: af8b 6dbe 7fb3 67bd d588 6dbe 5af6 a43d
00000230: 0bbc b33b 5c4e 9bbf 2ad3 91bf a541 103f
00000240: 6ab9 5fbd f554 2cbf 1950 a1be 4141 a13d
00000250: bdc8 a03e 5fc4 213e 9f52 4dbd 5685 8fbd
00000260: 81b2 e33e 4725 c9be c030 efbd aee2 b23d
00000270: 9fa2 93bf a0e5 98be 1e00 fcbe 896b 8fbd
00000280: 7089 aabb 4507 b4be d17c 77be 0777 0ebe
00000290: 733c e9be 5212 a43e 4cff 27bf 041b 823c
000002a0: 28a1 a3be 80c1 2d3f 8836 90bf 0196 eabe
000002b0: b42e 933e fb83 cabe 9242 94be 8225 fcbe
000002c0: 230e 5b3e f02c b73e 4a2a 0a3d 40ab 1cbf
000002d0: 424b 1c3f 6c85 173f e8e6 f73d 5d2d 47bd
000002e0: a7ec b3be 62d0 443d 426e 593e 9f93 88be
000002f0: 4f61 3dbe f23f e23e 8341 c3bd 3357 28bf
00000300: ec18 b1be 4399 9d3e 0cc9 edbe 18dd da3d
00000310: b6e1 3b3f b505 b23e f0e1 153f 4c9f 78be
00000320: 3d69 663c 3c8d 033e 2118 0ebe c775 f2bd
00000330: 4785 333f a776 afbe 038b f53d dcf2 b4be
00000340: ec20 293f 6859 a0be 771b 573e 2f6c 193f
00000350: 6db9 1f3f 9b0d d33d 4e98 9cbf 7f96 8fbc
00000360: 898e 333d 433a cdbe 339c cc3e 5654 523e
00000370: f721 8a3f 828e 9c3e c0c3 453e c6b6 8bbe
00000380: 8e74 94be 69e3 a33d 19b3 c0be 14fc fd3d
00000390: fc40 08bf 23d0 13bf de2b cbbd 4dbe 1fbe
000003a0: dbff 31bf 4b43 8bbe 7f1e 31be 4129 74bb
000003b0: 907b 1abf c122 62be 0894 49be d11b 08bd
000003c0: 44b5 1abf 94d0 9c3d d321 96be d902 89bf
000003d0: 6a3a b0be 1879 5cbf 772a f0be fda2 8e3b
000003e0: 6de4 eebe 844d 263f 714e 51bf 3578 19bd
000003f0: 161b e7be 15dc 453d e788 fabe 521e 9cbf
0.3441135 0.4416506 1.044653 -0.4267021 -0.83286345 0.21399538 -0.34534323 -0.04018341
1.1322961 1.0569249 -0.15659909 0.5406663 0.05363802 0.2422256 -0.041024502 -0.26860565
0.2809353 0.42806402 -0.35741025 -0.2671079 -0.31375423 0.0005090471 0.4992773 -0.18980107
-0.294167 -0.5230544 -0.6904893 -0.13130328 0.32345214 -0.44078687 -0.24996875 0.14926153
-0.20622082 -0.39520073 0.24939036 0.041160554 -0.4264824 0.0027438838 -1.1030434 0.032093167
0.35113126 0.26369578 -0.013096577 0.17476931 -0.15050934 0.21966645 0.23358248 0.63569725
0.21329868 -0.8994501 0.14840956 -0.32874686 -0.106292434 -0.89925 0.29885083 0.32802656
-0.15487109 0.73006326 0.55184364 -0.5601791 -0.17437981 0.02783303 -0.05506683 0.18408751
-0.04107552 -0.18576652 0.04228805 0.17124581 0.4264533 0.22155236 1.108339 -0.003008141
0.39348543 -1.1896056 -1.1628729 0.060495768 0.30705371 -0.4231036 0.08213167 0.55962145
0.10220614 0.11781339 -0.24820864 -0.104863115 -0.22939807 0.39197564 -0.77355033 0.29701558
-0.16498247 -0.62973833 0.98650366 0.06735116 0.26792747 -1.0186169 0.2836981 -0.3543305
-0.2017055 0.6456247 0.031047424 -0.32468146 -0.30579633 -0.105224945 -0.59911317 -0.5885213
-0.6584426 -0.39357135 -0.38321716 -0.5952937 0.3027279 0.30292544 -0.0016361141 -0.060958933
-0.27514428 -0.785401 0.7636855 -0.43247005 0.3288694 -0.17448595 0.109392025 -0.11182167
0.32266545 -0.41966695 -0.012414653 -0.06842005 0.29010946 -0.7982309 0.2809504 0.27728432
-0.16065685 0.35715434 -0.9571674 -0.7047523 -0.615679 0.025897637 -0.40339193 -0.83142424
-0.23197816 -0.056567665 -0.23196729 0.080548 0.005485063 -1.2133288 -1.1392567 0.56350166
-0.054620184 -0.67317134 -0.31506422 0.07873774 0.3140315 0.15797566 -0.05012762 -0.07007854
0.44472125 -0.39286253 -0.1167922 0.08734642 -1.1534003 -0.2986269 -0.4921884 -0.070029326
-0.005204372 -0.35161796 -0.24168707 -0.13912593 -0.45553932 0.32045227 -0.6562393 0.015882023
-0.3195889 0.6787338 -1.1266642 -0.4581757 0.2874657 -0.39553818 -0.2895704 -0.49247366
0.21392111 0.35776472 0.033731736 -0.61198807 0.61052334 0.5918796 0.12104589 -0.048627246
-0.3514149 0.04805029 0.21233466 -0.26675126 -0.18494152 0.4418941 -0.0953398 -0.65758055
-0.34589326 0.30780992 -0.4644245 0.106867015 0.7339128 0.3476998 0.5854788 -0.24279517
0.014063177 0.12846845 -0.13876392 -0.118388705 0.7012524 -0.34270212 0.11989405 -0.35341537
0.6606586 -0.31318212 0.21006571 0.599307 0.6239231 0.103053294 -1.223398 -0.017527817
0.043837104 -0.40083513 0.3996292 0.20539984 1.0791615 0.30577475 0.19312954 -0.27287883
-0.28995174 0.080023594 -0.3763664 0.12401596 -0.5322416 -0.57739466 -0.099204764 -0.15599938
-0.6953103 -0.27199778 -0.1729679 -0.0037256035 -0.6034479 -0.2208357 -0.19685376 -0.033229653
-0.6043284 0.076569706 -0.2932268 -1.0703994 -0.34419566 -0.86122274 -0.46907398 0.004352926
-0.4665865 0.6496203 -0.8176032 -0.037468154 -0.45137852 0.04830559 -0.48932573 -1.2196753

user_tower.network.2.weight f4 [16, 256]
00000000: baed 6ebd 343e 99bc 9914 15bd 50de 093d
00000010: f54e c9bc 6c9a 9dba 2436 09ba de4e 8ebc
00000020: 0b9b aebd e677 debc c0a9 8f3c a396 5bbd
00000030: 3475 ac3c 4e76 223d d459 aa3c a0f2 983b
00000040: 149d 42bd 004e 0b3d a4f1 043d 6048 dbbc
00000050: 94d7 213d f70c 7f3b 7bd4 44bc c0f0 eeba
00000060: 0aa6 04bd 0245 e8bb 856f 9ebd 084e b3bd
00000070: 6ade 32bd e0d3 74bc 1240 bdbd d074 ed3c
00000080: 83d6 aabc bade adbc 971a 133b 3404 f5bc
00000090: 087c f2bd efd5 873b ffd2 14bd 4e01 323c
000000a0: 1444 f9bc 2c0b f73c ca70 75bd 407a 62bc
000000b0: deea ba3c 0c2c 34bc 985b 353c c3de 183b
000000c0: fa0a 1bbd b02a 26bd f47a 663d dee1 61bd
000000d0: f854 283d 4163 c4bc 8789 90bc 0abc 52bd
000000e0: e13d 593b d0b5 d2bd f2ed c4bd 77e4 8cbd
000000f0: 2212 e6bd ea2f 4b3d beed b73c 1b9d 1ebc
00000100: 265c 8cbd c9a7 ec3c ecb9 16bd 242e b03c
00000110: 2434 9abc 2028 a33b 8a59 503d 65b8 30bc
00000120: 1aec 043d 0fef 99bd daa2 dbbc 2ef8 803d
00000130: 8ca5 53bd bce3 51bd 816e 8fbc 1112 a03c
00000140: 39f4 20bd 93e1 bfbd 7e3c 533d 3ad7 d1bd
00000150: 3ef0 13bd 641e 973c f547 febc 3cc3 f93c
00000160: 3842 503c be35 12bc 867d 27bd 2dd2 e9bd
00000170: c40b 2bbd 2f2b 1dbd 3e5f 79bd 18bf b63c
00000180: 0eb9 aebc 5b33 c1bd be0f 353d f85a 3dbd
00000190: fead 3bbd 1843 643d 0cb6 33bd 40ec 65bd
000001a0: 64be a2bd 54a8 f1bc c5bb 74bd c6ea b4bc
000001b0: 309d 603c 88d0 f7bc b301 0ebd bc90 91bc
000001c0: 4349 0b3b 5be0 a53c 9973 1cbc 78bb 073d
000001d0: 68d6 92bc ec5f 8ebc 1358 3abd b5c6 dc3b
000001e0: af7c 9ebd b2db 45bd 9e29 20bd 6ce6 c73c
000001f0: 5f60 d6bc 8743 cabd 3d62 76bc 07c4 09bd
00000200: 954b 83bb 2ed9 bbbd 3a42 26bd 2f26 853b
00000210: 9806 ecbb 3630 97bc 2c1c f5bc b782 97bc
00000220: 6e47 54bd e44a 5abd 5e0e 103d e09d 9ebb
00000230: c053 4abd 67a6 0abd d668 a3ba 545a 5cbd
00000240: ea89 703d 1b58 153d 829e 9bbc ec03 65bd
00000250: 2e7b 81bd 9803 8ebc 42d9 a6bc 4e3e 633d
00000260: 68d6 e4bc 2377 99bd f5aa 87bd 0f79 b7bd
00000270: 6a07 cabb d891 6dbd 4bee 9bbd 929a 3cbc
00000280: 6076 1cbc e8ac b03c d01e 21bd dea6 85bd
00000290: 1cbc c73c fa4e 65bd aa3a 82bc aa74 433d
000002a0: 2e4b 8fbc ee28 56bc 3a53 eebc 4698 e93c
000002b0: 8c73 fdbc 2ca8 cc3c 0820 1f3d 919b 64bd
000002c0: 506a 473c 68ae 033c c0f9 8cbc 3ce6 50bc
000002d0: 3d02 233c c469 16bc 1832 c1bc 36d0 2cbd
000002e0: 403a 6ebd 7431 03bd 8052 2cbb 8c6b 673c
000002f0: 3853 153c 442e 32bd b6c0 403d ee16 0fbd
00000300: faed 05bd 0c82 ce3c 7548 98bc c7ce 47bd
00000310: 682a a7bc 3659 7dbd cb21 64bb 1ea0 363d
00000320: 18a7 27bc 4120 7bbd 581f 033b 98ec 12bc
00000330: 87c0 d8b9 7fad f53c 7125 2d3d 90f0 65bc
00000340: a558 febb 0e48 443d 142f 9ebc 965f c3bd
00000350: 682e 72bd b4b7 a0bc 5175 bcbc 2cb6 64bd
00000360: 0a61 a5bc d970 19bd c288 16bd 52fd 33bd
00000370: 42a8 b9bd 1009 e83b a0bb 1fbb d440 ed3c
00000380: c055 713c 6d13 aabc fa17 0f3d 704c 7cbd
00000390: 53ad 79bd 411b bdba fb26 a0bc 2c16 db3c
000003a0: 6c26 2fbd 0d5e 43bd da4b 383d dc17 3d3d
000003b0: 557a 7bbc 4a48 5dbd 8291 153d 38d3 c7bd
000003c0: 6e8a 913b ae71 17bd bc1b d4bc 7b64 b5bc
000003d0: 8820 15bd 0124 bbbd 8198 8cbd 1ead 69bd
000003e0: a6c8 72bd 38d3 33bd fdc2 d13a 612b 773b
000003f0: 1c84 10bd e39a 083d af7c 133d db31 3ebd
-0.058332182 -0.018706419 -0.036396597 0.03365928 -0.024573782 -0.0012024171 -0.0005234203 -0.017371591
-0.08525666 -0.027156781 0.017536998 -0.053610455 0.02105198 0.039663605 0.020794787 0.004667595
-0.047513083 0.034009933 0.03245701 -0.02676791 0.039512232 0.003891764 -0.01201355 -0.0018229708
-0.03238491 -0.0070883045 -0.077361144 -0.08755118 -0.04366914 -0.014943093 -0.09240736 0.028986365
-0.02085424 -0.021224368 0.0022446269 -0.02990923 -0.11840063 0.004145376 -0.036334034 0.010864569
-0.03042797 0.030156694 -0.059922017 -0.013823092 0.022817072 -0.01099683 0.011069201 0.0023326136
-0.037852265 -0.040568054 0.0562696 -0.055147044 0.041096658 -0.02397311 -0.017643703 -0.05144886
0.0033148455 -0.10288584 -0.09615697 -0.06879514 -0.11233927 0.04960624 0.022452231 -0.009681012
-0.068535134 0.0288886 -0.036798403 0.021506377 -0.01882369 0.0049791485 0.05086664 -0.010786151
0.032451726 -0.075163 -0.026811052 0.062973365 -0.05167155 -0.051242575 -0.017508747 0.019539865
-0.03929541 -0.09369197 0.05157136 -0.10246129 -0.036117785 0.018447109 -0.031040171 0.030488603
0.0127111 -0.008923946 -0.040891193 -0.11417041 -0.041759267 -0.03837126 -0.060881846 0.022307917
-0.021328475 -0.094336234 0.044204466 -0.046229333 -0.04582023 0.055728048 -0.043874785 -0.05613351
-0.079464704 -0.02949921 -0.059749383 -0.022084605 0.013709351 -0.030250803 -0.03466959 -0.01776921
0.0021253384 0.020248583 -0.009549045 0.03313777 -0.017924502 -0.017379723 -0.04549415 0.006737555
-0.07738625 -0.04830522 -0.03910219 0.024401866 -0.026169 -0.09876161 -0.01503807 -0.033634212
-0.004006813 -0.09172283 -0.040590502 0.0040633897 -0.0072029345 -0.018455606 -0.02992066 -0.018494947
-0.051825933 -0.053294078 0.03516995 -0.0048405975 -0.049396276 -0.0338501 -0.0012467157 -0.05379708
0.058725275 0.036460977 -0.01899648 -0.055911943 -0.06322323 -0.017335698 -0.020367268 0.05547934
-0.027934268 -0.07493427 -0.06624404 -0.08958637 -0.0061654346 -0.058000416 -0.0761381 -0.011511462
-0.009549707 0.021566823 -0.039336026 -0.06525968 0.02438169 -0.05598352 -0.015897114 0.04771868
-0.017491903 -0.013071282 -0.02909242 0.028514992 -0.030938886 0.024982534 0.038848907 -0.055812422
0.012171343 0.008037187 -0.017208934 -0.012750205 0.009949264 -0.00918049 -0.023583457 -0.042190753
-0.05816102 -0.032029584 -0.002629429 0.014124762 0.009114079 -0.043501154 0.047058783 -0.034933977
-0.032697655 0.025208496 -0.018589238 -0.048781183 -0.020405963 -0.061852656 -0.0034810181 0.044586293
-0.010232709 -0.061310057 0.0020007696 -0.008967541 -0.00041342175 0.029989956 0.042272035 -0.014034405
-0.007762032 0.04792028 -0.019309558 -0.09539716 -0.059126288 -0.019618846 -0.02300516 -0.055837795
-0.020187873 -0.037461136 -0.036751516 -0.043942757 -0.09065296 0.0070811585 -0.0024373308 0.028961577
0.014729917 -0.020761216 0.034934975 -0.061596334 -0.06095631 -0.0014427678 -0.019549837 0.02674397
-0.04276125 -0.047697116 0.044994213 0.046165332 -0.01534899 -0.05402402 0.03651572 -0.09757084
0.004441551 -0.036973648 -0.025892131 -0.02214264 -0.036407977 -0.091377266 -0.06865025 -0.057049863
-0.059273385 -0.043902606 0.0016003546 0.0037715065 -0.03528224 0.033350836 0.03600758 -0.046434265

user_tower.network.2.bias f4 [16]
00000000: 96cd adbb 2624 55be 248a 663c c5d7 69bf
00000010: 7c22 5cbe baa3 8fbd 8060 9bbd 1193 99bc
00000020: 3d4c 663d 9f40 703f 9316 093d 5c13 923c
00000030: 1e59 62bd ff45 46bc 5814 813c 8aeb 5fbd
-0.005304049 -0.20814571 0.014071021 -0.91344863 -0.2149753 -0.0701365 -0.07586765 -0.018746885
0.05622505 0.93848604 0.033468794 0.017831497 -0.05526077 -0.012101649 0.015756771 -0.054667987

item_tower.network.0.weight f4 [256, 128]
00000000: 7785 243d 30dc f0bb dbf5 073e 2669 103b
00000010: c5af 103e 4881 bd3d 7004 ae3d 4007 1ebe
00000020: c6c8 3c3d 7f74 3e3d 0087 9e3d 07ef 0abe
00000030: ea30 233e b814 80bd 49dd b13d d87e 483c
00000040: 8aca 8f3c 5435 333c d1c5 87bd a13c 94bd
00000050: b51d 873d e89e c73c e44d 22bd 9c22 45bd
00000060: fe82 bc3b ee57 ae3d 4406 d43d cde3 3f3d
00000070: e5a2 cbbb 3944 10bd 7738 1f3d 423a 1fbd
00000080: 00dd 063e 1113 0abd f44b 1bbd 01e8 ce3d
00000090: 69fb d2bc 7323 2fbd d11a b73d d634 033e
000000a0: d42c 88bd 20a6 bf3d 21b9 74bd f588 f53d
000000b0: f81a b93d fa84 3c3b 87da 893d 57a5 e93d
000000c0: 3d68 d7bc 6abb 1f3c 7fb5 8b3d 4737 21be
000000d0: 3109 dcbc 57ed ed3d 2a9d 423d 7e40 f63d
000000e0: ec17 b9bb 9f3b a53d b0f7 fbbd 7a65 5bbd
000000f0: 25fd 64bd 7850 25bb d4a3 9ebd 606f 033c
00000100: 1758 ce3d 20b1 0fbe a7bc 63bd 9695 04be
00000110: 6bd6 8cbc ce33 38bd 3581 5dbd b9b5 e13d
00000120: bb03 a5bd 7e10 243e 92b5 b53d ad59 72bd
00000130: 076c 7e3d 7ee0 043e 1e59 133c 1aa8 8dbd
00000140: 5156 e33c 0907 1b3d 6e07 5fbd 3605 b53d
00000150: 1a81 46bd 1bda 7d3b c2a7 06bd ab77 89bd
00000160: ab25 b5bd 5cd9 2f3a 569c b6bc 291a 1c3d
00000170: 44ff 13bd 294f e33d e8ba 63bd 6a47 aabb
00000180: 690a 95bd 16df 2d3d 944b c53a 0e00 dc3d
00000190: 26ff c4bd b933 eabd 2e9a 64bd 06fc 583d
000001a0: 980b 02bd bc5b e1bc c19f 21bd 8a5e a0bd
000001b0: 153e 6a3d 99d6 163e f637 2cbd 94e8 e7bb
000001c0: fc3c dd3d f058 d7bd dfee 603d 8ae9 afbc
000001d0: 3e93 ef3d cf13 e9bd b6bc c03b f546 053d
000001e0: c408 2a3d 6dd2 1c3e e425 6bbd 4644 2fbd
000001f0: 56ba 883c 628d 15bc 86a5 dc3c b726 183c
00000200: 049b 0e3e cbe7 1b3e d07f c3be 6959 05be
00000210: 6a4f b73e 535d 843e bdc3 323f 638c 0dbf
00000220: ea24 7cbe ad82 e43e 2624 76be 8df0 d8be
00000230: 6be7 483f d346 4cbd 114a 133f ac5b 22bf
00000240: 58cd 15be 8ac5 5dbe 0057 84bf 90bf 8dbf
00000250: 3463 4b3f 499f 04bf 3ad6 8fbf d700 e73e
00000260: ce54 1c3f 3a6a a33e 5745 6e3e 1f6d 7bbe
00000270: 6640 ea3e dc80 8cbd e7f9 1a3d 8a19 b73e
00000280: a6a9 503d 9dd6 48be 6970 bdbc 6b11 0b3f
00000290: 5956 15be 28b6 e73e 730e 30bf 670d 7d3e
000002a0: f09d 4f3d dcda 983e 3989 49bd 9232 13be
000002b0: 60ac 41be 3de6 873e b3cf 45be 7f61 a33e
000002c0: de35 1abd 10e2 c13e 0b6f f33d 10c9 5abf
000002d0: 2b33 cbbd ff39 fbbe 8c22 e1be 008f 043f
000002e0: 8789 8b3d 2842 983e da78 05be 7b73 24bf
000002f0: 6347 6e3d ade2 d03e 0bc5 c3be d7fd cb3e
00000300: 543c 1e3e 2d15 28bf 6330 89bf 479a f3be
00000310: 302d 10bf 5755 1bbe 6036 b1be 94c2 1f3f
00000320: 7809 0dbf 7d25 c5bc dd90 093f e1a6 fabe
00000330: b4f0 00bf 8c66 ab3e ee67 f3be b969 4abd
00000340: 8282 07bf 6d1d fe3e 91e5 1a3f 8c95 1a3f
00000350: 7110 3abb 3be5 393e d308 a13e e430 e23e
00000360: 619d 0a3e 3d66 2a3e 27c8 1cbe 7ff8 173d
00000370: f2f3 0cbf b968 343f 4d1d 07bf 4496 28be
00000380: 7a5a 943e 670a 223e 19d3 2cbe 9a40 683f
00000390: f0cc 83be 221d 88bf 2b3f 653e 27f2 be3e
000003a0: 1dd9 393e 7b65 93be 3c1a c0bd 5b4e 04bf
000003b0: ab4f 203f 69c3 4a3f 6697 c9be 163e 3a3f
000003c0: bea4 4a3f 4d0d 17be 43ab 2c3f 7848 dbbd
000003d0: 4ec0 bc3e eb19 a3be 2f87 59bd 5777 593e
000003e0: 669f b03f 4016 9cbc e0b5 38bf 0cb3 b4bb
000003f0: 6ea9 3abf ed1f 3cbf d0db 3abe 8639 de3e
0.040166344 -0.007350467 0.1327738 0.002203533 0.14129551 0.09253174 0.0849694 -0.15432453
0.04608991 0.046497818 0.07740593 -0.13567744 0.15936628 -0.06253952 0.08684785 0.012237273
0.017552633 0.010938007 -0.06629527 -0.072381265 0.06597463 0.024367765 -0.039625064 -0.04812871
0.00575292 0.08512865 0.103527576 0.046848107 -0.006214487 -0.035221312 0.03887221 -0.03887392
0.13170242 -0.03370959 -0.03791423 0.10102845 -0.025754647 -0.042758416 0.08940662 0.12813124
-0.06649175 0.09357858 -0.059746865 0.11989013 0.09038347 0.0028765784 0.06731134 0.11408489
-0.026294822 0.009749273 0.06821727 -0.15743743 -0.026859852 0.116175346 0.047513165 0.1202402
-0.0056486037 0.080680124 -0.12303102 -0.053563572 -0.05590548 -0.0025224965 -0.077460915 0.008022159
0.100753956 -0.14032412 -0.055599835 -0.12947688 -0.017192086 -0.04497128 -0.0540783 0.11020989
-0.08057352 0.16021916 0.088725224 -0.059167553 0.06211474 0.12976262 0.008993415 -0.069168285
0.02775112 0.037848506 -0.054450445 0.088388845 -0.048462965 0.0038734737 -0.03287483 -0.06712278
-0.08845075 0.0006708109 -0.022291344 0.038110886 -0.036132112 0.11099083 -0.05559817 -0.0051965015
-0.07277376 0.04244908 0.0015052431 0.10742198 -0.09618978 -0.114356466 -0.0558111 0.052974723
-0.031749338 -0.027509563 -0.039458994 -0.07830532 0.057188112 0.147303 -0.042045556 -0.007077286
0.108026475 -0.1051501 0.054915305 -0.021473665 0.11698006 -0.11380731 0.005881871 0.032538373
0.041512266 0.15314646 -0.057409182 -0.04278972 0.016690414 -0.009127947 0.026934396 0.009286574
0.13926321 0.15225141 -0.3818345 -0.13022389 0.35802776 0.2585245 0.6982992 -0.5529234
-0.24623457 0.44630948 -0.24037227 -0.42371026 0.78478116 -0.04987223 0.5753489 -0.6342113
-0.14629114 -0.21657386 -1.033905 -1.1074085 0.79448247 -0.5180555 -1.1237252 0.45117828
0.610669 0.31916982 0.23268639 -0.24553345 0.45752257 -0.068605155 0.03783598 0.35761672
0.05094304 -0.19613118 -0.02312489 0.5432345 -0.1458372 0.45256162 -0.6877205 0.24712144
0.05068773 0.29854476 -0.04920313 -0.1437476 -0.18913412 0.26542845 -0.19317512 0.3191032
-0.037649028 0.37867785 0.11886414 -0.8546305 -0.09921869 -0.49067685 -0.4397167 0.517807
0.06813341 0.29737973 -0.13034382 -0.6423871 0.05817355 0.4079794 -0.3823627 0.39842102
0.15452701 -0.6565731 -1.0717891 -0.47578642 -0.5631895 -0.15169273 -0.34611797 0.6240628
-0.55092573 -0.024065727 0.5373667 -0.48955444 -0.50367284 0.33476675 -0.4754023 -0.04941723
-0.52933514 0.49631825 0.6050654 0.6038444 -0.0028391147 0.1815385 0.31452045 0.44177926
0.13536598 0.16640563 -0.15310727 0.03710222 -0.5505973 0.70472294 -0.52779084 -0.16463572
0.28975278 0.1582428 -0.16877402 0.90723574 -0.25742292 -1.0633891 0.22387378 0.37294123
0.18149228 -0.2878836 -0.09380004 -0.5168206 0.62621564 0.7920442 -0.3937332 0.72750986
0.79157627 -0.14751168 0.67448825 -0.10707182 0.36865467 -0.3185571 -0.053107437 0.21236931
1.3798645 -0.019053578 -0.7215252 -0.005514508 -0.7291478 -0.73486215 -0.18247914 0.43403262

item_tower.network.0.bias f4 [256]
00000000: b9fe bcbd a615 24be 5dea 4ebd 795b 32bd
00000010: 497c 6ebd 9615 8ebd 97aa 86bc f24c 3abe
00000020: 4fd5 8a3f 30a5 72be 7984 e4bc ee3b be3d
00000030: 50ff 80bc 2805 79be a56c eebd 85bc 823d
00000040: a71a aabe 2501 3abe c9be 7fbe 5a31 5d3d
00000050: 84c4 b6bd 5af2 a5bd a01b 71bd eb16 67bd
00000060: 9f35 cdbd ca81 79bd 8e1f 83bd bbec c43d
00000070: 2fbd cfbd 2f2c 7ebd 093c 8c3e 20c0 1b3e
00000080: 28eb 55bd e80a fbbc 9428 c8bd d709 133c
00000090: 508d 25be 4491 c7bd dcef d6bd b778 7bbe
000000a0: 8592 a0bd 8781 fcbc fea6 14be 30be b3bd
000000b0: 946c 66bd 30fb b6bd 3297 71be df38 51be
000000c0: 2916 76bd 7c93 61bd 44ac 3dbd bc06 b3bd
000000d0: 4252 7a3d 0108 3fbc 54bf a5be a5e3 b4bd
000000e0: 0e77 9abd 91ec aebd 4dd4 edbd eceb bfbd
000000f0: 3639 8d3d d7ba 8ebd d83e 09be 4314 86bd
00000100: 7c8c 4fbe dd0b b0bd c259 24be 2ea8 edbd
00000110: 6bb9 f73a ddbc 7cbe 146e 28bd f0c7 1d3b
00000120: a49a a3bd e64a d3bd 84a2 b2bd 0210 cfbd
00000130: 46b2 1dbe 13ff b6bd d71d 45bd 02db c6bd
00000140: 863a 48be ee37 353e 2433 b3be 375c 03be
00000150: c9d9 aebd 1bcd c6bd 5a4d 84bd 8e80 91bd
00000160: 098b 09be 5df2 40bd e7f5 fbbc bae7 c5bd
00000170: f3f2 e4bd db8e 8abe 5348 1abe c889 8bbd
00000180: 3b46 c5bd 4529 1cbe 9691 93be aa5a fcbd
00000190: 2350 a6bd 0372 c5bd 4ec1 e23c 3ab4 183e
000001a0: f34f 9cbd afe5 a8bd 2f24 8fbd 4295 02be
000001b0: 52ed 84be 642a e8bd d07a a43d 5655 83be
000001c0: 7409 abbc c109 d1bd c2b1 02be 1628 c8be
000001d0: 99e1 f9bd 718f 83bd a1f9 d2bd d0f1 dcbd
000001e0: 30f5 01bd eece f139 c36e 81bd 1df2 153d
000001f0: 2cae e3bd 2c7e 9dbd 94b9 e6bd 312a b5bd
00000200: 56ac 47bd 2eec d6bc bea2 0a3f f1bb c9bd
00000210: 5ce1 d3bd 3363 d0bd a90e b0bd 77f1 bcbd
00000220: 1070 3d3d 201a 52bd 3d46 49be 1349 273c
00000230: c0b9 c1bd 1df1 a73d abae 123d 60c7 04be
00000240: bdf1 fabd 6eb4 aebe 5b14 00bd 2d03 93bd
00000250: 9a34 c4bd cf77 4cbd efd3 debd a454 5f3e
00000260: 8d36 4ebc 6a01 11be bfc7 e8bd 1155 9fbd
00000270: b96b 1dbe ecd7 65be 073d c5bd b0b3 57bd
00000280: d613 c5bd 4816 25be 81ec 4fbd 0d14 a7bd
00000290: 07ce d0bd 9c33 c1bd fa68 b8bd 9fa7 cebd
000002a0: f9a4 85bd 5e3b 1a3e bfe6 e4bd 1e95 bebd
000002b0: 8923 fabd e492 b5bd 7c94 a5be ee31 65bd
000002c0: 94e1 77bd e74f a6bd 7b14 0dbe d3e6 66bd
000002d0: ef4f 0abe 749a 15be 005f 89bd 0ad3 b0bd
000002e0: 832b 34bd 637c c33b 9d28 26be 64e1 1b3e
000002f0: a124 2bbe 0293 70bd 020f 8dbd 31ca f0bd
00000300: ee81 85bd cfd4 f9bd ff03 0fbe 1f13 8dbd
00000310: 0f67 a2bd 574c 33be 0263 a0bd 62b8 c7bd
00000320: b3eb b2bd 6b5b eabd 3b1e 99bd f18d 64be
00000330: e4cb 0e3d 5f84 d73e 00c8 16be 03a1 19be
00000340: 3632 fdbd b631 86bd 4078 53bd 978a 81be
00000350: b8ef e1bd fbc0 b6bd 1390 b63f ca6f 54bd
00000360: edff 26be 8ea6 11bd 3d58 7f3e eb91 77bd
00000370: 2c86 0c3d 3ea3 bebd 2fbd e43b da98 29be
00000380: 142e fdbc 270a b8bd 7449 26be 5b29 96bd
00000390: 8033 9a3c eadf 85bd 1e45 4f3e b501 75be
000003a0: 6fd9 cf3e bf33 1dbd c93d d8bd 5528 29bd
000003b0: 3a0f 19be 3568 e3bd dd71 39bd 6755 9fbd
000003c0: d166 96bd 15b5 b3bd bf93 51bd e76e 893d
000003d0: c75e 4b3e 125f 31bd f9ba 99bc 60f3 75bd
000003e0: 4804 22be f75f dbbd 879e 47be 98f2 243e
000003f0: e979 8ebd 7047 21be 5dcf f13e 0648 dcbd
-0.09228272 -0.16023883 -0.050516475 -0.043544266 -0.058223996 -0.06937711 -0.016438765 -0.18193415
1.0846347 -0.23695827 -0.0278952 0.092887744 -0.015746742 -0.24318373 -0.11641816 0.063836135
-0.3322346 -0.18164499 -0.24975123 0.054002143 -0.08924201 -0.081028655 -0.058864236 -0.05641834
-0.10019993 -0.060914792 -0.06402503 0.09615465 -0.10143506 -0.062053856 0.27389553 0.15210009
-0.052226216 -0.030644849 -0.09773365 0.008974514 -0.16167188 -0.09744504 -0.10494968 -0.24557768
-0.078404464 -0.030823482 -0.14516827 -0.0877651 -0.056255892 -0.08934629 -0.23592833 -0.20431851
-0.060079727 -0.055072293 -0.046306863 -0.08741519 0.061113603 -0.011659623 -0.32372534 -0.08832482
-0.07542239 -0.08541215 -0.11612759 -0.093711704 0.06895678 -0.069692306 -0.13402879 -0.06546833
-0.20268434 -0.08596013 -0.16049865 -0.11604343 0.0018899863 -0.2468142 -0.041120604 0.002407547
-0.0798848 -0.1031702 -0.08722404 -0.10110475 -0.15400037 -0.0893537 -0.04812416 -0.09709741
-0.19553575 0.17697117 -0.34999955 -0.12828146 -0.08537633 -0.097070895 -0.06460066 -0.07104598
-0.13431944 -0.047106136 -0.030756904 -0.09663339 -0.111791514 -0.27062115 -0.15066652 -0.06813389
-0.09632536 -0.15250118 -0.2882201 -0.1232198 -0.081207536 -0.09640887 0.027680065 0.14912501
-0.076324366 -0.08246934 -0.06989323 -0.1275225 -0.2596231 -0.1133621 0.08031237 -0.25651044
-0.020878531 -0.102069385 -0.12763122 -0.39093083 -0.122012325 -0.06423844 -0.10301519 -0.107883096
-0.03172797 0.00046121277 -0.06319954 0.03660785 -0.11117205 -0.07690081 -0.11265865 -0.08845938
-0.048748337 -0.026235666 0.54154575 -0.098503 -0.10345718 -0.10175171 -0.08596546 -0.09225743
0.04624945 -0.051294446 -0.196557 0.010210293 -0.09459257 0.082002856 0.035811108 -0.1296668
-0.12253139 -0.34122032 -0.031269412 -0.0717834 -0.095803455 -0.049918946 -0.10880267 0.21809632
-0.012586248 -0.14160696 -0.113662235 -0.07779897 -0.15373124 -0.22445649 -0.09630781 -0.052661598
-0.09622924 -0.16121781 -0.050762657 -0.08158121 -0.101955466 -0.09433672 -0.09004398 -0.10090565
-0.06525607 0.1506171 -0.11176824 -0.093057856 -0.12213809 -0.08865908 -0.32339847 -0.05595582
-0.060517862 -0.08120709 -0.13777344 -0.056372475 -0.13507055 -0.146097 -0.06707573 -0.086340025
-0.04398681 0.005965756 -0.1622643 0.15222698 -0.16713192 -0.058733948 -0.06887628 -0.11757315
-0.06518923 -0.12198793 -0.13966368 -0.06888413 -0.07929813 -0.1750959 -0.07831384 -0.09751965
-0.08736362 -0.11443218 -0.07476469 -0.22319771 0.034862414 0.4209318 -0.14724731 -0.15002827
-0.123630926 -0.0655245 -0.05162835 -0.25301048 -0.11032051 -0.08923527 1.4262718 -0.051864423
-0.16308565 -0.03555923 0.24936004 -0.060441893 0.034307644 -0.0930848 0.0069805603 -0.16562214
-0.03090576 -0.089863114 -0.16238958 -0.07332107 0.018823385 -0.06536849 0.2024121 -0.23926432
0.40595576 -0.038379427 -0.105586596 -0.04129823 -0.14947215 -0.1110386 -0.045274604 -0.07779961
-0.073438294 -0.08774773 -0.051166292 0.06710606 0.19860373 -0.043303557 -0.018765913 -0.060046554
-0.15821946 -0.10711663 -0.19494067 0.16108167 -0.06956846 -0.15749907 0.47228518 -0.10755925

item_tower.network.2.weight f4 [16, 256]
00000000: 4bae 42bd 21d0 a13b 9967 4abb 1ac3 663c
00000010: 3c57 eebb 4b3d 08bd c123 133d 8581 8dbd
00000020: ca2e a93a 998e 50bc 8060 1ebd 1bb8 94bb
00000030: 120d ba3c a16e 633d 2e30 6f3c 84c2 b9bd
00000040: 7396 5e3d c9e6 5d3c 9371 983b 64bb 87bd
00000050: 6d10 2bbd 5778 10bd 80d9 a0bd 18da 9abc
00000060: e9f1 f6bc db51 3d3c a667 263c 794c 27bc
00000070: 5f5a 413d b03a 6b3c 0929 00bd df9d 0dbd
00000080: 62b8 5f3d 764d b73c 65c2 353d 24ec 25bd
00000090: 7000 aebd 0f78 453d 6661 16bc 953f 573c
000000a0: 2721 2f3d 866f 23bd e47c a1bd 0556 f2bc
000000b0: ebdd 60bd b7d1 12bc 9341 4e3d 4f77 023d
000000c0: d735 96bd 0b1c 5a3d 945b ecbc 9aad d73c
000000d0: cd62 bb3a cd2a 85bd dfbb c83c 7c7c 853d
000000e0: 4eef 043d 6895 183d 8970 b7bc 8be8 063d
000000f0: 5124 fdbb 72c4 f7bc 79bd 19bd b50d febb
00000100: d4a1 063d 7636 c7bc 7725 b03c 85c3 26bd
00000110: b26b cabc 42de 873d 6586 40bd 2eaa 4fbd
00000120: 23df 1d3d 549b c33c f9b0 433d f102 33bd
00000130: 5928 1fbd 4692 87bd 176e a73b 27fa c7bc
00000140: 983e 413c 1aac 9b3c 39f3 3fbd 3a20 ef3c
00000150: 87a5 d9ba ec40 83bc 0f4d e93c 124d b13a
00000160: a6d0 803c 97b1 373d 962b c8bc a98c 18bd
00000170: 1972 0bbc 8f14 55bd 429d aa3c df89 633c
00000180: 5bb2 323c 6559 e7bb 3023 f63b 491b a6bc
00000190: 368e 533d b26d 2a3b 1ca1 c03b cee6 9dbc
000001a0: 9d11 91bb 0c65 60bd 007d 86bd 4014 8bbd
000001b0: 12c7 e8bc 7840 343d 4704 cebc b608 85bd
000001c0: 9d47 62bd c550 f23c 1752 72bb 2293 d0bc
000001d0: 8802 5cbb 5ad4 63bd ce7c 813c a50f a9bd
000001e0: 63db b6bc f200 5e3d 78f5 603d f662 303c
000001f0: 744d 7abd 46ee 113d 7ca4 86bd a25b 3e3d
00000200: 496d 8abc cb57 ca3b 034a 30bd f881 43bc
00000210: 787e d8bc 16f4 25bd 4a09 5c3d 06fe 92ba
00000220: 1cf9 4abc 390c acbb c67d 043d de30 ec3c
00000230: 9faa 10bd b17d 8cbd bae7 1d3d 6a4e 8bbd
00000240: f300 84bd cc48 9fbd 576a 53bd 69c4 28bd
00000250: 6a30 46bd 590d cabc b209 c3bc f94d 14bd
00000260: ab0d ea3a cc90 2dbd 12d5 03bd b19f 603c
00000270: bbbd 183c 43e6 e93c 7329 60bd 14dc 8b3c
00000280: 0828 da3a c933 c63d ab7d 11bd eff8 d63b
00000290: 5072 9fbc 6bc6 e53c 4845 2bbc b4e1 0fbd
000002a0: b890 22bd d06e 813b 73f0 6abc e9e9 3f3b
000002b0: 6a96 c63b abe7 40bd 203c c4bc 25ae 5bbc
000002c0: 15e2 30bb 0110 143d 4a94 c2bb 7744 46bd
000002d0: 6571 d5bb bf53 98bd f4a6 eabb 92ee 1d3d
000002e0: 2d55 a93c b1a1 f13c 8754 23bd 001f 0a3d
000002f0: 25a8 fd3c b30c eebc acd1 55bd b4fe 54bd
00000300: 7dae 543d 98de f13b 04ef ec3c bb7f 47bd
00000310: ae6c 1cbd ed50 383d 0239 493d 81fc b5bc
00000320: 6e6f c6bc 9115 daba d2bc bdb9 b2ce 17bb
00000330: 3108 9939 0089 5cbd 6f93 7dbd a5e9 393c
00000340: 5eef ebbc 9002 b1bd c4d5 403c 4a3b a0bd
00000350: 8724 6bbc b8a8 29bd eb29 52bd 997d 84bb
00000360: 4a0d 87bd 0953 a5bb 1b28 06bd 0362 c8bc
00000370: c168 9c3c 7813 b5bc 69e4 e53c eecd e93c
00000380: 462f f5bb 7eff 01bd d31a 253c d4e4 4ebd
00000390: 5116 2fbd 25da f6bc 9fc0 8f3b 9d68 02bd
000003a0: d76a c03b 2194 d43c 78fb 693d ad2b 86bc
000003b0: 6fbf c6bc 6cf3 20bc 56bd ef3c 8035 e5bc
000003c0: 6586 6ebd 80aa a8bb ae88 2ebd acad 5c3d
000003d0: d779 223c 7570 40bd 392d 943c ce52 5dbd
000003e0: eee5 2abd db47 bebc 7c36 39bd 7f78 4ebd
000003f0: 0e7f d9bc 4dae a0bc 9ee8 56bd 3de0 66bb
-0.0475295 0.004938141 -0.0030884503 0.014084602 -0.0072735827 -0.03326158 0.03592277 -0.069094695
0.0012907621 -0.01272931 -0.03866625 -0.0045385486 0.02271131 0.055525426 0.014598889 -0.09070304
0.0543427 0.013543793 0.004652211 -0.06627539 -0.04176371 -0.035271015 -0.07853985 -0.018902823
-0.030144649 0.01155516 0.010156548 -0.010211104 0.047205325 0.014357254 -0.031289134 -0.034574386
0.0546192 0.022375803 0.044374842 -0.040508404 -0.08496177 0.0482102 -0.009178495 0.013137718
0.042756226 -0.03990128 -0.07885149 -0.029582033 -0.054899137 -0.008961133 0.050355505 0.031852063
-0.07334488 0.0532494 -0.028852262 0.026327897 0.0014296413 -0.06502304 0.024503646 0.06517884
0.03245478 0.03725186 -0.022392528 0.032936614 -0.0077252765 -0.03024504 -0.03753421 -0.007753099
0.032869175 -0.024317961 0.02150224 -0.040713806 -0.024709556 0.06634189 -0.04700317 -0.050699405
0.038542878 0.023877777 0.047776196 -0.043703977 -0.038856838 -0.06619696 0.0051095593 -0.024411274
0.011794709 0.019002963 -0.046862815 0.029190172 -0.0016605117 -0.016022168 0.028479127 0.0013526997
0.015724491 0.044847097 -0.024434846 -0.03724352 -0.00851109 -0.05202156 0.02082694 0.0138878515
0.010906781 -0.007060217 0.007511519 -0.020276682 0.051649295 0.0026005325 0.0058785807 -0.019275095
-0.0044271485 -0.054783866 -0.065668106 -0.06790972 -0.028415237 0.044006795 -0.025148524 -0.06495802
-0.055244077 0.02957953 -0.00369752 -0.025460783 -0.0033570845 -0.055622436 0.015806582 -0.08254937
-0.022321409 0.05420012 0.054921597 0.010765782 -0.06110902 0.035627626 -0.06574342 0.046474107
-0.016897814 0.0061750165 -0.043039333 -0.011932842 -0.026427492 -0.04051598 0.053719796 -0.0011214621
-0.012388494 -0.0052504805 0.03234651 0.028831895 -0.035318967 -0.06859911 0.03855107 -0.06802066
-0.064454935 -0.07777557 -0.051615085 -0.041202936 -0.048386015 -0.024664568 -0.023808334 -0.036207173
0.0017856857 -0.042374417 -0.03218562 0.013709948 0.009322579 0.02855218 -0.05472703 0.017072715
0.001664401 0.09677846 -0.035520237 0.006560437 -0.019463688 0.028048715 -0.01045353 -0.035127357
-0.039688796 0.0039499775 -0.014339554 0.0029283708 0.006060411 -0.047095936 -0.023954451 -0.0134082185
-0.0026990224 0.036148075 -0.0059380876 -0.048405137 -0.006513762 -0.07437848 -0.0071610156 0.038557597
0.020670498 0.029496046 -0.039875533 0.03372097 0.030963967 -0.02905879 -0.05220191 -0.052000716
0.051924217 0.0073812716 0.028922565 -0.048705798 -0.038189583 0.04499905 0.049126633 -0.02221513
-0.024223056 -0.0016638507 -0.0003618957 -0.0023163971 0.00029188537 -0.05384159 -0.06190818 0.011347209
-0.028800663 -0.08643067 0.011769716 -0.078238085 -0.0143519705 -0.04142067 -0.051309507 -0.0040432927
-0.065943316 -0.005045299 -0.03275309 -0.024460798 0.01909292 -0.02210401 0.028063016 0.028540578
-0.007482442 -0.031737797 0.010077196 -0.050511196 -0.042745892 -0.030133316 0.004386976 -0.03183805
0.0058721113 0.02594954 0.057124585 -0.016378248 -0.024261205 -0.009823661 0.029265087 -0.027979612
-0.058233637 -0.0051472783 -0.042610817 0.053876564 0.009916744 -0.046982247 0.01808797 -0.054034047
-0.041723184 -0.023227623 -0.045217976 -0.050407883 -0.026549842 -0.019614363 -0.052467935 -0.0035228871
