models/interactions_model.pt (torch, 82761 bytes, 14 tensors)

au f4 [32]
000000 68 a3 1b 3d ba d9 66 3c d5 43 09 bd a7 60 29 bf
       0.037997633 0.014089996 -0.033511955 -0.66163105
000010 34 2e 30 bc ad b9 9d 3c 5e b6 05 bd 1f 37 b7 3d
       -0.010753203 0.019253576 -0.032644622 0.089460604
000020 a6 2c 94 bb db 4b 06 bc e4 46 c0 3b d5 34 56 bc
       -0.004521924 -0.008196796 0.005867826 -0.01307412
000030 18 23 37 3c cb c0 a9 bc ef 7a 46 3c 2b eb d1 bc
       0.011177801 -0.020721814 0.012114271 -0.025624832
000040 19 a0 72 3b e3 eb bb 3c 38 7e 44 bc 70 71 86 bd
       0.0037021695 0.022939628 -0.0119929835 -0.06564605
000050 cd c9 47 3e 04 cb 3a 3c b3 6e 96 3a aa 6c 73 3c
       0.19510575 0.011400942 0.0011477083 0.0148574505
000060 fb a0 59 bb fb ed ce 3c 15 5a 2e 3f 16 1a 85 3c
       -0.0033207524 0.025259962 0.68106204 0.01624779
000070 eb 95 23 3a 9d 87 b6 bc 58 eb 48 3c 09 03 28 bb
       0.0006240296 -0.022281462 0.012263142 -0.0025636575

av f4 [32]
000000 82 58 d8 bd 8d 4e 24 3b cb bb 02 3f db 94 21 bc
       -0.105637565 0.0025071234 0.510678 -0.00986215
000010 c2 25 3c bd 74 2e cb ba 41 24 07 3d 00 02 0d 3c
       -0.045934446 -0.0015501515 0.03299356 0.008606434
000020 9a 47 a5 bb 51 22 0b bc 9b 43 c7 bb 64 57 f8 3b
       -0.005043936 -0.008492068 -0.0060810572 0.007578777
000030 d4 7b 4b bb fa de 89 3e 74 47 1f bb 94 98 db 3e
       -0.003104915 0.2692793 -0.0024304064 0.42889845
000040 0e b2 0e 3b 69 c1 8a bb 29 f0 b2 3c 7a d1 46 bc
       0.002177361 -0.004234482 0.021843033 -0.012134904
000050 73 ad 58 3b 27 8d d2 3b 8e 16 e0 bb 28 17 50 bc
       0.0033062368 0.006425518 -0.006838626 -0.012700833
000060 04 d4 19 bb 7c d1 61 3c d8 99 31 3c e9 9d 29 bc
       -0.0023472318 0.013782855 0.010839902 -0.01035259
000070 c2 d4 0e ba bc 36 3b ba 0c db 1c bf 98 92 aa 3b
       -0.00054485735 -0.000714164 -0.6127174 0.0052054636

user_tower.feedforward.0.weight f4 [64, 37]
000000 00 cb b9 bd 58 cb 42 be ca 02 6a 3c 20 34 06 3e
       -0.09071922 -0.19022882 0.0142828915 0.13105822
000010 33 88 73 41 ff 5a 06 3b 98 45 c3 3d e8 d2 52 3e
       15.220752 0.0020501015 0.09534758 0.20588267
000020 63 5c 09 3f 87 e9 bd be 8b 03 93 be 68 5c e6 3e
       0.53656596 -0.3709223 -0.2871364 0.44992375
000030 72 f2 dd be d0 42 9a 3e ad 6c 49 3e 4d 5b 07 3e
       -0.43349034 0.301291 0.19670363 0.13218422
000040 8f bc 80 3e bb 12 06 be 73 8f 91 3e 31 da 69 be
       0.2514386 -0.13093083 0.28429756 -0.2283714
000050 bc 90 98 bd f3 87 53 3e b9 0d 14 be d2 6e 9e 3e
       -0.07449481 0.2065733 -0.1445836 0.30943924
000060 3b 9a b5 3e 62 d5 03 bf d7 fe af 3d 98 23 e9 be
       0.3546923 -0.5149747 0.08593529 -0.45534968
000070 41 1e c7 3c ad 51 5c 3e eb fe 2f be b4 07 35 bf
       0.024306418 0.21515532 -0.17187087 -0.7071488
000080 91 b3 75 be df 56 c2 3e 25 ff a4 3e 00 50 74 be
       -0.2399428 0.37956902 0.3222591 -0.23858643
000090 84 66 d3 bd d2 40 bb bd 0e 8b 17 bd e2 40 32 bd
       -0.10322288 -0.09143223 -0.036997847 -0.04351891
0000a0 fd 8d 4e be 06 90 08 41 a8 99 41 be f6 43 42 be
       -0.20171352 8.535162 -0.18906271 -0.18971238
0000b0 e9 e1 46 3e 17 f3 04 3f 9b ad 63 3e 9f 7d 28 be
       0.19422115 0.51933426 0.22234194 -0.1645417
0000c0 02 24 2f 3e c0 bf eb be 97 92 02 3e 23 70 13 3e
       0.1710358 -0.4604473 0.12751232 0.14398246
0000d0 36 6a 41 bd 96 fa a0 bd 4f cd ab 3d 3b 22 b3 3d
       -0.04722043 -0.078602955 0.08388769 0.08746763
0000e0 7c f0 8e 3c a2 1c 74 3e ea 39 ef bd 59 88 16 be
       0.017448656 0.23839048 -0.11680968 -0.1470045
0000f0 8c 1d 90 be 79 79 84 3d 77 7e ea be 34 ef 4e be
       -0.28147542 0.064684816 -0.4579961 -0.20208436
000100 26 a3 ac 3e bf f8 87 be 8c fd 5e 3e 7f 71 02 be
       0.33718222 -0.26556966 0.21776408 -0.12738608
000110 7a f0 ff be b2 d1 b3 bd 19 fe 07 3c 1f 30 aa 3e
       -0.49988157 -0.087802306 0.008300328 0.33239838
000120 8e 19 02 bc 4a fc 0c 3e a1 90 9e 3e af cd 33 3e
       -0.007940663 0.13768116 0.30969718 0.17558931
000130 b5 a6 21 be 71 25 2b be 7e 62 15 be 3f 5b 3e 3e
       -0.1578625 -0.16713502 -0.14588353 0.18589495
000140 54 3a 17 be 50 1c 97 3d 4f 67 db bd 72 56 50 bd
       -0.14768344 0.07378447 -0.10713064 -0.05086369
000150 df 19 3b 3e 55 98 ef 3d e7 ea 02 3e 4c 80 42 be
       0.18271588 0.11698977 0.1278492 -0.18994254
000160 ae a8 78 3b 07 ee 58 3e b3 48 00 bf 32 4b e9 bc
       0.0037942338 0.2118455 -0.5011093 -0.028478239
000170 34 42 c5 3c eb 9e 94 3d ff a5 a5 bc e8 ab fc 3d
       0.02407942 0.07256874 -0.020220755 0.12337476
000180 1c 30 d3 3b ad 6a e4 be 6a 53 b1 3d cc 85 4f bd
       0.006444944 -0.44612637 0.08658488 -0.050664708
000190 52 ed 2a be c5 4c 28 be 52 dc bf bd 89 d2 45 3e
       -0.16692093 -0.16435535 -0.09368195 0.19318594
0001a0 3d 8a 8c bc 13 58 88 3e 8f c5 ad 3e c5 f8 b1 be
       -0.01715576 0.26629695 0.33939788 -0.3476011
0001b0 2c 77 57 be 23 36 49 3d 8e ff 8e bc 3b 5a 96 3d
       -0.21041554 0.049123894 -0.017455842 0.07341429
0001c0 0e 7e 28 3c e2 77 05 3d ca 78 0b 3e 25 0b d4 41
       0.01028396 0.032585032 0.13620296 26.505442
0001d0 90 9c f6 3d f8 e7 bc bc a3 81 d6 bd 5a 80 85 3e
       0.12041581 -0.02305983 -0.10473945 0.26074487
0001e0 dd 33 93 bd 3c 47 61 3d c6 1f b5 bd c8 98 59 be
       -0.071876265 0.054999575 -0.08843951 -0.21249688
0001f0 a3 63 bb bd 9c b7 37 be 87 5d 3c bd 31 b8 b2 3b
       -0.091498636 -0.17941135 -0.045987632 0.0054540862
000200 c5 90 38 be c0 d9 95 bd 62 be 09 bd 92 7f 37 be
       -0.18023975 -0.07316923 -0.03362883 -0.17919758
000210 ad 91 fd bc 8e 27 ef bc 16 54 32 3e 73 41 df 3d
       -0.030953253 -0.029193666 0.17414889 0.10901155
000220 5c f4 de 3c 59 d3 3d 3e 40 61 56 3d 69 0e e3 bc
       0.027216129 0.18537654 0.05233884 -0.027716832
000230 8b 7f a3 be 77 30 75 bd 16 1c 64 be 58 75 24 3e
       -0.31933245 -0.059860673 -0.22276339 0.16060388
000240 55 72 2a be a7 9a f2 bd 95 b1 91 3d 8a ac 8e bc
       -0.16645177 -0.11845904 0.07113949 -0.017416257
000250 1e c0 e5 bc ef ff 26 3c b5 f2 aa 3c 3e af e0 3b
       -0.02804571 0.010192855 0.020867685 0.006856828
000260 12 88 0b c2 31 2f ae 3d 11 ca c8 3d 09 fc b3 bd
       -34.88288 0.08505095 0.09804166 -0.08788306
000270 26 84 86 be 18 8d 16 3d 78 fc 0a be 49 5a 01 be
       -0.26272696 0.03675565 -0.13572872 -0.12632097
000280 25 77 f7 3c ac 8f f2 bd 22 50 ea bd 7c d5 bf bd
       0.03020818 -0.118438095 -0.11441065 -0.09366891
000290 56 59 fd bc 11 71 b8 3c 7d b1 bd 3a 72 0f 0e 3e
       -0.030926388 0.022514852 0.0014472451 0.1387308
0002a0 67 c7 d0 bd ae 8e 99 bc cb 35 7c 3d c3 de 67 3e
       -0.10194283 -0.018744793 0.06157474 0.2264357
0002b0 8b 05 3a bd 3f 97 69 3e 77 c4 63 3d dd 0a ee bb
       -0.045415442 0.22811602 0.055607285 -0.0072644786
0002c0 ea 98 9e bc 98 33 62 be b8 cc b1 3d 6e 76 83 3e
       -0.019360024 -0.22089994 0.08681625 0.25676292
0002d0 52 2b 03 3e 2b fb 30 be 79 63 70 3d cb e4 d6 bd
       0.12809494 -0.17283313 0.058688615 -0.104928575
0002e0 fc e8 96 bd b2 4a ab bd d8 ab 9c 3c 75 54 21 be
       -0.07368657 -0.083638564 0.01912491 -0.15754874
0002f0 cf ec 09 be d7 13 44 3d 9a 0a c7 bd 42 18 60 bd
       -0.13469242 0.047870483 -0.09718819 -0.054710634
000300 6e 00 59 bd 28 8f 99 bd d6 f2 35 b9 93 63 c6 bc
       -0.052978925 -0.07498008 -0.00017351969 -0.024217403
000310 44 a3 0d bd 77 c1 c8 3c 60 26 a9 3d 83 1b b8 bd
       -0.03457953 0.024506314 0.082592726 -0.089896224
000320 e6 d6 56 3d a2 00 0d bd 51 38 f0 bc 05 40 0e 3b
       0.052451037 -0.03442443 -0.029323729 0.002170564
000330 6a 36 b1 bd ee 94 82 3c 3a 43 12 3e 61 c5 a1 3d
       -0.08652957 0.015940156 0.14283457 0.07898975
000340 10 b7 0d 3e 18 95 12 3d f2 f2 1c bd 0d c4 92 bd
       0.13839364 0.035786718 -0.03831763 -0.071663
000350 c0 08 01 3e 1b 26 bc 3c 36 28 03 be dd f3 65 bd
       0.12600994 0.022967389 -0.12808308 -0.05614077
000360 ea b5 3e 3d 71 a6 b2 3d 42 2d 04 3e fc 87 1e bd
       0.046560206 0.087231524 0.1290789 -0.038703904
000370 49 bd 5d bd 39 07 64 bd af 72 8d 3d f0 62 eb bd
       -0.054135595 -0.05567095 0.0690664 -0.1149348
000380 d0 dd 81 bd 25 bc ff bd 0b 9b 26 be 17 c9 51 3d
       -0.063411355 -0.124870576 -0.16270082 0.051217165
000390 21 71 13 3d 99 f4 e1 3d 0c 6d 06 3e af 7c 71 3d
       0.03599656 0.110329814 0.13127536 0.0589568
0003a0 fb 4f 0d be 48 11 3e 3d 48 3a a1 bd 75 8b 5a 3d
       -0.13800041 0.0464032 -0.078724444 0.053355653
0003b0 ef 34 16 be b1 17 de 3d 88 17 c5 b9 68 d6 a7 3d
       -0.1466863 0.108443625 -0.000375923 0.081951916
0003c0 03 9b 8c 3d 97 cc 19 be 23 36 99 3d 87 ef 00 3e
       0.06865504 -0.15019451 0.07481029 0.12591372
0003d0 94 92 b6 3d e3 c1 93 3d 25 b9 e2 3d ad f0 ac 3d
       0.08914676 0.07214715 0.1107047 0.08444343
0003e0 19 b0 06 3c 22 d9 2b bd d1 16 f7 bd 55 5c 2e bd
       0.008220696 -0.04195512 -0.12064899 -0.042568523
0003f0 dc 40 d0 bc 4f 08 0f 3e 3d a9 7f 3d a0 1f 97 3d
       -0.025421552 0.13968013 0.062417258 0.07379079

user_tower.feedforward.0.bias f4 [64]
000000 2a 34 30 bf f7 17 96 be 5c a0 7d bd 34 2e bc be
       -0.68829596 -0.2931516 -0.06192051 -0.36754
000010 59 1f d1 3e e6 de 15 3e e3 06 13 be cc 20 ef bd
       0.4084423 0.1463581 -0.14358096 -0.116761774
000020 30 58 24 3d 98 e6 ae bd 8d d8 88 3c 5c b6 09 be
       0.040123165 -0.08540076 0.016704822 -0.13448471
000030 16 10 48 be bc 86 85 bd bc ec 1a bd 65 6e 6d 3d
       -0.19537386 -0.06519839 -0.037823424 0.05796661
000040 c0 ca b6 bc 58 da ed bc 97 ae ae bd 78 5a 87 be
       -0.022313476 -0.029034778 -0.08529394 -0.2643621
000050 1c e0 87 3e 01 8e 84 3e 29 ee 1e bd 9f 91 ca 3d
       0.2653817 0.2588959 -0.038801346 0.09891056
000060 54 18 3e bd 23 49 28 3e 66 aa fe 3d 0e 3c 2a bd
       -0.04640992 0.1643415 0.12434845 -0.04156118
000070 d4 ee 54 bd ed d1 46 39 4b 69 13 be b2 1a 74 bd
       -0.051985577 0.00018960955 -0.14395635 -0.05959577
000080 66 dd 3e 3f 2e 5b ba 3d fc 19 ba 3c 2e 82 cc be
       0.7455658 0.090994224 0.022717468 -0.3994307
000090 78 b6 37 3f 5c 06 c6 bc 16 37 49 be 02 ad d5 bd
       0.717628 -0.024172954 -0.1964992 -0.10433389
0000a0 ce e5 08 3e 82 13 18 3e 9c ac 75 be 9d 22 bd 3d
       0.13368914 0.14851192 -0.23991627 0.092351176
0000b0 01 e4 24 be b4 94 d6 bd af 49 18 3f 0b 51 06 3e
       -0.16102602 -0.104775816 0.5948743 0.13116853
0000c0 d8 fb ee bd 18 4a 78 bd ac 98 b6 3e 3a 4b 09 be
       -0.11669129 -0.060617536 0.35663354 -0.13407603
0000d0 cb c4 11 bf 3e 66 08 bf 8c 7a 05 bf 59 26 93 3e
       -0.5694091 -0.5328101 -0.52140117 0.28740194
0000e0 3a 6e 14 3f 1d 70 06 bf 9b f7 fd bc b6 86 40 bd
       0.5798069 -0.5251482 -0.031001857 -0.04700347
0000f0 c2 22 d0 be eb be 41 3f 20 46 26 bd 2e 46 ee be
       -0.40651518 0.7568194 -0.04059422 -0.46537918

user_tower.feedforward.2.weight f4 [32, 64]
000000 80 6a 9e 3d 6f 8a 00 be 15 c3 2b 3f 9a 23 09 be
       0.07735157 -0.12552808 0.67094547 -0.13392487
000010 f2 74 8b 3e b8 42 52 3d d4 70 2f bd 52 62 30 3c
       0.2723766 0.05133316 -0.04283221 0.010765629
000020 68 23 83 bd 3a 13 a8 bd 30 d1 2d bc a0 9a 15 bc
       -0.064032376 -0.08206792 -0.010608956 -0.009131104
000030 f1 3f c8 3d d4 1a 6d bd d0 db c4 3c f6 e7 b0 bd
       0.09777821 -0.057886913 0.024030596 -0.08637993
000040 16 71 6b bd a2 d2 e7 3d 65 78 1e be 0f 26 1b 3f
       -0.057480894 0.11319472 -0.15475614 0.6060495
000050 c4 32 7a be b5 82 0c 3f 3c 01 0b bd 6c c5 fe 3e
       -0.24433428 0.54886943 -0.033936724 0.49759996
000060 1b 5b d2 3c 18 ba 72 3f 24 35 21 bd 38 1c d3 bd
       0.025678208 0.94815207 -0.03935732 -0.10308117
000070 64 6b ca 3d 08 2d fb 3c 21 62 5c bd 14 0c f2 bd
       0.098837644 0.030661121 -0.05380452 -0.1181871
000080 10 77 0c 3f e6 bc 0b be 73 1c f9 bc c3 27 ec be
       0.54869175 -0.13646278 -0.030409073 -0.46124086
000090 b0 f1 dc 3d 50 6d 93 3d 0e 53 a6 3c c9 07 52 3f
       0.10788286 0.07198584 0.020303275 0.8204313
0000a0 50 b7 29 bd 77 fb 2f 3f e5 74 0e 3f dc 7a a4 3d
       -0.041434586 0.6874308 0.55647117 0.08031246
0000b0 a0 0c 3c 3c 72 c9 d0 bd 2e 1e 4d 3e 8d a0 cd 3e
       0.011477619 -0.10194673 0.20031044 0.40161553
0000c0 7c 62 e4 bd f0 36 ca 3d 8e b6 1e 3e 70 a2 b0 3c
       -0.11151597 0.0987376 0.15499327 0.021561831
0000d0 31 ff d2 be 25 f8 e8 3c 66 6a 1c bf b1 70 ad be
       -0.4121032 0.028438637 -0.6109985 -0.3387504
0000e0 7d 79 09 3f bb fe e9 3e 80 f5 94 bd 1a 09 f4 bd
       0.53701 0.45702156 -0.07273388 -0.119157985
0000f0 6b bc ad be 76 d4 d0 bd f8 72 c7 bc 66 72 5b bd
       -0.33932814 -0.10196774 -0.024346814 -0.053575896
000100 56 f7 40 be 02 f7 0a bd d2 fb 60 be c3 01 74 bc
       -0.18844351 -0.03392697 -0.21971062 -0.014892998
000110 b3 49 dc be b4 44 cc bd 58 b2 a8 bd e7 c0 cf 3d
       -0.43024978 -0.099740416 -0.08237141 0.10144215
000120 38 6d a8 bc f5 33 62 bd a0 c8 ec 3b 80 3b b3 3c
       -0.020559892 -0.05522533 0.007226065 0.021878958
000130 e2 c5 ac bc bf 55 ed bc a0 80 c6 bd 78 e3 e7 bd
       -0.021090452 -0.028971551 -0.09692502 -0.11322683
000140 56 cd 36 bd 30 ac bb 3c e0 58 bc 3d 61 9d b5 be
       -0.044629417 0.022909254 0.09196639 -0.35471633
000150 16 d0 21 3f 7b df 52 3e 08 d3 85 3d 81 88 8a 3e
       0.6320814 0.20593064 0.06534392 0.2705727
000160 e7 3b 08 3c bf d9 b2 3e 18 d4 e8 bc ec dc 0c 3d
       0.008315063 0.34931752 -0.028421447 0.034390375
000170 7a 7e ca 3c 96 b2 c7 3d b7 df 74 3f 01 87 dc 3d
       0.024718512 0.097508594 0.9565386 0.107679375
000180 e4 23 b9 3d 4d 39 8e bb b7 55 8e bc b0 5c 35 be
       0.09040049 -0.004340327 -0.017374856 -0.17711139
000190 be c3 d7 3e d4 ca 02 3e 9c 66 12 be 0d da 30 be
       0.42141527 0.12772685 -0.14296955 -0.1727068
0001a0 68 7c 78 bd d7 0d 0c be 80 95 d7 be 8d e5 10 3e
       -0.060665518 -0.13677154 -0.42106247 0.14150067
0001b0 06 bf e3 bd 62 7c 97 bd 81 d7 ac 3e 95 60 54 3e
       -0.11120419 -0.07396771 0.33758166 0.20739968
0001c0 89 ed 2c bd f0 98 15 3d 20 c6 9d 3e 68 78 4d 3d
       -0.04221872 0.036522806 0.3081522 0.050163656
0001d0 cc b8 5f be 9a c3 03 be fc b3 68 3c 1c c1 1d 3f
       -0.21847838 -0.12867585 0.014203068 0.61622787
0001e0 45 bb 9b 3e 7d 12 31 bd 30 a2 97 3d 8a 9b a9 bc
       0.30416313 -0.043230522 0.07403982 -0.02070405
0001f0 b8 1e 83 bd ad 31 38 3f 5e fd 62 3d 99 04 b2 bd
       -0.064023435 0.719508 0.05541741 -0.08692283
000200 26 1d 89 3e 1a e5 5f 3d f5 e0 26 3f 48 cd ab 3c
       0.2678005 0.054661848 0.6518701 0.02097191
000210 e6 41 ab 3d c0 1d 66 bc b9 6d a1 bc 00 43 72 bd
       0.083621785 -0.014045179 -0.01970564 -0.059145927
000220 00 86 a3 3a a3 e4 dc 3c 92 aa c8 bd fa 5c d9 bd
       0.0012475848 0.026964491 -0.09798159 -0.10613437
000230 fc f6 0d be 16 e5 75 3b a2 0b a2 bd 30 87 7e bc
       -0.13863748 0.003752058 -0.07912375 -0.015535161
000240 b6 8d 43 3d 6c 50 11 bd c2 25 14 be ef 84 24 b8
       0.047742568 -0.035477087 -0.14467528 -3.922445e-05
000250 24 24 0d bd 15 8e 53 be ba df f5 3d d0 f2 98 3e
       -0.034458295 -0.20659669 0.12005563 0.2987275
000260 8d 4e c0 3c 2e 82 ed bd 08 19 86 3d c8 5d 27 3d
       0.023474956 -0.115970954 0.06547743 0.04086092
000270 f4 bc bd 3d a8 9e a6 3d f3 55 2a be 48 69 49 bd
       0.092645556 0.0813573 -0.1663435 -0.04917267
000280 c5 51 7f 3e ed 38 71 bd 36 10 72 bd ae 85 ca be
       0.24933536 -0.05889218 -0.05909749 -0.39555115
000290 75 56 b9 3d c8 a9 de bc 11 b5 0f 3a 26 01 f8 3e
       0.090496935 -0.027180567 0.0005481998 0.48438376
0002a0 9a 99 83 bd d1 28 3e be d7 7c b1 3d 4c 23 01 bd
       -0.064257815 -0.18570258 0.086663894 -0.031527802
0002b0 28 20 03 bd 44 c3 03 bd 75 63 11 3e 2d c1 d6 3d
       -0.03201309 -0.03216864 0.14198096 0.10486064
0002c0 1a 50 96 bd b8 29 b9 3c 55 f5 37 3d 74 94 8f 3d
       -0.07339497 0.0226029 0.0449117 0.07010737
0002d0 a6 b9 d0 3c 83 46 39 3d 8a e8 8c be ed 1c b2 bc
       0.02547915 0.04523326 -0.27521163 -0.021742309
0002e0 e2 d7 ab be 9e 7c 07 3e 90 40 46 3d 8c 55 9a bb
       -0.33563143 0.13231131 0.048401415 -0.004709905
0002f0 20 af ab 3b 09 88 58 bd 60 aa 48 bd 3a af 0c 3d
       0.0052393824 -0.05286411 -0.048990607 0.034346797
000300 df fb 8d be cf 20 19 bc 30 ad 22 3e e9 47 3c be
       -0.27731225 -0.009346201 0.15886378 -0.18386807
000310 d9 76 b6 3e 58 5e c8 bd a4 df 5d bd 28 4a de bd
       0.3563755 -0.0978362 -0.05416836 -0.10853988
000320 cc 02 53 bd 71 11 ac 3d 4a ad e7 bd d0 a9 9c bd
       -0.05151634 0.08401764 -0.11312349 -0.07649577
000330 51 05 49 3d c4 b5 c2 3d 18 3e da bd e8 22 e8 bc
       0.049077336 0.09507325 -0.10656375 -0.028336957
000340 77 d4 09 3e e4 65 b4 bd 91 3d 7d bc 97 cd c7 3e
       0.13459955 -0.088084966 -0.015456573 0.3902404
000350 2f 38 f1 3d d8 ed f2 3e 40 a5 a5 bc 86 5e 27 3b
       0.11778294 0.47447085 -0.020220399 0.0025538518
000360 b0 47 a7 3d a9 d5 46 3f 10 23 6b 3d be 31 e3 3d
       0.0816797 0.7766977 0.057406485 0.11093472
000370 fa 95 b1 bd 80 e9 91 bd 06 ff 84 bd d4 2a 71 3d
       -0.08671184 -0.07124615 -0.06493954 0.058878735
000380 cb 29 02 3f 97 ba 82 bd e5 81 9e 3d d6 c5 d0 be
       0.5084502 -0.063832454 0.07739619 -0.40775937
000390 bb 5e c3 be d0 2e d6 3c 9e 1c d8 bd 38 a3 4a 3e
       -0.3815821 0.026145369 -0.10552333 0.19788826
0003a0 a2 df fb 3d 56 63 c9 be 5a e4 12 3f 4e 86 bd 3d
       0.12298514 -0.393336 0.57379687 0.09254132
0003b0 20 74 46 bc c0 a8 18 3b 8d 8d 87 3e 9b 25 34 3f
       -0.012112647 0.0023293942 0.26475182 0.7036988
0003c0 9d 5b cd bd 6e 89 d3 bd 7e 29 d9 bd 40 41 7d bd
       -0.100272395 -0.10328947 -0.10603617 -0.061829805
0003d0 46 fe 34 be c6 96 15 be 16 a5 88 bf 60 b6 5c 3c
       -0.17675123 -0.14608297 -1.067538 0.013471216
0003e0 cd 15 b7 3e e5 e3 00 3e d8 89 d9 bc 40 4f 8a bd
       0.3575882 0.12586935 -0.026554987 -0.06753397
0003f0 a0 cf 1d bf 9f 25 45 3e f4 29 3e 3d 7b 41 dc bd
       -0.61644936 0.19252633 0.04642673 -0.10754677

user_tower.feedforward.2.bias f4 [32]
000000 98 52 34 be 2e b9 05 40 b0 cb 68 be 95 b7 2a 3d
       -0.17609632 2.0894275 -0.2273395 0.041678984
000010 87 45 9f be 97 b5 04 be 4d 4d 17 be 82 06 23 be
       -0.31107733 -0.12959896 -0.14775582 -0.15920451
000020 dd 21 4c be 07 6b 5c bb c4 f3 44 be 7a 69 16 be
       -0.19934793 -0.003363313 -0.19233614 -0.14688674
000030 20 1b 8b be a9 27 33 3f e2 97 eb bc 2c 33 78 bd
       -0.27169132 0.6998239 -0.028758947 -0.060595676
000040 3b 4c b6 3d 72 cb c1 3b 37 d8 9c bd 02 e8 71 3c
       0.089012586 0.005914145 -0.07658427 0.014764788
000050 08 ed f3 be 31 93 23 3f 51 88 01 be a9 3d 0b be
       -0.47641778 0.6389647 -0.12649657 -0.1359774
000060 c2 3e d3 be 25 00 23 bf 94 b3 0a 3f 85 bf a6 be
       -0.41258818 -0.63672096 0.54180264 -0.32567993
000070 8c 1a 24 3d 46 5f fe 3d d3 e4 27 3d cc 24 c3 bb
       0.04006438 0.12420516 0.04098971 -0.0059553143

user_tower.feedforward.4.weight f4 [32, 32]
000000 06 8e 92 3e 0b df 02 bf 50 84 4e 3e f7 9b 30 bf
       0.2862398 -0.51121587 0.2016766 -0.68987983
000010 7b a6 63 be dc 8e 8f 3e a1 e6 22 be 7d 4a 18 3d
       -0.22231476 0.2803868 -0.1590829 0.037180413
000020 d8 9a 2f be 37 84 f9 bd 5e 9b 3a 3f 36 8e b0 3d
       -0.17148912 -0.12183421 0.7289332 0.086208746
000030 86 3c 12 40 23 0c 58 be c8 83 07 40 27 cd dd bd
       2.284944 -0.2109838 2.1174183 -0.10830145
000040 eb f0 af be 6a 5f ec 3d 63 bb df bb b6 ea a7 bd
       -0.34363493 0.11541636 -0.006827758 -0.081990644
000050 84 07 26 3d 9e 41 8a 3c 71 45 2b be f6 e7 be be
       0.04053451 0.016876992 -0.16725709 -0.37286347
000060 c5 71 24 bf d1 93 90 3d 64 35 8b be 73 63 d7 3d
       -0.642361 0.07059444 -0.2718917 0.10517015
000070 5f 89 ac bd 64 7b 9e be 17 2b 66 bd 54 8c fa 3d
       -0.08424639 -0.30953515 -0.056193437 0.12233797
000080 57 80 79 be 84 ed 55 bd 2b 6d 16 3e 2b 0f 17 3f
       -0.24365364 -0.052228466 0.14690082 0.5900752
000090 60 e6 af bd c1 e2 d7 3d 76 49 40 3e ea cf 39 be
       -0.085888624 0.10541297 0.18778023 -0.18145719
0000a0 65 ef f8 bd f6 e2 1c 3d 3c 3e 12 bf 2d bc 07 be
       -0.12155036 0.038302384 -0.5712621 -0.13255377
0000b0 c9 9f a6 bf 43 ad c6 3d fd ca 0e bf ef b2 39 be
       -1.3017513 0.09701016 -0.55778486 -0.18134664
0000c0 f2 38 14 bf 5d 13 3c be b6 09 0c bd af 4c 5c 3d
       -0.5789939 -0.18366762 -0.03418895 0.05378407
0000d0 70 69 3c be 5a 83 a0 3e 09 f6 6f 3e 89 8d 90 be
       -0.18399596 0.31350213 0.23433699 -0.28232983
0000e0 2c 0f fe 3e 37 b7 a7 3d c0 68 1c 3e 7c aa 04 be
       0.4962095 0.08189242 0.15274334 -0.1295566
0000f0 44 fc 0a 3d da 79 f8 be af 77 f6 3d 34 31 8d bd
       0.033931985 -0.48530465 0.120345466 -0.068941504
000100 5f 49 52 be 2b 44 8a 3f 84 b5 f5 3d c9 65 92 be
       -0.20535801 1.0802053 0.11997512 -0.2859328
000110 c9 a8 2d 3e 6d 55 24 bf c1 1e ca 3d c3 1c b5 bd
       0.16958918 -0.6419285 0.09869147 -0.088433765
000120 ed 93 f9 3d 11 79 b1 3c 8f dd a0 be b5 31 0c 3e
       0.12186418 0.021664174 -0.31419036 0.13690837
000130 52 9f d9 bf d4 1e ad 3e 3a 23 3b bf 87 f7 16 be
       -1.7001746 0.33812582 -0.73100626 -0.14742862
000140 dd 6b 35 3e e2 5b 58 bd 7e b0 46 3d 4f 17 c7 3d
       0.17716928 -0.052822 0.04850816 0.09721243
000150 dd 72 2f 3f 6c 0f 79 3d e4 97 2a 3f fb 71 93 bd
       0.6853464 0.060805723 0.66638017 -0.071994744
000160 a7 34 e0 be 6e 76 61 3f 20 80 17 be d5 e4 88 3e
       -0.4379017 0.88071334 -0.1479497 0.26737085
000170 4e 3f 2b bc 08 aa bf be 5c d9 c7 bd 0e 75 9d bc
       -0.010452105 -0.3743441 -0.09758255 -0.019220855
000180 c2 d8 ed 3d a9 4a 16 3e bd 3b 02 be 83 07 8e bd
       0.11613609 0.14676918 -0.12718101 -0.069350265
000190 c8 25 53 3e 75 ce 00 be d9 6c 27 3e 8d a6 85 bd
       0.20619881 -0.12578757 0.16350116 -0.06525908
0001a0 75 c1 d8 bc 2d 76 c9 bd 68 98 ac 3c df b5 6d 3d
       -0.026459435 -0.09836993 0.021068767 0.058034774
0001b0 87 d1 c4 3d 63 34 f7 3d 5b 18 26 3f 0f bd 8e bd
       0.09610277 0.12070539 0.64880913 -0.06969654
0001c0 83 63 2f 3f ba 75 07 be d7 c3 48 bd 3f 11 13 3c
       0.6851122 -0.13228503 -0.049014892 0.00897628
0001d0 4b 90 af bd a4 d6 1e 3d 5c 1c 04 be 01 91 18 3d
       -0.085724436 0.038778916 -0.12901443 0.03724766
0001e0 94 91 2e 3e 03 43 53 be 1a ae 32 3d 11 d1 0f 3d
       0.17047721 -0.20631032 0.043623067 0.03511149
0001f0 61 38 e8 bd e6 ec 64 bd 2c 6a 13 bd 5d 49 a6 bd
       -0.113388784 -0.055889986 -0.035989925 -0.08119462
000200 44 69 5d be 72 e0 d3 3c 1c d4 c3 3e 44 60 32 bf
       -0.21622187 0.02586386 0.38247764 -0.6967814
000210 0c 22 39 be 0c a9 b6 bb 6c 94 31 be 18 20 d2 3d
       -0.18079394 -0.005574351 -0.17341775 0.10260028
000220 09 6d 83 3d 08 ee 63 3e 82 73 63 3f 3a e8 d7 3d
       0.06417281 0.2225877 0.88848126 0.105423406
000230 55 02 93 3f e9 a3 69 bf 50 6f c1 3f de 65 8d bd
       1.1485087 -0.9126573 1.5112095 -0.06904195
000240 5d 99 e8 be 6b 80 dd 3d f6 46 82 be 76 e4 9c 3d
       -0.45429507 0.108155094 -0.25444764 0.07660763
000250 5e f9 df be bf dc 1b bf 78 4c ea 3e eb 8a 83 bd
       -0.4374494 -0.60883707 0.45761466 -0.06422981
000260 e5 58 9c be 46 e8 b4 bc a8 2b 2c 3f c2 fb 59 bb
       -0.3053657 -0.022083413 0.67254114 -0.0033261632
000270 28 9e 0a be 09 e3 14 3f c1 ed f2 bc 99 ce 99 bd
       -0.13536894 0.5815893 -0.029654386 -0.075101085
000280 c7 64 12 3e a8 91 22 bd d2 41 a4 3e 21 55 12 3f
       0.14296256 -0.03968969 0.32081467 0.57161146
000290 fd d7 e0 3b 88 bf de 3e 3f e7 0f 3e 56 eb 52 3e
       0.0068616853 0.43505502 0.14053057 0.20597586
0002a0 a9 84 52 3e fe 0c 40 be 4e 96 02 bd 76 c5 92 bd
       0.20558418 -0.18754956 -0.031881623 -0.07166569
0002b0 f7 5a a2 bf 38 3b 5a be 20 5d aa bd f7 91 66 3d
       -1.268401 -0.21311653 -0.083185434 0.056291547
0002c0 85 64 68 bf 0c 8b 9f 3d af 68 50 3d fe 91 f9 bd
       -0.9077838 0.07790193 0.050881084 -0.12186049
0002d0 7e c7 3f be a8 22 25 bf 61 9c 13 3e f1 08 77 be
       -0.18728444 -0.64506006 0.14415123 -0.24124505
0002e0 c7 a9 c5 bd 78 d8 5d 3e 41 47 5b 3e 0c 5e 84 3c
       -0.09651523 0.21664608 0.214139 0.016158126
0002f0 54 98 00 bd 82 82 19 bd da a6 e7 bc 26 0f 45 bd
       -0.03139527 -0.037477978 -0.028277803 -0.04811015
000300 2a 42 49 be ea 8b 1a be 9b e1 96 3e d5 7b 0c 3f
       -0.19654146 -0.15092435 0.29468998 0.5487645
000310 00 5a 72 be a4 23 ca 3d 70 e4 c0 3d 3f 38 9f bd
       -0.23667145 0.09870079 0.09418571 -0.077744
000320 d2 e8 2c bd d3 00 60 bc c1 88 00 bf 33 3c 43 3d
       -0.042214222 -0.0136720715 -0.5020867 0.047664832
000330 b7 ee a0 3e ed 5b 23 3f 4f dc a7 3f cd 5b f3 3d
       0.31432125 0.6381214 1.3114108 0.11882744
000340 09 0e 13 be 30 35 b4 3d 95 77 ed bd 77 55 c1 3d
       -0.14360823 0.08799207 -0.11595074 0.09440129
000350 8e 0f 02 3f c9 49 5c 3f d9 a9 58 be de cc f0 3d
       0.50804985 0.8605009 -0.21158542 0.11757825
000360 0a 68 70 3e a8 fc 12 be c4 0c f5 3d e0 78 5e be
       0.23477188 -0.14354193 0.119653255 -0.21725798
000370 88 cc 68 be e4 1e 2e 3e 94 9c 8f 3d 48 90 6b 3d
       -0.22734272 0.17003971 0.07012287 0.057510644
000380 25 25 24 bf ee 34 3d be 05 7c e3 bc a7 08 84 be
       -0.6411918 -0.18477222 -0.027769098 -0.2578785
000390 f4 d6 90 be 31 34 6c 3d 61 a9 1f 3e ed c1 cb bc
       -0.28288996 0.05766696 0.15591957 -0.024872744
0003a0 4f 05 f6 bd cf c0 07 3c 14 91 04 3f 5b 96 d4 3d
       -0.12012731 0.008285715 0.5178387 0.103802405
0003b0 f8 5d 1b bf b6 37 32 be 64 5c 42 bf 36 1a 7f bc
       -0.6069026 -0.17404065 -0.75922227 -0.015570214
0003c0 34 e7 cc bc d4 99 fc 3d a2 a0 34 bd 3a 83 ff bd
       -0.02501259 0.12334028 -0.044098504 -0.12476201
0003d0 49 57 0f 39 db 82 c3 3e 28 c3 91 3d 66 3e 00 3e
       0.00013670059 0.38185772 0.07117301 0.12523803
0003e0 ce ca 85 3b de f2 4e 3e cd 03 8e 3e 89 23 2b 3d
       0.004083014 0.20209834 0.27737275 0.041781936
0003f0 18 a2 6c bc 6c 24 29 3e f0 f2 93 bd 26 98 69 bd
       -0.014442943 0.165178 -0.07224071 -0.057029866

user_tower.feedforward.4.bias f4 [32]
000000 98 33 0c c0 db 22 47 bf 5a 7a ef 3f 36 01 da 3f
       -2.190649 -0.7778756 1.8709214 1.703162
000010 21 d8 4f 3c 0e a9 83 bf 3d 13 c5 3f 48 a4 b8 bf
       0.0126858065 -1.0285966 1.5396496 -1.4425135
000020 3c 54 33 3f 14 73 f7 3e 78 44 97 bc 45 89 21 bd
       0.70050406 0.48329985 -0.018465266 -0.03943755
000030 b9 f4 af bf fb bc c5 3f 27 e1 b0 bf 5f 47 c8 3f
       -1.3746558 1.5448297 -1.3818711 1.5646781
000040 38 e0 92 bf 1f 4b c4 bf b2 90 ef 3e 18 f3 cf 3f
       -1.1474676 -1.5335425 0.4679008 1.6246061
000050 07 3b ba bf ae 9c 22 bf ad 0d 94 bd 2b 85 b5 bf
       -1.4549264 -0.63520324 -0.07229171 -1.4181265
000060 e8 38 97 3e ae 8f 47 bf c6 34 d3 bf a3 a0 b1 be
       0.29535604 -0.7795361 -1.650048 -0.3469287
000070 83 b4 16 be 3b 4a 82 3f 03 0e 76 bf 6b 35 3b be
       -0.14717297 1.0178903 -0.9611513 -0.18282096

item_tower.feedforward.0.weight f4 [64, 160]
000000 66 b7 e6 3d b6 1c 9a bc c5 f6 74 3d 8c fb 17 3d
       0.11265449 -0.018812519 0.05980565 0.03710513
000010 70 bc b3 3d 07 3d e4 3d 08 a6 45 bd 3c b3 ed bc
       0.08776176 0.111444525 -0.048254043 -0.02901613
000020 73 c5 09 3d 3f 37 26 3d 23 7f d9 bd 52 be 75 bd
       0.033635568 0.04058003 -0.106199525 -0.059995957
000030 c1 f5 02 3a 4a 6c 5d 3d 84 2e 1a be 0d 6e c9 bc
       0.00049957266 0.05405835 -0.15056807 -0.02458861
000040 3c fd c7 bc 77 4b e7 bd 95 b3 8c 3b 7c e5 00 bd
       -0.024412744 -0.11293691 0.004293869 -0.031468853
000050 7c 86 b0 3d 10 26 88 bc 42 02 0e 3e d6 e1 35 be
       0.08619401 -0.016619712 0.13868049 -0.17761931
000060 ef 36 72 3d e8 ef df bd a1 8b 9b bc 70 5d 08 bc
       0.05913442 -0.1093443 -0.018987479 -0.0083230585
000070 8d a0 b7 bd 60 3a a8 3d ac a6 08 bd 69 24 70 3d
       -0.089661695 0.08214259 -0.033362076 0.058628473
000080 12 af 40 bd 40 60 49 bd 49 ac ea 3d 6c 53 44 3c
       -0.04704196 -0.049164057 0.11458642 0.01198278
000090 2c 28 85 3d 0c de 06 3d b2 c2 22 3e cc f7 3a 3d
       0.06501803 0.032926604 0.15894583 0.045646474
0000a0 df 17 c4 bd f3 13 86 3d 53 05 09 bd b8 44 ca 3d
       -0.095748655 0.06546774 -0.033452343 0.09876388
0000b0 7c b9 cc 3d ea e4 bc bd b4 db 95 bd 6d 64 d8 3d
       0.09996316 -0.092233494 -0.07317296 0.1056603
0000c0 21 f8 92 bd c7 26 1a bd 59 a5 0f bc 3e 2b f3 3c
       -0.07176233 -0.037634637 -0.008767449 0.029683705
0000d0 74 64 ac bd a3 f8 86 bd 04 c1 e7 3b 92 9a 1a 3e
       -0.084175974 -0.065903924 0.00707257 0.15098026
0000e0 c2 ba f0 3c 04 88 3e bd 0e 9d 59 3d 6e 15 4c bc
       0.029385928 -0.046516433 0.053128295 -0.012456281
0000f0 9d c0 2c bd cd 8d fd 3b 6b 1c 28 bd 6e 07 c0 bd
       -0.042175878 0.0077378512 -0.041042726 -0.09376417
000100 73 7c e5 3c d1 c0 82 bd 1d 2d 8e 3c 0f 00 61 3c
       0.028013444 -0.06384433 0.017355496 0.013732924
000110 78 06 03 be e5 0e 43 bc 80 5b 8e bd 3f a0 84 bd
       -0.12795436 -0.011905407 -0.06951046 -0.06475877
000120 09 bc d9 3c c3 f9 aa bd 39 2c b9 bc fc 80 41 bd
       0.02657892 -0.083484195 -0.022604095 -0.04724215
000130 d9 26 ef 3d 6a 0e 2f 3d 0e 94 1c be 2e 8b c5 bd
       0.116773315 0.042738356 -0.15290853 -0.09645687
000140 1b 48 c6 bc 13 c8 22 be 74 3c 55 3e a1 57 4d 3c
       -0.024204304 -0.15896635 0.20823842 0.012533099
000150 53 25 06 3d be a8 ab 3d 0d 24 b7 3d b2 e6 a0 bd
       0.03275044 0.083817944 0.08942423 -0.07856502
000160 e4 7d cf bc e2 af cc 3c 85 35 e7 bc e6 38 f0 3c
       -0.025328584 0.024986211 -0.028223762 0.029324006
000170 c7 7c ef bd e1 cc e0 bc 80 82 1d bd 23 6e 9a 3c
       -0.11693721 -0.027441444 -0.038454533 0.018851345
000180 f1 7e 35 bd 8f 37 66 3d 2f 59 b4 bc fa ab 01 3b
       -0.044310514 0.05620533 -0.022015182 0.0019786344
000190 b9 7e 04 3c c3 48 ba 3d ff 97 39 3d 67 b4 41 3d
       0.008086854 0.090959094 0.04531097 0.047291186
0001a0 da e6 ba 3d 64 87 96 bd 51 93 00 be e7 29 25 3c
       0.09126063 -0.073500425 -0.12556197 0.010080791
0001b0 23 f5 67 3d dc 83 2d 3d aa c0 72 bd 92 84 d1 3d
       0.056630265 0.04236208 -0.05926577 0.10230364
0001c0 9e 63 d8 3c 28 ce 8f bd d1 b6 1b 3b d2 af d9 3c
       0.026414689 -0.07021743 0.002376009 0.026573095
0001d0 92 2c a5 bd 55 72 b1 3c 8e 70 b3 bc a5 45 1d 3d
       -0.08065142 0.021660963 -0.021904256 0.038396496
0001e0 13 6b 2f bd c5 e8 92 3d ce e8 cd bd 48 e8 03 3e
       -0.042826723 0.071733035 -0.100541696 0.12881577
0001f0 a0 69 4d be 8a ef 5c bc 36 59 ce 3d 05 2a 06 3d
       -0.20059824 -0.013484845 0.100756094 0.032754917
000200 2a 63 08 3d cf 06 99 bd 3a 4f 17 bd 01 c3 38 bd
       0.033297695 -0.07472002 -0.03694079 -0.045107845
000210 8d c5 e7 3c 45 7b 6f bc 1f 78 08 bd 92 4a 55 bb
       0.028292442 -0.014616792 -0.03331768 -0.0032545668
000220 3f e2 1c bd 49 34 e1 3d 5f bd 2e bc f9 c6 4d bd
       -0.038301703 0.10996301 -0.010665267 -0.050238583
000230 bc e6 cf bc 47 d1 16 3d 37 a9 1f be 77 78 56 bd
       -0.025378577 0.036820676 -0.15591894 -0.052360978
000240 3f 70 a2 bd 91 c8 45 be 5a fd dd bd 6e 8d bb 3c
       -0.079315655 -0.19314791 -0.108393386 0.022894587
000250 d6 b7 91 3d 5b e6 ae bc 4b da d6 3c 4b 88 97 3d
       0.07115142 -0.021350076 0.026227137 0.07399043
000260 d0 74 c1 3d 3c 4d ea 3b de 5d e6 3d 18 3d 89 3d
       0.09446108 0.0071503203 0.112483725 0.06701106
000270 40 f4 e5 3c 31 92 6b 3c f3 bf 17 3e ce d4 fa bc
       0.028070569 0.0143781165 0.14819317 -0.030619051
000280 0b c5 57 bc a7 dc 76 bd 67 c4 e8 3c ea 45 b1 3c
       -0.013169537 -0.060269024 0.028413964 0.021639783
000290 7e 65 b8 3d 61 87 8d bb db 8f 39 3d 4f b8 26 3d
       0.09003733 -0.004319117 0.045303207 0.040703114
0002a0 0d 0a 07 bd 7c d1 b9 3c 90 eb 1d bd 6e 77 3b 3d
       -0.03296857 0.022682898 -0.038554728 0.045768194
0002b0 7d ca b0 3d a1 eb 08 bd bf d8 15 3d c2 0a 33 3d
       0.086323716 -0.03342784 0.03658366 0.04371143
0002c0 da a3 5c 3d c0 15 e3 bd 14 5f a9 bd c8 75 69 bd
       0.0538672 -0.11088133 -0.08270088 -0.05699709
0002d0 b9 4c 70 3d e9 df 8d bc 28 ce ad 3c f4 72 dd 3c
       0.05866692 -0.017318683 0.021216467 0.027032353
0002e0 df df 8d 3b 0f 23 5e 3d 78 f5 86 3c 0b a0 b9 bd
       0.004329666 0.054232653 0.01647447 -0.09063729
0002f0 c5 fb 82 bc 70 7a 3b bd 55 51 ba 3c f2 be 93 3d
       -0.015989194 -0.045771062 0.02274386 0.07214154
000300 a4 26 a7 bb 29 a7 43 bd 94 37 aa 3d 02 06 9d 3c
       -0.005101042 -0.04776684 0.08311382 0.019167904
000310 bf 85 c3 3b 23 8b 09 3d ff 42 8e bd 90 5e c7 bc
       0.0059668715 0.033579957 -0.06946372 -0.024337083
000320 64 a7 69 3d 6e f4 8d 3c 27 21 21 3d d0 9d 1d bd
       0.0570444 0.017328467 0.039338257 -0.03848058
000330 89 d0 ba 3d a2 2c db bd 57 85 c9 3d d5 e6 98 3c
       0.09121806 -0.107018724 0.09839886 0.018664757
000340 de 63 66 bc 6b 68 b3 3d 40 03 34 3d 65 ee 03 3c
       -0.014061896 0.087601505 0.043948412 0.008052443
000350 7b e3 54 bd a4 eb 02 bd fe ac de bc 62 eb a3 bc
       -0.051974755 -0.031963006 -0.027182098 -0.0200097
000360 b2 5f 35 3d 19 57 0f 3d af d4 c7 bd b2 9e 91 bc
       0.044280715 0.034995172 -0.09757363 -0.017775867
000370 b0 c7 cc bd 45 6d 0f bc 1c 6a cb 39 85 5a 51 bd
       -0.09999025 -0.008754079 0.00038798235 -0.051111717
000380 bd 8a 8a 3b 7a 07 dd bd 74 60 a5 3d 61 c6 22 bd
       0.0042279647 -0.10792442 0.080750376 -0.03973997
000390 33 c2 6d bc c2 3b db 3b a7 45 54 3d ab 4b cd 3d
       -0.014511633 0.0066904733 0.05182424 0.10024198
0003a0 34 72 c3 bb ac a8 88 ba 24 e2 97 3b 77 21 ab bd
       -0.005964542 -0.0010426245 0.0046351124 -0.08355992
0003b0 75 18 36 3e be e4 49 3d 4b ab 26 3c 8c df 4c bd
       0.17782767 0.04929041 0.010172675 -0.05001788
0003c0 e7 c8 1d ba b5 64 31 bd 2a 22 ee 3a ce ab 8e bd
       -0.00060190115 -0.043308932 0.0018168141 -0.06966363
0003d0 c3 ea 88 3d a8 b9 89 bc a6 1f 86 3b d2 8b 89 bd
       0.06685402 -0.01681216 0.0040931283 -0.06716122
0003e0 fc 90 0d bd ac f8 72 3d cf d0 68 bc 38 05 07 3e
       -0.034562096 0.059319183 -0.01420994 0.13185585
0003f0 81 61 87 3d f8 10 9d bc 38 0c 15 3d e8 db 73 bd
       0.06610394 -0.01917313 0.036388606 -0.05953589

item_tower.feedforward.0.bias f4 [64]
000000 4e 08 d7 bd c2 9a 13 bd 98 54 52 bd e3 53 ac bd
       -0.10499631 -0.03603626 -0.051350206 -0.084144376
000010 9d f7 f9 bd 15 0d 92 be 86 98 77 bd 0d 96 89 bd
       -0.122054316 -0.28525606 -0.060448192 -0.06718073
000020 4a 3d 36 be db f3 86 bd 25 1f 71 bd 31 eb c3 bd
       -0.17796817 -0.065894805 -0.058867592 -0.095663436
000030 92 09 64 bd 5e 37 98 bd 36 1f 02 be 29 c0 b3 be
       -0.05567319 -0.074324355 -0.12707219 -0.35107544
000040 74 6f ea bd 32 33 ec bc 2a 12 26 be 26 67 6d be
       -0.11447039 -0.028833006 -0.16217867 -0.2318388
000050 14 c9 36 bd 98 84 f8 bd fe 7c 6e be a0 23 42 bd
       -0.044625357 -0.12134665 -0.23289868 -0.047397256
000060 25 63 0b be d9 c7 73 be c3 28 04 bd bb f2 4d bd
       -0.1361204 -0.23806705 -0.032265436 -0.050280314
000070 49 37 cc bc eb 3a d7 bc ba 31 fd bd da 6f 19 be
       -0.024928706 -0.026273211 -0.12363 -0.14984074
000080 60 3f f5 bd 7f e6 14 be d6 b6 ce bd b4 6b cc bd
       -0.119749784 -0.14541052 -0.10093467 -0.0998148
000090 97 6f bb bd cc b5 22 be c6 1b 01 3d a2 b4 4c be
       -0.091521434 -0.15889663 0.031520627 -0.19990781
0000a0 37 d7 85 bd 67 72 82 bd 62 58 4e bd 3f 4d a0 bd
       -0.065351896 -0.06369477 -0.050377257 -0.078272335
0000b0 da e3 14 3d 6d c6 ff bd 4f c5 b4 bd 15 be c4 bd
       0.03635011 -0.124890186 -0.08826696 -0.09606568
0000c0 08 b6 f6 bc aa e8 bb bd 7f cc 05 be 5b 56 b5 bd
       -0.030116096 -0.091752365 -0.1306629 -0.088543616
0000d0 68 29 8e bd a1 a4 fc bd 2e 63 f5 bd f6 45 d3 bd
       -0.06941491 -0.12336088 -0.11981808 -0.10316078
0000e0 a5 c8 7d 3d ba 45 86 be 59 1e d1 bd 5f 16 0b bd
       0.061958928 -0.26225072 -0.102108665 -0.03395688
0000f0 b8 7f 29 ba 9a 55 43 be 1f 1d 00 be 9c 76 86 3d
       -0.000646587 -0.19075623 -0.12511109 0.06565592

item_tower.feedforward.2.weight f4 [32, 64]
000000 8a 9f dc bd 50 02 39 3c 49 ce 90 3e 50 36 3f 3d
       -0.10772617 0.011292055 0.28282383 0.046682656
000010 94 73 32 bd 31 e9 05 bf c1 ae 70 bf 00 4e d8 3c
       -0.043567255 -0.52308947 -0.94016653 0.02640438
000020 13 2c 89 bf 76 e6 b0 be c8 30 55 3d ae ff 91 3d
       -1.0716575 -0.34550828 0.052048475 0.07128845
000030 76 e6 b9 3d 08 32 6a bd 93 d5 df 3e ab 88 0b 3f
       0.0907716 -0.05717662 0.43717632 0.54505414
000040 4a e1 ab 3d 80 ec e0 3b 89 3f 12 3f b1 26 84 3f
       0.0839258 0.0068641305 0.57128197 1.0324308
000050 e2 c8 27 3e ef fe 10 bf 93 f8 cd 3e 24 3a 31 bd
       0.16385224 -0.56639 0.4022871 -0.043268338
000060 fd 5c 84 3e ac 32 01 be b6 34 83 3d c0 ba 3a 3b
       0.25852194 -0.12616986 0.06406538 0.002849266
000070 34 ed 22 3d 87 bc b9 3e 2a cb c0 bb be 82 83 bf
       0.039776996 0.36276647 -0.005883594 -1.0274274
000080 52 e6 3f be 2a d1 40 3f 2b 8e bd 3d 61 0d e9 3e
       -0.18740204 0.7531916 0.09255632 0.4551802
000090 a8 90 a5 3e dc fd bb bd 39 9d b3 be 54 a9 45 bc
       0.32336926 -0.09179279 -0.3508089 -0.012064297
0000a0 00 28 a8 be 23 ff bc bc 31 59 be be 6c 77 8c bd
       -0.32843018 -0.023070877 -0.37177423 -0.068587154
0000b0 0d 00 bf 3e 42 5e 17 3e 26 fb d6 3e 60 a3 e1 3d
       0.37304726 0.1478205 0.41988486 0.110174894
0000c0 22 42 95 be aa e1 7c bd 9a ab 4c 3b 68 be ac bc
       -0.29152018 -0.061738648 0.0031230212 -0.021086887
0000d0 00 c0 c4 37 6d 5f d3 be 88 70 f6 3c cf c9 02 3f
       2.3454428e-05 -0.41283742 0.030082956 0.51089185
0000e0 25 fe 9c be a4 cb 10 be df 5f 01 be fd 5e ad bd
       -0.30662647 -0.14140183 -0.12634228 -0.08465383
0000f0 fb e3 30 bb 60 5e 09 bf 5c 6a f8 bd 76 2f 9a 3e
       -0.0026991356 -0.5365963 -0.121296614 0.30114335
000100 b4 83 5b 3d 64 fd 90 3d 04 60 f9 bd f8 51 28 3d
       0.0535924 0.070795804 -0.12176517 0.041093796
000110 74 f9 b2 3d d8 a8 14 3f c6 63 36 bf c0 ff 43 3c
       0.08738986 0.58070135 -0.7124599 0.011962831
000120 8f 14 b7 be 5e 7e 1e bf 7e e7 d9 bd d4 2a 26 bd
       -0.35757872 -0.6191157 -0.10639857 -0.040568188
000130 a8 56 86 3d d0 34 23 bc 62 57 a5 be 16 e2 81 3e
       0.06559497 -0.009961322 -0.3229323 0.25367802
000140 64 2f 19 bd d0 2a ea bc dc b9 56 be 58 e4 0c be
       -0.03739871 -0.028584868 -0.20969337 -0.13758981
000150 71 c3 75 be b2 65 15 3e 74 99 f7 be cc 6c e7 3d
       -0.24000336 0.14589575 -0.48359263 0.11300048
000160 f4 d4 96 3e 97 b2 67 3e 53 3c aa be 10 9a 31 3c
       0.29459345 0.2262672 -0.3324915 0.010839954
000170 00 ae b3 3a e2 c6 26 be 14 7e 42 3e fc dd f1 bc
       0.0013708472 -0.16286805 0.18993407 -0.029524796
000180 32 da 34 3e 8a ad f9 3e 26 3c da 3c 01 9d 3c 3d
       0.1766136 0.48765212 0.02664001 0.046048168
000190 2c 37 54 be 8e ed 21 3e a1 3b 08 bf 2f 65 4a bf
       -0.20724171 0.15813276 -0.53215986 -0.79060644
0001a0 f0 6f c7 3b ec 9e d4 3e 37 d7 43 3e 68 72 87 bc
       0.006086342 0.41527498 0.19125067 -0.016534045
0001b0 d9 61 fa 3e 8e ab cc 3e e3 25 01 be 70 10 4c 3d
       0.48902777 0.39974636 -0.12612109 0.049820364
0001c0 d6 43 9e bd 1e 18 5c be e5 de 4c 3d c0 8b 61 3b
       -0.077277824 -0.21493575 0.050017256 0.0034415573
0001d0 cc 8c 5c bd a7 e8 5c be 82 84 ac bd cd 9f a1 be
       -0.053845212 -0.21573125 -0.08423711 -0.3156723
0001e0 06 24 aa bd eb c3 4a bf fa b0 74 bf 2d d0 13 bf
       -0.08307652 -0.792052 -0.95582545 -0.57739526
0001f0 d7 6a bb bf ce e9 7b 3e b8 6c 5b 3d 02 4d 07 bf
       -1.464198 0.24600908 0.05357048 -0.5285188
000200 e4 48 40 bd 59 05 d7 bd f6 73 a6 bf c8 94 de 3c
       -0.046944514 -0.10499067 -1.3004138 0.027170554
000210 d2 bb f7 bd 49 1c 0a bf 0d b0 e1 be 3e f8 ab 3d
       -0.12096371 -0.5394941 -0.4407963 0.08396958
000220 e9 24 b8 bf a4 92 64 be 9b 1c c4 bc d8 f6 06 bd
       -1.4386264 -0.22321564 -0.023939421 -0.032950252
000230 88 72 1b bd dc 00 1c 3d b3 be c6 be c7 41 49 be
       -0.037951022 0.038086757 -0.38817367 -0.19653998
000240 90 7d 0e bd b4 6e e7 3d 4c 19 8a be 0a 72 6d be
       -0.034787714 0.11300412 -0.26972425 -0.23188034
000250 fa c4 6c bf 4a 6c 85 be a0 a4 fa 3d 37 8c 4b bc
       -0.9248806 -0.2605918 0.12238431 -0.012423567
000260 d3 2a fb be 14 98 fa 3e a2 d0 10 bf 06 0a 9d 3d
       -0.4905611 0.4894415 -0.5656835 0.076679274
000270 a8 ad 00 3d 36 e7 b5 bf 01 52 91 3e d8 83 26 bf
       0.03141561 -1.4211185 0.28382877 -0.6504493
000280 e7 be 8c bf 70 bb 10 bf fe 0b 7b bf eb a1 a0 bd
       -1.0995759 -0.56536007 -0.98065174 -0.078433834
000290 92 8a 51 3d 7c 5d a0 bd 58 f0 ed be e2 0e 52 bf
       0.05115754 -0.07830331 -0.4647243 -0.8205396
0002a0 e0 1f 85 bf 6c 4b 0c bf 0c 7f 3a bf 7c a3 2d bd
       -1.0400352 -0.54802585 -0.7285011 -0.04239224
0002b0 36 a0 d0 be 6e 23 78 bf e3 9f ae be 2c b0 8b 3d
       -0.4074723 -0.9692906 -0.3410636 0.068207115
0002c0 8b f1 9c be 36 72 99 3d f6 d9 ce bf 64 8a b4 bd
       -0.30653033 0.07492487 -1.6160266 -0.088154584
0002d0 52 a7 c5 bd 37 d0 5e bf 24 2e 21 bd 33 e4 2a bf
       -0.096510544 -0.8703646 -0.039350644 -0.66754454
0002e0 6c 1f 4a bf 33 19 8b bd 54 8e 4a 3e 25 27 ae 3e
       -0.78954196 -0.06791916 0.19780856 0.3401424
0002f0 83 9a 14 c0 88 89 ba be 38 42 71 bd c8 33 4a bf
       -2.3219306 -0.36433053 -0.05890104 -0.7898526
000300 da 24 af bd c8 69 a4 3d 24 1e 6e bd 00 f4 f7 bc
       -0.08551951 0.08027989 -0.058134213 -0.030267715
000310 de 5b 8c bd 7d eb b2 3c 4f f9 a2 bc 2a 0f a1 bd
       -0.0685346 0.021840805 -0.01989427 -0.078642204
000320 e0 62 92 bd 00 85 8c 3b ac d4 b1 bd 4e 1f f8 bd
       -0.07147765 0.004288316 -0.08683142 -0.12115346
000330 98 0b 4b 3d f0 c6 1a bd 97 2e 32 3d 12 b4 c1 3d
       0.049571604 -0.037787378 0.043501463 0.09458174
000340 8a ca f7 3d e8 2f 81 3c b6 79 83 bd 0c 0b cd bd
       0.12099178 0.015769914 -0.06419699 -0.10011873
000350 22 19 aa bd 18 32 58 bd 00 89 95 bb e0 05 34 3c
       -0.08305575 -0.052782148 -0.004563451 0.010987729
000360 58 a8 61 bd 2f 6d 14 bc 35 64 d9 3a 98 0b f6 bc
       -0.055092186 -0.0090592345 0.001658565 -0.030034825
000370 f4 a9 f7 3d 35 27 c6 3c c2 62 9f bd 88 7a 9f 3d
       0.12092963 0.024188617 -0.077825084 0.07787043
000380 0b 9d 9e bd 06 eb 72 3c 8c 90 02 be 56 d4 9a bd
       -0.07744797 0.014826542 -0.12750453 -0.07560031
000390 11 a0 82 3d 6a 1e 97 bd a6 d1 03 3c fc da ba bd
       0.063781865 -0.07378848 0.00804559 -0.09123799
0003a0 8c de 3a 3d e8 50 15 be 34 5f c9 bd 04 8c 42 3d
       0.045622393 -0.14581645 -0.09832612 0.04749681
0003b0 4c 2a 11 be 27 7e 1f 3c e9 38 14 be a0 20 0d 3d
       -0.14176291 0.009734667 -0.14474835 0.03445494
0003c0 78 86 e0 bd a0 49 09 be ba 59 80 bd f4 87 6f 3d
       -0.10963148 -0.13406992 -0.06267114 0.058479264
0003d0 28 d0 81 3d d8 02 d5 3c b0 a4 09 3c 18 8d 70 bd
       0.06338531 0.026002333 0.008401081 -0.058728307
0003e0 9f f1 9c 3b 7c 73 31 bd b0 5a 0b 3c 98 7d 21 bd
       0.0047895457 -0.043323025 0.008505508 -0.039426416
0003f0 4c 32 c5 3b cc 85 ac bd ca 5b 91 3d 69 10 50 3d
       0.0060179587 -0.08423957 0.070975855 0.0507969

item_tower.feedforward.2.bias f4 [32]
000000 81 c1 e1 be 76 22 9a be 47 81 3b 3b bb 4f 3f be
       -0.44092944 -0.30104417 0.002861099 -0.18682759
000010 59 02 6f 3e 58 f8 34 3d 76 18 be be ce 8e 3e be
       0.2334074 0.04418215 -0.37128037 -0.18609163
000020 31 9a 7c be 26 cb f0 3d aa 05 a0 be 93 97 f4 bd
       -0.24668194 0.117574975 -0.3125432 -0.11942973
000030 ff d2 86 be 8e 24 d5 bd 82 ff 74 be 89 62 41 3d
       -0.26332852 -0.10407363 -0.23925593 0.04721311
000040 8d b1 c1 bc 91 b8 45 be 0b f7 36 be 02 21 d9 3e
       -0.023644233 -0.19308688 -0.17867677 0.42407995
000050 7c cf ed be 9e be 25 3e a6 e5 22 bf 20 fe 10 bf
       -0.4644736 0.16185996 -0.63631666 -0.56637764
000060 fe ce b3 be 3c 3a 53 be a6 e5 56 be 62 0c ff bd
       -0.3511886 -0.20627683 -0.20986041 -0.12453534
000070 28 48 19 3e 15 de fd be 1a 15 e8 be d8 8f 37 be
       0.14968932 -0.49583498 -0.453286 -0.17925966

item_tower.feedforward.4.weight f4 [32, 32]
000000 8d 9d c7 bd c7 23 89 bc cc f2 cc bc cd 3c e9 bd
       -0.09746847 -0.016740693 -0.025018118 -0.1138855
000010 47 ed c3 3d 42 55 ab bd 78 a6 9c bd cd ef 35 3e
       0.095667414 -0.08365871 -0.07648939 0.17767258
000020 39 f6 05 bd 65 81 86 bd 1a 94 a1 3d c4 fd de bc
       -0.03270552 -0.06567649 0.07889576 -0.027220614
000030 f6 12 01 3f ca 86 a3 bb b6 17 2f be 63 77 bf 3d
       0.5041956 -0.0049904333 -0.17098889 0.09348943
000040 54 d2 e0 be c1 66 09 3e af bb 03 bc 78 ed 57 3e
       -0.43910468 0.13418104 -0.008040353 0.21086681
000050 62 20 e7 be 61 d6 86 be 17 72 05 3e 71 9b 2a 3f
       -0.45141894 -0.26335433 0.13031803 0.66643435
000060 58 48 a3 3e bb f1 3c be 15 18 23 bf 2f 17 22 3e
       0.3189113 -0.18451588 -0.6370862 0.15829156
000070 68 5e 03 3e 5c fc c2 bd 7e 78 c4 be 6e e5 c1 3d
       0.12828982 -0.0952079 -0.38373178 0.09467588
000080 51 41 54 be eb 52 9c be 78 b8 17 3f 0c 2c 00 3b
       -0.20728041 -0.3053201 0.5926585 0.0019557504
000090 d4 8f e3 3d f8 85 3c 3d 1a ff 01 be 7b 8b 00 be
       0.111114174 0.0460262 -0.1269497 -0.12553208
0000a0 34 ff 20 3f 31 e5 19 3e 41 2b e7 be 7f 41 ec 3d
       0.6288941 0.15028836 -0.45150188 0.1153593
0000b0 29 1e 1b bf 53 07 71 3f 7b f2 90 3e d7 27 6e be
       -0.60592896 0.941518 0.28309998 -0.23257385
0000c0 4c 8c 6d 3e 44 e4 ab 3d 37 e0 ec bc 87 06 0c be
       0.2319805 0.083931476 -0.028915508 -0.13674365
0000d0 9d 92 39 3f b5 7c 6b bd 77 5a 11 3f 41 e7 96 3e
       0.7248934 -0.057491977 0.56778663 0.29473308
0000e0 03 7f 11 3f 51 3f d6 3d 08 31 b6 3f 69 e5 27 bc
       0.5683443 0.104612954 1.4233713 -0.010247567
0000f0 39 5a f6 be 06 6f ca 3e 01 ea 66 3e af 04 03 be
       -0.4811571 0.3953783 0.22550203 -0.12794755
000100 94 49 5c be 24 8b 7e 3e ad a4 6c 3e 4b 33 73 3d
       -0.21512443 0.24857765 0.23109694 0.05937509
000110 00 07 d5 bc f9 bd 53 3e 5e 77 22 be d2 25 02 3d
       -0.026004314 0.20677938 -0.15865847 0.03177435
000120 28 04 87 3e f2 0e 9d be 8b cd 52 be 63 4c cf 3d
       0.26370358 -0.30675465 -0.20586221 0.101219915
000130 c9 96 08 bf f3 7b d8 3d 8a 35 b7 bc 05 86 4e 3d
       -0.5335508 0.105705164 -0.022364397 0.05042078
000140 db fc 55 3e 36 06 44 3d 1f be 92 ba c9 b5 0a be
       0.20897238 0.047857486 -0.0011195577 -0.13545908
000150 51 fa 36 3f 6a 73 af 3e f3 48 9d be aa c1 80 be
       0.714757 0.3426774 -0.30719718 -0.25147754
000160 bf e0 50 be 95 4f f0 3c a2 3f a8 3e 90 a6 bd 3d
       -0.20398234 0.029334823 0.32861048 0.09260285
000170 f2 0a 5d be c7 67 0a be 47 b8 8b 3e 21 ea 92 3d
       -0.21586207 -0.1351615 0.2728903 0.07173563
000180 86 7a 17 3e c6 e8 b5 3e 8d f8 96 be 33 fe 97 bd
       0.14792833 0.35529155 -0.29486504 -0.074215315
000190 45 2a ca bf e2 6e d4 bf 92 63 8a 3e 8a ff e1 3d
       -1.579415 -1.6596339 0.2702909 0.11035068
0001a0 58 2e a1 3d 4a 71 eb be 73 11 0b 3e 23 3b 75 bd
       0.078701675 -0.4598487 0.13580875 -0.05987085
0001b0 c4 c0 fe 3d ae 93 d5 3e da e5 c1 3e e7 3e 07 c0
       0.12439111 0.41714233 0.37870675 -2.1132143
0001c0 a5 62 71 bf 30 5a a8 3d 09 e7 a6 3c 3b ca 0c c0
       -0.94291145 0.08220327 0.020373838 -2.1998432
0001d0 a1 9f 5d 3f 77 80 71 bf aa 7d 04 bf a2 a1 25 3b
       0.865717 -0.94336647 -0.5175425 0.0025273343
0001e0 ae 11 64 be 4a 33 e6 3d 6c 2d d4 3e 00 4a e9 3d
       -0.2227237 0.11240251 0.41440904 0.113910675
0001f0 da 19 bb 3d 8b 29 46 3e a9 94 a1 3f f7 a1 1b 3e
       0.0913579 0.19351785 1.2623492 0.15198503
000200 c6 ef 42 bf da 5c 26 3d 2f 21 78 bf 0d a0 c4 bd
       -0.76147115 0.040615894 -0.96925634 -0.0960084
000210 25 c2 d5 bd 0e c1 24 3e a8 0a cb 3e 8e c1 54 3d
       -0.10437421 0.1608927 0.39656568 0.0519424
000220 1b 44 90 bf a5 b4 e2 3e 8b b4 76 be 01 b5 22 bd
       -1.1270784 0.44278446 -0.24092309 -0.0397234
000230 0b 85 3f 3f a8 f6 2b be d9 47 d0 be 2a 18 fd 3e
       0.7481238 -0.1679331 -0.40679815 0.49432498
000240 96 98 69 bf a9 96 c3 bd 9b d8 ee bd 28 c6 41 be
       -0.9124845 -0.095502205 -0.11662408 -0.18923247
000250 67 1b 8e bf 2d 91 53 bf de fe 5e bf f7 0d ae be
       -1.1102113 -0.82643396 -0.87107646 -0.3399503
000260 da 9a 96 be e7 a4 0b 3e ec 07 57 be eb 1e 46 bd
       -0.29415017 0.13637124 -0.20999116 -0.04836933
000270 65 61 d4 bc 33 b1 b9 3c e9 57 b2 bf b8 60 b4 bd
       -0.025925348 0.022667503 -1.3933078 -0.0880751
000280 5a 0e a3 bf b3 ec 46 bf 96 75 84 3e 2a 9f 28 be
       -1.2738755 -0.77704924 0.2587096 -0.16466966
000290 9f cb 6b 3e 52 4c fa 3d a1 92 f3 bd 93 2c 18 be
       0.23026894 0.12221588 -0.118932016 -0.14860754
0002a0 8a 17 11 3e 3a 3d 41 3f 67 76 d4 3d 1f 81 a2 3d
       0.14169136 0.7548405 0.10374146 0.07934784
0002b0 e6 a4 f5 be f2 fa 2a 3f e9 b9 4b bf 7f a2 f5 3d
       -0.4797737 0.6678916 -0.7958055 0.11993884
0002c0 cd f8 06 bf 8c 22 d1 3d 0e 78 12 3d c7 ad 8a bd
       -0.5272339 0.102116674 0.035759024 -0.06771427
0002d0 73 db 89 bf 81 8a ff be 13 3f 2a bf 59 e5 58 3f
       -1.0770096 -0.49910358 -0.66502494 0.84724957
0002e0 be 50 3c 3f 5b c3 d4 3d b2 1d b9 3f 0c 68 00 3e
       0.735607 0.103888236 1.4462187 0.1253969
0002f0 61 f1 e1 be 2f 47 ab 3e fb 29 fb be 4e 0d ae bc
       -0.4412947 0.33452746 -0.49055466 -0.021246579
000300 fa 53 5c 3f 85 1a 2a 3f 19 1a d8 bd 3a d6 3b 3d
       0.8606564 0.66446716 -0.10551853 0.0458586
000310 a9 42 9a be ae 44 b1 3e 67 49 28 3f f4 31 5b 3c
       -0.30128983 0.3462271 0.65737003 0.013378609
000320 2e b7 2f 3d 50 d4 03 bf 12 3a de be 12 1d 0a be
       0.042899303 -0.5149584 -0.4340368 -0.13487652
000330 4f 53 c2 be 6c e5 95 be 9b 71 5f 3f 10 2f 77 bf
       -0.37954184 -0.29276597 0.87282723 -0.96556187
000340 bb 2f 0c 3f 97 b3 a9 3d 3e 0c 5c 3d bc 0a c3 3e
       0.5476033 0.08286207 0.053722613 0.38094127
000350 84 53 d4 3f 93 fe c8 3f 6c c6 f2 3e 19 44 01 bf
       1.6587987 1.570269 0.4741701 -0.50494534
000360 8c 6a 31 bf db 96 94 3d d8 5e ae be 00 01 9a 3a
       -0.693032 0.07255336 -0.34056735 0.0011749566
000370 f7 c0 8a bf aa ba 08 bd 81 d0 a5 3e 5c 5f 11 3e
       -1.0840138 -0.03338114 0.32385638 0.14196533
000380 bd 03 0e 3e a6 94 9e 3e 48 e4 4c 3f 8a 5d c2 3d
       0.13868614 0.30972785 0.8003583 0.094904974
000390 05 b5 a3 3e 7b 06 f1 ba 36 e1 8c 3f a9 f4 3e 3d
       0.31974044 -0.0018388772 1.1006229 0.046620045
0003a0 21 13 86 3f b9 5a 6a bf c6 05 71 bd 08 55 17 3d
       1.0474588 -0.9154468 -0.058843397 0.036946326
0003b0 f2 b8 b2 be 55 ba 2d 3f 95 ac d2 3e 5a 84 8c be
       -0.34906727 0.67862445 0.41147295 -0.27444726
0003c0 28 9f 45 bf ee 13 57 bd 35 35 13 3e 61 af 17 3e
       -0.7719598 -0.05250924 0.14375766 0.14812995
0003d0 c5 72 74 3e 48 de fc bd 1a 06 b4 3e 88 67 4e 3e
       0.23871906 -0.12347084 0.35160905 0.20156682
0003e0 62 df 70 3f 89 21 54 3d 1f 59 72 3f fb aa fe 3d
       0.94090855 0.051789794 0.9466724 0.12434956
0003f0 b3 d8 11 bf e2 56 1b 3f 5c d8 f8 3e 74 9d 66 3e
       -0.5697128 0.6067945 0.4860257 0.22521001
