models/interactions_model.pt (torch, 82717 bytes, 14 tensors)

au f4 [32]
00000000: 9ca9 043d 9431 8fbc 3a7b e63c fbf3 86bc
00000010: f893 443c fb85 0b3c ede1 733a ab16 723c
00000020: 2a27 b5bc c57b 36bf 930d 55bc 9958 533d
00000030: 860d c7ba d95d a83e 4d7b 463d ec65 74bd
00000040: e201 963b f603 b63e 95d2 dfbe e55a a0bc
00000050: 33c2 b5bc 9306 adbc be61 193b 44aa 5e3c
00000060: 2b56 c83b 31e2 54bd 884d adbb cab0 0ebd
00000070: 9e7c be3d dc86 2dbb 712d dcbd a535 39bc
0.032388315 -0.017479695 0.02813493 -0.01647376 0.011998169 0.00851583 0.000930338 0.014775912
-0.022113401 -0.7128261 -0.013003725 0.051598165 -0.0015186525 0.328841 0.048457433 -0.059667513
0.004577861 0.35549897 -0.4371535 -0.019574592 -0.022187328 -0.021121299 0.0023404206 0.013590399
0.0061137876 -0.051973525 -0.0052887835 -0.034836568 0.093011126 -0.0026478088 -0.10750855 -0.011304294

av f4 [32]
00000000: 0b93 b23c 5b57 d93b afc2 7cbb afbc 8bbd
00000010: c7fe ecbe 0c69 4c3c 0e23 3f3c 3c18 cbbc
00000020: 13d9 c23c 79c2 373d adc9 803c 423c 9dbc
00000030: 5310 af3c 4869 873c 3457 bebc f88b 2b3e
00000040: 3567 abbc ac29 3c3c 6c17 403c 7770 9e3b
00000050: 4dbf 413f 7ecc 5cbd a08b 64bc 53ba 52bd
00000060: ef88 89bc 41df 3cbd e05c 9c3e d8ba 1ebd
00000070: 3b87 0d3b 87e2 983c efb3 273c 7764 9cbb
0.021798631 0.006632728 -0.003856819 -0.06823098 -0.4628813 0.012476217 0.0116660725 -0.02479183
0.02378515 0.044863198 0.015721167 -0.019193772 0.021370089 0.016529694 -0.023234941 0.16752613
-0.020923236 0.011484545 0.011724334 0.004835184 0.75682527 -0.053905956 -0.013949305 -0.051447224
-0.016788928 -0.04611135 0.30539608 -0.038752407 0.0021595496 0.018662704 0.010235771 -0.0047727185

user_tower.feedforward.0.weight f4 [64, 37]
00000000: 4711 68be b95f 84bd 96db aabd b5e1 483d
00000010: 1449 973f 805b 59be eae4 4c3d 2d6b 0dbd
00000020: 2700 9a3e 59cf a23c b273 4ebe 6e0f 033e
00000030: d1ff 9fbd 4763 0c3e a216 913d c280 c83d
00000040: 4ee9 d9bc aef8 64be 5509 eabd 14e6 95be
00000050: f084 5e3e 6761 4ebd 6002 21bc 8279 363e
00000060: daac 413e 71fc cb3c 5905 0dbd 9732 6e3e
00000070: e7eb b5bd 34ff 253c a9da 993e 3d42 233e
00000080: e53e e73d faee 84be 0955 9cbd 435f 133e
00000090: 2360 4f3c 45ca d23d 4236 c93d 5c28 e6bc
000000a0: b7b9 2f3c 21a9 dcc0 92ce a5bd b78c a9bd
000000b0: cfee 93bd 1ca4 3abe 173e 0ebe 14d4 eb3d
000000c0: 858c b13d f6c2 a93d 3072 15bc c1ef 1dbe
000000d0: 7a18 b8bc b7d5 653d d262 2b3d e588 e23d
000000e0: 9cfd 90bd dcba 793d 0ce8 173d 54fd 8a3e
000000f0: c97c 92ba a18d 9d3d a2e2 2dbc a5d2 2ebe
00000100: 01e0 ae3d 1d23 7ebd 2770 31bd 32df 66be
00000110: c8cf 0bbd 4404 ecbc a8b3 ea3d 6d6b 0abe
00000120: e715 83be 842b 983d 75d1 cfbc 0e7e c9bd
00000130: cc3f 253d 7a6f a63c a400 74c1 3fbe bebd
00000140: 0976 c9bd 0fd1 2e3d 25a8 ae3d 0e8e 673d
00000150: 339f 9abd e76a 3fbd c5c5 213e c47b 0b3c
00000160: eab8 31be 8911 03be 091d 50bd 4210 dcbc
00000170: b55f 1c3e 4239 9c3d f591 61bd d011 ba3c
00000180: 368d ca3d 276e f63c 93a8 aebd c42d b4bd
00000190: 411b acbd c4c6 803d f8fb 913a 407d 093e
000001a0: b4ef aa3b f7ad 1f3d 3f96 6f3c d0ef 843d
000001b0: 265b 05be 5aa4 c73c f72f 8abd 0b43 ffbd
000001c0: 380a 2fbe a461 983d 63c8 033d dfd1 4ac1
000001d0: e704 843b 93e0 543e a22b 31be 8001 f73d
000001e0: 596f ecbd 83cb 453d 9117 6cbd 29c8 053e
000001f0: e236 26bd 71ee bc3d 20fd 2d3e 4538 25bd
00000200: 6f99 c1bc 1963 ccbd d02d 56be d063 69bd
00000210: 15df 993d ebe5 643d 21db debd 25df 0f3d
00000220: 75b4 a53d 4f5b 403e a3eb 923d 1269 d93d
00000230: e8bf d33d 3724 d8bd fd56 a43d aa21 93b7
00000240: 3a58 40be 8b11 36be 97a1 023e bc95 2d3e
00000250: db5e 813c 33b7 30bc d1dc 0cbc 0334 913d
00000260: c33b 3841 398c 053e e9e8 f13c 0db4 f1bd
00000270: 533e cc3d 5bbb 9a3d c787 fabd 5da2 993d
00000280: 95bc adbc 4740 023d 8884 6a3d b448 2d3e
00000290: 7205 17bd 6975 79bd 25db 2bbe e959 fd3c
000002a0: 6c35 81bc d7ac 8ebd 1d49 5cbe 64d5 053e
000002b0: 5daa cb3c b5b3 3bbe 06fd 23be 8bd3 563c
000002c0: c847 f3bd 8fa4 b43d 1029 b7bd 95c0 b6bc
000002d0: ff89 93bd 289c 42be 6fa1 0ebe f85a 083e
000002e0: 04d0 2ebc 97a1 15be 03a9 5cbd acf6 f8bd
000002f0: 50c6 1a3d 559d 14be 9918 103e 3213 103e
00000300: 64ed fbbb 60a7 cbbd fc7e c2bc 419c 1c3e
00000310: 5f39 b33c 78a4 20be 8e8c 8bbc 0414 203e
00000320: be01 b0bd 20f7 1e3e 75c9 2e3a 1455 14be
00000330: 5d6a c3bd f024 01be 826a b53c 59c3 ef3d
00000340: 4093 723c fe7f 2cbd b46d a8bd db23 283e
00000350: 4c0c efbd 7564 40bd 9351 0b3e abed 42bc
00000360: 317f e6bc aff8 5a3c fcea 453d 7e49 23be
00000370: 5b5e e63b 85b0 413d 5a68 ffbd dee2 9cbd
00000380: bb69 14be 30b5 e5bb b245 f13d d403 34bd
00000390: 8418 77bd 6118 9dbd b0a4 e73a 0822 fb3b
000003a0: 476b a4bc 79e3 8abc fd29 043d 9cb7 0c3e
000003b0: d27f 53bd f4dd 093d fefa 873d 9149 253e
000003c0: c0d7 993c 02a4 b9bd 3b42 753d 800e 213e
000003d0: 9044 ccbc 27d1 9bbc 2bd9 bb3d 7c3e 113e
000003e0: fc69 a5bd 89ce ffbd bc74 13be d7cc cf3c
000003f0: 20b7 25be 520f 5a3d fc44 a5bd fed8 b2bc
-0.22662841 -0.0646357 -0.08342664 0.049043376 1.1819177 -0.2122631 0.050022997 -0.03452604
0.3007824 0.019874262 -0.20161322 0.12798855 -0.07812465 0.13709746 0.07084395 0.097901836
-0.026600506 -0.22360489 -0.11427561 -0.29277098 0.21730399 -0.05038586 -0.009827226 0.17819789
0.18913594 0.024900647 -0.034428928 0.23261486 -0.088828854 0.010131646 0.30049637 0.15943237
0.11291293 -0.25963575 -0.07633407 0.14391808 0.012657198 0.10292486 0.09824802 -0.028095417
0.01072543 -6.8956456 -0.08096041 -0.08278792 -0.072232835 -0.18226665 -0.13890873 0.1151506
0.0866938 0.08289139 -0.009121463 -0.1542349 -0.022472609 0.056112017 0.04184229 0.11061267
-0.07079622 0.06096922 0.03708653 0.271464 -0.0011176105 0.07693029 -0.0106131155 -0.17072542
0.08538819 -0.062045205 -0.043319847 -0.2254608 -0.034133703 -0.028810628 0.11460048 -0.13517542
-0.25602648 0.07430175 -0.025368432 -0.09838496 0.040344045 0.020316828 -15.250156 -0.0931363
-0.098369665 0.042679843 0.08528165 0.05653196 -0.07549896 -0.04673281 0.157981 0.008513395
-0.17355695 -0.12799658 -0.05080894 -0.026863221 0.15270884 0.076281086 -0.055070836 0.022713572
0.09890215 0.030081822 -0.08528247 -0.087977916 -0.08403636 0.062879115 0.0011137715 0.13426685
0.005216563 0.038984265 0.014623224 0.06491053 -0.13023052 0.024370361 -0.0674743 -0.12463959
-0.17093742 0.074404985 0.032173526 -12.676238 0.0040289047 0.20788793 -0.17301801 0.12060833
-0.115446754 0.048289787 -0.057639662 0.13064636 -0.040579684 0.092251666 0.16991091 -0.040336866
-0.023632733 -0.09979839 -0.20915914 -0.056979954 0.07513253 0.05588333 -0.10881639 0.035124917
0.0809106 0.18784831 0.071738504 0.10615744 0.103393376 -0.105537824 0.08024404 -1.7539442e-05
-0.18783656 -0.1778013 0.12756954 0.1695165 0.0157923 -0.010785866 -0.008597569 0.070899986
11.51459 0.13041772 0.029530006 -0.1180192 0.09972825 0.075552665 -0.12232929 0.075016715
-0.021208087 0.03179958 0.057255298 0.16922265 -0.036870427 -0.060902987 -0.16782816 0.030926662
-0.015772544 -0.0696656 -0.21512266 0.13069683 0.024861509 -0.18330272 -0.1601449 0.013111959
-0.118789256 0.088204496 -0.08943379 -0.022308627 -0.07204055 -0.19004881 -0.1392877 0.13315952
-0.010669712 -0.14612423 -0.05387212 -0.12156424 0.03778678 -0.14513142 0.14071883 0.14069822
-0.0076882113 -0.099440336 -0.023742191 0.15293981 0.021877943 -0.1568774 -0.017034795 0.15632635
-0.08594082 0.15523958 0.00066675927 -0.1448558 -0.095417716 -0.12611747 0.022145513 0.117071815
0.014805615 -0.04211425 -0.08224049 0.16419928 -0.11672267 -0.046970803 0.13605337 -0.011897485
-0.028136821 0.013364955 0.0483198 -0.15946004 0.007030291 0.047287483 -0.12471075 -0.07660459
-0.14493458 -0.0070101246 0.117808715 -0.043948963 -0.060326114 -0.076706655 0.0017672982 0.007663969
-0.020070685 -0.01695417 0.032266606 0.13741916 -0.05163557 0.033658937 0.0663967 0.16141345
0.018779635 -0.09064485 0.059877615 0.15728188 -0.024935037 -0.01902063 0.09172281 0.14183992
-0.080768555 -0.12490565 -0.144 0.02536623 -0.16183138 0.053237267 -0.08069798 -0.021831986

user_tower.feedforward.0.bias f4 [64]
00000000: 9a97 7fbe 26f8 c53d 0ee8 663e d2a7 ef3d
00000010: 6e00 23be 8a7f 9dbd 0d59 b3bd 869c 5b3e
00000020: e15d 1c3e b068 013e dcfa 59be 37b0 debd
00000030: 1004 1dbe a5da 2bbe ee4f c3bc bda0 dfbc
00000040: 9e53 dbbd 4eb9 c63d 2108 dfbc 5698 6a3e
00000050: 65e9 25bd fea2 093e d956 4abd b7e3 453e
00000060: d8bc 92bd 4fbd 29bd 5f4a 0cbe 7524 5ebe
00000070: f38b 1cbe 6fa6 25be d9ea 01be 99d7 07be
00000080: 3fc5 acbb 3711 64be 8786 7abe e2b3 1bbe
00000090: 8195 26bd a027 ddbd fa13 a33d 5765 74be
000000a0: eef3 9cbd b385 fcbd 09fe b73d 3d04 9bbd
000000b0: 5a8a 97be 6d7b 1dbe 9e2f 8dbe aae0 1c3e
000000c0: 3eb3 8b3b f831 c7bd 1868 06be a143 1d3d
000000d0: 3015 853d 95f2 923c 3e94 8bbe a906 87be
000000e0: 6981 1fbe 0c31 0abe 870f 3ebe d6e1 1b3e
000000f0: cc6d 493c f2a0 dabd 7180 113e 4e6c 13be
-0.24960175 0.09666471 0.2254946 0.11701931 -0.15918133 -0.07690342 -0.087572195 0.21446428
0.15270187 0.12637591 -0.21287102 -0.10873454 -0.15333581 -0.16782625 -0.023841824 -0.027298326
-0.10709308 0.09703313 -0.027225556 0.22909674 -0.040505785 0.13441083 -0.04939923 0.19325148
-0.07164925 -0.041440304 -0.13700245 -0.21693595 -0.15287761 -0.1617677 -0.12687244 -0.13265838
-0.005272537 -0.22272192 -0.2446538 -0.15205339 -0.04066992 -0.107985735 0.079627946 -0.23866783
-0.076637134 -0.123301886 0.08984 -0.07569168 -0.2959774 -0.15379114 -0.27575392 0.15320078
0.0042633107 -0.09726328 -0.13125646 0.038394574 0.06498182 0.017937938 -0.27261537 -0.2637227
-0.1557671 -0.13495272 -0.1856061 0.15222868 0.012294244 -0.10675229 0.14209153 -0.14396784

user_tower.feedforward.2.weight f4 [32, 64]
00000000: 622d f5bc d6ac 05bf 377d 31bd 8a6e c9bd
00000010: 0892 b93e 2a42 a53d 1a77 9fbd 9f82 d5bd
00000020: 90bc 613c f037 3f3d c525 4e3d 20f4 58bc
00000030: 19f3 74bd 4b06 e8bd 560e cb3b 5cf3 8e3d
00000040: 5356 243d 859e 98be d7b4 d5bd b9e4 bf3d
00000050: 3c2e a73d d4f2 a6bd b78e 84bd a321 a7bb
00000060: 2bf8 b73e f6e0 9b3d f168 cfbd b688 473d
00000070: 9828 1e3e 68a9 47bb b8af b3bc baf2 a1bd
00000080: 32b0 a03d 7707 a93d dcc2 373e e478 01bd
00000090: 6d0a 2ebd 37b8 27be ca24 b03d a7d2 383d
000000a0: 44c2 d2bd 7e5a e83d 9871 b9bd 1229 783d
000000b0: 01bc c6bd 40ce c2bb 9ebe 0d3e 0f9f 05bf
000000c0: 3e08 e7bd 8b02 e9bd 2920 4fbc 8a0b 9ebe
000000d0: 862f 843d 6bc6 093e fc61 203e a35e 4dbb
000000e0: 2f3c 70bd ca46 94bd 1f76 0a3e 8d34 4abe
000000f0: 58dc c3bc 788a 10bd 0010 70ba 6407 a4bd
00000100: 7cca 703d 64d4 9cbd 8ef3 1f3d 9425 17bd
00000110: 940b 6dbb ac8d 07bd f064 f63d fdc8 7fbd
00000120: 9e1d b43d e481 acbd 5b5d c6bc d624 abbd
00000130: 9d2c c3bd 67fd 92bc 2cf8 8f3d de55 f23d
00000140: 0490 a3bd 006e 25be 52e0 38bc 9449 14bd
00000150: c8ca 39be b69e df3d eb02 853d f02a 0cbe
00000160: 90b0 563d b1fe c8bd a5b0 d63d 960a 6c3c
00000170: e7ce 4cbe 2086 19bd 2859 6e3d 40ad bfbb
00000180: 04b8 d5bd 2797 11bc 7045 29be c4a7 d6bd
00000190: 2901 933d d0fe c6bd 179d a1bd 1641 8cbd
000001a0: bad7 103d 3c5d 5cbd 062b b7bd 49d1 c63c
000001b0: 3091 c5bd 3a2d 93bd 5014 46bd 383c a2bd
000001c0: dfac 17bd 6054 0d3d 47f4 4cbd 21cf 403d
000001d0: acf0 ef3c 94be 9e3d 0ff0 df3c 5cd0 04bd
000001e0: e0fb 833c 5041 9d3c 02fa ccbd c850 6cbe
000001f0: c023 efbb f647 f8bd 2cd4 fc3d 4d43 163d
00000200: e2e9 d9bd dac3 85bd 467b 363d 245a 3fbd
00000210: 8c63 85bd 801e 473d a42b b63d d2c4 97bd
00000220: fc0f 98bd acab 7dbd 4a63 04be 2e47 a5bd
00000230: c4e6 83bd 1811 85bd 50a4 64bc 18c9 38bd
00000240: 949d 5dbe 6367 a5bb 0e88 0fbd c0ec 843c
00000250: 9ab3 e8bd dc79 8e3d 8b64 89bd 91aa 523d
00000260: 9bdb 3ebe 7f6b 843d 69c6 3e3d 2fe4 4fbd
00000270: bf23 66be d2d7 bdbd 16e7 d3bd e0e8 a63d
00000280: 1cbb 73bd fa96 b03d 41d7 afbd d42e 123d
00000290: d334 e13d 65f4 1abe d810 b1bc a506 c83c
000002a0: e9dc 183e 62ba de3d a874 aebc 9dd8 1ebe
000002b0: 2614 18bd 4021 cd3d c7eb 0e3d cb9b 30bd
000002c0: fa29 cebc 9a61 233c d859 83bc d041 063e
000002d0: a09f 813d 4e9e 893c 7dbe f3bd 644c c6bc
000002e0: a96a b2bd c698 df3d 9abd a43c 9814 47bc
000002f0: e8d8 adbd 7cb2 cebd 0811 fabc 0e35 b1bd
00000300: 6b13 be3d a0e2 46be ce77 4dbc 8541 633b
00000310: 89ab 5abd 88c7 8abc 1c25 023d c49a 05be
00000320: a84a 8e3d 2869 8a3d 99d5 9fbd 50eb 3dbd
00000330: ebfc a4bd 9989 4a3c 7d8e 32bd 94e5 f63d
00000340: 6ac1 aabd 21d8 7fbd d558 afbb 987f 81bc
00000350: ae15 123e 404f 4bbb caa3 ecbc b3a9 1d3e
00000360: 2155 a7bd c065 c7bd 6dc4 123d 12d3 71bd
00000370: f051 c33c b072 093c c030 913c e01a 3d3d
00000380: f495 a43d 82e6 1cbd fdab 6ebd a007 d83c
00000390: c701 78bb c0e9 16bd 1c25 3c3c 52cc cd3d
000003a0: 481d bf3c bc57 f63d 78cb 9fbd e2f3 2ebd
000003b0: 4031 9e3b c21d ecbd 8f6e 96bc 6e79 3abe
000003c0: 4717 b2bd 24e9 933d 5a02 433d 06cb dfbd
000003d0: 2b1e 6f3c fdf7 47bc 1707 d13c be88 483d
000003e0: 080b 68bc a01e dc3d ecbb bfbd 40ae 83be
000003f0: 2c9e 89bd e6a6 e23d c812 4a3d 48ae 153d
-0.029928867 -0.5221685 -0.043332305 -0.09835537 0.36244226 0.080692604 -0.07786389 -0.104253046
0.013777867 0.046684206 0.05032899 -0.013241798 -0.05980215 -0.11329325 0.0061967773 0.06980011
0.040121388 -0.2980844 -0.10434883 0.09369797 0.081631154 -0.081517845 -0.06472533 -0.0051004454
0.35931525 0.07611267 -0.10127438 0.048714362 0.15445173 -0.0030465964 -0.021934375 -0.079076245
0.078461066 0.08253377 0.17945427 -0.03160943 -0.04249041 -0.16378866 0.08600767 0.04512277
-0.102909595 0.11345385 -0.090548694 0.060586043 -0.09703828 -0.005944997 0.13842246 -0.5219583
-0.11280869 -0.11377438 -0.012641945 -0.3086818 0.06454377 0.13454597 0.15662378 -0.0031336925
-0.058651146 -0.072400644 0.13521622 -0.19746609 -0.023908779 -0.035288304 -0.00091576576 -0.08009222
0.058786854 -0.07657698 0.03905063 -0.03690107 -0.0036170231 -0.033094093 0.12030971 -0.062447537
0.087947115 -0.08423212 -0.024214437 -0.08356635 -0.09529994 -0.017943097 0.07029757 0.11832784
-0.07986453 -0.16155243 -0.011283951 -0.036202982 -0.18143761 0.109189436 0.06494697 -0.13688254
0.052414477 -0.098142035 0.10482911 0.014406821 -0.20000802 -0.037481427 0.058190495 -0.0058495104
-0.10435489 -0.008886135 -0.16530395 -0.104812175 0.07177956 -0.097165704 -0.07891291 -0.06848352
0.035361983 -0.053799853 -0.08943753 0.024269717 -0.09646833 -0.07186361 -0.048359215 -0.07921642
-0.037030097 0.034504294 -0.05003765 0.047072534 0.029289566 0.07751194 0.027336149 -0.03242527
0.016111314 0.019196182 -0.10008623 -0.2307769 -0.007297963 -0.121231005 0.12345156 0.036685277
-0.10640313 -0.06531496 0.044551156 -0.046716824 -0.06513128 0.04861307 0.088950425 -0.07410587
-0.07424924 -0.061931297 -0.12928501 -0.08070217 -0.064404994 -0.06497401 -0.013955191 -0.045113653
-0.21642143 -0.005047725 -0.03504186 0.016226172 -0.11362381 0.069568366 -0.0670863 0.051432196
-0.1863846 0.06465816 0.046575937 -0.050754722 -0.22474574 -0.0926968 -0.103468105 0.08149886
-0.059504613 0.086225465 -0.08585978 0.03568919 0.109964035 -0.15132292 -0.021614477 0.02441723
0.1492802 0.108753935 -0.02129586 -0.15512319 -0.03712859 0.100161076 0.034892824 -0.043117326
-0.0251665 0.0099720005 -0.016034052 0.13111043 0.06329274 0.016799118 -0.11901567 -0.024206348
-0.0871175 0.10917811 0.02010994 -0.012150906 -0.08488637 -0.10092637 -0.0305257 -0.086526975
0.092810474 -0.19422388 -0.012540771 0.0034676504 -0.053386245 -0.016940847 0.03177367 -0.1304732
0.06947833 0.06758338 -0.078044124 -0.04636699 -0.08056053 0.012361907 -0.04359292 0.12055507
-0.08337672 -0.062461976 -0.005351166 -0.015807912 0.14266083 -0.0031022578 -0.028886694 0.15396766
-0.08170534 -0.09736204 0.035831857 -0.059039183 0.023842782 0.00838916 0.017723441 0.046168208
0.08036414 -0.038305767 -0.05826949 0.026370823 -0.0037842856 -0.036844015 0.011483457 0.10048737
0.023329392 0.12028453 -0.078024805 -0.042713054 0.0048276484 -0.11529113 -0.018363265 -0.18210384
-0.08695846 0.072222024 0.047609664 -0.109273955 0.014594595 -0.012205121 0.025516076 0.048958533
-0.014162786 0.10748029 -0.09362015 -0.2571888 -0.06719622 0.110669896 0.049334317 0.03654316

user_tower.feedforward.2.bias f4 [32]
00000000: 9c92 47bf 11b6 693c 2698 6dbd 086a 2ebe
00000010: 0a67 0bbe 4b46 483e debb 3cbd 27dd fcbc
00000020: 7dab 703d d552 afbc 3835 81bd c530 fdbc
00000030: 2ea9 8ebd 93a3 9b3e b8f3 04bd 5555 74bd
00000040: a028 4ebe 736c 453d eee0 383e 1796 e13d
00000050: 72dd 423c d03d 0f3f bef8 093c 4988 81bd
00000060: 69a0 633c 96cb 6e3d 079f 31be da38 483d
00000070: ed3f ffbd 1cf9 56bd 26a1 61bc ee71 80be
-0.77958083 0.014264599 -0.05800643 -0.17032635 -0.13613525 0.19558065 -0.0460776 -0.030867172
0.058757294 -0.021401802 -0.06308979 -0.030907044 -0.06965862 0.30398235 -0.03245899 -0.05965169
-0.20132685 0.04819913 0.18054554 0.110149555 0.011893617 0.55953693 0.008421121 -0.063248225
0.013893225 0.058299623 -0.1734582 0.048882343 -0.12463365 -0.052483663 -0.013771331 -0.2508692

user_tower.feedforward.4.weight f4 [32, 32]
00000000: c946 9ebc 8dd9 503d aded 9f3d 850b 12be
00000010: 8c68 aa3d edc3 613d 4f6c f13c abf2 86bd
00000020: 1f2a 35bc 686e 1dbd 12e0 5dbd 1824 743e
00000030: aec0 2abe 439a 483d 0dda 2dbe 8861 73bd
00000040: 9ec1 913e 9095 9fbc 872d 07be ec30 4e3e
00000050: 7243 33be 983b 1ebd f511 89bd dce0 963d
00000060: 9358 8cbc edbc 603c 2114 723d a1c3 ab3d
00000070: 2744 e6bd 49cd 5abe 03a5 e03c 3c8e 12be
00000080: 4194 2abe f313 b4bd 903c d6bc 1e52 d63d
00000090: a549 af3d 33ef 9fbd bfb1 c03d 804d a93d
000000a0: b5b7 6abd 4ea5 513d 6b8b e1bd d478 463e
000000b0: 5e7d 83bd d76d 81be de45 bf3d bab2 4abd
000000c0: a588 97bd 9e21 79bd a175 a63d f12e 343e
000000d0: a0cf 073e 0b78 dc3d 255a 093e cd53 66bc
000000e0: c52b 86bd 6ebd 1a3e 513e 7b3d 0aa6 71bb
000000f0: 3070 88be 2b78 0a3c 0907 ee3d 6733 6fbd
00000100: 401b 2a3e 30a3 a03d 9d6e 0b3e 7846 96bd
00000110: b768 cdbc 77f0 a53d 97fb b0bd 8f65 8dbd
00000120: 0b6b 23be 287c 043e db19 0abe b20f 253e
00000130: dc57 c63d e674 06be 3d49 cabd ecca e03d
00000140: bba7 93be d4a0 fa3d bd28 c5be ae51 f6be
00000150: 5e12 ef3d c14a 053e c7ed 3ebe 4261 273e
00000160: d16a fd3d 493c b0bd b928 9fbc 0cb5 133d
00000170: 8909 96bd 2b01 af3e accc 01be d691 973c
00000180: 42ec 72be 05f5 3dbe 1662 a1bd ee77 58bd
00000190: af6b 39be 4b23 a1bd fac6 80bd 2a86 ca3d
000001a0: 3105 02be 61be 26be 1a3c 4abd a673 2d3d
000001b0: fe45 853d 7906 49bc 3766 3f3d 122d ac3d
000001c0: 69d7 c33e 86b5 46be 7880 e8bd 95b9 913e
000001d0: f042 51bd 2816 a7bc 1170 bc3c 8b43 7e3c
000001e0: e205 1e3e 2fe8 9a3d c764 c4bd 5280 8fbd
000001f0: 7fa2 bb3c c102 35be 1fd0 debc b2a0 ab3d
00000200: b87e 0d3f 7e2c ee3d 004c ff3c 5bad 54be
00000210: 1591 a3bd 4d4e 07bf e438 883d dcde 74be
00000220: d29c 183e 8a1b 02be fa71 b2bd 59d3 513f
00000230: 77e2 ee3d fa4a 2bbe d5cb 65bc 0c23 073e
00000240: e72d 033f fa9c 85bd d58c bcbe de8a 603f
00000250: b95c 9a3c bf68 5cbe 4751 d7bd 4495 5d3d
00000260: 59be 563b 913a ffbb 12a3 37bf f4c4 003d
00000270: 53b0 2e3e 400b 4bbe 63ca 83be 5c8d 45be
00000280: 6951 c5bd 8ed0 f2bd e813 06bc 8387 bcbd
00000290: ac44 6ebd 3d09 da3d 3707 fdbc a8b0 68bd
000002a0: a86e 253e 50a7 80bd 0eca a93d c51b a73e
000002b0: 2f3f 3c3e 5f5d 4ebe 3a72 e7bd 40b8 fdbd
000002c0: b26f c4be 8f72 a03e e614 2d3e ecce 5fbf
000002d0: c38f e13d 7a58 443e dfeb 7d3c aff8 2ebd
000002e0: 3f95 0f3e 76e6 4bbd 5776 09be ed00 7a3b
000002f0: c6e2 a8bd a5d8 8ebd 237f 873d ae92 67be
00000300: 0a90 c4be 19c1 9dbc eda9 01bd de9e 243d
00000310: 387d 08bd 5293 173d ac33 76bd 198a 72bd
00000320: df58 a8bd 33c8 27bc 43b5 f3bc 286f 2c3e
00000330: cec2 aabc c44c f9bd e88f c1bd 2a8a aabd
00000340: 4f51 f53c d12a 5a3e ebf0 8f3e dc0e 76bf
00000350: 3075 fb3d e57f 3f3e 6d4f febd 5294 223e
00000360: 220e 23be 67ce 063d a13f cbbd 6d7a 0dbe
00000370: b2ec 3f3d 2141 ec3d f7f2 e73d e97f 9fbe
00000380: 89dc d43e 586e 953c 4e07 ca3d d183 47be
00000390: 31d2 813c cffb 893e af3b d73c 39e0 c9bd
000003a0: cade 253e a727 bbbd d235 c2bd 211c 933d
000003b0: e83d e13d 80a1 53be 79e1 6e3c 925c 1cbe
000003c0: e176 2fbd be32 92bd 0cb0 31bf b268 893e
000003d0: ee26 dbbc 6c90 c63a faaf a2bd 7fb0 d13d
000003e0: a9f1 023d 9d48 f93d 72aa 23be 2557 ebbc
000003f0: 65a9 e23c 2a3c 3f3e 8567 44be 9967 753e
-0.019320862 0.050988723 0.07809005 -0.14262207 0.08320722 0.05511849 0.02947059 -0.06589254
-0.011057406 -0.03843537 -0.05416877 0.23841894 -0.16675064 0.04897524 -0.16977711 -0.059419185
0.2846803 -0.019480497 -0.13200961 0.2013585 -0.17506197 -0.03863105 -0.06692878 0.07367107
-0.01713208 0.013716918 0.059101228 0.08386923 -0.11243468 -0.21367373 0.027422434 -0.1431207
-0.16658117 -0.087928675 -0.026151925 0.10464881 0.085589685 -0.078092955 0.094089024 0.08266735
-0.057304103 0.051183037 -0.1101292 0.1938203 -0.06420396 -0.25279114 0.09339498 -0.049486853
-0.0739911 -0.060823075 0.08127905 0.17596032 0.13262796 0.10765084 0.13413294 -0.014058066
-0.06551317 0.15111324 0.061338726 -0.0036872649 -0.26648092 0.008451502 0.116224356 -0.05839863
0.16611958 0.078436255 0.13616414 -0.073376596 -0.025074346 0.08102506 -0.08641737 -0.069041364
-0.15958802 0.12937987 -0.13486426 0.16119269 0.096847266 -0.1313053 -0.0987725 0.10976204
-0.28838906 0.12237707 -0.38507643 -0.48109192 0.11673425 0.13016798 -0.18645392 0.16345695
0.12373889 -0.086052485 -0.019428598 0.03606133 -0.073260374 0.3418058 -0.12675732 0.018502157
-0.23722938 -0.18550499 -0.078800365 -0.05284875 -0.18107484 -0.0786806 -0.06287952 0.09888871
-0.12697293 -0.16283561 -0.049373724 0.04234662 0.065074906 -0.01226961 0.04672834 0.08407034
0.38250282 -0.19405183 -0.113526285 0.284619 -0.051089227 -0.020396307 0.023002656 0.015519033
0.15431932 0.07563817 -0.09589534 -0.07006897 0.022904633 -0.17676832 -0.02719885 0.083802596
0.5527148 0.1162958 0.03116417 -0.20769255 -0.079866566 -0.5285385 0.06651476 -0.23913139
0.14903572 -0.12705818 -0.087131456 0.81963116 0.116642885 -0.1672782 -0.014025648 0.13196963
0.51241916 -0.065240815 -0.36826196 0.87711895 0.018843042 -0.21524332 -0.10513549 0.05409743
0.0032767265 -0.007788964 -0.717332 0.03143783 0.1705945 -0.1982851 -0.25740346 -0.19292206
-0.096346684 -0.11856185 -0.008183457 -0.09205534 -0.05817096 0.10646293 -0.03088723 -0.056809098
0.16155493 -0.06281912 0.08290492 0.32638374 0.18383478 -0.20152806 -0.11301084 -0.123886585
-0.38366467 0.313374 0.16902503 -0.8742511 0.110137485 0.19174376 0.015498131 -0.042717632
0.14021777 -0.04978033 -0.1342405 0.0038147524 -0.082463786 -0.069749154 0.06616046 -0.22614548
-0.38391143 -0.019257115 -0.031656194 0.04019057 -0.033322543 0.03700573 -0.060107872 -0.05921373
-0.08220076 -0.010240602 -0.029749518 0.16839278 -0.020844843 -0.12172845 -0.09451276 -0.08327134
0.029945998 0.21305396 0.28113493 -0.96116424 0.12278211 0.18701132 -0.12417493 0.15876892
-0.1592336 0.032911684 -0.099242456 -0.13816233 0.04685659 0.1153586 0.11325639 -0.31152275
0.41574505 0.018241093 0.098646745 -0.19483878 0.015847297 0.26949927 0.026273577 -0.0985722
0.16198269 -0.091384225 -0.09482922 0.071830995 0.10998136 -0.20667076 0.014580124 -0.15269688
-0.04283798 -0.071385846 -0.6940925 0.2683769 -0.026751962 0.0015149242 -0.07943721 0.10238742
0.031968746 0.12172053 -0.15982988 -0.028728077 0.027668664 0.18675295 -0.19180115 0.239653

user_tower.feedforward.4.bias f4 [32]
00000000: 7224 f7be 4eaf a73e 854e f4be f28d 9e3e
00000010: 7361 28bf a4a6 52be edfc 7c3d 8849 7fbe
00000020: 668f 063f 9323 243f 55e4 db3e d144 e7be
00000030: bd07 1bbe d696 a2be 069a b4be 9090 0d3f
00000040: a003 84bd 8df7 16bf 72cf 173f ffaf be3e
00000050: 79ee d03e dc88 26bd 902f b03d 6f2f 80be
00000060: 31df 403e 71bb 323e a9f8 2c3d 29db b73e
00000070: 212b 08bf 1a92 d83d ec63 c13e cf42 ca3e
-0.48269993 0.32750934 -0.47716156 0.3096767 -0.65773696 -0.20571381 0.061764646 -0.24930394
0.5256256 0.6411678 0.4294764 -0.4516969 -0.1513967 -0.31755704 -0.3527376 0.5529871
-0.06446004 -0.5897148 0.5930091 0.3724365 0.4080694 -0.040657863 0.08602822 -0.2503619
0.18835141 0.17454316 0.04222933 0.35909393 -0.5319081 0.10574742 0.37771547 0.39504096

item_tower.feedforward.0.weight f4 [64, 160]
00000000: ca21 953c f962 94bd b381 d1be 78b5 1b3f
00000010: 21cf 303e ddaa 7b3e 79df 463f c170 743c
00000020: ee31 97be 575e 67be 83c5 77be e9c8 233d
00000030: 3cde 593e 32e6 883e 665e 23be 75d9 74be
00000040: 91aa d63e ec3f 93be 3496 1f3e 7890 133e
00000050: df2a 9a3c 1536 6cbe b631 a43e e2fa 643c
00000060: f85c 0fbe ca36 e73d 96c5 543e 2374 0f3d
00000070: e8a1 92bd 7f31 643e 3d94 393d b45f 593a
00000080: 33f2 fcbc 674c 3e3e fb01 a8bd 4887 3d3e
00000090: a053 77be fa18 8fbe 5c23 cdbe 0f4e 5fbe
000000a0: 5f42 fabe ff3e 37bc 5714 d73c bfbb e4bd
000000b0: 4e0e 7d3e 6bdf f5bd 193b 40be bf9f 10bc
000000c0: f9b7 a6bd cef4 05bd 8d7b bc3d bf1b 0fbe
000000d0: d624 b43b ea6e 7a3e 6653 b8be 0a1e 2d3e
000000e0: 4872 29be ba98 733b e08e a23d 2943 42be
000000f0: 9a81 0a3e 08c7 183d 95b7 323e cd1f 88be
00000100: 0f10 8cbd d096 6f3d 3f72 6c3e 6b5d 6dbe
00000110: 4ea6 ee3d d015 c9bd 1c66 103c d5cc e03d
00000120: af87 df3d b06a 96be c5dc aabd ceff 39be
00000130: 2d92 9a3e 7036 21be afa8 d9be cc99 a43d
00000140: 3257 a93d 0ca8 2fbd abc8 9bbe a780 8cbe
00000150: 5a54 323e 099c 76be 54ea 303f 955b 133e
00000160: 53f7 8a3d 5e5e 903e 1ddc 203c 204b 213e
00000170: 7b06 90be 4117 433e 9caa 5cbe 689e cabe
00000180: f94d 79be c615 d73e 6377 c4be 4e70 003e
00000190: cf8e e9be b0d8 e63d ad69 553e 04f2 0c3e
000001a0: ef73 863d 30d3 17bc fbf6 cd3e d9ef b53e
000001b0: 5d7c ce3d 03a3 46be 39fc 2abd c9cf bf3d
000001c0: 1957 4b3d 8b36 863d fae4 833e 716d 973e
000001d0: 2562 053d 80f0 bbbd 5d6b 2d3e b38a d6be
000001e0: 3a98 233f 8298 b93d 7594 d2bb ad17 c13d
000001f0: 57e4 2e3e 59c0 0dbe e322 8bbe fe39 2d3d
00000200: b3cf 863d 5fa1 4fbe ff8d 47bd 6c44 e43c
00000210: bbab 4f3d ff1d e6bd 9908 38bc afba 48bd
00000220: 08ef b9bd b3c6 15be 617f 303e 1df2 db3c
00000230: 9925 ee3d ec3a 58be 70ad 0a3e 6d07 03be
00000240: 3a73 92bc ca76 ab3d b317 d5bd eb5b bfbb
00000250: e9ab b8bc 4d3d 2cbc 79bf a43d f68a a33d
00000260: dbeb d43d 1b46 29bd b7e9 18be aee1 483b
00000270: 53f9 1dbd 6df8 493e e0bb 33be dd60 97bd
00000280: 1bfe dabd 1de0 cd3c c805 a0bd e3fe d4be
00000290: 7baf 0d3e c141 7c3d 1b42 19be 317a d3bd
000002a0: 95f9 a4be a753 00be e3b7 67be b5ba 903e
000002b0: 7149 d5be 429e ae3e 3608 15be b16a cf3e
000002c0: 3bf8 ec3e 916a 9a3d fa9e 4a3d e35f 24bd
000002d0: 1991 0b3f 836e 1ebd 0530 fc3c 17a5 3ebc
000002e0: d4ad 17be fc70 0a3e cae8 4cbe 6ffa 48be
000002f0: 6f18 8bbd 48f8 843e 66c6 b2bd d18b 803e
00000300: c3fc b63e 7f53 d1bd 3f0b b43e 2d65 c03b
00000310: d768 693e 4fbe 01be 9648 c53e 3509 953e
00000320: d523 4cbe c3f1 1c3d c891 80be 49e9 413e
00000330: ab47 103e bd6b 4e3e 7742 21be 5b8e 0dbe
00000340: f6ab 50be 6d1a e4be 814c 493e ed26 dabd
00000350: 91e8 5fbd abdd 7c3e a7c4 b13e e63c 39be
00000360: 2782 68bc b38a aebe 592a 143e 4ee6 083e
00000370: 3afa 26be d87a 033f 88ef 8e3e 1eff 833e
00000380: c74b 923e 5e3c 483e e0db 893e 9585 2bbe
00000390: c9a9 333e 588a 12be 17ed 38be 99a1 e1be
000003a0: 76b8 19bf 6d5f 6dbe 8410 cfbe 6d13 c3bc
000003b0: 5135 143e 239e 0c3f 01b5 edba 875c dabe
000003c0: 2de1 91be 1b3f b13e 8e47 52be c8ae 6f3e
000003d0: e0fd 4dbe 5653 8dbe 69cf 433e e6e9 ea3d
000003e0: a3b1 e33e de0d 003f af88 97bd 0d59 b13d
000003f0: e626 a13d b576 853e bd23 d43e 572f 583e
0.018204588 -0.0724544 -0.40919265 0.60823774 0.17266513 0.24576898 0.7768474 0.014919461
-0.2953028 -0.22594582 -0.24196438 0.039986525 0.21276182 0.26738125 -0.15953979 -0.23911078
0.41927007 -0.28759706 0.15584642 0.14410579 0.01881927 -0.23067506 0.32069176 0.013975831
-0.14000309 0.11289747 0.20778498 0.035022866 -0.071597874 0.22284506 0.045307387 0.0008292154
-0.030877208 0.18583833 -0.08203503 0.18508637 -0.24152994 -0.27948743 -0.4006604 -0.2180712
-0.48878762 -0.011184453 0.026254816 -0.11168622 0.24712488 -0.12005504 -0.18772544 -0.008827149
-0.08140559 -0.032704167 0.09203253 -0.13975428 0.0054975552 0.24456373 -0.36001128 0.1690599
-0.16547501 0.003716989 0.079374075 -0.18970932 0.13526002 0.037299186 0.17452843 -0.26586762
-0.068390004 0.058493435 0.23090456 -0.23180167 0.11652814 -0.098186135 0.008813407 0.109765686
0.109145515 -0.2937827 -0.0834289 -0.18163988 0.30189648 -0.15743423 -0.42511508 0.08037147
0.08268584 -0.04288487 -0.30426535 -0.27441904 0.1741499 -0.2408296 0.69107556 0.14390405
0.067854546 0.28196996 0.009818104 0.15751314 -0.28129944 0.1905184 -0.21549457 -0.3957398
-0.2434615 0.420088 -0.38372335 0.12542841 -0.45616767 0.112717986 0.20841093 0.13764197
0.06565081 -0.00926666 0.40227494 0.35534552 0.10082314 -0.19398122 -0.041744445 0.09365804
0.04964361 0.06553372 0.25760633 0.29575685 0.0325643 -0.09176731 0.16935487 -0.41902694
0.63904154 0.09062292 -0.006426389 0.09428344 0.17079292 -0.13842906 -0.27175054 0.042291634
0.06582584 -0.20276402 -0.048719402 0.027864657 0.050700884 -0.1123619 -0.011232519 -0.04900616
-0.09078795 -0.14626579 0.17236091 0.026848847 0.11628265 -0.21116227 0.13542724 -0.12795801
-0.01787721 0.083722666 -0.10404911 -0.005839815 -0.02254291 -0.010512662 0.08044333 0.07985489
0.10396548 -0.041326623 -0.14932905 0.0030652094 -0.038567852 0.19723673 -0.17552137 -0.07391522
-0.10692998 0.02513128 -0.07813603 -0.41600713 0.13836472 0.061586145 -0.14966623 -0.103260405
-0.32221666 -0.12531911 -0.22628741 0.28267446 -0.41657594 0.34105116 -0.14553913 0.40511087
0.46283135 0.07539857 0.049468018 -0.040130507 0.54518276 -0.03867961 0.030784616 -0.01163604
-0.14812404 0.13519663 -0.20010677 -0.19626783 -0.0679177 0.25970674 -0.08729248 0.2510667
0.35739717 -0.10221004 0.3516483 0.005871436 0.227939 -0.12670253 0.3853194 0.29108587
-0.19935544 0.0383165 -0.25111222 0.18936647 0.14089839 0.20158286 -0.1574801 -0.13823836
-0.20378098 -0.4455141 0.1965809 -0.10651956 -0.054665152 0.24693935 0.34720346 -0.18089637
-0.014191187 -0.34090194 0.1446928 0.13369104 -0.16306391 0.5135932 0.27917123 0.25780576
0.2857344 0.19554278 0.26925564 -0.16750176 0.17545237 -0.14310586 -0.18059193 -0.44068602
-0.6004709 -0.23180933 -0.40442288 -0.023812974 0.14473464 0.549288 -0.0018135608 -0.42648718
-0.28492108 0.34618458 -0.20535108 0.23406518 -0.20116377 -0.27602643 0.1912209 0.11470394
0.44471464 0.5002116 -0.07399117 0.08659563 0.078687474 0.2606713 0.41433516 0.21111809

item_tower.feedforward.0.bias f4 [64]
00000000: 2c5f 55bd 084f fdbd 0e1d 50bd f896 cdbb
00000010: 17a0 23be b56d 26be 6708 68bd 72b7 54bd
00000020: cd06 ba3b 338d 1fbd bde6 1cbd 0d88 cebd
00000030: 4fcf 8dbd 4c41 98bd e0c6 1bbc 01b6 30bd
00000040: a17a a0bd 7f40 24be 6705 953c 9fee 4bbd
00000050: 2f76 2dbd 81c7 5abe 1a16 41bd d52a 0dbe
00000060: 7903 f6bc be43 14be 5a3c dbbc ca55 6abd
00000070: cbd3 25bc b91a 0ebd 7630 17be e3ac c3bd
00000080: 1569 18be 45ff 233d e60f 38bc 1b3e a7bb
00000090: 7b6f 7d3c b783 be3c 1858 433d 9758 21bd
000000a0: 4c96 f6bd 4768 ecbd 0d25 233c f301 10bd
000000b0: e4e3 643d 5167 1dbe a76c d3bd c146 32be
000000c0: 1afd a3bc db35 33bd 9790 ccbd 0bb4 bbbd
000000d0: 8b82 37be e1ef debd 34fe 343d dc81 fbbd
000000e0: 7993 8ebd 897f a8bd b84e 19be 3484 35bd
000000f0: 1606 89bd 7366 06bd aa38 89bd 5df8 29be
-0.052092716 -0.1236859 -0.05080896 -0.0062741004 -0.15979038 -0.16252787 -0.056648638 -0.05193276
0.0056770802 -0.038953017 -0.038305987 -0.100845434 -0.069243066 -0.074343294 -0.009507865 -0.043142322
-0.078358896 -0.16040228 0.018191053 -0.049788114 -0.042349037 -0.21365167 -0.04714022 -0.1378587
-0.030030953 -0.14478967 -0.026762176 -0.05721072 -0.010121296 -0.034693453 -0.1476458 -0.0955446
-0.14883836 0.040038366 -0.011234259 -0.005103839 0.015468474 0.023256166 0.047691435 -0.039391126
-0.120403856 -0.11543327 0.009957564 -0.03515811 0.055881396 -0.15371443 -0.10323458 -0.17409803
-0.02001815 -0.043752532 -0.09988516 -0.091652 -0.17920892 -0.10885597 0.04418774 -0.12280628
-0.06961722 -0.082274504 -0.14971435 -0.04431553 -0.06690614 -0.032812547 -0.06700261 -0.1659865

item_tower.feedforward.2.weight f4 [32, 64]
00000000: 6efd a9be 1614 04bd e318 393d 3812 39bd
00000010: 8951 a83e c81b d6bd b7c4 943d 7a3f a2bd
00000020: b347 21bf 997d 8bbe 8207 a03d f921 59be
00000030: d160 9abd d300 33bc f438 4c3e c46f 85bd
00000040: a576 cc3e e32b f7bd e718 20bb 95ea 6b3d
00000050: e010 873e db3f 55bd 7bca 28bd 0bc9 a43c
00000060: d550 54be 6cd4 183d 2049 89be 3565 dd3d
00000070: 3c9a a2be 98fd be3d 3d66 dcbc adeb a33d
00000080: 08ad 1b3e b30e 0c3e 2441 c1bb 9924 c63b
00000090: 188b d93d 8855 7dbe 4f7a 1bbc cc05 233d
000000a0: ad0b 1bbd c7b7 143e e0b3 c63e 2ab2 aebe
000000b0: 842d 7cbc 1197 a33d 2f9b 24bc 348f acbd
000000c0: d404 8a3e e447 b03e 2eeb 963e b262 9ebd
000000d0: ee71 063e f98d a33b 50f3 3d3e b160 873e
000000e0: 9370 82bd 6f3f 1b3d d964 333d 007c d53d
000000f0: 725a b53b a8c9 c63d 139d 98bd a6b9 7cbc
00000100: b475 343e 1d06 1fbd b0d8 a73d eb6a febb
00000110: 9145 52bf fe51 48bd b0a8 863e ae99 94bd
00000120: 7730 24bd 56e2 13be 47b6 c4be 4857 ab3c
00000130: 29db fa3d 090e 0a3d fb0e 2f3e b0c9 3a3e
00000140: 9571 5abe d169 e4bd ecc3 b4bd ae3d 903d
00000150: 9b98 12be 99e6 b2be edb9 97bd d58c a7bd
00000160: f9f8 523e 8238 18be 9c98 9b3e 851d 55bf
00000170: 23e4 51be f0a7 343e 1ac9 873d 0d3c 8a3c
00000180: 3570 8d3d f6c8 0ebf 5afd 7f3e 4997 b83d
00000190: 8558 64be b95e 433e 79f9 a83e 0db9 06be
000001a0: ae71 0abf dc74 d3be 2ed3 dcbe 89c7 a93e
000001b0: 35bd f9bd d4fd 1b3e 3e59 45bc 32c6 ffbd
000001c0: afca 063e 3c86 a3be 69f4 603d 4779 d8bb
000001d0: 86e5 37be 6498 db3d 7e8b aa3d 28bc 0abd
000001e0: 37a8 17bd 2d6c 0dbd 290c 9f3c 2f46 1e3f
000001f0: 2cfb 47be 12d7 db3d 97ec 36bd 98c9 75be
00000200: f368 a1be 99ef b23e e9c6 b5bc 901b 70bd
00000210: 25d8 dcbd d30a b5be 88a4 073e 53aa ad3e
00000220: b85b d53e 2211 b03e 44ca 09be 113d 13bf
00000230: 70fe 22bd 4f5a 893d bb05 8dbe 2324 823d
00000240: 1bc5 2a3c 6eaf 4d3c 2ab7 d53e 6233 0b3d
00000250: 7eda 963e dc28 b43d b1fa 88bd 550f 11bd
00000260: 8816 d63d b5b6 34be 5da5 4fbe 6236 8e3e
00000270: 2841 80bd 8c18 1b3e 6375 a5bd ad75 e8bd
00000280: e2a6 0dbe c728 cc3d da38 50bd 27bd f13d
00000290: cc12 d0be a6ad 6fbd e262 773e 2e02 463d
000002a0: 8c00 34bf 3da5 ae3e 993c 383e 1668 933e
000002b0: f359 a73b b49d b03d 5b3d 24be 99df 05bf
000002c0: a9c6 ffbd 75c4 103e 1f4a bd3c 80ef 973d
000002d0: bbe9 10bd e96a b7bd 354d 263d e4f8 db3d
000002e0: e657 993e 0b14 a6bd 55d0 79bc fd85 cbbe
000002f0: 9caf e13e 8ceb 78bd 863c 27bd 24a5 b13e
00000300: 9b45 293d 3442 c8ba d456 59bd e8c1 d8bc
00000310: cba1 953d 04b9 86bc 98a0 babd 12f2 913c
00000320: a0f1 80bc 2841 f1bd 3043 89bd 902c 863d
00000330: 1c3a 2cbd 844e 88bd a807 01be cb9e 683d
00000340: dea2 93bd 3ca2 293d 046e 21be 7770 a93d
00000350: 0938 ed3a 00f1 3ebc e44a 7cbd e0a3 bebc
00000360: 2e3b f0bd 0e79 f33d 883d 583d 3d65 4f3d
00000370: a8ed a2bc 5991 afbd 308e 15bd 6008 903b
00000380: 0089 333b 9bfc a5bd 428e d8bd 4577 9cbd
00000390: c334 f8bd c153 46bd 9919 dcbc 0000 2937
000003a0: 0abb a43d 9243 223c 5ef8 44bd cc90 dfbd
000003b0: 7e06 d93c c031 8fbb 0910 2e3c b48f 8ebd
000003c0: bb7d e2bd 98ca 5cbc 58a3 3abd 380a 183d
000003d0: bc46 86bd d06e acbd 83b7 903d 80d7 f6bb
000003e0: 4cce 0ebe d875 5fbd 865d b8bd 0f8d 5fbc
000003f0: 04ac 29bc 2e4a d33d 4cde 42bd 1402 483d
-0.33201164 -0.032245718 0.04518975 -0.04518339 0.32874706 -0.104545176 0.07264083 -0.079222634
-0.6300003 -0.2724426 0.07813932 -0.21204366 -0.075379975 -0.0109254895 0.19943601 -0.06515458
0.3993427 -0.120689176 -0.0024428905 0.05759676 0.26380062 -0.05206285 -0.041208725 0.020115396
-0.2073396 0.037311956 -0.26813602 0.10810319 -0.31758296 0.09325713 -0.02690422 0.08003936
0.15202725 0.13677482 -0.005897658 0.0060468432 0.10622233 -0.24739659 -0.00948961 0.03980045
-0.03785293 0.1452323 0.3880911 -0.34120303 -0.015391711 0.07987798 -0.010046764 -0.08425751
0.2695681 0.34429848 0.29476303 -0.077336684 0.13129398 0.0049912897 0.18549848 0.26440957
-0.06369128 0.037902292 0.043797348 0.10424042 0.0055344636 0.097064316 -0.074518345 -0.015425121
0.17623025 -0.03882419 0.08195627 -0.0077642105 -0.821374 -0.04890632 0.26300573 -0.072558746
-0.040085282 -0.14441809 -0.38420317 0.020915642 0.12248833 0.03370479 0.17095558 0.18241
-0.2133239 -0.111529954 -0.08826432 0.070430145 -0.14316027 -0.34941557 -0.074085094 -0.081811585
0.20602788 -0.14865306 0.3038987 -0.8324817 -0.20497184 0.17642188 0.06630154 0.016874338
0.069061674 -0.5577539 0.2499899 0.0901323 -0.22299393 0.19079103 0.33002833 -0.13156529
-0.5407971 -0.41300094 -0.43129867 0.33160046 -0.121942915 0.15233546 -0.012045203 -0.12488975
0.13163255 -0.3193835 0.054920588 -0.0066062543 -0.1795865 0.107224256 0.08327387 -0.033870846
-0.037025657 -0.034526993 0.019414978 0.6182584 -0.19529408 0.10734381 -0.044659223 -0.24002683
-0.31525382 0.34948424 -0.022189574 -0.058620036 -0.10783414 -0.3535982 0.13246357 0.3391901
0.41671538 0.3438807 -0.13456064 -0.57515055 -0.03979343 0.06706678 -0.27543435 0.06354549
0.01042297 0.012554033 0.41741306 0.03398455 0.2946357 0.08796856 -0.066884406 -0.035415012
0.10453516 -0.17647822 -0.20277925 0.27775866 -0.062624276 0.15146083 -0.0807903 -0.1135057
-0.13833192 0.09968715 -0.050835468 0.11803656 -0.4063934 -0.058515213 0.24158815 0.048341922
-0.70313334 0.34110442 0.17991866 0.2879035 0.0051071583 0.086238295 -0.1603903 -0.5229431
-0.12489063 0.14137442 0.023106633 0.07418728 -0.035379153 -0.08955938 0.040600974 0.107408315
0.29949874 -0.08109292 -0.015247424 -0.39750662 0.44079292 -0.06077151 -0.040829204 0.34696305
0.041326147 -0.0015278519 -0.05306132 -0.02645965 0.0730625 -0.016445644 -0.09112662 0.017815623
-0.015740216 -0.11780006 -0.06702268 0.06551468 -0.042047605 -0.06655601 -0.12600577 0.05679206
-0.07208799 0.041414484 -0.15764624 0.08273404 0.0018098365 -0.011654139 -0.06159486 -0.023271501
-0.11730038 0.11888324 0.052793056 0.050633658 -0.019888714 -0.08572645 -0.036512554 0.0043955296
0.002739489 -0.08104821 -0.105740085 -0.07639936 -0.121194385 -0.048419718 -0.026867675 1.0073185e-05
0.08043487 0.009903805 -0.048088424 -0.1091629 0.026492354 -0.0043699443 0.01062394 -0.06961003
-0.110591374 -0.0134760365 -0.045565933 0.03711912 -0.0655646 -0.08419573 0.07066252 -0.007533014
-0.13945884 -0.054555744 -0.09002213 -0.013644471 -0.010355953 0.10316883 -0.04757528 0.048830107

item_tower.feedforward.2.bias f4 [32]
00000000: 8c60 2abe a1a7 fb3d 32b4 0a3e 81e7 1dbe
00000010: 4eb3 32be a508 21be 4020 a23d 9b2f 3ebe
00000020: acf2 74be ba34 7cbe 64c4 d6bd 6354 9dbb
00000030: e392 173e 048c 23be 5d25 0abe 9f9c 1a3e
00000040: 3a17 5dbe f90c c7bd 941b 8abe 1d10 a4bd
00000050: dfdc 2cbe b322 81be a369 82be b933 b7bd
00000060: ddfd 54be f1ef ba3d 4535 a9bd 5e82 85bd
00000070: bbe8 a63b 3d0b 2bbd 83f0 053e cbcd 87be
-0.16638392 0.12287832 0.13545302 -0.15420343 -0.17451212 -0.15725954 0.079163074 -0.18572848
-0.23920697 -0.24629489 -0.10486677 -0.0048013194 0.14802127 -0.1597138 -0.13490815 0.15098809
-0.21590891 -0.09719271 -0.26974165 -0.08010886 -0.1688113 -0.25221786 -0.2547122 -0.08945412
-0.20799966 0.091277964 -0.082621135 -0.06519006 0.0050936616 -0.041758765 0.13080029 -0.26524195

item_tower.feedforward.4.weight f4 [32, 32]
00000000: d254 b83e f5a7 653e cb97 c0bd 109e 9c3d
00000010: aa27 713e be3e ca3c c66e a83d cad3 31be
00000020: 05f9 1abe 5613 99bd 61f7 03be ce0e 063f
00000030: 3c35 62be 00d1 d43c 43eb b2bd a2ce 33bc
00000040: 0bcd 55be 9045 1fbe 3bfb 8ebe d39c 3b3e
00000050: 006b 12be 099d 22be cc87 803d 82e6 7fbc
00000060: b278 98bb d2a5 c9bd 8cf2 2a3d add7 eebb
00000070: 2e00 003e f789 3b3d 66e9 38be e16e 8a3e
00000080: 74bb 5d3e 996d 4b3d 9630 15be 109a 1a3e
00000090: 206b 3d3e e581 6b3d a769 43be 1696 053e
000000a0: 6904 f73e 882b a4be e3af 08be a0b2 193e
000000b0: 33e9 a03e 315b babe 2575 f2bd 4236 933c
000000c0: aa2f ab3d 54bc 2c3c 9899 55be 817f a3bd
000000d0: e435 b53d f230 9bbd 6109 e93e 6982 b8be
000000e0: eb1a a03d 9e28 983e fa2b 97be 7d47 033f
000000f0: 312a 3fbd 2b16 7fbe 351d ee3d f1d5 99be
00000100: c638 943e 5426 e73e 9336 71be d918 8ebb
00000110: d051 e7be b0f0 19bf 0d62 e83d 523a 26be
00000120: c220 41bd 7ce7 1b3e 1c60 9abc c253 9fbe
00000130: f214 ee3d c18a d1be 50e9 04bd 9a79 3cbe
00000140: 8036 f13e dd0e a43e d3d9 933d 8ec2 843e
00000150: c8e3 af3d 5cd8 67be e460 b3bd 8d52 03bf
00000160: 1a9a 9abe 937e fe3c a81f 29be 2964 1d3f
00000170: 4909 29bd eaaf 643e c705 ac3d 4890 b23d
00000180: b9f0 203d f6f8 a93d 453b 8a3d fabd 033d
00000190: 8429 b6bb ee33 423d 8a76 6f3b 9c74 9cbd
000001a0: 304c d33e 98c6 02be e1ec 383e a90e 77be
000001b0: 7c9c 713d 5d9c 373d 100f 2a3d 0106 00bd
000001c0: 0a13 a93e d86f 54bb a55f 41bd cdd4 8fbd
000001d0: 770b 18be 4c5f 343e 4d4e ce3d 715d 57be
000001e0: fb15 853d cc13 04be 07db 493d fa27 5cbf
000001f0: 505b df3d cca8 703e 928a c03e ee65 06bb
00000200: ea8d 75bd 8b67 883d 7f84 99bd a0cf abbd
00000210: 4b97 073d 64bd dabd d542 0ebe 3129 193e
00000220: 6335 f23d b095 9e3d ac07 193e d635 37be
00000230: d7c3 e8bc 4d5f 6ebc af8d e03c 6a28 a7bd
00000240: a221 f13e aecd 2b3e e2e6 b9bc 29a2 903c
00000250: b1f2 a8bd 24a6 403e 6fe8 17be 009d 26be
00000260: 5275 5bbe 243b e5bc e248 453d 8b73 0cbf
00000270: ac57 4ebd 43ef 053f ecd5 373e 4569 743e
00000280: f5be 8cbe 2d79 713e dc4b 90be e6f3 023e
00000290: e186 28bf ef77 573e b357 a8bd 9d48 93bc
000002a0: 3f8e c73d 9320 79bd 4a4a f03d 33a0 3abe
000002b0: 1e2d b73e 119a a33d 80dd da3d 082c 48be
000002c0: 0ecd 753d 2745 2f3d 54b8 aa3c 5b88 b0bc
000002d0: 0e7b 4f3e 97ab dfbe fff5 b43e 44af a3bd
000002e0: 4a57 fbbe c448 a83e 50c8 09be 342c 4f3f
000002f0: 5b14 223e 045e 7f3e 820b d2bd 5d6f 33be
00000300: 0dcb a7be a767 503e b450 0abe 0c9f 26bd
00000310: 025b d6be 1477 ea3e f2fe 8abb d40d dabd
00000320: 9892 443e 9281 d0bd ce31 00be 74fb f1bd
00000330: 5818 c13e 50f4 5b3e b275 2bbe 3bd0 1ebe
00000340: 2c90 96bd ad08 223e 241c 693d d0ab 35bc
00000350: f35a c63d 86f4 8fbe a00a 113f a7d3 b53d
00000360: 8429 04bf 1b1b c43e 536c 51be 5801 de3e
00000370: 0779 8b3e eb12 923e 7c7a 833e bf26 29be
00000380: eb8c 243e 59b8 123f 0661 e7bd 16cf 2b3e
00000390: 8c9b e53e 2d06 70bf ad43 3e3e cb36 4abd
000003a0: f27c 71be 72d0 023e 21fa c1bd 1df8 dabd
000003b0: 933a 90be 3318 16be ed2b ebbc 6ca7 b1bc
000003c0: ed0c 9e3e b4b8 833e 8ccb c6bd 3c72 533d
000003d0: 9011 ed3d 027d e0bd e6a6 b7be 1a2b 19bf
000003e0: c8d8 23be 2159 c93a 72a5 0b3e 110c 573e
000003f0: 7277 b4be eedb 8f3e 1c63 f0be 1ea0 aa3d
0.36002213 0.22427352 -0.09403952 0.076473355 0.23550287 0.024688121 0.08224253 -0.17365947
-0.15134056 -0.07474391 -0.12887336 0.5236634 -0.2209062 0.025978565 -0.08736279 -0.010974558
-0.20878999 -0.1555388 -0.2792605 0.18321542 -0.1429863 -0.15880217 0.06275901 -0.015618922
-0.00465306 -0.09846081 0.041735217 -0.007288894 0.12500069 0.04578587 -0.18057784 0.2703772
0.21653539 0.049665067 -0.14569315 0.15097833 0.18497896 0.057496924 -0.19083272 0.13045534
0.48245552 -0.32064462 -0.13348345 0.15009546 0.31427917 -0.363977 -0.1183875 0.017970208
0.083587006 0.010542948 -0.20859373 -0.07983304 0.088481694 -0.07577695 0.45514968 -0.36036995
0.07817634 0.29718488 -0.2952574 0.5128096 -0.046671096 -0.249108 0.116266645 -0.30046037
0.28949565 0.4514643 -0.23555975 -0.004336458 -0.45179605 -0.60132885 0.11346827 -0.16233185
-0.04715038 0.15225023 -0.018844657 -0.3111859 0.11625089 -0.40926173 -0.032449067 -0.18405762
0.47111893 0.3204259 0.07219281 0.25929683 0.08588368 -0.22641128 -0.08758715 -0.5129784
-0.30195695 0.031066215 -0.16515982 0.6148096 -0.04126862 0.22332731 0.083995394 0.08718926
0.03929207 0.08299439 0.06749586 0.032163598 -0.0055591483 0.047412805 0.003653916 -0.07639429
0.41269064 -0.1277107 0.18059112 -0.24126686 0.058987126 0.044826854 0.04151827 -0.031255726
0.33022338 -0.0032415297 -0.047210354 -0.070230104 -0.14848123 0.17614478 0.100735284 -0.21031739
0.06498333 -0.12898177 0.049281146 -0.859985 0.10906088 0.23501891 0.3760572 -0.0020507532
-0.059949793 0.06660374 -0.07495975 -0.08389211 0.03310327 -0.10680655 -0.13892682 0.1495712
0.11826589 0.077433944 0.14944333 -0.1789163 -0.028413696 -0.014549089 0.02741131 -0.08162005
0.47095972 0.1677768 -0.022693101 0.017655449 -0.08249415 0.18813378 -0.1483476 -0.16270828
-0.21431473 -0.027982302 0.04816521 -0.54863805 -0.05037658 0.5231821 0.17952698 0.23868282
-0.2748944 0.23581381 -0.28182876 0.12788352 -0.6583081 0.21041845 -0.08219852 -0.01797896
0.09743928 -0.06082208 0.117329195 -0.18225174 0.3577661 0.0798837 0.10686779 -0.19548047
0.06001001 0.04279056 0.020839848 -0.021549394 0.20261785 -0.436856 0.3534393 -0.07992414
-0.49090034 0.32868016 -0.1345532 0.80926824 0.15828077 0.24938208 -0.10256101 -0.1752295
-0.32772103 0.2035204 -0.13507348 -0.040679023 -0.41866308 0.45793974 -0.0042418176 -0.10647169
0.19196546 -0.101809636 -0.12518999 -0.11815539 0.37713885 0.21479917 -0.16744116 -0.15509121
-0.07351717 0.15823622 0.056911603 -0.011088327 0.09685316 -0.28116244 0.5665684 0.0887826
-0.5162585 0.3830193 -0.20451479 0.433604 0.27240774 0.28530058 0.25679386 -0.16518687
0.16069381 0.5731254 -0.112978026 0.16778216 0.44845235 -0.93759423 0.18580504 -0.04936866
-0.23582819 0.12774828 -0.094715364 -0.10691855 -0.2816969 -0.14657669 -0.028707469 -0.021686278
0.30869237 0.25726855 -0.09706792 0.051622614 0.115756154 -0.10961343 -0.3586952 -0.5983139
-0.16000664 0.0015361645 0.13637331 0.21000697 -0.3524738 0.2809748 -0.46950614 0.08331321

item_tower.feedforward.4.bias f4 [32]
00000000: e5ec aa3d 2298 67bd a55c 213e a793 bebd
00000010: 1d45 cb3d 47df 943d 6b76 7fbd 021f de3d
00000020: a545 b8bd b85c 97bf bce2 86bc e269 103e
00000030: c5a1 2c3d 4074 0e3f 3e0c 383e 7b1f e2bd
00000040: d12d 5e3d f76e 173f 8ab0 43bf 7db4 173d
00000050: 6907 8ebd 3356 03bd bc87 19bd e354 0c3d
00000060: 1ad4 83bd 7dd5 14be 175b fe3c 6ef5 87bc
00000070: e2c4 613e 06c8 a03c a7e5 70be 53ea 593d
0.08345965 -0.05654157 0.15757997 -0.09305506 0.09925292 0.07269149 -0.06236879 0.10845758
-0.08997659 -1.182517 -0.016465537 0.14102891 0.042146463 0.55646133 0.1797342 -0.11041161
0.054242913 0.59153694 -0.7644125 0.03703736 -0.06935007 -0.032064628 -0.037482962 0.03426064
-0.064369395 -0.14534564 0.031049294 -0.016596522 0.22047761 0.019626629 -0.23525105 0.053201985
