models/multiple_listens_model.pt (torch, 82597 bytes, 14 tensors)

au f4 [32]
00000000: 8398 1dbd f898 553b 4fe4 59bc 8e61 3fbc
00000010: ff47 fdbb bbc4 6f3c 986b b63b 143b 003d
00000020: 9ec5 8e3c 4d7f 53be 4f59 5eb8 a2df 0fbd
00000030: 40ae d6ba 2282 62bc fc9c 673c 8e77 423b
00000040: 352f 0f3c b333 97bc 2423 c73b ffd0 083c
00000050: 8bfc 7d3c 9a33 9d3c ade5 203c ae06 913c
00000060: 1b0c 463f 7a12 5d3b 6a5a 8a3c dc52 6f3c
00000070: 13f6 0bbf 4cd6 2a3e 6193 bfbc f2ff 61bc
-0.038475525 0.0032592397 -0.013299062 -0.011680974 -0.00772953 0.014634307 0.0055670254 0.03130634
0.017428216 -0.2065403 -5.30121e-05 -0.035125382 -0.0016378835 -0.013824971 0.014136549 0.002967331
0.008739282 -0.01845727 0.006077187 0.00835061 0.0155021055 0.019189645 0.009820384 0.01770338
0.7736222 0.0033732937 0.016888816 0.014607158 -0.54672354 0.1668331 -0.023385705 -0.013793932

av f4 [32]
00000000: b308 493c 44dc 773b 3561 b8bb e51e 06ba
00000010: ef4d 05bc 4283 3abf 2117 bbbb 6daf db3b
00000020: 54fd 3c3a 0ce1 9bbb 3e6a b43b 5f59 e5bb
00000030: 660d 1cbb de47 583c d1b4 9e3c 82dc d83a
00000040: 49b8 50ba 8f87 8d3b 099b e8bb e873 62ba
00000050: 86d0 203a 83ef b83b f805 b93c 58b5 04bf
00000060: 2115 b83a d2e2 ebbb 6b51 afbb 67f9 aa3b
00000070: 6d7f d3bb f17c 67bb 47d4 b03e d612 3a3c
0.01227014 0.0037820498 -0.0056268224 -0.0005116298 -0.008136257 -0.72856534 -0.0057095443 0.006704262
0.00072093797 -0.0047570523 0.005505829 -0.0069991793 -0.0023811697 0.013200728 0.01937333 0.0016545209
-0.0007962031 0.0043191384 -0.0070985598 -0.0008638487 0.0006134588 0.0056437864 0.022585854 -0.5183921
0.0014044383 -0.00719867 -0.005350282 0.0052177194 -0.0064543993 -0.0035322274 0.34536955 0.01135703

user_tower.feedforward.0.weight f4 [64, 37]
00000000: a8c4 d2bc 773a 6fbd 85e1 04be 7472 823d
00000010: 1543 d7bd 0918 693d f5ea f1bd ffa4 21be
00000020: e6ef ccbd 18f7 28bd cff0 ea3d 340e d4bd
00000030: 592d 9fbd f42f 1bbd 946c 0c3b 2fbf 2b3d
00000040: cac8 c0bd 3d8b 1e3e bf78 003e 4685 a4bd
00000050: 8619 173d fb90 f83d fc48 923d 4e11 ccbd
00000060: 2ebc 023e 3f7a fa3d 8f91 09be 1b15 2b3d
00000070: 83f4 d13d b6c0 b73d cbcc acbd 594b 98bd
00000080: 2f13 cbbd 093c 10bd f0c1 d83d 1833 ee3d
00000090: b477 e2ba 04df 84bd 4a97 893d baf0 743c
000000a0: 3481 fcbd e8d4 94c0 03db c6bd 012a 213e
000000b0: e3fa f13c e0f3 a0bd 72ec 1bbe 657d d3bc
000000c0: 39c9 8fbd e46d 423e ec49 19be d64a 50be
000000d0: 744c 1bbe 8b44 1ebd d5d9 d93d a8ae 993e
000000e0: cd24 1c3e 37d5 00bc 4d44 013e 14a4 6b3e
000000f0: 130d bbbc 3e08 d9bd acc6 5d3e fd60 0a3e
00000100: 5876 0e3e be0d 78ba 2f6d 033e cfd1 f3bd
00000110: 6d07 c73d cbaf 583d 3f61 a4bd 7897 993e
00000120: c8f6 7ebd e6bb 0e3e 0223 523c 6e53 773d
00000130: b039 86bc e075 453d d287 3741 6a2b 87bd
00000140: 8ae3 1cbd c940 e7bb f035 4a3d b0af 833d
00000150: 3df3 933d 99c1 14be 4362 243d d098 1cbd
00000160: db97 843e 5a3b 86bd 8e02 f6bd 78ff d1b9
00000170: 435c b43d 489b df3c ef54 fbbd 68a0 99bd
00000180: f0ba 94ba d74b a03d e8a9 15bd ea6a 0e3e
00000190: 5ea4 7f3d 0d6f ad3c f5ae 0bbe d473 33be
000001a0: 794b 92bd 9d07 783c 176c 263d 962c 8e3d
000001b0: 8046 dbbd 50f6 dfbd 9e44 36bc eadd 69be
000001c0: c717 36be 0717 373d 9dad 09bd 1492 fac0
000001d0: fea3 803a f6ab 3fbe 74da 01bd 0b80 05be
000001e0: 3daf 133e e0ef dbbd 9f67 ae3d 6ace 263d
000001f0: 787c 9abe df2a 123e 247b a4be 52e6 3b3e
00000200: 18a1 3dbe ebb5 453e 9e5a 183e 8c18 bb3d
00000210: 7c9d 38be c830 973e c889 86bd 5738 5dbd
00000220: e7d6 6e3d 7f15 27bd 2148 143d 1e01 77be
00000230: d765 1dbd 9b32 22be 5178 b73d 9c4f b83d
00000240: dc5f 2fbe 5baa 803d 596c d63d b2ec b73e
00000250: d23c 5fbd 95b9 b7bd 4f5a 2abd 9e26 0a3d
00000260: dfec b53f 2c93 f7bb 0e91 743d 7f49 453e
00000270: 86c1 003d ce4b 5e3d e617 9fbd 0cb4 b8bd
00000280: 9451 e2bd 4c1d 39bd 53cb cd3d f4b7 d13d
00000290: 80a2 233d 5e05 65bd 4d45 063e 1ba5 823e
000002a0: 078c 07bd 27ec 73bc c993 ab3c 4d4f 013e
000002b0: 6afc f73d a0c8 ba3d b6d1 afbe 0e38 683e
000002c0: d6ab 02bc c516 8abd 17e8 bfbd c518 8c3d
000002d0: 1e78 e9bd fade 423e a01a 67be 620f a63c
000002e0: 5f70 643e 6dd2 7a3b 8a7e fdbb c0c8 a53c
000002f0: bff5 b6bc 4860 3641 2dcb 113e 0b0e 44bd
00000300: 4877 093e 64cc 4abd a116 23be 7839 36bd
00000310: a327 2fbc 30f3 cc3d 96fc 283c 03ba 223e
00000320: 0aec 7238 389e 973d e374 9a3d 83d8 2c3e
00000330: f28d 9f3b 2352 803c d3b2 033e f613 893e
00000340: 3357 6ebe 713d 10bd 3f68 1b3e 095a 26be
00000350: 365a 06be 0063 133e 5601 8cbe 7271 9fbd
00000360: fc10 5dbe 4d8b d53c 0fd4 df3d 7747 94be
00000370: a330 37bd 49bf 07be c6e2 c4bd a147 253c
00000380: 42a2 7d3b 49d7 43bd 433c 4d3f 56d9 b03c
00000390: 39f1 6abd 8897 f23d b413 e43d b061 503e
000003a0: 4415 1cbe 6f54 15be f118 9d3d 47f8 3d3d
000003b0: b810 693e 36b8 1d3e ed1b 343e 6028 2f3e
000003c0: c4ac 4b3e 6c30 1b3e 7c62 a43c 7e22 c3bd
000003d0: 2020 3b3e 3e17 b5bd 3bec 43bc afe0 e83c
000003e0: 9bdc 71be d567 033e 767c 36be 2747 6cbe
000003f0: 1eb5 25be 26ca 89bd 27b7 f3bd ed4f 92bd
-0.025728539 -0.058405366 -0.12976654 0.063694865 -0.10510842 0.056907687 -0.118123926 -0.15785597
-0.100066945 -0.041251272 0.11471712 -0.103542715 -0.07772321 -0.03788753 0.0021427022 0.041930374
-0.094132975 0.15482803 0.12546061 -0.080332324 0.036889575 0.12137028 0.07142827 -0.09964238
0.12767097 0.12230348 -0.13434432 0.041768175 0.10251715 0.089723036 -0.08437499 -0.074362464
-0.09915768 -0.035213504 0.10583866 0.11630839 -0.0017278106 -0.06487849 0.06718309 0.014949972
-0.12329331 -4.6509895 -0.09709742 0.1573868 0.029538577 -0.078590155 -0.15226915 -0.025816629
-0.07020802 0.18987232 -0.14969605 -0.20341048 -0.15165883 -0.038639586 0.10637251 0.30016065
0.15248413 -0.007863334 0.12623711 0.2301181 -0.022833383 -0.10597275 0.21657819 0.1351356
0.13912332 -0.0009462497 0.12834619 -0.11905252 0.09718213 0.052902024 -0.08026361 0.29998374
-0.062247068 0.13938865 0.012825729 0.0603823 -0.01638493 0.048208117 11.470659 -0.066000775
-0.038302936 -0.0070572835 0.049367845 0.06429994 0.072241284 -0.14526977 0.040132772 -0.03823167
0.25897107 -0.06554289 -0.12012206 -0.00040053925 0.0880666 0.027295724 -0.12272059 -0.07501298
-0.0011347216 0.07826965 -0.03653899 0.13907972 0.062412612 0.021171117 -0.1364096 -0.17524654
-0.071433015 0.015138534 0.040630426 0.06942098 -0.10706806 -0.10935652 -0.011124758 -0.2283856
-0.17782508 0.044699695 -0.033612836 -7.830332 0.0009814498 -0.18717942 -0.031702474 -0.13037126
0.14422317 -0.10739112 0.08515858 0.040724196 -0.30173087 0.14274167 -0.321252 0.18349579
-0.18518484 0.19307677 0.14878318 0.09135541 -0.18028826 0.29529405 -0.065692484 -0.054008808
0.058310416 -0.040791985 0.0362016 -0.2412152 -0.0384272 -0.15839617 0.089584954 0.08999559
-0.17126411 0.06282493 0.104698844 0.35922772 -0.054501362 -0.08970944 -0.04159003 0.033728234
1.4212912 -0.007555386 0.059708647 0.19266318 0.03143456 0.05427151 -0.0776823 -0.09018716
-0.11050716 -0.045193955 0.10048547 0.102401644 0.039949894 -0.05591332 0.13112374 0.2551659
-0.033092525 -0.014887846 0.020944493 0.12627907 0.12108691 0.091202974 -0.34339684 0.22677633
-0.007975539 -0.06742624 -0.093704395 0.06840662 -0.11399864 0.19030371 -0.2256875 0.020271007
0.22308491 0.0038272396 -0.007736032 0.020237327 -0.022333978 11.398506 0.14237662 -0.047864955
0.13424408 -0.04951133 -0.15926601 -0.0444884 -0.0106906025 0.10007322 0.010314127 0.1589127
5.7917125e-05 0.07403225 0.075418256 0.16879468 0.004869216 0.015664166 0.12861185 0.2677304
-0.23275451 -0.035214845 0.15176485 -0.16245283 -0.1312035 0.14393234 -0.2734477 -0.0778531
-0.2158851 0.0260674 0.10929119 -0.28960773 -0.044724118 -0.13256563 -0.09613566 0.010087878
0.003870145 -0.047812734 0.8017008 0.021588009 -0.057358954 0.118453085 0.111365706 0.20349765
-0.15242487 -0.1458299 0.07670773 0.046379354 0.22760284 0.15402302 0.17588778 0.17105246
0.19890124 0.1515519 0.020066492 -0.09528063 0.18273973 -0.08842324 -0.011958177 0.02842745
-0.2361931 0.12832578 -0.17820916 -0.23074017 -0.16182372 -0.0672801 -0.11900168 -0.07144151

user_tower.feedforward.0.bias f4 [64]
00000000: f8fa 3cbd 49f4 0d3e 1af6 8fbd 9b1d 363e
00000010: d9c3 46be 16fc b1be 8617 1cbe 6985 03be
00000020: b8a5 89be 8c77 8fbe 243e de3d da3b 37be
00000030: 9740 39be 91ec 67be 9236 4c3d 166c 41be
00000040: 52d4 84be 1e4e 21be 7e3f d13d f067 98bd
00000050: 9d7e a23c 623f 54be 3d05 483d 9a10 473e
00000060: e547 e2be 27ff bd3d de54 b8be 1049 bdbe
00000070: 1c12 4cbe b17f 46be b76a 4d3c a492 863e
00000080: 918a 5ebe 71d3 b1be eeab 7b3e 1ca3 35be
00000090: a5bb 533e e3ea 3fbd 69b8 aabe 6ffc 96bd
000000a0: 8a82 883c 8ce0 a1be 85d7 0dbe 6996 c73e
000000b0: 089a 1abe 9185 0bbe 617b 75bd 3a80 ab3e
000000c0: 307e 29bd 748a aabb b7fc acbd 3ab6 343d
000000d0: e21e 0a3c a966 18bd a42f 1d3e e676 3dbe
000000e0: 73e6 6cbe eaab 913d ea42 c33e e548 403e
000000f0: 57cb 41bd 685c 463e f692 e13d 9f97 1e3d
-0.04613778 0.13862719 -0.07029362 0.17784731 -0.19410647 -0.3476264 -0.15243348 -0.1284386
-0.26884246 -0.28020895 0.10851696 -0.17893925 -0.18091045 -0.22648837 0.04985673 -0.18888888
-0.25943238 -0.15752456 0.10217188 -0.074416995 0.019835765 -0.20727304 0.04883312 0.19439927
-0.44195476 0.09277182 -0.3600225 -0.36969805 -0.19928783 -0.19384648 0.01253765 0.26283753
-0.21732546 -0.3473163 0.24577305 -0.17738003 0.2067705 -0.046854865 -0.3334382 -0.07372367
0.016663808 -0.31616628 -0.13851745 0.3898194 -0.15097821 -0.1362517 -0.059932116 0.33496267
-0.041380107 -0.005204493 -0.08446639 0.044119097 0.008430215 -0.03720728 0.15350205 -0.18502387
-0.23134784 0.07112868 0.3813699 0.18777807 -0.04731306 0.19371188 0.11014359 0.038718816

user_tower.feedforward.2.weight f4 [32, 64]
00000000: bef8 443d 225d 1a3e b61f 583e 424a 82bc
00000010: 0245 8cbd 181c 043e 109f adbd 8e11 2dbe
00000020: b187 c8bc 1976 4b3c c0d9 213b e573 5cbc
00000030: f834 593e 6769 a0bd 8630 a0bd 0305 313e
00000040: ee61 b8bc aab4 8c3b 6129 07be 9868 10be
00000050: c4bf 84be 3ff7 3a3e c9f7 683c 9040 e93d
00000060: 40d7 ad3b ad61 0f3e 7b2e 88be b4ca c8bd
00000070: cb9d 623e 1af3 553d 98d0 9dbc 12e2 3e3e
00000080: 0060 21be 6094 0cbe a931 6d3c 46f8 22be
00000090: 6e0b b83d afbe 59be 420a 41be 840f a4bd
000000a0: 815f e6be d7f9 4a3e 6a13 153e a8b6 73be
000000b0: 9277 4abc 9027 2d3c f400 d1bb a749 8f3d
000000c0: 81b6 be3d 6096 2cbc 02c7 81bd 3855 57be
000000d0: 07b0 d73a 37e1 04bc 0015 643a f51a 43bd
000000e0: 1799 2dbe 9835 2b3d f7c6 603d 7251 1f3e
000000f0: fad2 e2bd 130a fbbe a9d9 ffbd 7d61 81bd
00000100: 4ec4 0b3e e86a ec3d 285a bebe 224a a43d
00000110: b465 943d 317b 4abd 7be0 983c 595e 51be
00000120: 82f8 7dbe 3e8f b1be 2c11 b93d 4ba5 7abd
00000130: fdaf 85be 92a3 d2bc 3064 f13c 417a 46bb
00000140: 423f 82be a1db 91bd b61f 023d 5534 efbb
00000150: 8373 833d 6f83 57be c60d 603d 9990 043e
00000160: 7045 3abd 2511 293d 1a46 88be 9438 bb3d
00000170: c46b 1abe c570 1ebe 7c46 d6bd 9630 6c3e
00000180: 9828 8abe 3942 9bbe 623f 913d 4a4a d8be
00000190: 2d99 133e 5ecf 973d bb31 80be 6bea 01bd
000001a0: 8521 bb3e 6012 31bd c063 843d 2451 323e
000001b0: f929 c3bd e82f be3d 294b 1d3e 3de5 fd3d
000001c0: 45e7 df3d c290 aebd 8dde 163c 0362 183c
000001d0: ae5c ca3e 0d94 c6bc 6896 88bc 4909 98be
000001e0: a69e 70be 6c98 3b3d 3b5a 143e 67d5 193e
000001f0: 586d 98bd 38fb cb3e 02cf 12be b66e 083e
00000200: 976f 81bd d054 e0bc 8fee 7e3e e6a5 a6be
00000210: b226 ebbc f764 0d3d def8 a13a 4322 5fbe
00000220: d038 88bd 1688 883d f04f 703d 920d 87bd
00000230: 2f63 293e 3b39 d73b 82d5 e3bd 40d0 fb3c
00000240: 1e8e 883e 4b4a d63d d7b0 afbe 65d7 88bd
00000250: b910 d4be ea90 0f3d aabe efbd 8406 91be
00000260: 32bd 953d 5cdf 33bd 70ab e43e 45d2 23be
00000270: 8cdb f83d d169 6b3e 40c2 653c 35c6 6abe
00000280: e07a 2e3d 1fe5 7e3e 6baf bfbe ae87 963e
00000290: be33 07bf 3ffb 4e3e 740d 383c 0d21 42bd
000002a0: 876a 6cbf 37ce 713e 13f0 cebd b3cf 3dbe
000002b0: 6010 063e cc52 4f3d b5e0 a03d c946 96be
000002c0: 7294 0cbe 18b5 3ebd 29cc a63d 1886 0cbf
000002d0: 656a ae3d 1712 cc3d 003c e3ba 870d 333e
000002e0: 4558 35bc bce3 43bd 3c5c 51bf cdec a6be
000002f0: ea16 86bd fb4d 27be b317 8abd 3be8 893c
00000300: 488e 263d 4a49 473e 8213 003e 1f91 0a3c
00000310: 87ca ab3d 82d2 303e 550f 0f3d eb75 5fbd
00000320: ef07 d0bc 4609 a53d 6286 fbbd f394 c5bc
00000330: 4f10 803e 84c8 4a3e 5a62 9cbd 9940 0cbe
00000340: 011d 7d3d f250 853c 6fa9 e3bd deb1 27bd
00000350: 21de a9be 4a20 e23d 4017 a53d f526 283e
00000360: 3ccf 16bc 4b7c 233e e81c af3b fbc8 65bd
00000370: 3ea3 46bc dcb9 193d b0c0 14bd a1b7 843d
00000380: 4d7c 86bb b145 0e3e 1401 b4bd cfbe 133d
00000390: 3597 83be d82a 0dbf b986 203c d82c 3c3b
000003a0: bbe9 dfbe 7d97 2a3d 27d6 0dbe 9b66 1abc
000003b0: b104 db3c 80ab 2cbd c004 47bd 5bb7 a63d
000003c0: 0069 bf3d e22a cabd d7a6 fabc c269 90be
000003d0: 6a38 10bd 2da9 f33c 2033 8dbd dac6 1dbe
000003e0: 9ea6 ab3c caff 91bd bc34 8ebe 75d7 993d
000003f0: 1047 5cbc adb5 27bf 3509 1d3e e70a 83bd
0.04808878 0.1507459 0.21105847 -0.01590455 -0.068491 0.12901342 -0.084776044 -0.16901228
-0.024478765 0.012418293 0.002469644 -0.013455366 0.21211612 -0.07832604 -0.07821755 0.17287068
-0.022507634 0.004293998 -0.13199379 -0.141024 -0.25927556 0.1825838 0.014219233 0.113892674
0.005305201 0.14002104 -0.26597962 -0.098042876 0.22130506 0.052233793 -0.019264504 0.18640926
-0.15759277 -0.13728476 0.014477172 -0.15915021 0.08986555 -0.21264146 -0.1885157 -0.08010772
-0.4499474 0.19821869 0.14558187 -0.23800147 -0.012357609 0.0105685145 -0.0063782874 0.0699647
0.093121536 -0.010533899 -0.06336786 -0.21028602 0.0016455658 -0.008110336 0.0008700639 -0.04763313
-0.1695293 0.041799158 0.054877248 0.15558413 -0.11075397 -0.49031124 -0.12492687 -0.063174225
0.13649103 0.11543828 -0.3717816 0.08021952 0.07245961 -0.04943389 0.018661728 -0.20446147
-0.2480183 -0.34679598 0.090364784 -0.061192792 -0.2611083 -0.025712762 0.029466718 -0.0030285271
-0.25438887 -0.07121969 0.031768523 -0.0072999396 0.064185165 -0.21046232 0.054700635 0.12945785
-0.045476377 0.041276116 -0.26615983 0.09141651 -0.15080172 -0.15472706 -0.104626626 0.23065409
-0.26984096 -0.3032396 0.070921674 -0.42244178 0.144139 0.07412599 -0.2503794 -0.0317177
0.3654901 -0.043230414 0.06464338 0.17413765 -0.0952949 0.09286481 0.15360703 0.12397239
0.10932783 -0.08523704 0.009208334 0.009300712 0.39523834 -0.024240518 -0.016673282 -0.29694584
-0.2349802 0.045799658 0.14487545 0.15022813 -0.07442731 0.39840102 -0.1433678 0.13323483
-0.06320112 -0.027384192 0.2489569 -0.32548445 -0.028704975 0.034520116 0.0012357493 -0.21790414
-0.06651461 0.06666581 0.058669984 -0.06594385 0.16541742 0.0065681017 -0.11124708 0.03073895
0.26670927 0.10463389 -0.34314606 -0.06681708 -0.41419008 0.03505031 -0.11706288 -0.28325284
0.07311477 -0.043914184 0.44662046 -0.1599818 0.1215125 0.22989585 0.014023364 -0.22927172
0.04259765 0.2489209 -0.3743852 0.2940039 -0.5281333 0.2021303 0.011233676 -0.0473948
-0.9235005 0.23613821 -0.10104384 -0.18536262 0.13092184 0.05061607 0.078553595 -0.2935088
-0.13728502 -0.046559423 0.08144409 -0.5489211 0.08516387 0.09964388 -0.0017336607 0.17485629
-0.011068408 -0.047824606 -0.81781363 -0.3260254 -0.06547339 -0.16338341 -0.067428015 0.016834369
0.040663034 0.19461551 0.12507442 0.008457451 0.083882384 0.17267802 0.03492673 -0.054555815
-0.025394408 0.080584094 -0.12281491 -0.024118876 0.25012442 0.19803053 -0.076359466 -0.13696517
0.06179524 0.01627395 -0.11116301 -0.04094111 -0.33177283 0.11041315 0.08061075 0.16421111
-0.009204682 0.15965383 0.005344022 -0.056099873 -0.012123881 0.037530765 -0.036316574 0.06480337
-0.0041041733 0.13893773 -0.08789268 0.03607064 -0.257013 -0.551435 0.009797745 0.0028713252
-0.4373301 0.041648377 -0.13851224 -0.009423877 0.026735635 -0.042155743 -0.048588514 0.08140441
0.09346199 -0.098714605 -0.030597134 -0.28205687 -0.03521005 0.029743755 -0.06894517 -0.15407887
0.020953473 -0.07128866 -0.27774608 0.07511798 -0.013444677 -0.6551159 0.15335543 -0.06398564

user_tower.feedforward.2.bias f4 [32]
00000000: ecd4 5b3e 2501 6cbd 7471 2abf 991b 2dbe
00000010: 7d31 47bd e384 0d3d 7506 eebd 0a72 1f3e
00000020: 3bd3 13be fde8 08bd 6292 c2bc 8c9d c53d
00000030: 3bd0 7b3d c2df d43d 54ec d43d ac60 933c
00000040: d6eb 233d 8bcf 1bbd dbb5 62be 9a02 0abe
00000050: 6a7a d8bd b77e 9f3d 38ab d6bd 5d91 dfbd
00000060: 70f6 563f 4e77 3dbe 006d 27be 3f0f 863d
00000070: 25aa c8bd eb39 82bd 4b59 ecbd 1def 6abd
0.21467942 -0.05761828 -0.66579366 -0.16905059 -0.04863118 0.03455056 -0.11622325 0.15570846
-0.14436047 -0.03342532 -0.023751441 0.0964919 0.06147788 0.10394241 0.103966385 0.017990433
0.040019833 -0.038039725 -0.22139685 -0.13477555 -0.10570224 0.07787841 -0.10481876 -0.10916398
0.83969784 -0.18502542 -0.16350174 0.06545877 -0.097980775 -0.06358703 -0.11540469 -0.057356942

user_tower.feedforward.4.weight f4 [32, 32]
00000000: ee9d e53d ebef 4d3e 281f 0cbf 9bc0 febe
00000010: 4a96 c5bc dd26 dabd 824a a6bd 7575 ce3e
00000020: 25ad ca3c 7d9e 2bbe fd35 bc3d 5dad 2c3d
00000030: 8b6c 043e ad15 0a3f 5441 033f 532c 9cbe
00000040: add0 78bd b8d3 02be 83a7 72bc 68af cfbd
00000050: fee6 8ebe 9c3e 8a3d 3372 98bd 4720 05bf
00000060: 6b00 883e 6db1 3bbd 41b6 d23d 1552 22be
00000070: 38e8 44bc 3d1f 9a3d 6e66 0dbe f6d5 553c
00000080: 784f 653d ce47 b9bd f12d 6f3e c4a3 513e
00000090: cef1 323e c3d4 f8bd b672 c93d 30c8 5dbd
000000a0: f526 e4bd 0475 e4bc 5a20 8c3d 8ed1 f13d
000000b0: a0a8 d43d 4242 8d3e cc33 e1bd 1c2c c73d
000000c0: 5d81 6ebe bb91 313d 702b 7bbe b257 14be
000000d0: 4900 2b3f 412d 023e d132 cf3c fd17 323d
000000e0: 8ae4 adbc 47a7 863d 8e9a 66bd 9ec8 dbbc
000000f0: 18c6 903d 3617 30bd 5d2e 553d 38b2 d93c
00000100: 99e3 b3be 41e3 973e 9b83 073e b300 25be
00000110: 9b78 cb3d 2e64 59bd cef4 60ba 7970 e7bd
00000120: 9c63 e9bd 8cd4 843c 8ab2 213e d329 1bbe
00000130: 962b 643c a6a4 d13e 5284 753e dfe1 033d
00000140: a961 62bd 8295 733d 0cd3 b2bd ae26 8b3d
00000150: ee76 90be 08e7 9e3d cd85 32be 71d4 37be
00000160: 2aef e13c 59b9 13bd 6bad 03be c9e8 16be
00000170: c499 22bc 4881 4cbd f384 213e b225 5e3e
00000180: 8771 153d 3bb2 8f3e cddb 223f 877d 9d3e
00000190: c423 17be 76ca 6abe f1e3 863d 86fe 963e
000001a0: 5e25 a33d 4aa1 913c 2914 4cbd af87 07bd
000001b0: 72f3 1a3e fc4a 08bf 45b8 fe3e f1e5 87be
000001c0: 9bc0 913d b8b6 933d 6862 8ebd e3c0 853d
000001d0: 1dab ab3e 2470 8d3d 1672 15be 4cdf 7fbd
000001e0: 1d2f 88bd 64c2 153e cca7 7b3d 63d4 593c
000001f0: efeb 0ebd a292 373c b8f8 853d f509 16be
00000200: 4c36 45be 9c6a 73be 26d4 41bd d4a3 c43d
00000210: b653 3cbd f28e f63d d6a0 9c3c d449 c2be
00000220: 3bcc 0fbe a667 523c 451e 243e d386 24be
00000230: 08ce a3bd 10f9 263f 86ce babe c563 963e
00000240: 7a19 80be ba16 a5bd 7477 c7bd ea32 d03d
00000250: fc86 9f3d ed42 a13c a25a 03be 6f4c e03d
00000260: c431 b83d 67d0 b43d da02 44bd 4668 a1bc
00000270: 1035 e5bd b04f a6bd cba1 71bd 645e 46bd
00000280: 35f6 febe 4020 553e e030 713e 44eb 31bf
00000290: 037d 06be a1d6 25bd 3c3f 23be ee9e 9c3e
000002a0: 5ebb 243d ae64 a0bd f86f 933c c1d4 a5bc
000002b0: 314d b6bd 4c00 ae3e 3e07 553e 8314 bb3e
000002c0: e4bf 4abc 0bd4 193e ceb9 8dbf e8fc cabd
000002d0: e5c6 6bbe ae5e 2fbd bc14 ccbc 65c9 c1bd
000002e0: f955 36bf ca31 293d 1adb bcbd 1c49 1a3e
000002f0: a380 2e3e b3f1 0bbd 3e0a 113d 6757 6dbf
00000300: 9ff4 113e 46d9 563d 7f93 1cbe f886 7abd
00000310: 7c20 a43c 35c4 86bd 0af6 05be ed81 8f3e
00000320: b64e a5bd 2002 ae3d f2a7 143d d5e3 aa3d
00000330: bf30 e03d f4f8 9fbd 257b aa3e 2fec e1bd
00000340: 889e 8a3e 55e6 23be a359 883d 89e7 173e
00000350: b2e2 92be 17a3 ee3a 3b4d ad3c 5163 34be
00000360: 70d2 49bd 25fe 3e3e 6c26 393e 52fd 933d
00000370: 4a98 af3d 787a 9ebd 2dce 02bc 37f9 2fba
00000380: 9afb 183e b31d 333d 1de6 d13c 3bef f6bb
00000390: 3b15 be3d 13c9 afbd 9b01 a6bd 1a1e 53be
000003a0: 4974 cc3d a0c3 c4bd d3ab 903d 0cf2 12be
000003b0: 3c73 5cbc a24d 1dbf b8e7 85be 4266 8fbe
000003c0: c972 5c3e 8485 5fbd cc0c 223e cb8c 213e
000003d0: 6110 b2be eb57 a0bd d73d 443e b44c cebd
000003e0: 3846 27bc 620c 28be 8c34 17be c103 e5bd
000003f0: d81f 6b3c 4b61 12be ca1d c33d f7f1 70ba
0.11211763 0.20111053 -0.5473504 -0.4975632 -0.024119515 -0.10651944 -0.0811968 0.40323988
0.024740765 -0.16759677 0.09189985 0.04215752 0.12932031 0.53939325 0.5127156 -0.30502567
-0.060745884 -0.12776077 -0.014810446 -0.10140878 -0.27910608 0.06750223 -0.07443657 -0.52002376
0.2656282 -0.045823503 0.102886684 -0.15851624 -0.012018256 0.075254895 -0.13808605 0.013051501
0.05598399 -0.09046899 0.23357369 0.20472628 0.17475054 -0.12149956 0.098363325 -0.05414599
-0.11140243 -0.027887829 0.06842108 0.118075475 0.10383725 0.27589613 -0.109962076 0.0972521
-0.23291536 0.04335187 -0.24528289 -0.14486578 0.6679731 0.12712575 0.025292786 0.04347991
-0.02122714 0.06574874 -0.05629974 -0.02682906 0.070690334 -0.042990886 0.05204617 0.02657424
-0.3513458 0.29665568 0.13233797 -0.16113548 0.09935113 -0.053074054 -0.00085814006 -0.11300749
-0.11395952 0.016214631 0.15790763 -0.15152673 0.013926407 0.4094593 0.23976257 0.03219783
-0.055268917 0.059468754 -0.0873166 0.06794487 -0.28215736 0.077589095 -0.17433853 -0.17952134
0.027579863 -0.036065433 -0.12859122 -0.14737238 -0.009924356 -0.04992798 0.15773372 0.21694067
0.03648522 0.28065667 0.6361664 0.30759832 -0.14759737 -0.22928795 0.06586445 0.2949106
0.079661116 0.017777104 -0.049823914 -0.033088382 0.1513193 -0.5323942 0.49749961 -0.2654262
0.07116815 0.07212585 -0.06952363 0.06530931 0.33528987 0.06906155 -0.14594302 -0.062468812
-0.06649611 0.14624935 0.06143932 0.013295266 -0.034892973 0.011204394 0.0654158 -0.14652236
-0.19258994 -0.23771137 -0.04732146 0.0960156 -0.04597827 0.120389834 0.019119661 -0.3794695
-0.14042751 0.0128420945 0.16027172 -0.16067056 -0.07998282 0.6522379 -0.3648569 0.29372993
-0.25019437 -0.080609754 -0.09739581 0.10165961 0.07789418 0.019685233 -0.12827542 0.109520786
0.08993867 0.08828812 -0.047854282 -0.019703042 -0.111917615 -0.08120668 -0.05899219 -0.04842986
-0.49797216 0.20813084 0.235538 -0.6949961 -0.13133626 -0.04048789 -0.15942091 0.30590004
0.04021775 -0.07831703 0.017997727 -0.02024305 -0.08901442 0.33984601 0.20803544 0.36539087
-0.012374852 0.15022294 -1.1072328 -0.09911519 -0.23025091 -0.042814903 -0.02491223 -0.09462241
-0.71224934 0.04130725 -0.09221478 0.15066952 0.17041259 -0.03416605 0.03541016 -0.9271149
0.14253472 0.0524533 -0.1529064 -0.061163872 0.020035021 -0.06580392 -0.13082138 0.28028813
-0.080716535 0.08496499 0.036292978 0.08344237 0.109467976 -0.07811156 0.33297077 -0.110313766
0.27074075 -0.16005833 0.06657722 0.14834417 -0.2868858 0.0018206564 0.02115499 -0.17616011
-0.049272954 0.18651636 0.18081063 0.072260514 0.08573969 -0.07738203 -0.007983726 -0.0006712856
0.14939728 0.043729495 0.025622422 -0.0075358427 0.09281393 -0.08583274 -0.08105775 -0.20616952
0.09983117 -0.09607625 0.07064023 -0.14350146 -0.013455208 -0.61446583 -0.2615335 -0.28007704
0.21528162 -0.05457069 0.15825194 0.15776365 -0.3477812 -0.07829269 0.19164215 -0.10073224
-0.010209613 -0.16410974 -0.14766139 -0.111823566 0.014350854 -0.14294927 0.09527166 -0.0009191329

user_tower.feedforward.4.bias f4 [32]
00000000: 2c28 a83e e5f2 a33d 9111 b43e 7435 243e
00000010: dc8c df3e d963 54bf 1fc2 b2bd 8555 30bf
00000020: 71d8 dfbe a743 2f3f d299 3e3e 9318 de3d
00000030: 2b55 9b3e 6ba6 15be 9a2c b03e 3661 363e
00000040: 1072 a3be 8d48 7c3d bf4c c93e 3ed5 c0bd
00000050: a4f7 cabd bff3 1bbf 1e50 1cbe f8a4 40bf
00000060: 53cc 1dbf 926f f0bc 1946 f9be 0adc 1cbe
00000070: df2d 2f3f 4671 38bf 71bf 5f3e 8d3b b23e
0.3284315 0.08005313 0.35169652 0.16036016 0.43662155 -0.82964855 -0.08728432 -0.6888049
-0.4371982 0.68462604 0.18613365 0.10844531 0.30338416 -0.14614265 0.34409028 0.1781052
-0.3192296 0.061592627 0.39316365 -0.09415673 -0.09910515 -0.609188 -0.15264937 -0.7525172
-0.616399 -0.029350076 -0.48686293 -0.15318313 0.6842937 -0.7204784 0.21850373 0.3481106

item_tower.feedforward.0.weight f4 [64, 160]
00000000: 1f15 b33e 482a a03c f11d ad3d b61e eebe
00000010: c92d a4be bc90 883e ac5c e8bd 4d23 d7bd
00000020: b348 3f3d 0701 82be 3ca2 41be b526 ba3d
00000030: 192e 7abc fc27 723e 04ec 7e3d 14c9 b83e
00000040: 1fdc a8be 7ece 5dbd ce18 6f3e 14f5 1fbd
00000050: f64d edbc 1677 61be 1896 063e 5ae2 cabc
00000060: 2bae 81bd 077f 9dbe 5f4d b9be 8f28 9d3e
00000070: 1da5 7f3d f0c6 bdbe ec53 983c cce9 7fbe
00000080: b99f b23d 43ce e7be 0813 c13c df5f 363f
00000090: 39df 263e b9bd 6ebe 50ca babe 6e43 c5bc
000000a0: be65 78be 836a 433e 0b47 1bbe c15c 8c3e
000000b0: e54e 4b3d 3516 8ebe 0e90 9ebe 91c3 adbe
000000c0: fa82 d1be f438 3a3e 9d9f 003c b101 f23d
000000d0: 2c75 943e 5f42 e23e 5532 a93c 9aa5 e23e
000000e0: 80ef 80be b527 9c3e fb2f b63c c815 94be
000000f0: 5114 68be abd7 ba3d fa84 e0bd 42ea 9e3d
00000100: be35 873e 35c2 983d 4da3 ebbd 5340 b2be
00000110: a643 d83e 1e0f f13c c693 743c ba55 163d
00000120: c960 2dbf d4e7 66be 4be5 aebd 8fdc bfbe
00000130: 9a70 82bd 333b e63d 85bb d53d 4289 1d3e
00000140: d7b5 ea3e c310 16be fa9c ac3d 5f29 733e
00000150: 2f1a 423e 123b abbe 6eee f13e c052 5f3d
00000160: f537 0bbf d36a 36be f36e d63d 1c2a 37be
00000170: 20d4 d33e 3cd5 1abf 8d36 afbd d874 84be
00000180: d663 c538 411e b83d 9368 61be baf8 6b3e
00000190: d33d 53be 7118 8c3c a76f ab3d 9370 a6be
000001a0: d920 f8bd ad92 e03c d821 733e 9035 a23d
000001b0: 0606 be3d f60c 8b3e cd67 bc3e 168d 863e
000001c0: 24d9 6b3e 5f08 7cbe 8c68 c43e b698 97be
000001d0: 55fc 7a3d 6ef7 23bd 442a bbbd 9010 433f
000001e0: e4d5 c2be 3f6e 1d3e a339 5abe ea8f 89be
000001f0: a14e 62bf 1e9c de3e 1271 a23e a1b5 aa3d
00000200: 90ce ec3c c9b4 98bd 43d3 4a3c 16d0 003e
00000210: ef09 7dbd 0f3c 9c3c f848 153d 4af8 4f3d
00000220: a846 58bd 9d61 8c3d 7e6e 22bd cd57 febc
00000230: a6f3 f93c 1da3 723d 677b bdbd 9c0d 97bd
00000240: ada2 11bd ac86 81bc 1be3 a1bd 21d2 0b3d
00000250: 3912 03be f288 3e3a a0c4 ba3c 0629 983d
00000260: 9237 cdbb 1fd0 973d 988c ccbc c06b ffbd
00000270: b680 d9bc 8bef 473d 7c7d bcbd da0a 51bb
00000280: ddd8 4fbe f427 183d 86e0 00be bb2f 73bd
00000290: 6874 a93d 4ad3 a2bd 3558 643e a4c2 fc3d
000002a0: 5c89 16bf 91a5 acbe 99a4 abbe 7310 27bf
000002b0: 74fb bb3e dc4c a0be d893 e0bd da4a 0e3f
000002c0: 04e2 09be 72bf 773e 46c6 1cbf afc5 23bf
000002d0: e432 19be 3b44 083f 30b6 8fbe 0628 31bc
000002e0: c180 00bc c276 adbc d231 243e 6a28 bb3d
000002f0: 4d8f 00bf dfed 62bc cc73 5e3e ae9f 9cbd
00000300: 9960 1ebe e398 c23d c5ca 80be 0dbe 9e3e
00000310: 2f53 5e3d 8bdb c53c 0dea bebd c565 963e
00000320: 5091 0cbe defa 06bb f4d1 03bf f700 143f
00000330: f3b6 893e 92be 10be c3c4 0cbe d7b8 b6be
00000340: 8720 acbc bfb3 8f3e 68e6 37bd 2571 18bf
00000350: 0fe5 76bd 740d ea3e 0b1b 1a3e e6dc dabc
00000360: 17e5 ef3e 0f9a 733e 819d 993e f504 13be
00000370: 7354 10be e501 363a dcec b0bd 7850 273e
00000380: 8c35 9e3d e303 b33d 7732 82be 557f 333e
00000390: 370a ea3e 5645 613e 377b 03be bbdb 9ebd
000003a0: 6f6c 3cbe 16d3 bb3e fefa eebd 6940 c4be
000003b0: abb6 963d e191 7bbe e383 08be ded9 093e
000003c0: 8ca9 0ebd de40 6d3d dd21 41bb a894 6abd
000003d0: 2ef8 173e ba49 9c3d 95ed ecbe f4a9 c6be
000003e0: 3c2a 4e3d c9d8 d1bd 8b2f c1be ee18 8e3d
000003f0: 41f0 043f d88d 06bf 7262 41be 582c f5be
0.34977052 0.019551411 0.084529765 -0.46507806 -0.3206618 0.26672924 -0.11345801 -0.1050478
0.04670019 -0.2539141 -0.18909544 0.09089414 -0.01526978 0.23648065 0.0622368 0.3609091
-0.3298044 -0.054152004 0.23349306 -0.039052084 -0.028967839 -0.22018084 0.13143194 -0.024766136
-0.06332048 -0.30760977 -0.36191842 0.30695006 0.062413324 -0.3706584 0.018594705 -0.2499153
0.08721871 -0.45274553 0.023568645 0.7124004 0.1629609 -0.23314561 -0.36482477 -0.024080005
-0.24257562 0.190836 -0.1516382 0.27414516 0.049635787 -0.27751318 -0.3096928 -0.33938268
-0.4092024 0.18185788 0.007850555 0.11816729 0.28995645 0.44191262 0.020653883 0.4426697
-0.25182724 0.30499044 0.022239676 -0.28922868 -0.22664 0.09123167 -0.10962863 0.07759525
0.2640819 0.07458917 -0.115057565 -0.348147 0.42239112 0.029426154 0.01492781 0.03670285
-0.6772581 -0.22549373 -0.08539828 -0.3747296 -0.06369133 0.1124176 0.10436157 0.15384391
0.45841858 -0.14654832 0.084283784 0.2374625 0.18955301 -0.33443505 0.4725222 0.054522276
-0.5438226 -0.17814188 0.10470381 -0.17887157 0.41372776 -0.6048162 -0.085553266 -0.25870395
9.412288e-05 0.089901455 -0.22012548 0.230441 -0.20629053 0.017101498 0.08370905 -0.32507762
-0.1211564 0.02741369 0.23743379 0.079203725 0.09278493 0.27158326 0.36797944 0.26279515
0.23032051 -0.24612568 0.38361013 -0.29608697 0.0612758 -0.04003089 -0.09138921 0.7619715
-0.3805381 0.15374087 -0.21311049 -0.2686761 -0.8840123 0.43478483 0.3172689 0.08335424
0.02890709 -0.07456357 0.01237947 0.12579378 -0.06177705 0.019071607 0.03644654 0.050773896
-0.052801758 0.06854556 -0.039656155 -0.031047726 0.030511688 0.05923759 -0.09252053 -0.07375643
-0.03555553 -0.015811287 -0.07904645 0.03413594 -0.1279992 0.0007268331 0.022798836 0.074296996
-0.006262728 0.07412743 -0.024969384 -0.124717236 -0.026550632 0.04881243 -0.09203622 -0.0031897337
-0.2029757 0.037147477 -0.12585649 -0.05937169 0.08274156 -0.079504564 0.22299273 0.12341812
-0.58803344 -0.33720067 -0.33524016 -0.65259475 0.3671528 -0.3130864 -0.10965699 0.55582964
-0.13465124 0.24194124 -0.6124004 -0.63973516 -0.1496082 0.5322911 -0.28068686 -0.010812765
-0.007843197 -0.021174792 0.1603463 0.09138568 -0.5021866 -0.013850658 0.2172386 -0.07647644
-0.15466537 0.09501817 -0.251547 0.31004372 0.05427855 0.024152538 -0.093219854 0.2937452
-0.13727307 -0.0020596306 -0.5149224 0.5781397 0.26897392 -0.14135197 -0.13746934 -0.35687897
-0.021011604 0.28066823 -0.044897467 -0.59547645 -0.06027704 0.4571339 0.15049379 -0.02671666
0.4685447 0.23789237 0.30002978 -0.1435736 -0.14094715 0.00069430313 -0.08638927 0.1633929
0.07725057 0.08740976 -0.25429127 0.17529042 0.45710918 0.21999106 -0.12839971 -0.07756754
-0.18400739 0.36684483 -0.11668967 -0.3833039 0.0735906 -0.24567367 -0.13331561 0.13462016
-0.03482966 0.05792319 -0.0029469647 -0.057270676 0.14840767 0.0763125 -0.4627501 -0.3880154
0.050333247 -0.102464266 -0.37731585 0.06938349 0.519291 -0.52560186 -0.1888521 -0.47885394

item_tower.feedforward.0.bias f4 [64]
00000000: 540c c2bd 15c4 b8bc 227c ccbd 0f41 8ebd
00000010: 5470 abbd 40e3 1abe 4ea3 3bbc 3dd2 9cbd
00000020: c33e d73c fb9d 07be 76a9 91bd 9e51 a6bd
00000030: 4131 09be 735a bcba f5f9 dcbb bcea 9bbc
00000040: fe04 eabd 5ab7 05be 7224 3abd 3303 a2bd
00000050: 4f9a 80bc 38aa dbbd 7530 1ebe 60de b9bd
00000060: 5930 edbd 5446 12bd 0590 f3bd 6061 a1bc
00000070: 38eb 29bd 3542 b8bd c9f3 bb3c 742b a6bd
00000080: 643b 08be 46b2 82bd bb98 a2bd 83c7 40bd
00000090: a58d 823d c19e e6bd 32d5 cc3c 91d0 07bd
000000a0: afea 47bd b4f9 68bd 0836 1cbe 146a 60bd
000000b0: f9e0 b1bd bab6 83bd dd55 61bd 9734 6fbd
000000c0: 7bc0 4dbe 7fdf 88bc cc30 6e3d e4ab a8bd
000000d0: a917 333b c44f b0bd fe24 babd 10ae dfbd
000000e0: aa39 36bd fa7f 88bd 9479 f5bd 0f66 e5bd
000000f0: 9448 e3bc cc48 d8bb c24f 33be f359 ccbd
-0.09475008 -0.022554437 -0.09984614 -0.06946003 -0.08371034 -0.15125751 -0.011452509 -0.07657287
0.026275044 -0.13243859 -0.071124 -0.08121036 -0.13397695 -0.0014370218 -0.0067436644 -0.019032829
-0.114267334 -0.13058224 -0.045444913 -0.079107665 -0.01569858 -0.10725826 -0.15448172 -0.09075618
-0.11581487 -0.0357116 -0.11892704 -0.019699752 -0.041484088 -0.08997003 0.022943394 -0.08113757
-0.13303906 -0.06381659 -0.07939287 -0.04706527 0.06374673 -0.11260749 0.025004003 -0.03315789
-0.048807796 -0.05687876 -0.15254986 -0.054788664 -0.08685488 -0.06431337 -0.055013526 -0.058399763
-0.20092957 -0.016708134 0.058152005 -0.082359105 0.0027327335 -0.08608964 -0.09089087 -0.10921872
-0.044488586 -0.066650346 -0.1198608 -0.11201107 -0.027744569 -0.006600475 -0.17510894 -0.09978094

item_tower.feedforward.2.weight f4 [32, 64]
00000000: 5ced ad3d e3d5 a93e 3af8 403e 8a08 e63d
00000010: 48f6 8e3d e2fd c93d 90ba 59bd e4d2 9e3d
00000020: 042e 67bd 2ef5 1d3d 8c31 1b3e 5671 b73d
00000030: ad65 3fbd f0b3 243c 5a9e 6f3d 143e 69bd
00000040: 2445 d93d fcc9 193e a083 eebc 281c c43c
00000050: 2e1a 9f3c b6da ddbd c3de 193d bb5d c03d
00000060: 275d be3d eaf6 923d 8464 e43d 5a3a 773d
00000070: eb6b 05bc 2092 b33c 81ab edbd 49bd 083e
00000080: e020 bb3d 44c5 aabd 00f7 b6bc 7824 a03d
00000090: 04c2 eebd 6e33 4c3c 21bf a3bd b8e6 473e
000000a0: 56e0 5d3e 9c94 f53c 9eeb ae3d b081 073d
000000b0: 3c34 8a3d f082 9fbc d474 d3bd 4992 5e3d
000000c0: 8051 823e facf 23be d9f6 23be 306b 073d
000000d0: a7d4 8abd d924 703e 1cb2 e8bd 4057 643e
000000e0: 0c46 2d3e 9e82 1cbd 678f 26be ecda e93c
000000f0: 1f21 073e 9669 04be 30d9 84bd c25e b53d
00000100: 9945 2dbf dcba 3ebe 9284 a8be fef3 e8bb
00000110: 3704 b8be c90a c9bd 953e 51be d680 fa3d
00000120: c6ac 6d3e ce76 a3bb c6ca 9bbe 8a58 3d3e
00000130: a3ca f3be 45fa 393c c840 5bbe 8e82 073d
00000140: ea77 8b3e d0d6 d2bc 0a5e bbbd e86c 82bc
00000150: 2860 1c3d a8aa ecbd 9599 833e c44b e8be
00000160: 3f29 c6be 4ab0 94be 437e c9be c8ac 93bd
00000170: 7bbc 163e 0090 5f3d c6e1 b3be 747d a6be
00000180: 6199 7d3d 0350 d6be 866d 64bd c7f3 59be
00000190: b1cf 10be 5d2f 9ebd 5af1 d9bd fd38 c6be
000001a0: b1cc 1abe 142e 16bf 0d76 c2bd e09a fabd
000001b0: 96e2 c53d addf 5d3d 8217 1dbf 4fc8 85be
000001c0: 256f 42bd ca3a 7d3d 6694 22bf 0a09 fc3d
000001d0: 7ea3 343e 1f83 95bf f66e 15bf 805a 31bf
000001e0: 9561 fc3d 3324 6b3e 24f3 7bbe 729d 063f
000001f0: b547 3fbf 08b7 9ebe 9293 99be a4f2 afbe
00000200: bb6c fc3d e6e7 223e 1c0d f03d cc44 7bbd
00000210: 9b8e 893e 049b 8d3c e1e6 03be 7539 afbd
00000220: 1af7 58bd bbf4 e1be 9af5 b2be e80d 8bbe
00000230: 3558 933e 55bc 353e 5fae 083d 103e b43c
00000240: 1884 f73d bd88 a3be 0ddc fe3d e79e c6bd
00000250: 5998 9e3e 5c26 fdbd 659d 75bf 6ac4 33be
00000260: 8cb0 bfbe 5af8 6ebe bd10 863e 418c 02be
00000270: 5962 ae3d bb26 733c c035 723d 4b56 c23e
00000280: 72dd d53d 1bf1 44bd 2968 a0bc 2049 c03b
00000290: 17ae d0bd 8d3b 4abf 0883 123e 7008 80bf
000002a0: 2064 1fbd 0b68 a5bc c713 8d3d 6bd6 1dbb
000002b0: 0ed7 7dbd cb03 063c 01db 843e 8a31 a53c
000002c0: e2e2 fa3e 7408 97be 6821 bdbd d425 c33d
000002d0: 7f6c fdbe d07c dc3d b9f7 f6be 2307 ef3e
000002e0: df82 02bf efea 483e e0f3 4dbd fcc7 103f
000002f0: 53bd cabe 7fc7 0f3e 5bdb f0be e0c4 ee3e
00000300: f350 a1bd 2d9c e8bd becc 95be 2e59 fa3d
00000310: 990f b03b f0f5 f0bd f487 ddbc 244d 8e3d
00000320: 515e 8bbd a03a adbc 9ecb 82be 0944 05be
00000330: 752d d53d 2140 86be 58b9 95be 020b bb3d
00000340: 5e9a 06be e958 a9be a829 863c 9848 a2bc
00000350: 384d dc3d bb19 9cbd f0c1 4ebe edaa 713e
00000360: aec1 06be e9df 59bd d3e8 2cbe b269 9dbc
00000370: 02df ee3d d6ad f93d ed38 f4bd 22a3 cdbd
00000380: 2e1d 983d b9b6 e63d 6062 1bbd a06e c0be
00000390: 19dc 73be ffcf 663e d0ec 473e def7 843d
000003a0: ded0 68be 38c3 9cbe b2cf cb3d 9026 ff3d
000003b0: 60b0 a3bd 1135 babd a0be 0a3e 147a 6d3d
000003c0: f566 343d 168a c03d 626e 8cbe a8ad cb3c
000003d0: 8cd8 44be 5234 f3bd c6ff 5ebd 6a3b 55be
000003e0: 454f 003e 6d50 04be e296 bdbd 2208 8dbd
000003f0: 9a36 3b3d bb26 63be 8ee2 ddbd 9541 a3be
0.08492538 0.33170995 0.18844691 0.112320974 0.06980568 0.098628774 -0.053156435 0.07755068
-0.05644037 0.0385639 0.1515562 0.08957164 -0.046727825 0.010052666 0.058500625 -0.056943968
0.10608891 0.15018457 -0.029115498 0.023939207 0.019421663 -0.108327314 0.037565958 0.09392878
0.09295111 0.07176001 0.11151984 0.060358383 -0.008143405 0.021920264 -0.116049774 0.13353457
0.0913713 -0.08338407 -0.022334576 0.07819456 -0.11658099 0.012463434 -0.07995439 0.19521606
0.21667609 0.029978089 0.08541034 0.033082664 0.06748244 -0.019471616 -0.103250176 0.054338727
0.25452805 -0.15997306 -0.16012134 0.033061206 -0.067788415 0.23451556 -0.11362097 0.22298908
0.16921252 -0.038210504 -0.16265641 0.028546773 0.13196228 -0.12930903 -0.06486738 0.08855964
-0.6768432 -0.18625969 -0.32913643 -0.0071091643 -0.35940716 -0.0981651 -0.2043403 0.12231605
0.23210439 -0.004988528 -0.3042814 0.18490806 -0.47615537 0.011351173 -0.21411431 0.03308349
0.27239925 -0.025737196 -0.09148796 -0.015921071 0.03817764 -0.115559876 0.2570311 -0.45370305
-0.38703343 -0.29040748 -0.39354143 -0.0721069 0.14720337 0.05458069 -0.3513319 -0.32517588
0.06191385 -0.4185792 -0.055768512 -0.212844 -0.14141728 -0.077238776 -0.10641737 -0.38715354
-0.15117146 -0.5866406 -0.09495173 -0.12236571 0.096623585 0.054168392 -0.61363995 -0.26129386
-0.047469277 0.061823644 -0.6350769 0.123064116 0.17640492 -1.168064 -0.5837244 -0.6927872
0.123233 0.22963028 -0.2460447 0.5258399 -0.7471879 -0.30999017 -0.299954 -0.34364808
0.12325426 0.15908775 0.117212504 -0.061344907 0.26866612 0.017285831 -0.12881042 -0.08555881
-0.05297003 -0.44132027 -0.34953004 -0.27159047 0.28778234 0.17747624 0.03336942 0.02200225
0.12085742 -0.3194026 0.12444315 -0.09698277 0.30975607 -0.12360832 -0.9594329 -0.17555395
-0.37439382 -0.23336926 0.26184645 -0.12748815 0.08514852 0.014840777 0.05913329 0.3795646
0.10442628 -0.0480815 -0.019580917 0.005868092 -0.10189455 -0.7899712 0.14307797 -1.0002575
-0.038913846 -0.020191213 0.06888538 -0.0024084102 -0.06197267 0.008179615 0.25948337 0.020165224
0.49001223 -0.29498637 -0.09234887 0.095286995 -0.49496838 0.107659936 -0.48235872 0.46685132
-0.50980943 0.1962087 -0.050281405 0.5655515 -0.39597568 0.14040945 -0.47042355 0.4663458
-0.07876768 -0.11357913 -0.29257768 0.12224041 0.005372953 -0.11765659 -0.027042367 0.06948307
-0.06805099 -0.021146119 -0.25545973 -0.13014235 0.10409061 -0.262208 -0.2924297 0.09132959
-0.13144824 -0.33075646 0.016377285 -0.019810006 0.10756916 -0.07622095 -0.20191169 0.2360036
-0.1315982 -0.053192053 -0.1688569 -0.019215439 0.11663629 0.1219136 -0.1192492 -0.10040881
0.074274406 0.1126532 -0.037935615 -0.375844 -0.2381443 0.22540282 0.1952393 0.064925894
-0.22735927 -0.3061769 0.09951724 0.12458527 -0.07992625 -0.09092153 0.1354928 0.05797775
0.0440435 0.09401338 -0.27427965 0.02486308 -0.19223231 -0.11875214 -0.054443143 -0.20823446
0.12530239 -0.12921305 -0.09257294 -0.06886317 0.04570637 -0.22182743 -0.108342275 -0.31885973

item_tower.feedforward.2.bias f4 [32]
00000000: 7862 84be 158e 3dbe c74d 74bd 7e6f 33be
00000010: ff30 4f3e 2e26 4cbd f181 0e3e 4300 17be
00000020: 6374 81be 2f2a ee3d 4dcb debd 76da f53d
00000030: f097 67bd a417 64be 9481 cd3d c19e 60be
00000040: 38f2 56be ec6c 1cbe 2c36 69be 6e6c 3dbe
00000050: f15a 613e 7781 09be 42df 83bc 297e 093e
00000060: 173f 3abd cefe e3bc 8ab9 90be ad7a d2bc
00000070: e76e 2dbe 36ac 19be 5c5c 023e 73f2 2ebe
-0.25856376 -0.18511231 -0.059644487 -0.17523 0.20233534 -0.0498411 0.13916756 -0.14746194
-0.2528411 0.1162914 -0.1087862 0.12004559 -0.056541383 -0.22274643 0.10034481 -0.2193556
-0.20990837 -0.15275925 -0.22774571 -0.18498394 0.22007348 -0.13428293 -0.016097669 0.13427033
-0.045470323 -0.027831461 -0.28266555 -0.025693262 -0.16936837 -0.150071 0.12730545 -0.17084675

item_tower.feedforward.4.weight f4 [32, 32]
00000000: 5341 8fbb 9dc4 4a3b 1b97 3d3e dbcc 6dbe
00000010: c612 62be 0a80 d5be c6e9 293e 7643 9e3e
00000020: d42a 7dbc 389c 0ebe b557 c13e c1d2 413e
00000030: 6de0 87be 291a 1c3e 1ccb 86be cf1e 95be
00000040: 3fa1 51be 6685 33be d46d 41be 3843 81be
00000050: 7661 3dbe 47c2 17be d917 f03e 748a b2bc
00000060: 9d98 623e 24b3 88be 1202 e73d c47c 063d
00000070: 0ceb 8dbd 3abc 9ebe 473e 49be f6ce 02be
00000080: 2af1 283d 2d16 a03e 3d20 923e ff6e b8be
00000090: 310a afbc 282f e73d edf7 ac3e f1b9 d9bd
000000a0: d36a c4bd 17b2 913e f6a0 7cbe 4112 dd3d
000000b0: 1c64 2cbe 5d41 18be fb62 aebe 8685 7c3e
000000c0: 5473 8b3d cc2c e4bd d536 a0be 12d0 08bf
000000d0: aa36 21bd e3d7 113c 1f20 09bd 708d 783d
000000e0: 2a8c 38be ed46 b63e 0110 08bf b0c5 553f
000000f0: 3e66 373e 4bae 18be ddcf bd3e 6f8c 9e3d
00000100: 5364 8dbe 6c0f 423e 35c5 60bd 31a8 673e
00000110: 69ea febd 6112 66be 50a9 2abf 3b4e 493d
00000120: 127d ea3e f934 2f3d 19ba 9bbe 4aac 953e
00000130: ad96 34be 5fa1 0d3e 0312 823e c7f5 80be
00000140: 6ae0 203e 9c16 a43c cda0 b23e 2b3b 0b3e
00000150: a48e 093d e796 38bd 2f47 213e 5b88 033e
00000160: c6aa 37be 05bc 3a3e 66f4 143e 8a76 5abe
00000170: 3b00 1cbe fd8c 9e3d 33fd 1fbe b847 04bd
00000180: d7a8 a4be 961f 84bf 4101 b2be 6ced dcbd
00000190: 62e9 de3d 16ad 6cbe 3811 8c3e caa6 f1bc
000001a0: f87e 72be 13d2 863e d185 25bf efe8 59be
000001b0: 23a5 c43e 066a 34bd e600 0fbe 646f bbbc
000001c0: 07a0 443d 2bb1 363e 3d14 613c d0d2 60be
000001d0: 5dad 74be 0a79 9dbd 5bcc ddbe 06cc af3c
000001e0: c858 273e a2fe 9e3d 83de f3be 3803 d03e
000001f0: 21ac 6ebd 09a3 103c 29aa b53d 7db2 003c
00000200: 00f9 0f3e f524 653e 2547 48be ee52 9f3c
00000210: 0b58 50be b6e0 a7be 9fd9 e2be c730 d53d
00000220: 4b17 b43e cd4d b7bc bd57 9bbe 4440 c43e
00000230: d9f9 ccbd 88ba fb3d 3df6 7dbd d51e 563d
00000240: f1ea 023e ff2f 87bd a9ed 91be 0e42 243d
00000250: 9e59 cd3d 73e6 e13d 3ab7 8c3e 2de2 a1bd
00000260: 5b72 55be 9600 c03d 76f4 57bd 1936 f83e
00000270: b914 e2bd 47a4 0abf 5cae 283e 2126 0fbe
00000280: 28aa 48bd 79c6 86be 1776 89bd b4ae 80bd
00000290: b0b9 2dbc e3a0 87be f6e2 94be 1a41 a3be
000002a0: d913 553e fb98 9abc ceac 85be faee c9bd
000002b0: 39f2 6c3e d12c 333c ede0 143e 0eb6 04bd
000002c0: 5988 6d3e e14a b5bd 205c edbd ca92 123e
000002d0: fb1e 4abc b331 0ebe 238f 6fbe 7d18 2cbe
000002e0: 185e ddbe 6aa5 c8bd 154c 82be ee0f f9be
000002f0: 386f 5dbd ec23 55be 5bc1 6c3d 4b06 5fbd
00000300: 06b3 acbd f1df 09bd 357b 0a3e 5056 c3bc
00000310: 157e 693d 2f68 a5bd 1150 d8ba 0c10 8fbe
00000320: c532 91be 8d60 c4bd 146b 933e be11 dcbd
00000330: e3e9 86be b7c7 a1bd 1fbc 263d 609c ae3c
00000340: 1939 703c a22a 33bd 93ec 3f3e 80f9 163d
00000350: 9f05 4dbd b508 333e 732f cabd 6690 f43d
00000360: 1489 553e 3701 4bbd 486c 713d d077 4bbf
00000370: 1ea3 06be 15c2 583e c5ec bbbd 513c b33d
00000380: 35ea 65bb 9b5a e33c 4976 7f3e a9c9 54bd
00000390: 6e55 4a3e c20a d03e 05ec 653e ef28 cabc
000003a0: a429 b8be fb6e 00be 24d9 4d3e 6fa5 0ebf
000003b0: 897a 053f b278 573e d6ac 7c3e cb4c 503e
000003c0: 003c acbc 97eb 0ebe 0f8a 873e 0937 313f
000003d0: 08b2 5a3e 902c 663d e4e2 68be d309 43be
000003e0: 4096 a33e 9474 3ebe a3ef 073f 9cbd 40be
000003f0: 90cf 933d e84d 533f e8e7 9abe 4e4a 123c
-0.004371801 0.0030939945 0.18514673 -0.23222677 -0.22077474 -0.4169925 0.16593084 0.30910844
-0.015452106 -0.1392678 0.37762228 0.18928052 -0.2653841 0.15244354 -0.26326835 -0.29125068
-0.20471667 -0.17531356 -0.18889552 -0.25246596 -0.1849421 -0.14820205 0.46893194 -0.021794535
0.2212853 -0.26699173 0.11279692 0.03283383 -0.06929597 -0.3100298 -0.19652663 -0.12774262
0.041245617 0.3126692 0.2854022 -0.36022183 -0.021367164 0.11288291 0.33782902 -0.10631169
-0.095906876 0.28456184 -0.24670777 0.10794497 -0.16835064 -0.14868684 -0.3405989 0.2466031
0.068091065 -0.11141357 -0.31291834 -0.5344249 -0.039358772 0.008901569 -0.0334779 0.06068176
-0.18022218 0.35600987 -0.5314942 0.8350477 0.17910096 -0.14910237 0.3707265 0.07741629
-0.27615604 0.18951195 -0.05487557 0.22622754 -0.12447054 -0.22467948 -0.666646 0.049146872
0.45798546 0.042775128 -0.3041542 0.2923301 -0.17635603 0.1383109 0.25404367 -0.25187513
0.15710607 0.020030312 0.34888306 0.1359679 0.0335833 -0.045065787 0.1574981 0.12844984
-0.17936239 0.18235786 0.14546356 -0.21334282 -0.15234463 0.07741735 -0.15623932 -0.03229496
-0.32160065 -1.0322139 -0.34766582 -0.10787472 0.10884358 -0.23112902 0.27356887 -0.029498477
-0.23681247 0.2633215 -0.6465731 -0.21280263 0.3840724 -0.044046424 -0.13965186 -0.022880264
0.048004176 0.17841022 0.013737735 -0.21955419 -0.23894258 -0.07689102 -0.43319973 0.02145959
0.16342461 0.07763411 -0.476307 0.40627456 -0.058269624 0.008827933 0.08870346 0.007855055
0.1405983 0.22377379 -0.1955839 0.019448724 -0.20346086 -0.32788628 -0.44306657 0.10409694
0.3517402 -0.022375965 -0.30340376 0.3833028 -0.10008592 0.122914374 -0.06200241 0.052275497
0.12784936 -0.066009514 -0.28501633 0.040102057 0.10026859 0.11030283 0.2748354 -0.07904468
-0.20844404 0.09375112 -0.05272337 0.48478773 -0.11039109 -0.5415692 0.16472763 -0.13979389
-0.0489904 -0.26323298 -0.06711977 -0.06283322 -0.010603353 -0.26489934 -0.29079407 -0.31885606
0.20808353 -0.018871775 -0.26108402 -0.09860034 0.23139276 0.010935978 0.14538927 -0.032400183
0.23196544 -0.08852173 -0.11589837 0.14313808 -0.012336488 -0.13886146 -0.23394446 -0.16806217
-0.4323585 -0.09797175 -0.2544867 -0.48644966 -0.054061145 -0.20814484 0.057801586 -0.05444936
-0.084325835 -0.033660833 0.13523562 -0.023844868 0.057005007 -0.08076512 -0.0016503354 -0.2794193
-0.28359047 -0.09588728 0.28792632 -0.107455716 -0.26350316 -0.07899421 0.04070675 0.0213148
0.014662051 -0.04374183 0.1874259 0.036859035 -0.05005419 0.1748379 -0.098723315 0.11941604
0.20853072 -0.049561705 0.058941156 -0.79479694 -0.13148162 0.21167786 -0.091760196 0.08751739
-0.0035082225 0.027753165 0.24947466 -0.05195013 0.19759151 0.40633208 0.22453316 -0.024677722
-0.3596927 -0.12542336 0.20102364 -0.5572118 0.521401 0.21042135 0.24675307 0.20341794
-0.021024704 -0.13957058 0.26472518 0.692246 0.21356976 0.05619484 -0.22742802 -0.19046716
0.3195057 -0.18599159 0.5310003 -0.1882233 0.07217324 0.8254075 -0.30255055 0.008928848

item_tower.feedforward.4.bias f4 [32]
00000000: 6f0e 123e 21ee 1bbe afd5 52bd 6b3a 90bd
00000010: dfdb 68bc cd3c f53d bcb7 a33d b77a 763d
00000020: a7b5 a93d fcb1 82be 6c56 c1bc 404e 143b
00000030: 0c9e 2d3c 9930 16be 2dab c7bd 943b 23be
00000040: 1302 243b eaa9 32bd bb17 713c 84b0 103e
00000050: a92f f33c 25f1 a63d e4fd 2fbe 3274 aa3d
00000060: 9a9c 973f 4cd3 e23d 0d66 8a3d 5d63 7abd
00000070: 0b6d 84bf 5beb 6a3e a108 ac3d cc36 00be
0.14263318 -0.15227558 -0.051473316 -0.07042392 -0.014212578 0.119744875 0.07994029 0.060175624
0.082866006 -0.25526416 -0.02360078 0.0022629648 0.010596763 -0.14666976 -0.09749446 -0.15940696
0.002502565 -0.043619074 0.01471513 0.14129835 0.029685812 0.081514634 -0.17186695 0.08322944
1.1844666 0.11075458 0.06757746 -0.061129916 -1.0345777 0.22941343 0.08400083 -0.12520903
