models/multiple_listens_model.pt (torch, 82865 bytes, 14 tensors)

au f4 [32]
000000 3d b5 1a 3f 14 27 01 3e 91 26 2c 3a bb fb 50 3d
       0.604328 0.12612563 0.0006567026 0.05102132
000010 9e 14 d7 3e 02 35 26 bd 48 eb ee 3b 35 01 1c 3d
       0.42007917 -0.040577896 0.0072912313 0.03808709
000020 73 6e 9a bd 25 4b 8a 3e f5 bf d5 3c 96 46 d9 bb
       -0.07540598 0.27010456 0.026092509 -0.006630729
000030 0f af 26 bc f0 b0 f5 bb 17 a7 20 3d 57 10 d5 bb
       -0.010173573 -0.0074978992 0.03922185 -0.006502192
000040 e9 15 62 be f4 f4 34 3d 62 4d b7 bc 6a 0e 89 3d
       -0.2207867 0.044178918 -0.022375766 0.066922024
000050 6c d3 66 bd aa f9 cd 3c 23 0a 43 ba 5c 69 d4 bc
       -0.05635397 0.025143463 -0.000744017 -0.025929146
000060 73 84 ab bc b0 83 b7 3d b0 a2 90 3d 2f f9 f3 bc
       -0.02093718 0.08960664 0.0706228 -0.029781906
000070 1c 68 b0 3e 14 cd 6c 3e c1 1e 76 3c fa 4c 45 3d
       0.3445443 0.23125106 0.015021981 0.048169114

av f4 [32]
000000 31 8b e8 3c 33 dc 38 bb f4 02 1f bd 24 12 0f 3d
       0.028386684 -0.002820742 -0.038821176 0.03492941
000010 a0 dd 07 3c 39 69 46 be aa 22 6b 3b ca 2d ad 3b
       0.008292586 -0.19376077 0.0035878816 0.0052849995
000020 44 c7 f4 bc a5 17 3f 3c 84 0e 7f 3d 54 e4 fa bc
       -0.029880174 0.011663352 0.062269703 -0.030626453
000030 79 40 0e 3f 79 bc 65 bc 2f 66 25 bc 03 9d 08 be
       0.5556713 -0.014021986 -0.010095163 -0.13341145
000040 50 5c ad bc dc f0 ab 3b 7f 95 5e 3c bf ef 39 bc
       -0.021162182 0.0052472185 0.013585447 -0.011348664
000050 ae dc 68 bc bb a8 9f b9 64 81 47 3e fa ef 69 3c
       -0.01421277 -0.00030452557 0.19482952 0.014278406
000060 12 6c a4 3b 67 c6 11 3c 8c 55 ab 3d 32 1c 84 3c
       0.005017766 0.0088974 0.08365926 0.016126726
000070 fa b4 a4 bc 1a 48 93 3c 38 e6 26 3f 0f 15 47 bd
       -0.020105828 0.017978717 0.65195036 -0.048604067

user_tower.feedforward.0.weight f4 [64, 37]
000000 d9 a6 71 bc 48 f3 5b be 22 67 b6 3d 42 81 bc 3c
       -0.014749252 -0.21479523 0.0890639 0.023010854
000010 10 da e2 40 22 47 9a bf f5 38 8c bf 5d 18 87 3d
       7.089119 -1.2052958 -1.0954882 0.06596444
000020 48 b4 f6 be 2a b3 7f bf 8f 42 25 3f c8 e2 96 be
       -0.4818442 -0.9988276 0.64554685 -0.29469895
000030 de b5 2a bf ac 7b 79 3f 45 74 7b bf af a0 bc be
       -0.6668376 0.97454333 -0.9822429 -0.36841342
000040 70 a7 58 3e 0d d4 b9 bc 8c ba 89 3c 7a 24 fb be
       0.21157622 -0.022684122 0.016812585 -0.49051267
000050 bb 5b cb 3c 06 59 8b 3f e7 6d 30 bf b9 96 a1 3e
       0.024824014 1.0886543 -0.689177 0.31560305
000060 a2 73 88 bf cb d2 51 3f 72 1f 14 be 58 5d 92 3d
       -1.0660288 0.8196227 -0.1446512 0.0714671
000070 b2 a9 1b 3f 01 4f 00 3f 95 08 5b bf 31 64 80 bf
       0.6080581 0.5012055 -0.8555997 -1.0030576
000080 2a 3f cc 3e 85 89 8a bf 66 2f 87 bf 3c a9 19 3d
       0.3989194 -1.0823218 -1.056134 0.03751491
000090 ab 9b 8b bf 26 e6 82 be 77 7f 2f 3e 01 97 1b 3d
       -1.0906881 -0.25566214 0.17138468 0.037985805
0000a0 d9 0b 17 be df 63 ad c0 87 3d 26 3f 92 63 00 3f
       -0.14750613 -5.4184413 0.64937633 0.5015193
0000b0 ca 16 20 3e 09 ae cb 3e 6d 3a 13 3f b6 52 d6 be
       0.15633693 0.39781216 0.57511026 -0.41859978
0000c0 ac de 88 3e 23 7f 57 3e b3 35 d4 be c8 b8 fe 3e
       0.26732385 0.21044593 -0.4144722 0.49750352
0000d0 5b f8 d3 3e 44 94 21 be 9e 85 34 be cd 30 68 3e
       0.41400418 -0.15779215 -0.17629096 0.22674866
0000e0 c4 e3 2f 3d 75 7f 32 3e b0 dc de be f6 83 e0 3e
       0.042941824 0.17431433 -0.43527746 0.43850678
0000f0 a8 21 31 be d2 fe 0a 3f b9 58 e5 be 66 97 d9 3d
       -0.17297995 0.54295075 -0.44794253 0.1062458
000100 02 ef cb 3b 24 6c a0 be 81 89 12 be cb d1 e6 3e
       0.0062235603 -0.31332505 -0.14310266 0.45081934
000110 a3 6c f6 3e 54 02 19 bd e1 2e 0e 3f 0f 58 21 3f
       0.48129758 -0.037355736 0.5554028 0.6302499
000120 61 3e 3d be 3d 28 26 3f bf 76 29 be b0 f7 7a be
       -0.18480827 0.6490515 -0.16549204 -0.24508548
000130 c7 cd fb bd 5c 89 2f 3e 9f 42 07 40 47 f4 d2 bd
       -0.12295108 0.17142242 2.1134412 -0.103004985
000140 39 85 a4 be 23 92 7b 3d ea 74 f3 bd 33 df a2 be
       -0.3213289 0.061418664 -0.11887534 -0.31810912
000150 4c f3 7c 3e b3 2c fa be ed 4b f1 bd 27 70 0e 3e
       0.24702185 -0.48862228 -0.1178206 0.1390997
000160 9d 7d ab be ed dc c8 bd aa 8b 52 3e 67 ca 8f 3d
       -0.33494273 -0.09807763 0.2056109 0.07021027
000170 a9 a5 cf bd a4 c5 09 bd 62 37 85 be ee c3 6f 3e
       -0.10139019 -0.03363575 -0.26018816 0.23414585
000180 e3 f7 bf bd 47 3b aa 3e 38 0d 39 be 0a 78 39 3e
       -0.093734525 0.3324835 -0.18071449 0.18112198
000190 03 ca bc bc 0a 0b 53 3c 4b ae ee 3d 43 a7 8c 3e
       -0.023045545 0.01288105 0.116543375 0.2747136
0001a0 4e 90 48 be f5 35 52 be 6f 92 70 3e d1 6d bf be
       -0.19586298 -0.20528395 0.2349336 -0.3738847
0001b0 06 86 ca be 3a 4f 0d be a6 15 5f be 5f 7c 19 3b
       -0.39555377 -0.13799754 -0.21785602 0.0023420078
0001c0 ea 38 67 be 4c 92 24 3e bb 46 ba be 96 5f 96 40
       -0.22580305 0.16071433 -0.36382088 4.699168
0001d0 88 01 31 bf 71 8f ef be 3b aa 2b bf 03 95 d7 be
       -0.6914296 -0.46789125 -0.67056626 -0.42105874
0001e0 b6 9c 50 bf 14 d7 d8 3e 52 dd fb 3e 6b 19 b4 be
       -0.8148912 0.42351592 0.49192291 -0.35175642
0001f0 b3 3a 42 3f 69 6f 4e bf 75 96 9f be bd 13 5a be
       0.7587082 -0.8063875 -0.31169477 -0.21296592
000200 79 d7 5e 3e 38 fa 77 be 3e 1b 97 be d4 a8 b3 3c
       0.21761884 -0.24216545 -0.29512972 0.02193109
000210 7c 2a 38 3f 45 cc bb be 52 01 93 3e 92 26 fb be
       0.71939826 -0.36679283 0.28711945 -0.49052864
000220 b4 bf 06 3f 82 9d ea be 64 81 ab be 03 3d fd 3e
       0.52636266 -0.45823294 -0.33497155 0.4946061
000230 2e fe d9 3e 1c 6f 05 bf 7a e2 25 bf 0e 74 88 3e
       0.42576736 -0.52122664 -0.647987 0.26651043
000240 90 e3 fa be 55 34 4e bf df 24 a0 be 22 5a 1c bf
       -0.4900174 -0.805486 -0.3127813 -0.6107503
000250 e1 fa b0 bb 8c a9 27 3e 21 aa 10 be 73 91 db 3c
       -0.005401001 0.16373271 -0.14127399 0.026802754
000260 f1 3b 33 3d dd 31 e4 bd d3 6f 16 be 63 21 02 3e
       0.043758336 -0.11142323 -0.14691095 0.12708049
000270 43 20 aa 3d 51 24 96 3b de 10 18 3e 23 df 1c 3e
       0.08306935 0.004581966 0.14850184 0.15319495
000280 b0 c8 90 3d cf 09 9e bd b7 a4 12 3d 8c 7c 07 bd
       0.07069528 -0.077167146 0.035801616 -0.03307776
000290 5b 05 26 be a7 23 77 bd f5 46 e9 bd 20 9a 04 3e
       -0.1621298 -0.060336735 -0.11390487 0.12949419
0002a0 ca 4a 5e 3c f4 f0 0a 3d 15 06 79 3d e5 9a 5a bd
       0.013567636 0.033921197 0.060796816 -0.053370375
0002b0 f0 1a a9 3c 7f 86 a3 3d db 7a e2 3d 2b d0 17 3e
       0.020642728 0.079846375 0.11058589 0.14825504
0002c0 13 56 78 bd c2 91 9d bc da 41 78 3d 26 17 ff bd
       -0.06062896 -0.019234542 0.060609676 -0.12455587
0002d0 92 dc 42 3b 90 46 84 bd 2b 2f a4 3d bb 7e 19 3e
       0.002973352 -0.06458771 0.08016809 0.1498975
0002e0 f9 b3 25 be 43 19 ef bd 5a 08 db bd e3 a9 ac ba
       -0.16181935 -0.1167474 -0.10694952 -0.0013173189
0002f0 90 de dd bc b3 85 f4 bd f0 81 8c bd 13 9b 7f 3d
       -0.027083665 -0.119395636 -0.06860721 0.06240375
000300 28 67 d6 bc bc 54 c3 bd 8d 64 1e be 90 49 09 bd
       -0.026172236 -0.09537646 -0.15468045 -0.03351742
000310 62 41 fa ba d9 1a 17 be a3 14 e9 3c 2e 3e 25 bd
       -0.0019092972 -0.14756335 0.028452223 -0.040342502
000320 ff 5c 26 bd 9c 66 12 bd 6a 15 af bd 4f f8 53 3d
       -0.04061603 -0.035742387 -0.08549006 0.051750477
000330 47 44 81 bd 0c 5f d2 3d 2a 92 a8 3c 9a c2 00 be
       -0.06311851 0.10272035 0.020577509 -0.12574235
000340 9e d7 6c bd f2 27 51 3d 86 1f 92 3d 6e 6e 66 bc
       -0.057822816 0.051063485 0.07134919 -0.014064414
000350 94 2f 0b 3d a5 29 0a 3e 38 13 fe 3d b8 96 05 3d
       0.03398092 0.13492449 0.124060094 0.03261444
000360 9d df ab 3d e2 de 16 be 28 81 1e bd d4 3b 09 3e
       0.0839226 -0.1473346 -0.03869739 0.13401729
000370 8c 58 08 3e 2d 96 97 39 10 21 ce 3c b7 69 1c 3c
       0.13315028 0.00028912854 0.02516225 0.009546689
000380 fd c0 e4 bc 6c 3d 78 bd 06 c6 d4 c0 2a 1b 2a 3f
       -0.027924055 -0.06060545 -6.649173 0.664477
000390 18 67 f9 3e cb 4b 31 3d 25 78 d5 3d 27 55 09 3f
       0.48711467 0.043285172 0.104233064 0.5364556
0003a0 89 44 da be 08 4f 19 3e 0d 45 4c 3e 77 9c 1f bf
       -0.42630413 0.14971554 0.19948216 -0.6234812
0003b0 42 43 f8 3e 39 ee 97 3e 31 32 d7 3d 7c 22 f5 3a
       0.48488814 0.29673937 0.1050762 0.0018702294
0003c0 7b 05 a2 bd a3 a8 e9 bc 5f bd 81 3d a9 54 dc be
       -0.079112016 -0.028522795 0.06334948 -0.4303334
0003d0 d4 ee 91 3e df 3f a5 bd 3f 71 05 3f 50 36 b2 be
       0.28502524 -0.08068823 0.52125925 -0.34807062
0003e0 17 76 bd 3d 63 60 8f bd 31 a6 d9 bd e2 a4 6a be
       0.092510395 -0.07000806 -0.106274016 -0.2291446
0003f0 4c 13 ac 3e 38 22 be 3e fd 73 e2 3d 67 36 08 3f
       0.33608472 0.37135482 0.11057279 0.5320801

user_tower.feedforward.0.bias f4 [64]
000000 24 f8 9c bf da ae 26 3f cb eb a3 be 7f 53 15 bf
       -1.2263227 0.6511055 -0.32015833 -0.5833053
000010 0f 7c e7 bd 03 f4 f3 3d af a7 06 3f 79 bf d7 3d
       -0.11302959 0.11911776 0.52599615 0.105345674
000020 71 fa 51 3d cd 08 7e bf 43 ba 08 be 9d b2 03 bb
       0.05126423 -0.9923218 -0.13352303 -0.0020095475
000030 74 db 16 3f 34 7d 80 3e 70 c7 bc bf 97 ef d1 3c
       0.5892861 0.25095522 -1.4748363 0.02562694
000040 c7 a7 63 bf 72 22 05 bf 60 d1 87 be 09 78 21 3f
       -0.8892788 -0.52005684 -0.26526928 0.63073784
000050 48 bc ca 39 3f 7d 50 3f c1 89 a6 bc cd d4 be 3a
       0.00038668723 0.8144111 -0.020329358 0.0014559269
000060 a2 d3 af be 1b 13 33 3e e1 b6 1b bd ef 30 93 3d
       -0.3434115 0.17487757 -0.038016204 0.07187068
000070 01 f5 8c 3d cd 37 66 3f 74 f2 f5 bd 6a 5d 5c 3e
       0.06882668 0.89928895 -0.12009135 0.2152001
000080 6b db 15 3f a1 0f 54 bf a3 74 86 bd 9f fb ae 3d
       0.5853793 -0.8283635 -0.065652154 0.08544087
000090 b8 92 6f 3f 93 40 aa be 92 a7 f0 3e 2b 98 c0 bd
       0.9358325 -0.3325239 0.47002846 -0.09404024
0000a0 89 4d 44 3f c6 c3 94 bf 8b 99 ee 3b 76 33 60 3f
       0.7668081 -1.1622245 0.0072814873 0.87578523
0000b0 77 eb dc 3e 45 63 fa bd 27 b3 16 be e8 3f a3 3d
       0.43148395 -0.122259654 -0.14716779 0.079711735
0000c0 5e c4 33 3e f7 97 b3 3c 18 c7 56 be be 57 9f bd
       0.17555377 0.021923048 -0.20974386 -0.07780407
0000d0 f5 1d 1a bf 97 51 06 3e 0d b2 c2 bd 28 79 60 3f
       -0.6020196 0.13117062 -0.09506617 0.8768487
0000e0 fe c9 cf bd f6 ff 8c bf e2 87 84 3d d0 e4 45 3d
       -0.10145949 -1.1015613 0.0647123 0.048313916
0000f0 8d 42 1f be c2 45 61 3d 2b 2b 1a 3e 36 fd 9c bf
       -0.15552731 0.054998167 0.1505553 -1.2264774

user_tower.feedforward.2.weight f4 [32, 64]
000000 d9 05 13 bc d3 68 b6 bd a3 83 46 bd db 60 c0 bd
       -0.008973562 -0.089067124 -0.048465382 -0.09393474
000010 ec 29 80 bd ff f3 79 bd 6a e5 20 be 27 ae 8e bd
       -0.06257996 -0.06102371 -0.15712515 -0.06966811
000020 a4 fd 42 3d cd ea b3 bb c7 9f bc 3d e0 a0 0d 3d
       0.04760517 -0.005490637 0.092101626 0.03457725
000030 d4 24 45 be 50 01 e8 bd b0 b0 2a bd 6c f6 de bd
       -0.1925233 -0.11328375 -0.04167241 -0.10886845
000040 a4 56 c6 3c 90 4d 60 3d 63 53 f4 3d 22 5a 34 be
       0.024211235 0.05476147 0.11929967 -0.17612508
000050 49 95 87 bd 6c 04 ae bd dc e0 cb bd b8 15 19 3d
       -0.06620271 -0.08496937 -0.09954998 0.03737423
000060 41 92 2a be df 19 98 3d 8f 47 ec bd b8 1d f3 bc
       -0.16657354 0.074268095 -0.11537086 -0.029677257
000070 96 f1 eb bd a6 6f 5b 3d fe e1 89 3d 51 ff da bd
       -0.11520688 0.053573273 0.06732558 -0.10693229
000080 4f be 81 bc 2a 7b fd 3b 26 0c b3 bd 9c 6f 0a bd
       -0.015837817 0.0077356296 -0.087425515 -0.033797845
000090 38 ab ee bd a9 21 b3 bd 59 4b a2 bd e0 85 02 bd
       -0.11653751 -0.087466545 -0.07924528 -0.031865954
0000a0 e0 8b 1a be 6b 33 a9 3d a2 98 f5 bd b2 cf 6d b9
       -0.1509242 0.0826176 -0.11992003 -0.00022679454
0000b0 d8 5c d8 3c fd 09 85 3d 37 0e f6 3d e0 e5 e6 3c
       0.026411459 0.06496046 0.1201443 0.028185785
0000c0 df 2f f1 bb a2 b0 00 be c2 ef c1 3d 1f 05 d6 3d
       -0.007360443 -0.1256738 0.09469558 0.104501955
0000d0 a5 e3 5a 3d 65 e8 9a bd ca f4 47 3a 73 c8 06 be
       0.053439755 -0.07563857 0.0007627724 -0.13162403
0000e0 0e 62 d7 bd 7e 42 84 bd c0 27 c1 bd 96 fc 6d 3d
       -0.10516749 -0.06457995 -0.0943141 0.058102213
0000f0 40 9f 9e bb e2 5f ea bd 64 66 9f 3d cc b1 0d be
       -0.0048407614 -0.114440694 0.07783201 -0.13837355
000100 4a c9 93 3e 5a 5c 9b be 93 05 15 be c2 c9 3c be
       0.2886451 -0.30343896 -0.14552908 -0.1843634
000110 00 fd 52 3b c6 c9 71 bd 01 6d 20 be 3e e5 39 be
       0.0032194257 -0.059030317 -0.15666582 -0.18153855
000120 86 ab f6 3d 7a a6 4d 3e bb 67 30 bc a0 d4 6c 3d
       0.12044434 0.20083037 -0.010766919 0.057819963
000130 7e c6 ad be 61 2c 69 3e 4a 76 98 3e 06 ee d3 3d
       -0.339405 0.22770835 0.29777747 0.10348134
000140 fb 2f 03 3e bf 3c b1 3d c4 64 a0 bd 77 d8 09 bd
       0.12811272 0.086541645 -0.078317195 -0.033653703
000150 3b ec 54 3d 54 15 df bd 1c ee fa bd 3c 26 24 3d
       0.0519831 -0.1089274 -0.12252447 0.040075526
000160 c1 a2 25 3e ce fc 84 3c ea 76 dd 3d 3c a2 18 3d
       0.16175367 0.016233828 0.10813697 0.037264094
000170 a8 1f 82 3e 68 3b d5 bc 99 28 dd 3d 11 51 4a be
       0.25414777 -0.026029304 0.10798759 -0.19757487
000180 ea d0 b3 be a2 de 06 be 92 02 cb bd e5 77 79 bd
       -0.35120326 -0.13170865 -0.099125996 -0.060905356
000190 ac 3b 64 be 42 ed 03 3e a8 30 13 bf 14 f9 b1 bd
       -0.22288388 0.12883475 -0.5749612 -0.08690086
0001a0 f7 78 7c bd 1b 98 6a 3e 5f d6 b7 3d f3 0e 8c be
       -0.0616388 0.22909586 0.08976435 -0.27355155
0001b0 85 05 e6 3e 38 77 a5 3d d6 16 72 bc c0 a9 9b 3d
       0.44926086 0.0807938 -0.014775952 0.076007366
0001c0 b2 d2 9c be f2 9e 8c 3d e7 48 57 3d 0c a2 27 be
       -0.30629498 0.06866254 0.05255976 -0.1637041
0001d0 83 93 8f 3d 9a 31 3b bd 37 f9 d8 bd 01 96 47 be
       0.070105575 -0.0457016 -0.10594409 -0.19490816
0001e0 df 2b 13 3e 8d fd 69 bd 42 65 d2 3d 09 3a b3 3e
       0.14372204 -0.05712657 0.1027322 0.35005215
0001f0 70 a1 42 bd 37 85 d1 bb d0 98 b1 3d 28 ba 5f 3e
       -0.04751724 -0.0063940543 0.08671725 0.21848357
000200 d1 2d 3a bd 44 56 05 3e d3 a8 95 3d 2d 38 40 3e
       -0.04545385 0.13021189 0.07307591 0.1877143
000210 a0 66 33 3c 0e 6f a5 bc fd 2b 30 3d ac ad ce be
       0.010949761 -0.020194557 0.0430107 -0.40366876
000220 a8 a1 82 bc ec a8 3c 3d 11 b0 52 bc dc 89 7c bd
       -0.015946224 0.046059534 -0.01285936 -0.06165491
000230 a1 57 8a 3e b9 a7 1d bf 9b 39 8b bd 56 12 97 3d
       0.2701998 -0.6158405 -0.06798097 0.07376544
000240 fb cd cc 3c cd 8e 8a 3c bd 62 11 be 59 87 e4 3d
       0.025000563 0.016913796 -0.14197822 0.11158628
000250 43 50 17 bc 47 d9 f0 3d ea 3e e5 bd f0 93 21 bd
       -0.0092354445 0.11760192 -0.111936405 -0.039447725
000260 e5 85 47 be c9 44 db 3d 73 3c 09 bd f8 8d f9 bd
       -0.1948467 0.10706479 -0.033504914 -0.121852815
000270 36 15 bb bf dd c7 a6 be 9b fb ce bc cb 15 51 3e
       -1.4615848 -0.3257436 -0.02526646 0.2041847
000280 56 28 86 3e 73 4e 19 3e 26 82 b7 3d 8b 2d 55 3c
       0.2620265 0.14971332 0.08960371 0.013011347
000290 7e aa 00 be 7d b8 61 3b cd 9c 93 3e a8 d1 00 bd
       -0.12565038 0.003444224 0.28830567 -0.031449944
0002a0 c2 23 03 be d1 aa 3e 3d 10 c3 51 3d 8a b4 c5 3d
       -0.1280661 0.046549622 0.051211417 0.09653576
0002b0 fd 00 7e 3e ea 60 83 bd 6b 14 79 3d ec 98 0c bd
       0.24805064 -0.06414969 0.060810488 -0.034325525
0002c0 2e 34 66 be 7b db ac be f9 10 87 3d 15 3d 01 be
       -0.22480842 -0.337612 0.06595034 -0.12620957
0002d0 3a 4d ca 3e 2c 87 b8 bd 47 02 8a be 52 b5 3b 3e
       0.39512044 -0.09010157 -0.26954862 0.18330887
0002e0 e2 9e 94 3d da 5b 3c 3c 3c 7a a3 3d 7a e5 47 be
       0.07256867 0.0114965085 0.07982299 -0.19521132
0002f0 dc 1d 64 3d 6d bc 84 bd ca 38 8d 3d eb f1 88 bd
       0.05569254 -0.06481252 0.06895597 -0.06686767
000300 39 c7 fb 3b 42 f3 ab bd ca a3 d1 bd 7a 01 e5 bd
       0.0076836613 -0.08396007 -0.102363184 -0.11181922
000310 56 93 ac bd 8e 9c f2 3d 87 e4 a0 bd 9b 3a a5 bd
       -0.084265396 0.11846267 -0.07856088 -0.08067819
000320 80 83 a1 3a eb d7 d8 3c 54 19 5a 3d 2c 81 52 bd
       0.0012322515 0.026470145 0.05324681 -0.05139272
000330 38 f1 e4 bc d6 26 03 be bd 40 14 be 18 35 c2 bd
       -0.027947053 -0.12807783 -0.1447782 -0.09482783
000340 8a a7 81 bd f0 f8 47 bc 68 6c f3 bd 68 48 98 bc
       -0.06330784 -0.012205347 -0.11885911 -0.018589213
000350 04 dd 16 bd 9a 2c a4 3d 68 51 d1 bd e8 13 e6 bc
       -0.03683187 0.080163196 -0.10220605 -0.028085664
000360 59 02 92 3d 74 34 79 bd 54 7e 0d 3d b0 ae af bd
       0.07129354 -0.06084104 0.034544304 -0.08578241
000370 b6 2a cb bd 50 38 b4 3c c6 21 f7 bd 08 33 1b 3d
       -0.09920256 0.021999508 -0.12066989 0.037890464
000380 68 83 91 bd a8 84 a3 bc 82 0d c0 bd 00 7d e8 bb
       -0.07105142 -0.019960716 -0.093775764 -0.0070949793
000390 ce da 1f bd 9c 1e fe bd de ad 97 3c 4c 39 51 bd
       -0.039027028 -0.12408182 0.018515524 -0.051080033
0003a0 34 71 a3 bc c3 b5 d8 bd 80 18 1f 3c 4b 94 5c 3b
       -0.01995144 -0.10581543 0.009710431 0.0033657725
0003b0 78 02 90 bc a8 a5 a4 bc 10 90 65 bd c0 c7 f2 3d
       -0.017579302 -0.020098522 -0.05604559 0.118545055
0003c0 1c 90 87 bd 25 99 b3 3d 12 84 c8 3d fc 8d b4 3d
       -0.066192836 0.087694444 0.097908154 0.08816144
0003d0 10 d6 94 3c 40 05 17 bc 9d fe d5 bd 18 fb 6c 3d
       0.01816848 -0.00921756 -0.10448954 0.05785665
0003e0 da 9a 85 3d 2e 73 15 bd 40 9f fd 3d 3e d2 ba bd
       0.06523676 -0.036486797 0.1238389 -0.09122132
0003f0 ea 58 85 3d a0 25 51 bc 5c 8f 9a 3d 20 09 71 bd
       0.065111 -0.012765318 0.07546875 -0.058846593

user_tower.feedforward.2.bias f4 [32]
000000 00 bd e3 3c 68 c6 ed be ca 77 67 be a2 13 c4 bd
       0.027800083 -0.46440434 -0.2260429 -0.09574057
000010 8c c5 23 bd 92 45 47 bd d5 f4 5c bf 66 8b 83 3e
       -0.039983317 -0.04865033 -0.86311084 0.2569229
000020 ea 9c 1c 3f 49 75 bc be 6f 5a e1 bd 85 cb 3e be
       0.6117693 -0.3680823 -0.11003577 -0.18632324
000030 cc 6c 0d 3d d2 a6 37 3f 8f 56 b3 bc ae 8b 7c be
       0.034527585 0.7173892 -0.02189186 -0.24662659
000040 cf d1 19 bd ce c8 15 3f 38 7f 9d 3d ce eb 8a 3f
       -0.037553605 0.5850953 0.07690281 1.0853212
000050 34 de 2f 3a 2b c6 af be ca c2 92 3e c2 0e 5c be
       0.0006708831 -0.34330878 0.28664237 -0.21490005
000060 da 97 ea be b2 07 b5 3d 2a 89 2b be c0 b4 20 be
       -0.4581898 0.088393584 -0.16751543 -0.1569395
000070 93 7f 3d 3c 40 35 ff bd 91 32 97 bd 47 27 55 3f
       0.011566061 -0.124613285 -0.07382692 0.8326306

user_tower.feedforward.4.weight f4 [32, 32]
000000 30 9a 0e 3d 7f f4 8e 3e 79 57 16 3e a4 e7 86 3d
       0.034815013 0.2792091 0.14681806 0.06587151
000010 5a 8e 88 3d 01 12 82 3e 14 83 94 3e fc 13 74 be
       0.066677764 0.2540436 0.29006255 -0.23835748
000020 1c d6 bb bd 57 1a a9 3c 21 97 14 be f8 35 15 be
       -0.091716975 0.020642443 -0.14510776 -0.14571369
000030 e3 f1 ee bc af 0e 39 be 32 e0 c7 3c fb 22 38 3f
       -0.029168075 -0.18072008 0.024398897 0.71928376
000040 d2 ec 5b bd 12 11 d1 bd b3 cb 18 3e 10 d9 27 bd
       -0.053692646 -0.10208334 0.14921455 -0.04097849
000050 a4 ef d9 3d 92 d2 2a 3e 34 ad 9e be 4e 45 fc bc
       0.10641411 0.16681889 -0.30991518 -0.030794766
000060 0d a4 8e 3e 62 4d 01 3e 1c 38 34 bd 37 b0 13 bf
       0.27859536 0.12627175 -0.043998823 -0.5769076
000070 d3 96 0a be e4 6d 75 bc c2 8a aa 3d c2 c6 57 3d
       -0.13534097 -0.014979813 0.08327247 0.052679785
000080 fd 8b 3a be 9d dd 9c 3e 54 c7 3a 3e 87 db be 3d
       -0.18217464 0.30637828 0.182401 0.09319215
000090 44 b7 f6 3d 9b 3a 9c be be ba 4f 3d 1f 08 67 bd
       0.12046674 -0.30513462 0.0507152 -0.05640423
0000a0 f1 47 24 bd 41 17 fc bd 16 0f e4 3d 35 38 f4 3d
       -0.04010767 -0.12309123 0.1113569 0.11924783
0000b0 e9 e0 88 bc 9d bd b4 bd c9 f4 92 3d ad 03 50 be
       -0.016708808 -0.08825228 0.07175595 -0.20313902
0000c0 01 79 ba 3d 3b 73 45 3e aa 8d 96 be 26 8b c4 be
       0.09105111 0.19282238 -0.29404956 -0.38387412
0000d0 1d 7f 06 3e 0d 61 0b 3f 2b 46 83 3c a4 40 44 3e
       0.13134427 0.5444496 0.01602467 0.19165283
0000e0 41 73 64 3e e3 e4 cb b9 bb e4 aa 3c 20 b3 2e bd
       0.22309591 -0.0003888971 0.02086102 -0.042651296
0000f0 a2 48 d9 bd f1 3b a2 3d 9d 55 0c 3c b5 97 5f 3d
       -0.10609557 0.07921589 0.008565334 0.05458804
000100 c6 00 8b bd df 86 fe bd b3 66 0e bd 74 7f 88 bd
       -0.06787257 -0.12428068 -0.03476591 -0.06664935
000110 af 52 91 bd 83 d0 2e 3e 60 90 17 be bd b4 64 be
       -0.07095849 0.17071728 -0.14801168 -0.22334571
000120 7e a7 06 bd 78 a2 d8 3d c6 43 ce bd 4a 54 af 3e
       -0.032874577 0.105778635 -0.100715205 0.34243995
000130 7a 6d 84 bc 15 50 5a 3e 38 ca 15 be 74 cd ef be
       -0.016165484 0.21319611 -0.14627922 -0.46836436
000140 0d 6e 32 bb be 33 0c be ff 41 30 be 28 46 f9 bb
       -0.002722624 -0.13691613 -0.17212676 -0.00760724
000150 a7 65 c5 bd 57 15 53 be ec 79 0f 3f a2 e4 12 3d
       -0.09638529 -0.20613609 0.56045413 0.035862572
000160 34 4a 34 3d 87 ed 9b 3d d4 55 f3 3d 50 53 21 3e
       0.044016078 0.07613664 0.11881605 0.15754437
000170 06 42 0b 3e a4 d3 17 bd b5 b1 0c be 50 62 d8 be
       0.13599405 -0.03706707 -0.13739665 -0.42262506
000180 27 96 11 3e 84 02 06 3f 9d 50 15 3d 80 43 b2 bc
       0.14217435 0.5234759 0.036453832 -0.021760702
000190 7c 31 5a bd bd a1 25 bf 48 77 94 3e 34 8e 2e bf
       -0.05326985 -0.6469992 0.28997254 -0.68185735
0001a0 21 ec 19 3f c8 ab 44 be 22 a0 05 3e cb d6 0c 3e
       0.6012593 -0.19206154 0.13049367 0.13753812
0001b0 49 93 3d 3e 7b ba 1e bf f0 9a be 3d ce 16 99 be
       0.18513216 -0.62003297 0.09306896 -0.2990021
0001c0 82 ed 90 bd f8 05 be bd f2 39 4c bf 83 9e 74 3d
       -0.07076551 -0.09278482 -0.7977592 0.05972148
0001d0 63 c2 29 3e 1f bf c7 3e 17 88 cb 3e 9b 38 0f 3e
       0.16578059 0.39013 0.39752266 0.13986437
0001e0 77 0e aa 3e e3 be 6f 3d 07 ac f6 3d da c4 f5 3d
       0.3321416 0.058531653 0.1204453 0.12000437
0001f0 1a c0 aa bb c3 bb 15 be 9d 91 1c 3e 99 1d 27 3b
       -0.0052108886 -0.14622407 0.15289922 0.002549982
000200 50 44 c7 3d 51 55 34 3c 4c 98 c0 bc d1 bb 69 bd
       0.097298265 0.011006669 -0.02351012 -0.05706388
000210 7d 00 80 3d 86 cd 99 3e b0 3f 52 3e e0 d1 a3 be
       0.06250093 0.30039614 0.20532107 -0.3199606
000220 38 50 3b bd 0e 70 41 3e 39 16 0e 3e 40 0f 16 be
       -0.0457308 0.18890402 0.13875665 -0.14654255
000230 01 dc df bc 71 84 25 be 8d 57 12 3e fb 45 d1 3e
       -0.027326586 -0.16163804 0.1429121 0.40873703
000240 2f a0 11 be 66 29 1c 3e 80 3a 19 3d 60 0d 31 bc
       -0.14221261 0.15250167 0.037409306 -0.0108064115
000250 af 28 3a 3d 28 82 e7 3e a6 00 28 be 7e 5f ae 3d
       0.045448955 0.4521649 -0.16406497 0.085143074
000260 ac 19 94 3e 7a a0 13 3e 9e 06 16 3e 73 07 d3 be
       0.28925836 0.14416686 0.14650962 -0.4121662
000270 13 da bb 3c 47 76 14 be da 84 4e be 25 f7 06 be
       0.022931134 -0.14498244 -0.20167866 -0.13180216
000280 6e ad fa bd 4e 4d 7c 3d 28 e4 4f 3e d3 9c 95 bc
       -0.1224011 0.06159716 0.20301878 -0.018263256
000290 39 c4 25 bd e9 cf a6 3e be 58 0d bf 0b 76 b6 3e
       -0.040470336 0.32580498 -0.55213535 0.35636935
0002a0 c8 49 cf bd 54 72 cb bd 15 52 2b bd e7 69 b6 be
       -0.101214945 -0.09933916 -0.041826326 -0.35627672
0002b0 54 f1 1e be 62 98 93 bd b8 98 3f bb 39 11 fc be
       -0.15521747 -0.07206799 -0.0029235315 -0.4923189
0002c0 16 c1 30 3e a6 98 cf be 34 46 9b be f6 02 f5 3e
       0.17261156 -0.4054615 -0.30326998 0.47853822
0002d0 85 b2 0f 3c fb d4 c6 be 5c bf c0 3e 81 85 56 be
       0.00877059 -0.38834366 0.37645996 -0.20949365
0002e0 f5 5d c4 bd de 16 c5 bc 90 ac 12 3e 61 04 5f 3d
       -0.095882334 -0.024058755 0.1432364 0.054447535
0002f0 4b 08 85 3a 8f d1 83 3d 97 87 58 bc 7c 89 a5 bd
       0.0010149566 0.064364545 -0.013215921 -0.08082864
000300 9b de 89 3d 00 a8 4c be a7 86 cb bd a9 93 a9 3d
       0.06731912 -0.19985962 -0.09937792 0.08280117
000310 3f 1f 1a be 84 b9 8c be 5a 25 55 3e a1 4b 0d bf
       -0.15050982 -0.27485287 0.2081503 -0.55193526
000320 2c 87 72 be ef cc b1 bd c7 4c f1 bb ca 39 f7 bd
       -0.23684376 -0.08681666 -0.007363889 -0.12071569
000330 0a e8 11 3d a7 b3 0f be 6e 79 d1 bd 08 5c 19 3f
       0.03562168 -0.14033376 -0.10228239 0.59906054
000340 cb ea aa bd d9 a9 22 be 5c f5 81 3e 98 34 01 3f
       -0.083455645 -0.15885104 0.25382507 0.50470877
000350 f5 d5 26 3e 65 6f 20 3e aa af 2d bf ee 6c 1f 3d
       0.16292556 0.15667494 -0.6784617 0.038922243
000360 9d f4 45 bd 51 e2 1c bc 0d 08 1c 3e 9b bc 16 be
       -0.048328985 -0.009575442 0.15237446 -0.14720385
000370 15 aa 17 3b 07 62 04 3e 4a 03 35 3d cf 39 23 3e
       0.0023142148 0.1292802 0.04419259 0.15940021
000380 d8 c1 40 3e 92 06 7f 3e 3f 33 e9 3d 06 7e ae 3d
       0.18823946 0.2490485 0.113867275 0.08520131
000390 85 8c 10 be 95 48 12 be c3 94 20 3e 54 26 54 be
       -0.14116104 -0.142855 0.15681748 -0.20717746
0003a0 24 58 89 3e ed 4f 30 be ac 21 e4 3d 2b dd 2a bd
       0.26825058 -0.1721799 0.11139235 -0.04171483
0003b0 e9 d8 ce 3d c1 ba 0c be ec e7 24 be fe db d7 3c
       0.10099966 -0.13743116 -0.16104096 0.026350018
0003c0 6c 18 fa bd 9d 50 a8 be 9e 87 ef bd 51 58 20 bc
       -0.12211689 -0.32874003 -0.11695789 -0.009786681
0003d0 f1 31 ba 3c b0 a8 55 be 89 da 93 be 32 43 27 3d
       0.022728892 -0.2086513 -0.28877667 0.040835567
0003e0 05 46 00 3d ed 35 5b 3d 05 0d 0c 3b 17 17 32 be
       0.031316776 0.053518225 0.0021370065 -0.1739162
0003f0 3f 63 8b 3d 0f ad f0 3a a8 12 d5 bd e6 02 43 3e
       0.06806039 0.0018362122 -0.10403949 0.19044074

user_tower.feedforward.4.bias f4 [32]
000000 fb e5 34 bf ec e5 5f bf 97 e5 3a bf bf 78 39 bf
       -0.7066342 -0.8746021 -0.73006576 -0.7244987
000010 39 9a 32 bf 21 63 ca 3e 0f 94 e7 bd 30 8d 48 bf
       -0.69766575 0.39528754 -0.11307537 -0.78340435
000020 21 0b 11 3f 7a 95 85 bf a8 61 25 bf e5 2a b1 be
       0.56657606 -1.0436242 -0.64602137 -0.34603038
000030 ee 60 7c 3f ed 78 b1 bd 9b 65 5d bf 89 dd 09 bf
       0.985854 -0.08665643 -0.8648316 -0.5385366
000040 54 0a 07 3f d5 40 1f bf 81 49 4c 3f 44 a9 5c bf
       0.52750134 -0.622083 0.7979966 -0.8619578
000050 64 c1 47 3f e3 b0 e8 be cc 67 01 3f db 59 0e 3f
       0.78029466 -0.45447454 0.50549006 0.5560586
000060 f9 ad 03 3f 4f 9a 78 bf 30 4f 83 bf 46 2b 4f 3f
       0.51437336 -0.97110456 -1.0258541 0.80925405
000070 94 f8 69 bf 7a e1 4f bf 4f 4a ad 3f 60 10 54 bf
       -0.91394925 -0.81203425 1.3538302 -0.82837486

item_tower.feedforward.0.weight f4 [64, 160]
000000 83 4c b6 3e c7 96 1a 3e c3 1a e6 be bb 91 72 3e
       0.3560525 0.1509658 -0.44942293 0.23688404
000010 c7 d5 80 bd 58 35 a4 bd 8d 16 0b 3f 07 e9 3c 3e
       -0.06290775 -0.08017987 0.54331285 0.18448268
000020 bc 83 f7 bd 2c 48 8c 3d 71 96 0e bd 6b 88 5e 3e
       -0.12085673 0.06849703 -0.03481144 0.21731727
000030 54 c9 3e 3e 2f c7 06 3f 0f 3d 48 be 72 6c 2d be
       0.18631488 0.5264768 -0.19554542 -0.169359
000040 84 4a 8b 3c 05 12 68 be a2 be 09 bd 6a 99 f9 be
       0.017003305 -0.22663124 -0.033629067 -0.48749858
000050 86 f8 9c 3d 1e 86 40 3d 3f b3 30 be bf 89 88 be
       0.076645896 0.047002904 -0.17255877 -0.26667592
000060 c9 57 68 bc 5d ea 06 be fd 31 f6 bb 16 f4 9e bc
       -0.014181086 -0.1317534 -0.0075132833 -0.019403499
000070 3a 19 2c 3e 62 c3 c7 3d d4 28 13 bd 33 b9 96 bd
       0.16806498 0.09754063 -0.03592761 -0.07359543
000080 e2 be ae 3d 48 57 1e 3f f6 3e 2a 3e 7f 7d 88 3e
       0.08532502 0.6185193 0.1662558 0.26658246
000090 8a e2 4a 3e d9 a4 26 bc 72 b0 81 3a a2 57 75 bd
       0.1981298 -0.010171139 0.0009894504 -0.059898026
0000a0 66 db f7 be cf 66 12 be 04 a4 a1 bd ba 5a 0d bf
       -0.48409575 -0.14297031 -0.078926116 -0.5521656
0000b0 fb 2b 82 3e 65 8d c0 be 3b d1 3e be 8b 1b 68 3f
       0.2542418 -0.37607875 -0.18634503 0.9066703
0000c0 26 85 16 bf bb 44 b0 bd df bc 5d 3e 95 89 46 3b
       -0.5879692 -0.08606859 0.2165408 0.0030294408
0000d0 0f 0e ce be f9 df 57 3c 6a 43 18 bf 5f a2 cf be
       -0.402451 0.013175958 -0.59477866 -0.40553567
0000e0 cc 9d 8f bd 49 ac 91 bd a9 5d 6b 3e 8e 8b db be
       -0.07012519 -0.07112939 0.22984947 -0.4287991
0000f0 6d ef c4 3e 7a 61 c1 3d 4d 16 b0 3e e3 8d 44 be
       0.38463917 0.0944242 0.34392014 -0.1919475
000100 f2 a6 b8 bd c4 aa 2a be f0 28 8f bd 3d 7c bf bc
       -0.09016217 -0.16666704 -0.0699023 -0.023374671
000110 2c de cf bc ed 46 3b be f4 48 5f 3d 97 4a 3e 3e
       -0.025374494 -0.18288775 0.054512933 0.18583141
000120 05 28 3d 3e 93 76 b3 bd 86 d4 db 3e a4 da c2 3a
       0.18472297 -0.087628506 0.4293558 0.0014866185
000130 56 31 3a 3e cb 21 82 3c b8 41 8e bf 8a 97 a2 3d
       0.18182883 0.015885254 -1.1113806 0.0793906
000140 4e e4 5f bd 95 47 57 be 17 a3 c1 3d bb 81 d7 be
       -0.054661088 -0.210234 0.09454935 -0.42091164
000150 36 0a 85 3d 21 17 97 bc f6 ea d4 3e eb 9d c6 bd
       0.06496088 -0.018443646 0.4158551 -0.09698089
000160 83 c7 e1 3d ac f0 53 3d 01 f2 6c bd 55 47 a7 be
       0.11024382 0.051743194 -0.05784798 -0.3267161
000170 98 ca d0 be 5f f6 30 3e 9b a9 1b bd 7e 31 dc be
       -0.40779567 0.17281483 -0.038003545 -0.4300651
000180 b3 52 29 3d 04 09 75 3d 91 49 aa be 98 4a a0 3e
       0.041338634 0.05982305 -0.33259252 0.3130691
000190 0f e3 6a be 5d 28 53 3e 98 4f 22 3d b7 2b 61 be
       -0.22938178 0.20620866 0.039626688 -0.21989332
0001a0 40 0e 3f 3b 17 57 15 bf cf 6c 8c 3e 75 e3 0f 3e
       0.002915278 -0.58336014 0.27426764 0.14051612
0001b0 76 3d b5 3e 34 13 d2 be c0 f3 88 be bb b5 37 bd
       0.35398453 -0.41030276 -0.26748466 -0.044851046
0001c0 20 ef 39 bc db 57 29 3e cd bf 4a 3c ae 0f 4c bd
       -0.011348516 0.1653742 0.01237483 -0.04981964
0001d0 52 84 35 3e 4d 0a 8f be f0 e7 3a 3b 27 1d 97 be
       0.17726257 -0.27937546 0.0028519593 -0.2951443
0001e0 db 6e 2f 3e a3 00 85 3e bf 07 54 3e c1 a6 fb 3d
       0.17132132 0.25977048 0.2070608 0.12287665
0001f0 0d 1b c2 3e 36 77 1d 3f 7e a9 58 3e 82 ec dd bd
       0.37911263 0.61510026 0.21158406 -0.10836126
000200 21 a1 87 bd 1d 9e 28 3d ef 7b 70 bc 38 53 17 3e
       -0.0662253 0.041166414 -0.014677986 0.14777839
000210 7f 6f d4 bd d3 4e c9 3c a0 4c 8e 3d 64 65 29 3e
       -0.10372829 0.02457372 0.06948209 0.16542584
000220 19 68 b1 3d da bd b2 bd 08 0d 3f bd a2 94 ce 3d
       0.08662433 -0.087276176 -0.046643287 0.10086943
000230 d5 52 1b be e2 00 c8 3d df e4 0f be e7 6d 34 3d
       -0.15168317 0.097657934 -0.14052151 0.044050124
000240 1a 9f 0e 3e 4d ee a0 3d 33 c8 18 be e0 91 93 3d
       0.1392788 0.07857952 -0.1492012 0.07205558
000250 8e 3b 65 bd 8a e5 9c 3d 9f cb 0e be 63 3e 2a be
       -0.055965 0.076609686 -0.13944863 -0.16625361
000260 1e cd d6 3d 6e c5 b6 bd 2d 17 ca bd c6 fe 7b bd
       0.10488342 -0.089243755 -0.09867702 -0.061522268
000270 56 29 e1 bc 80 0b 10 bd 2f d3 2a be cc 57 81 3d
       -0.02748553 -0.035167217 -0.16682123 0.06315574
000280 c2 e2 80 bd 1f 80 79 bd f6 50 d7 bc ad 0a 9a 3d
       -0.062932506 -0.0609132 -0.026283722 0.075215675
000290 d7 e8 54 3d a3 2c 02 3d 4f 22 5f bc 88 bc d7 bd
       0.051979866 0.03178085 -0.01361902 -0.10534006
0002a0 b3 9b 8b bd 63 3e 3c 3d 76 d7 63 3d e2 bb 45 3c
       -0.06816807 0.045957934 0.0556254 0.012068721
0002b0 a3 c6 42 3d 32 2f 24 bd 2e 9c 55 3d 2b f3 91 3b
       0.047552716 -0.04008407 0.052150898 0.0044540367
0002c0 65 57 68 3d b5 f6 80 bd 16 53 03 be ec 21 ac bd
       0.05672397 -0.06297056 -0.12824664 -0.084049076
0002d0 f5 c1 11 3c 45 cd b7 bc 24 36 99 3d a4 d8 9b bc
       0.008896341 -0.022436747 0.0748103 -0.0190242
0002e0 f4 3f e9 3b a8 d1 5e bd 70 e8 27 3d 13 e5 2c 3d
       0.0071182195 -0.054399163 0.040993154 0.04221065
0002f0 5f 9f e8 b9 e2 f7 a5 3b f4 aa f7 3d 6a 44 4f 3d
       -0.0004436923 0.0050649503 0.120931536 0.050602354
000300 18 8a 1c bd ea d9 56 bd a0 2d e7 3c 60 3b 48 3c
       -0.038217634 -0.052453913 0.028219998 0.012221187
000310 2b fb 45 3d 22 21 0d 3b 36 1d 2f 3d 5a 73 b0 bc
       0.048335236 0.0021534641 0.042752467 -0.021539379
000320 e9 56 21 bc 0b b6 ad bb d8 ac 1b bb da a5 21 3d
       -0.009847381 -0.005301242 -0.0023754146 0.03946481
000330 25 ad be 3d 79 f9 4b bd 7a 24 80 3d e8 e8 2a 3d
       0.093103684 -0.049798463 0.06256957 0.041726023
000340 d8 22 33 bd 1c a7 87 bc fa 48 ce 3d aa 2f 17 bc
       -0.0437344 -0.016559176 0.10072513 -0.009227673
000350 00 60 53 3c 9d ce 9a bd fd 69 03 bb c9 82 ac 3c
       0.012901306 -0.075589396 -0.0020052188 0.021058457
000360 a6 4e f0 3c b2 35 f2 3b 3b 10 b6 bc cb dc 22 bd
       0.029334377 0.007391655 -0.022224536 -0.039761346
000370 86 eb f1 3a 0b 07 eb 3d ed 2a 95 3d 75 c8 40 3d
       0.0018457032 0.11475953 0.07283578 0.04706617
000380 09 20 fb 3c 73 21 b1 3b 43 01 a0 3d 27 ac 73 3d
       0.030654924 0.005405599 0.07812741 0.05949035
000390 41 75 ab 3b bb 90 83 3c 0c 92 e2 ba 87 4e 74 bd
       0.0052324836 0.016060224 -0.0017285957 -0.059645202
0003a0 8c 19 06 bc 12 10 a8 3c 91 b2 3c 3c 37 54 08 be
       -0.008184802 0.020515475 0.011517183 -0.13313375
0003b0 ff 55 0a bb 80 30 ad 3d 4d f8 9b 3b 5d 48 73 3d
       -0.0021108387 0.08456516 0.0047598244 0.059395183
0003c0 29 eb 32 3d 3a ff 9c bd ca 39 13 bd ed e5 d2 bc
       0.043681297 -0.07665868 -0.035943784 -0.025744403
0003d0 b7 18 b5 3c eb 17 e1 3c 62 98 f1 bb eb 24 0c 3c
       0.022106512 0.027477225 -0.007372902 0.008553724
0003e0 99 77 00 bd 6f e6 7f bc 98 b3 28 bd 7c f9 bd 3b
       -0.031364057 -0.0156189045 -0.0411869 0.005797563
0003f0 4a 00 d7 bc d2 4b e7 bb d6 44 38 bc 20 08 ad 3c
       -0.026245255 -0.007058599 -0.0112468805 0.021122038

item_tower.feedforward.0.bias f4 [64]
000000 50 cb b9 bd 49 2b 4c bd 44 a6 39 bc 14 3e fe 3b
       -0.09071982 -0.049845967 -0.011331145 0.007758865
000010 ae 09 ae 3a 4d 86 a6 bc bb c4 42 bd 9b 16 e1 bd
       0.0013278031 -0.020327711 -0.047550898 -0.1099064
000020 25 c4 81 bc 1c 1d 4a 3c 54 9b 6d bd 87 e8 14 bd
       -0.0158406 0.012336042 -0.05800946 -0.036354568
000030 54 19 02 3d 76 6d 24 bd a6 c4 0b 3e d7 4e 42 3b
       0.031762436 -0.040143453 0.13649234 0.0029649043
000040 f8 4b bd bc 4d 4d 85 bd 80 de 9b 3d c8 ce 13 be
       -0.023107514 -0.065088846 0.07610798 -0.1443435
000050 8b 79 92 bd ef b0 13 bd fe 52 96 bd 39 68 0e be
       -0.07152089 -0.03605741 -0.07340048 -0.13906945
000060 5b 86 d5 bd 20 e6 07 be 00 e0 be bd 8c 2b ff 3c
       -0.10426017 -0.1327138 -0.09320068 0.031148694
000070 15 68 c1 bc a8 30 c3 bd c8 0b 06 be b9 97 02 3d
       -0.0236092 -0.09530765 -0.13090432 0.031882975
000080 26 5f ee 3c 54 e3 b2 bd f3 a9 c1 bc 6d f5 5c bc
       0.029098105 -0.08734766 -0.023640608 -0.013486248
000090 54 1e a0 bd 0d 7a 0b 3d 27 3d 82 3c 1d ea c5 bd
       -0.07818285 0.034051944 0.0158983 -0.09663794
0000a0 a2 99 b4 bd 01 18 91 bd 60 21 49 bd a8 3f 03 be
       -0.08818366 -0.070846565 -0.049104095 -0.12817252
0000b0 09 0b bb bd b3 cd 48 be cd bd c6 bd 60 3b de bd
       -0.09132964 -0.19609718 -0.097041704 -0.10851169
0000c0 3e 79 89 3d 34 dc af bd 41 12 34 bd 68 2e 81 bc
       0.06712578 -0.08586922 -0.04396272 -0.015769199
0000d0 78 4e 0b be 54 ac d7 bd e9 19 6d 3c 37 51 99 bd
       -0.13604152 -0.10530916 0.0144715095 -0.074861936
0000e0 9b 58 ec bd 4f 06 40 3d 95 a2 34 bd d8 b1 42 bd
       -0.11540338 0.046881016 -0.044100363 -0.047532886
0000f0 c8 7e 1c bd 7c 21 42 3d 9e 6f db bd 67 1f d3 bd
       -0.038206846 0.047395214 -0.10714649 -0.10308724

item_tower.feedforward.2.weight f4 [32, 64]
000000 00 83 30 bf 52 e1 ec ba 08 d9 b4 3e d8 03 c9 be
       -0.6894989 -0.0018072522 0.35321832 -0.39260745
000010 6c 9e 2e 3e 0b 7d e9 bd 65 9f 5c 3e bc af 7f bd
       0.1705262 -0.11400803 0.21545179 -0.062423453
000020 59 da 1e 3e 6a 23 e4 bc 35 25 75 3d a6 80 c6 3d
       0.1551298 -0.027848918 0.059849937 0.096925065
000030 79 e7 09 be d8 3e 50 3e 93 9c 7f bd 0e e5 78 3e
       -0.13467206 0.20336473 -0.06240518 0.24306127
000040 a7 24 90 bc 41 fc 95 bd c7 19 40 bd 78 8a ed bd
       -0.017595602 -0.07323504 -0.046899583 -0.115986764
000050 d0 96 b8 bc 4e e1 07 bf 82 9a 85 3d 18 7e a3 3c
       -0.02253285 -0.5307816 0.06523611 0.019957587
000060 53 4b d7 3d d1 5e e5 3b 6b 40 b4 be e8 bf f7 3c
       0.10512414 0.0069998284 -0.35205397 0.030242875
000070 05 a7 b3 bc 85 4a d0 be df c3 bd bc 84 b7 86 3d
       -0.021930227 -0.40681854 -0.023164688 0.065779716
000080 d5 eb 3f be 01 b1 1a 3d f6 5a 15 3c 3a 24 12 bf
       -0.18742307 0.03776646 0.009115925 -0.5708653
000090 13 39 79 bd cb 23 58 3e 75 4c e1 3d e6 3b 93 3e
       -0.060845446 0.21107404 0.11000911 0.28756636
0000a0 18 7d 74 bd 4e 8d 5c 3e b2 77 07 be 32 a1 5b 3d
       -0.05968961 0.21538278 -0.13229254 0.053620525
0000b0 62 da ff 3c 0b 4b 7a bc 64 88 b0 bd 4d 87 c6 3c
       0.031232063 -0.015276681 -0.086197644 0.024234438
0000c0 1b 42 ff 3c 71 da 6a 3e a1 2c d1 bd fc 42 a5 3d
       0.031159451 0.22934891 -0.102135904 0.08069417
0000d0 d0 b9 b0 3d 5d 39 13 bd f0 b0 6e 3e 03 dc b3 3d
       0.08629191 -0.035943378 0.23309684 0.08782198
0000e0 e6 35 62 3d 4b 3b 25 bc b3 71 0a 3f 00 05 dd bd
       0.055227183 -0.010084937 0.5407974 -0.10791969
0000f0 2b 47 8c 3d d4 39 2d 3e a1 f4 cf be 43 d4 1a 3b
       0.06849512 0.16916591 -0.40616325 0.0023625053
000100 56 6d b5 3e 80 d7 a7 3a 4d 17 80 3e de 03 0d 3d
       0.3543498 0.0012805313 0.25017777 0.034427516
000110 e6 01 8f be 00 6e cb bd b0 12 7b 3d ec 4f 2c 3d
       -0.27931136 -0.0993309 0.06129712 0.042068407
000120 b1 c6 8d 3e 92 bf fb 3d 2c b8 b4 bd 26 db 91 3d
       0.27690652 0.122923985 -0.088241905 0.07121877
000130 5e 01 2f be 75 af 9a be 1c f3 52 be c1 4b 45 3e
       -0.17090365 -0.30211988 -0.20600551 0.19267179
000140 98 30 97 3c 70 ae c5 3d a8 ce c7 3c 9c 3b 7a 3e
       0.018455788 0.09652412 0.024390534 0.24436802
000150 26 e1 a6 bd 04 fd 1f 3e bc ce bc bd 70 20 a2 be
       -0.081484124 0.15623862 -0.09219119 -0.31665373
000160 c2 80 bc bd 43 61 be be 61 3f b9 bd 26 3c ad 3e
       -0.09204246 -0.3718358 -0.09045292 0.33834952
000170 65 b8 c0 3d ca 5c cd 3d 8e 84 8b 3d f8 24 0c 3e
       0.094101705 0.10027464 0.06812392 0.13685977
000180 4d 1e 9a be 28 26 8f bd 1a 1a 3c 3e 5f 3b fd be
       -0.30101243 -0.069896996 0.18369332 -0.4945936
000190 fb 33 4c 3e 2e 21 e7 be 46 9b 76 be 27 09 90 3e
       0.19941704 -0.45142502 -0.2408267 0.28131983
0001a0 a7 b8 e1 3d 05 99 ae 3e 99 e1 b8 be 3a 14 fe 3d
       0.11021548 0.3410112 -0.36109617 0.12406202
0001b0 ac 60 bf 3d 39 70 6c 3d 69 8b 46 3e f6 c8 57 be
       0.093446106 0.05772421 0.19389118 -0.21072754
0001c0 22 56 95 bd 95 50 3c bf 58 fd 1e 3c 6a 23 1d 3e
       -0.07291819 -0.7356046 0.009703957 0.1534554
0001d0 8c 55 80 be 08 23 fd 3c 63 59 cb 3a 80 05 1c 3b
       -0.25065267 0.030900493 0.001551431 0.002380699
0001e0 60 d7 7d be 8d 8d 90 3e 79 89 b2 3e a8 97 76 3d
       -0.2478919 0.28232995 0.34870508 0.060203224
0001f0 0c f4 b5 3d 8e de 65 bd 64 7c 13 bd 81 db b1 3d
       0.08884439 -0.056120448 -0.0360073 0.08684445
000200 00 be 2b ba 80 fe a6 bc ac 32 3b 3d 4c fa c3 3c
       -0.00065514445 -0.020385027 0.04570262 0.023923062
000210 82 bb 1a be 14 5b e5 3d 03 1f e3 bd e6 34 b4 3d
       -0.15110591 0.111990124 -0.110898994 0.08799152
000220 3c 0c a9 3c 76 02 18 be 00 74 68 3d 78 ce 8a 3d
       0.020635717 -0.14844689 0.05675125 0.06777662
000230 a7 3e 80 bd e0 f4 4c 3d 54 7d 8e bd 91 4e d2 bd
       -0.0626195 0.05003822 -0.06957498 -0.102688916
000240 2e 35 ce 3d 3c fe 60 bd 1a ed ad bd 7e be c1 bd
       0.10068737 -0.054929957 -0.08492489 -0.094601616
000250 45 01 14 3d 05 57 7e 3d 60 9c 03 3c 8e 0a b0 bd
       0.036134023 0.062094707 0.008032888 -0.08595763
000260 b8 1c 9d 3d e0 3d 09 3d ac 00 38 3d d1 93 29 be
       0.07671493 0.033506274 0.044922516 -0.16560294
000270 f0 f1 2b 3c a7 b4 f5 bd 4c ae 30 bd 46 36 00 3d
       0.010494694 -0.11997347 -0.043134972 0.03130176
000280 6e 50 81 3d dc c1 7e 3d 12 20 25 be cd 02 27 be
       0.06314169 0.062196597 -0.16125515 -0.16309662
000290 cc a7 bf 3d a2 b7 7a 3d 54 1c f4 bd b3 2e c4 bc
       0.093581766 0.061210282 -0.11919466 -0.02394805
0002a0 28 47 3f 3d f4 ee e5 bd 72 99 c6 bb 16 07 d3 bd
       0.04669872 -0.11227217 -0.0060607726 -0.10304086
0002b0 4a 70 8a bd ba 84 81 3d ca fe 82 bd 7c 13 31 bd
       -0.06759699 0.06324144 -0.063962534 -0.043231472
0002c0 1a fb 5c bb cd 18 03 be c8 15 85 3d 94 28 94 3d
       -0.0033719004 -0.1280243 0.06498295 0.07234302
0002d0 8c 8a de bd 10 d8 87 bd 02 17 7e bb b4 b0 65 3d
       -0.108662695 -0.066330075 -0.0038771038 0.05607672
0002e0 92 fb d3 bd bf 38 b0 3d 3c 5b c7 3c 28 b7 b6 bc
       -0.103507176 0.086045735 0.024335496 -0.022304133
0002f0 bc 00 65 3d 28 69 ef bd 09 fe 27 bd b5 34 8f bd
       0.055908903 -0.11689979 -0.04101375 -0.06992475
000300 c6 e1 ec 3e 33 2a d9 3c 57 d0 a7 be 9e 19 ca 3d
       0.46266 0.02650938 -0.32776138 0.09868167
000310 50 8b a1 3d ab cc b7 bc 33 e5 b8 3d 7a 1d 86 bc
       0.078879 -0.02243646 0.09028091 -0.016371477
000320 ab 1d b5 bc 83 2c bf bc 79 0b a8 bd 69 a8 8f 3c
       -0.022108873 -0.023336655 -0.08205313 0.017536359
000330 74 1c 25 bd 9e 0d 5d be 1c 28 a1 3d 54 8c 88 be
       -0.04031034 -0.21587226 0.078689784 -0.26669562
000340 3c 94 8d 3c a4 25 94 bd 4f 75 69 bd 92 59 a1 3d
       0.017282598 -0.07233742 -0.05699664 0.07878412
000350 4f ea cd be 66 7f 98 3e d4 74 d8 3c 13 f6 95 3e
       -0.40217826 0.29784697 0.026422895 0.29289302
000360 ee 8f 6a 3d 10 1d 1c 3e c4 7f 22 3e d7 34 ed be
       0.05726617 0.15245461 0.15869051 -0.46329376
000370 e0 8f 69 3d 9f b3 4a 3d b1 dd b6 3c 5d 3c 4b 3c
       0.057021976 0.049487706 0.022322508 0.012404528
000380 34 e7 32 be 48 49 21 3d e1 87 84 bd 52 90 a5 3d
       -0.1747101 0.039376527 -0.06471229 0.080841675
000390 28 f0 08 3d d0 9b 1c 3e 4d e3 56 be 71 dd 92 be
       0.033432156 0.15293813 -0.20985146 -0.2868457
0003a0 7c da 71 3d 03 cb d9 3c 6f 3a d0 3e db a5 f6 bc
       0.059046254 0.026586061 0.4066958 -0.030108383
0003b0 ac 68 6d bd 46 ed 6e 3b c7 05 c2 3e 30 fe e3 be
       -0.05796115 0.0036457344 0.37895033 -0.44529867
0003c0 63 d5 72 3e e4 ea 44 3d b1 99 5e bd d8 6d e1 be
       0.23714213 0.04807557 -0.05434579 -0.44029117
0003d0 a3 0c 22 3f 50 4b c8 3c bf b6 13 be 24 84 51 3d
       0.6330053 0.024449974 -0.14425181 0.05115141
0003e0 c8 dc d2 3e f3 fc cf 3d 43 5f b9 bd b9 a7 f1 3d
       0.41184068 0.10155668 -0.09051373 0.11799569
0003f0 ff 63 b4 bd 5c 81 5c 3e f2 7a 72 3e 07 c1 97 3e
       -0.08808135 0.21533722 0.23679712 0.29639456

item_tower.feedforward.2.bias f4 [32]
000000 70 01 da 3c ad e2 11 be 5e 10 20 be e2 13 b6 3d
       0.026612014 -0.14246626 -0.15631244 0.08890511
000010 87 40 55 bd f5 c9 0b be 85 96 46 be ee ef c2 bc
       -0.05206349 -0.13651259 -0.19393356 -0.023796048
000020 77 f6 16 be 2c 0b b8 bc 85 1b 17 bd 32 42 a6 bd
       -0.14742456 -0.022466265 -0.03689148 -0.081180945
000030 02 7f 28 be d9 22 91 bd f2 1e 85 bd 63 da 0b 3e
       -0.164547 -0.07086725 -0.06500043 0.13657527
000040 0e b5 66 3e b8 24 3a be b9 48 61 bd a0 a4 02 bc
       0.22530004 -0.1817807 -0.055000994 -0.00797382
000050 20 34 b8 3d e7 e0 86 bd bb 69 fb bc a5 17 4c be
       0.08994317 -0.065858655 -0.030690065 -0.19930895
000060 d7 31 bc bd 7e 16 25 be 0d 19 60 3d 1b 74 0a bc
       -0.09189194 -0.16121861 0.05471139 -0.008450533
000070 fd b7 46 3e a9 ab 74 3d c7 28 28 be c6 46 65 bd
       0.19406123 0.05973402 -0.16421805 -0.055975698

item_tower.feedforward.4.weight f4 [32, 32]
000000 0a 6f 87 be 23 c3 24 3e 1d dc 46 bc 9a 17 af 3e
       -0.26451904 0.16090064 -0.01213744 0.34197694
000010 e1 a4 1d be 30 25 15 bd 38 f3 23 3e 65 8c 21 bf
       -0.15394928 -0.036412418 0.1601075 -0.6310485
000020 60 1b f0 3d cc d9 5a 3d a9 02 0a 3e fd 4d df be
       0.11723971 0.053430364 0.13477577 -0.43614188
000030 d6 19 f5 3d 4c ee e8 be cb d1 44 3d df a0 84 3f
       0.119678184 -0.45494306 0.048051637 1.0361594
000040 1e 30 5b 3f 9c 7d bf 3d 5c 7c 0f bf 8e 44 1f bf
       0.85620296 0.0935013 -0.5604913 -0.6221398
000050 37 5d 0d be d4 8b 2f bf 13 18 64 bf 38 1e 49 bf
       -0.1380509 -0.68572736 -0.89099234 -0.78561735
000060 5d 8e d4 3d 60 bc 23 3c d0 b2 05 bf d1 81 ca bb
       0.10378716 0.009993643 -0.5222597 -0.006180026
000070 48 13 81 3f e4 5e 1d 3e a8 20 c7 3e ed c0 77 bf
       1.0084009 0.15368229 0.38892102 -0.96778756
000080 a5 77 07 be 46 f9 a9 3e e4 d4 bb 3c ad ed 56 3d
       -0.13229235 0.33197993 0.022928663 0.05247276
000090 16 2c cd bd af 54 fb be 43 02 d7 3d c0 77 f0 3d
       -0.10018174 -0.49088046 0.10498478 0.117415905
0000a0 39 00 16 3e 7d d2 82 3e 73 34 49 bf 25 cd ab be
       0.14648522 0.25551215 -0.78595656 -0.3355495
0000b0 e9 de 88 3d f4 7e b6 bd cf 0f 84 3d 11 c8 e9 3e
       0.06683142 -0.08910933 0.06448328 0.4566045
0000c0 d8 69 6b 3e 11 f1 f0 bd a4 3e 19 3f b5 97 12 bf
       0.22989595 -0.1176473 0.59861207 -0.57262737
0000d0 c3 84 a3 be 84 07 ea 3d af d1 6a bf 0a b8 a2 3d
       -0.31937227 0.11427215 -0.917262 0.07945259
0000e0 1d b2 a2 bd a2 89 d4 bd 0b ea 24 3e 12 b2 a3 3e
       -0.07944129 -0.10377814 0.16104905 0.31971794
0000f0 19 dd 20 3d 2e 38 74 be 34 1c d4 bd d8 08 56 bf
       0.039273355 -0.23849556 -0.10356942 -0.83607244
000100 27 1b c6 bd 6d 43 29 be 7f 52 5f 3e 2d 58 c2 3d
       -0.09673148 -0.16529627 0.21808814 0.094894744
000110 73 c4 71 be b6 5b b1 be 1b 3b 6b 3d 88 18 fc 3c
       -0.23610096 -0.34640282 0.057429414 0.030773416
000120 03 d2 10 3c a3 58 e4 bd a0 b3 d0 bd 28 0e 18 bf
       0.008839133 -0.111497186 -0.10190511 -0.593966
000130 c4 c0 52 3d 3f 1e 27 bf f8 3e 63 3d b4 be a9 bc
       0.051453367 -0.65280527 0.055479974 -0.020720817
000140 19 d4 1f bd 26 55 b3 bd 5d 40 ad be 7f 33 a7 3d
       -0.03902063 -0.08756475 -0.33838168 0.08164119
000150 01 a3 aa bd 0c 69 c4 be 5f ec 08 3f 09 3a 0f bf
       -0.08331872 -0.38361394 0.53485674 -0.5594793
000160 06 eb 10 be c6 32 93 3d ad db c3 3e 20 d8 01 bf
       -0.14152154 0.07187419 0.38253537 -0.50720406
000170 bf e3 d5 be fa 99 67 bd 08 67 0b 3d dd 2a 41 3d
       -0.4177532 -0.056543328 0.034033805 0.04716002
000180 17 24 7d bd cf 00 d4 3e 9b 79 9c bd 41 f0 17 be
       -0.061801996 0.41406867 -0.07640382 -0.14837743
000190 ff 19 2d 3e 70 c8 04 3e 98 eb ee bc 46 a9 e5 3e
       0.16904448 0.12967086 -0.029165074 0.44855708
0001a0 f1 18 e2 bc 55 6f 86 3e 05 96 12 bf 3d 57 93 3e
       -0.027599784 0.26256815 -0.5726016 0.28777495
0001b0 b9 e6 08 3e 69 dc bd be a1 4b 05 3d a9 d1 9d 3e
       0.13369264 -0.37082222 0.03254283 0.3082402
0001c0 50 a1 c0 3d da a0 40 3e 38 da 0f 3f ca 4c 8d 3d
       0.09405768 0.1881136 0.5619235 0.06899412
0001d0 96 c5 1e 3f f6 09 89 bf e4 72 0e bd 5b bc b5 3e
       0.6202024 -1.0706165 -0.034777537 0.35495266
0001e0 3b e6 e3 bd 81 6d fb bd 13 da 28 3f 12 67 01 3e
       -0.11127897 -0.122767456 0.65957755 0.12636974
0001f0 53 52 b2 3d c0 22 59 be 3a 74 11 bf ef 29 34 3e
       0.08707108 -0.21204662 -0.5681797 0.17594121
000200 9e fd f1 bd 91 d9 8d be f0 15 76 bd fc 1f 89 3e
       -0.11815952 -0.27705052 -0.060079515 0.26782215
000210 2b cc 5c bd 4f b9 61 be b4 09 61 bd 5a 31 25 bf
       -0.053905647 -0.22043346 -0.054940894 -0.6452843
000220 87 8a 02 be c0 71 df 3e 43 a5 58 bd e8 aa 1e bf
       -0.12748156 0.43641472 -0.05289198 -0.6197953
000230 4f e8 b3 bd 08 61 6b be 67 5f 4c 3d 46 6e 0f 3f
       -0.08784544 -0.22986233 0.04989567 0.5602764
000240 56 97 04 3f c4 9c 6b bc ad 97 c8 be f7 50 60 be
       0.5179342 -0.014380638 -0.3917822 -0.21905886
000250 0e 0c a9 be 69 aa 8c bf 39 ee b1 be d1 fe d4 be
       -0.3301701 -1.0989505 -0.34752062 -0.4160066
000260 d7 6d 63 3e 7c f7 15 be 73 77 fc 3b 3f 25 8a be
       0.2220987 -0.14645189 0.007704669 -0.26981542
000270 59 f3 18 3f 75 bb d6 3d 63 2a 01 3f cc 66 19 bf
       0.5974632 0.10484973 0.504553 -0.5992248
000280 ba 25 4a 3e 0b 74 96 3e ce 39 c6 bd 3a 07 d1 bd
       0.19740954 0.2938541 -0.09678994 -0.102064565
000290 9a df d9 3d 80 e6 d2 3d ae 71 16 bd 7b 8f 13 bd
       0.10638352 0.10297871 -0.036729507 -0.036025506
0002a0 14 ea 46 3e a9 b4 88 ba f2 ef 62 3e 9f 2f ee be
       0.19425231 -0.0010429817 0.22161844 -0.46520707
0002b0 86 05 9d 3d 09 3f 18 be d4 8d 0d 3e a8 53 2f be
       0.07667069 -0.14867796 0.13823634 -0.17121756
0002c0 34 8c 11 3e 09 c9 17 3e ed 22 c1 be b1 d3 e8 be
       0.1421364 0.14822783 -0.3772196 -0.45474008
0002d0 aa 73 3a 3e 71 3d 4b bf 39 08 3d 3b 63 ed b7 3d
       0.18208185 -0.7939063 0.0028844012 0.08980825
0002e0 ad 96 a0 3c ed 4f e6 3c 14 9f de bd fc 45 09 be
       0.019603098 0.028114283 -0.108701855 -0.13405603
0002f0 06 9a 2d be 8d de 9d bd 33 34 6c 3e f0 72 ea 3d
       -0.16953287 -0.07708464 0.23066787 0.11447704
000300 60 47 9b bd 75 6b e1 bd ae 0f 0e 3e 98 63 57 be
       -0.07581973 -0.11006824 0.13873169 -0.21034086
000310 fb cc 94 bd a4 f1 1d 3f 7c 33 38 3d 76 34 45 be
       -0.072656594 0.6169684 0.044970974 -0.19258294
000320 63 24 48 be ce 8f e7 be a7 e9 c2 3e aa f7 a6 3e
       -0.1954513 -0.45226902 0.38068888 0.32610828
000330 29 48 b7 3d 65 a8 2b 3e 49 89 8c 3d a5 d6 84 bc
       0.0894931 0.16763456 0.068621226 -0.016215632
000340 43 d9 0e be b9 c9 01 bd 7a 5c 3e 3d fb a0 92 be
       -0.13950066 -0.03168652 0.04647491 -0.28638443
000350 10 5f b3 3e e9 14 e2 3d f2 e6 aa 3e d3 f6 fb bd
       0.35033464 0.110391445 0.33379322 -0.12302937
000360 8b a1 4b 3e 23 8b 37 3e 41 fe 49 3e 0a 51 6e be
       0.19885843 0.1792417 0.19725896 -0.23273101
000370 54 74 d2 3e 12 ff 90 bd b4 3a 92 bd 1d 40 29 bc
       0.41104376 -0.07079901 -0.07140103 -0.010330227
000380 ea a6 be 3d 54 21 9b 3e d0 2f a4 3c 7a 7d 48 bc
       0.0930918 0.30298865 0.02004233 -0.012236947
000390 95 8e 70 3e a2 2f ae 3e f1 ad 4a bd f1 e6 9a 3e
       0.2349189 0.34020716 -0.04948229 0.3025432
0003a0 23 77 fe 3d 23 8a 47 be c8 e4 39 bd ad b6 08 be
       0.12425067 -0.19486289 -0.0453842 -0.13350935
0003b0 16 4b 8f 3d 11 b8 b8 3d 31 b5 1a bd 4b c3 09 3d
       0.069967434 0.09019483 -0.037770454 0.03363351
0003c0 6e 6e 5e 3e 38 fb c1 bd 5a dd 5f 3e 6e 1c 35 bf
       0.21721813 -0.09471744 0.21861783 -0.70746505
0003d0 10 34 e1 3e a8 e6 7e be a4 02 84 be 64 49 93 3e
       0.43985033 -0.24892676 -0.25783265 0.2876693
0003e0 76 52 ab bd f9 36 92 3c 1e cf 88 3e 02 73 02 be
       -0.083653376 0.017848479 0.26720518 -0.12739184
0003f0 e7 8b e9 3d 07 b4 41 3d 60 7b 2d be 7b 8b b6 be
       0.114036374 0.047290828 -0.16941595 -0.3565329
