models/pct_100_model.pt (torch, 83252 bytes, 14 tensors)

au f4 [32]
000000 02 91 7e bd 25 6f b8 3c 20 3a 70 bd ab ce 19 3d
       -0.06215001 0.022513935 -0.058649182 0.03755061
000010 90 ab 6c 3c 9c 25 55 bf 66 37 16 bd 4e a8 bd bd
       0.014445201 -0.8326051 -0.036673926 -0.09260617
000020 9f 27 51 3d 0d 30 66 3d 0f fa 76 bd 1c b0 7c 3d
       0.051063176 0.05619817 -0.06029707 0.06169139
000030 21 e2 63 3d 13 82 7c bd 72 60 88 3d a1 f0 a3 3b
       0.055635575 -0.061647486 0.066590205 0.0050030504
000040 69 bd 85 bd 87 2d d3 3b 69 1c 32 bd 25 ab b7 3c
       -0.06530268 0.0064446363 -0.043484125 0.022420475
000050 39 5b 7e 3d 23 55 57 bd 4f d4 82 bd 5e 60 76 bd
       0.062098715 -0.052571427 -0.06388151 -0.060150497
000060 a4 c0 06 3d 90 51 4a 3d e3 d4 1d 3d 87 ac d4 3e
       0.03289856 0.04939419 0.038533103 0.41537878
000070 0c 0e 58 3d f7 d0 85 3c 52 c3 cb bd 47 8e 8d bd
       0.05274777 0.016334994 -0.09949364 -0.06911903

av f4 [32]
000000 7a 27 81 3a a5 a8 2a bb 4d 1c e7 bc b9 ff da 3b
       0.0009853684 -0.0026040461 -0.028211737 0.0066833165
000010 1a 0a 26 be 39 52 76 bd a2 df 90 3c 8c 91 48 bc
       -0.16214791 -0.060137007 0.017684761 -0.012241732
000020 69 ae 11 bb 35 66 8d 3b f1 41 ad 3b 3e a7 81 bc
       -0.00222292 0.0043151625 0.005287402 -0.015826818
000030 fb 7c 85 b9 c2 99 28 bb 5e 36 42 3c 1f 0c aa 3c
       -0.00025460855 -0.0025726412 0.011853782 0.020757733
000040 0f 10 bc bb c7 33 22 bc 44 5b b3 38 44 ef fb 3b
       -0.005739219 -0.00990004 8.552385e-05 0.007688435
000050 53 f1 37 3c ac 3e a5 bc e9 36 80 bc fb 57 13 bc
       0.01122697 -0.020171486 -0.015651183 -0.008993144
000060 d9 2f 4c 3f 07 52 80 3c 6f 14 a8 3c 69 2a d7 3d
       0.7976051 0.015664114 0.020517556 0.10506136
000070 07 60 11 3c 27 ee 40 3d 5f 1b 70 3c 36 53 2e bc
       0.008872992 0.04710212 0.014654963 -0.010639956

user_tower.feedforward.0.weight f4 [64, 37]
000000 d1 36 af be 87 e5 d9 3d 74 a6 92 bc 77 bc 35 bc
       -0.3422151 0.10639482 -0.017901637 -0.011092297
000010 ac d5 a3 3e d4 35 f1 be 15 52 44 be 1d 33 6b be
       0.31998956 -0.4711138 -0.19171937 -0.22968717
000020 1d 77 37 bd fe c7 50 3f 40 6d 18 bf 4c bd 18 bf
       -0.04479133 0.81555164 -0.595417 -0.59663844
000030 c2 1f 9b be 48 e4 3f 3e e9 b8 0f 3e 92 0e 32 bf
       -0.30297667 0.18739426 0.14035381 -0.6955348
000040 61 30 19 3f b8 a3 bd 3e 9c 30 15 3d f1 1f 1d 3f
       0.59839445 0.3703897 0.03642331 0.61376864
000050 d1 09 80 be ef 8e 0a bf ee 2d 9c 3e 7e 48 a7 be
       -0.2500749 -0.5412435 0.30503792 -0.32672495
000060 42 b9 19 be 45 99 eb 3e 47 b4 ca be 18 f6 fc be
       -0.15012076 0.46015373 -0.39590666 -0.49406505
000070 6b 18 02 bf 10 4b fc 3d f0 74 ac 3d d3 16 11 3f
       -0.5081851 0.123190045 0.084207416 0.5667545
000080 dd 28 1c 3f fe dd b2 3e 66 d3 c1 bd f6 44 42 bf
       0.6099985 0.34934992 -0.09464149 -0.75886476
000090 14 60 1e bf 49 0d 38 bf 4a d0 a3 be 34 48 0a be
       -0.61865354 -0.7189527 -0.3199485 -0.13504106
0000a0 46 4c b9 3d 5c ad cd bf 74 8a 43 be fe 9c 79 be
       0.09047751 -1.606853 -0.19095784 -0.24376294
0000b0 5e 02 a6 bc b4 46 e0 3d 32 0a e3 3e 67 c1 db be
       -0.0202648 0.109509856 0.44343716 -0.42920992
0000c0 88 a5 76 be b6 19 8b be bc 83 ee 3d c1 e9 ba bc
       -0.24086583 -0.27168053 0.1164622 -0.02281654
0000d0 f6 ff 84 be cb 67 73 3e ba 89 44 3e c4 58 e2 bd
       -0.25976533 0.23770063 0.19193164 -0.11052087
0000e0 1b 51 8b 3e 6d 6d 53 3e 0b b4 e0 bd ab 43 1b 3e
       0.27210316 0.20647211 -0.109718405 0.15162532
0000f0 11 1d 3c be 33 26 44 3e 11 25 e3 3c 70 34 61 be
       -0.18370463 0.19155197 0.027727636 -0.2199266
000100 f7 c6 62 be 56 03 ae bd 49 9c 13 bd f1 0b dd 3e
       -0.22146212 -0.0849673 -0.036037717 0.43173173
000110 84 01 8c 3e ba 2b 9d 3e 2e da 06 3e 80 cf ee 3d
       0.27344906 0.30697423 0.13169166 0.11660671
000120 0d 6b e8 be 59 4b 90 be 80 ac 45 3f d2 76 00 bd
       -0.45394173 -0.28182486 0.7721634 -0.031363316
000130 6b 24 7f bb 72 c6 20 3c 7b 66 12 bd ab a1 6b 40
       -0.003893162 0.009812938 -0.035742264 3.6817424
000140 60 aa 08 bd 03 a0 b5 3d 28 2f 5b bd 23 9f e8 bc
       -0.033365607 0.088684104 -0.05351177 -0.028396195
000150 99 3b 25 41 89 0b 0b 3f 2e 8d 0b 40 8a 44 eb bd
       10.32705 0.54314476 2.180492 -0.11487682
000160 25 8d 99 bd 42 08 09 40 d0 ab b8 bd 2a d4 a3 be
       -0.07497624 2.141129 -0.09017146 -0.31997806
000170 69 05 ca 3d f1 b3 63 bf a3 47 fe bc 74 4f 6d 40
       0.09864313 -0.88946444 -0.031040018 3.7079744
000180 03 bf 25 bc ca d4 78 3d 5b 03 08 bd d8 f5 b1 bd
       -0.0101163415 0.060749806 -0.033206325 -0.08689469
000190 e3 c3 a9 3d 41 79 94 40 12 14 27 3f 65 e2 47 bd
       0.082893156 4.6398015 0.65265 -0.04879989
0001a0 75 22 8b bd 3e 93 48 c0 2c 8f 1f c1 99 cb 8a bd
       -0.067936815 -3.133987 -9.972454 -0.067771144
0001b0 0d bd aa bc e3 38 f9 40 10 56 13 3e 87 9e 4a 3d
       -0.0208421 7.788194 0.14388299 0.04946759
0001c0 c1 bd 77 bd f4 f8 da bd 47 30 23 be a1 05 45 bd
       -0.060483698 -0.10692015 -0.15936385 -0.04810107
0001d0 cc f3 39 3d 9d 80 06 3e 78 1e 0b be 02 0c 14 3e
       0.04539852 0.13135 -0.13585842 0.14457706
0001e0 00 90 08 be ff e5 f6 bd cb 91 de 3d 55 d0 0f be
       -0.13336182 -0.12055587 0.108676516 -0.14044316
0001f0 ed d1 72 3c 28 05 08 be 13 ca 8a 3d 89 6d 01 3e
       0.014820558 -0.13283217 0.06776824 0.1263944
000200 e6 96 94 bd 1f 81 0a 3d 29 cf 6b 3d c0 20 71 3d
       -0.07255344 0.033814546 0.05757061 0.058869123
000210 e6 83 8f bd 26 1c e2 bc 4d 5a 98 bc d1 0d 25 3e
       -0.070075795 -0.027601313 -0.018597746 0.16118552
000220 c3 1c 10 be a2 ce a3 3d a9 26 15 bd f1 d0 2e bd
       -0.14073472 0.079983965 -0.036413822 -0.04267973
000230 97 8f cd 3d 04 79 ce bd 8a 31 4c 3d 9c 4c 0d ba
       0.10037153 -0.10081676 0.04985193 -0.0005390139
000240 f1 5f b5 3d 31 f7 fc bd 84 a4 88 3d b9 d5 30 3e
       0.0885619 -0.123518355 0.06672004 0.17269029
000250 26 c2 2d bd ba c1 02 3e bd fe e5 bc c1 e0 8e bd
       -0.042421483 0.12769213 -0.02807557 -0.06976462
000260 34 48 bc 3e 9b 0f cd bd ee d4 d2 bd 91 40 50 bd
       0.36773837 -0.10012742 -0.10294519 -0.050842825
000270 e6 93 63 3d 64 ed c2 bd ec 39 23 bd eb 29 76 bd
       0.05556097 -0.09517935 -0.03985016 -0.06009857
000280 0e e2 fa bd 4d ca df 3d 8b 38 f9 bc e4 5b 0e bd
       -0.12250148 0.10927258 -0.03042247 -0.034755602
000290 c7 d9 4f be 29 67 c5 3d a2 63 a7 bd 48 58 f7 bd
       -0.20297919 0.09638817 -0.081733 -0.12077385
0002a0 c2 24 24 be 11 8b 62 bd 67 d5 04 be d9 71 d3 3c
       -0.16029647 -0.055308405 -0.12972032 0.025811123
0002b0 5e a1 92 bd 69 9b 6a be e6 a2 66 bc a8 ba ac 3d
       -0.071596846 -0.22910847 -0.014076924 0.08434039
0002c0 63 c5 d0 3d ce a9 0e be 9a 0f c1 bd 80 b1 1e be
       0.101938985 -0.13931963 -0.09426804 -0.15497398
0002d0 89 c0 c7 bd ab 29 36 be 14 62 bb 3d 64 3c c9 3d
       -0.0975352 -0.17789333 0.09149566 0.09825972
0002e0 48 9a 1a 3d 22 60 cb 3b 74 a4 23 be 2d f9 b2 ba
       0.03774479 0.0062065283 -0.15980703 -0.0013654582
0002f0 e4 d5 53 bd c2 6f 91 3e 5f bc fb 3e 49 a4 e6 bd
       -0.051717654 0.28405577 0.49167153 -0.11261804
000300 4f 20 b5 3e 49 2f 80 be f2 4d 38 bf 31 29 8a 3f
       0.35376212 -0.25036076 -0.71993935 1.0793821
000310 e6 19 4e 3f 8f 9a d9 3e 04 82 2c be aa 3b a9 be
       0.8050827 0.4250073 -0.16846472 -0.33053333
000320 3b 99 25 3f 4d 9f 4a bf af 7e 98 be f0 dd 8f 3d
       0.64686936 -0.79149324 -0.29784152 0.07024753
000330 59 74 36 bf 28 b0 5c be 13 96 30 3f b1 ea 66 be
       -0.7127128 -0.21551573 0.68978995 -0.22550465
000340 58 f8 23 bc c0 15 2e bd 92 0d bd be b7 66 21 3f
       -0.01000794 -0.04250121 -0.36924416 0.63047355
000350 ac bc 2b 3f f9 cf 4d 3f 37 a2 c7 be 79 17 ba 3c
       0.67084765 0.80395466 -0.38990948 0.02271627
000360 1d 3b 5d bf 48 ac 22 bf 7e 33 c8 be 1d 1f 4c bd
       -0.86418325 -0.6354413 -0.39101785 -0.04983436
000370 77 5b 6d 3f a7 9f 18 3f 17 a6 cb bc 6f 17 23 3f
       0.9271769 0.5961861 -0.024859471 0.6370763
000380 b1 90 3a be 84 38 83 be c2 74 1f 40 b6 3c a7 3f
       -0.18219258 -0.25629056 2.4915013 1.3065403
000390 da 11 11 3f d1 35 8a be 43 17 8f be 5a ca ee bf
       0.56667864 -0.26994184 -0.27947435 -1.8655503
0003a0 2e 31 f8 3f 94 0c 9f 3f 06 70 2e 3e c7 0f 3b bf
       1.9390008 1.2425714 0.17034921 -0.7307095
0003b0 08 4a 79 3d 57 bc ac 3f f5 0a 5b bf 59 e4 a6 bf
       0.060861617 1.3494977 -0.85563594 -1.3038436
0003c0 98 eb 75 3d f3 f3 83 bf 6a d6 00 3e bd e9 b3 3f
       0.060039133 -1.0308822 0.12581792 1.4055706
0003d0 b0 d9 e2 bd d1 2c 9e 3e ac 16 57 3e 81 f0 81 3e
       -0.11076677 0.30893567 0.21004742 0.25378802
0003e0 a9 cb bc bd 8c 16 cd 3f f1 2f 56 3f 02 ff 02 bf
       -0.092185326 1.6022506 0.836669 -0.5117036
0003f0 99 e2 ed bd ef ac c8 bf b1 bf eb bf d8 31 f5 3d
       -0.11615486 -1.5677775 -1.8417875 0.119723976

user_tower.feedforward.0.bias f4 [64]
000000 5a 21 2c 3f f7 59 85 3e fa 22 34 c1 ed 75 1d be
       0.6723839 0.260452 -11.258539 -0.15377016
000010 5c 5b 73 3d 3b c3 64 bf e3 7c f2 bf 30 c7 79 be
       0.0594133 -0.893604 -1.8944362 -0.2439239
000020 df 6d da be ff 74 46 3e d6 77 95 3f e9 b6 0d 3c
       -0.4266195 0.19380568 1.1677196 0.008649566
000030 90 7c c2 3a 94 56 a7 3d 52 c8 1c bf 20 1b de bc
       0.0014838148 0.0817081 -0.61243165 -0.027112544
000040 06 13 71 be 6d 8b 1f c1 00 f2 2b be 23 8c 91 bd
       -0.23542413 -9.9715395 -0.16791534 -0.07106807
000050 2d d8 05 3e be d3 bb bd 21 36 4a bf 8e 2a 12 3e
       0.13070746 -0.09171246 -0.78988844 0.14274046
000060 60 0f 91 bf 04 e2 36 bd fb e8 16 3d 69 63 5a bc
       -1.1332817 -0.04464914 0.03684328 -0.013329365
000070 ec c7 88 3e 8e 30 31 c0 98 1f 71 3e 23 71 08 be
       0.26715028 -2.7685885 0.23547208 -0.13324408
000080 67 ce 15 bf a9 a6 94 bf eb 2f 04 3e ac 64 60 3e
       -0.5851807 -1.1613361 0.12908904 0.21913403
000090 08 ce 7e bd cb 56 7a 3d a8 53 91 bd 6b e5 40 3e
       -0.062208205 0.06111793 -0.07096034 0.18837516
0000a0 3d 73 8b 3d a5 41 94 be 49 b0 00 bf 84 0f e3 bd
       0.06809089 -0.28956333 -0.5026899 -0.11086944
0000b0 6c 9e 5c bf 13 30 25 3e 6f b8 48 bf c7 d8 e9 3d
       -0.8617923 0.1613162 -0.78406423 0.114183
0000c0 d2 d6 0d 3e 20 a0 fa 3d e0 2c 10 c0 ff 7e 8a 40
       0.13851479 0.12237573 -2.252739 4.3280025
0000d0 fb 08 d7 3b 0f 15 cf be 08 77 89 bd 4d 15 22 bf
       0.00656235 -0.40445754 -0.067121565 -0.6331375
0000e0 f8 c3 62 c0 8f a3 1c be e4 ec 65 bd ba 82 e3 3e
       -3.543211 -0.15296768 -0.05613412 0.44435674
0000f0 9b 9c fc bd c0 2c 3c 3f a6 68 ac 3d 19 fb b9 3d
       -0.123345576 0.73505783 0.084183976 0.09081096

user_tower.feedforward.2.weight f4 [32, 64]
000000 07 33 5c bd 5f 9d 94 3d 48 1b de be 5a 2d 9b bd
       -0.0537596 0.07256579 -0.4338019 -0.075770095
000010 7c 7e 9f 3c 8c 87 02 be b6 4e cb 3c 6e a4 bc bd
       0.019469492 -0.1274702 0.024817806 -0.0921105
000020 bd cc 59 bd 54 33 3b 3d 65 83 14 3b 34 66 4c bd
       -0.05317377 0.045703247 0.0022661325 -0.049902156
000030 5c b2 62 bd 12 f3 af 3d 21 29 58 bd 30 d0 16 bd
       -0.055345878 0.08591284 -0.0527736 -0.036819637
000040 b7 18 39 be 41 92 ad be 87 a3 c2 3d e0 e3 c8 3d
       -0.18075834 -0.33900645 0.095038466 0.09809089
000050 40 5a 9c 3c 98 87 b8 3c 2b 04 ad 3c da 9e ee bd
       0.019086003 0.022525594 0.021120152 -0.11651392
000060 5c c8 21 be 40 65 41 3d 14 5d b7 bd 44 d5 61 bd
       -0.15799087 0.0472157 -0.089533 -0.055135027
000070 eb 7f 86 3d 3b 2f 72 bd ef 92 92 bc 48 13 9d bd
       0.06567367 -0.059127074 -0.017892329 -0.07669693
000080 6f 1d e1 3c 2a 69 7d bd 50 12 ec 3c 07 1a cd bd
       0.027479855 -0.06186787 0.028817326 -0.1001473
000090 f8 72 22 bd 6c 4c a4 bd 89 c6 36 bd c7 81 82 3c
       -0.039660424 -0.08022389 -0.04462293 0.015931023
0000a0 14 1b 50 3d 27 73 b1 bd cc 46 b5 be 00 f3 8f 3a
       0.050807074 -0.08664542 -0.35405576 0.0010982454
0000b0 89 31 c3 bb 3c 9e 4a 3d 1e be 05 be b3 9a f9 3d
       -0.005956833 0.04946731 -0.13060805 0.1218771
0000c0 08 41 ea bd f0 3c 46 3c 98 dd 0c be b8 74 9a 3e
       -0.11438185 0.01209949 -0.13756406 0.30167174
0000d0 89 3c 9a bc 8b 73 04 bd 24 7e ec bd d6 f8 ff 3c
       -0.018827694 -0.032336753 -0.11547497 0.031246584
0000e0 fb dc 3b be 9c 33 95 3d f9 ac 1a 3c 22 e7 18 3c
       -0.18346016 0.07285234 0.009440654 0.00933245
0000f0 22 d3 29 bb d7 c2 87 ba 60 5b 9c 3b 1b 60 2e bd
       -0.0025913198 -0.0010357749 0.004771635 -0.042572122
000100 91 13 c8 be cc 35 0d 3d 92 01 18 be 00 4e 15 ba
       -0.39077428 0.034475133 -0.14844349 -0.0005695522
000110 6d 5a e9 bc 94 27 0a 3d c7 6a cf bd dc 3f d2 3d
       -0.028485501 0.03372915 -0.10127788 0.102660865
000120 e7 97 eb 3b 53 f6 a2 bc ee fc 41 be d0 bc 24 3c
       0.007189739 -0.019892847 -0.18944141 0.010054782
000130 02 84 c5 3d 15 73 c7 bc a0 af 27 3e f1 f0 60 bd
       0.09644319 -0.024346868 0.1637559 -0.05491728
000140 e6 bc 3b be ac 64 b1 be ce 4f c4 bd 7a 1a f5 bd
       -0.18333778 -0.3464712 -0.09585534 -0.11967941
000150 21 fd 4e bd 60 2c d4 3c ae bf 46 bd b8 35 91 3c
       -0.05053437 0.025900066 -0.048522644 0.01772581
000160 3a e0 4a be 9e 12 a1 bd e8 63 2d bd bc 55 89 bd
       -0.19812098 -0.07864879 -0.042331606 -0.06705806
000170 c3 bf 00 bc 63 d1 ae be bf a3 cc 3c 50 33 24 bd
       -0.00785822 -0.34144124 0.024980424 -0.040087998
000180 96 7f c7 bd bd 10 44 3c 10 11 ef 3c bd 9e 0a be
       -0.09741132 0.011966881 0.02918294 -0.13537116
000190 a8 70 b3 3d 4c 87 22 3d 22 62 a3 bd 8a c4 2c be
       0.08761722 0.03967981 -0.07977702 -0.16871849
0001a0 50 68 f1 bc 0d 31 0c bf a7 12 96 be 04 ea 04 bd
       -0.029468685 -0.54762346 -0.29311106 -0.032449737
0001b0 e9 0f f3 be 90 4f f8 bc bc 1f 2b be 6d 2b b9 3d
       -0.47473076 -0.030311376 -0.16711324 0.09041486
0001c0 b0 2d 07 3c 82 7b a8 bd fc 47 e0 bd 90 61 9b 3c
       0.008250639 -0.08226682 -0.1095123 0.01896742
0001d0 b9 9c 60 be 61 98 af be 18 03 4a 3d 07 cb a3 3d
       -0.21934785 -0.34295943 0.049319357 0.07997709
0001e0 eb 5c 1d bf 5c 4b 84 bd e9 05 a1 bd 9a b5 de bd
       -0.61469907 -0.06459686 -0.078624554 -0.108744815
0001f0 45 e2 c3 bd fa 0f c2 be c0 61 9f 3b fe 30 84 be
       -0.09564642 -0.37902814 0.0048639476 -0.25818628
000200 db 3c b4 bd b7 38 07 bd 60 8e a9 bd 6a c0 ed 3d
       -0.0880067 -0.033013072 -0.08279109 0.11608966
000210 a5 6d e9 3d b6 f6 76 bd 27 b5 06 bc 64 88 f2 3d
       0.11397866 -0.060293876 -0.008221901 0.11842421
000220 d3 5b a1 3c a4 be 69 bd a3 2b 49 be f6 0b 86 bd
       0.019697106 -0.057066575 -0.19645552 -0.0654525
000230 6a d4 b8 bd d5 6c ac bd c8 20 d8 3c 68 47 19 3d
       -0.0902489 -0.084191956 0.026382819 0.037421614
000240 4e 8e 84 3c ae 79 9c be 77 1c 49 3e 14 e3 fb 3d
       0.016181137 -0.30561584 0.19639765 0.12299171
000250 08 e1 cf 3d 50 a3 79 bc dd 3e 4d 3d f0 f4 fa bc
       0.10150343 -0.015236691 0.05010878 -0.030634373
000260 b3 be 3e 3d a0 8c a9 bd 10 3a 79 3d 88 61 fc 3d
       0.046568584 -0.08278775 0.06084639 0.1232329
000270 d9 bd 32 bd 62 ae 2b 3d 8e c0 0e bd 81 2f d8 3d
       -0.043638084 0.04191435 -0.034851603 0.10555936
000280 ed 44 9a bd 27 cd da bc 34 7b 43 3d 2b cd 1d 3d
       -0.07532678 -0.026709152 0.047724918 0.03852574
000290 6f 31 e2 3d c0 e4 7b bb 66 e9 68 3c c5 36 89 3d
       0.11044585 -0.0038435906 0.014215803 0.066998996
0002a0 46 cd d0 3d e4 f8 2a be 13 a9 ec bd c6 81 e3 3d
       0.10195403 -0.16696507 -0.11555686 0.11108737
0002b0 18 29 3a be b2 e5 81 bd 62 7c 3a bd ca 23 3f 3d
       -0.18179739 -0.06342639 -0.045528777 0.04666499
0002c0 3a 03 ac 3d bc 46 b7 3d 0a 48 ec bd 07 21 bf bb
       0.08399053 0.089490384 -0.11537178 -0.0058327946
0002d0 88 22 e3 bc 7c 68 9e be f0 23 b8 bc 6c 55 18 3e
       -0.027726427 -0.3093909 -0.022478074 0.14876336
0002e0 e4 bd 30 bd ca 9e c9 3d 4c ab dd 3c 16 b2 38 be
       -0.043149844 0.0984474 0.02705922 -0.18036684
0002f0 5c 3d c6 bd 33 e1 33 be 9c f0 9f 3d 92 06 d0 bd
       -0.09679672 -0.17566375 0.078095645 -0.10157503
000300 44 45 e0 bd 2d e1 41 be 8f 70 7b 3e 79 c8 39 bc
       -0.10950711 -0.18933554 0.24554656 -0.0113393
000310 c6 99 55 bd 59 cd 71 bc 97 81 1a 3e bf da 29 3e
       -0.052148603 -0.014758431 0.15088497 0.16587351
000320 59 77 04 bd 99 ad 2a be 01 68 d6 be 20 34 b0 bb
       -0.03234038 -0.16667785 -0.41876224 -0.0053773075
000330 2e f8 83 bc 0e b8 e5 3d 16 6e 90 3e c8 96 b6 3d
       -0.016109552 0.11216746 0.2820899 0.08915478
000340 e8 c8 c5 3d 2a ea ae be 1c 79 ad 3d c4 1f 02 bd
       0.096574605 -0.34163028 0.084703654 -0.031768575
000350 09 5b c3 bd 40 ca 10 3b 1b d3 f1 3b a4 40 03 3d
       -0.09538848 0.0022093207 0.007379902 0.032044068
000360 0c 5a 2a 3d 08 f7 57 3d f8 e8 4c bd 16 1d f1 bd
       0.04158978 0.05272582 -0.050026864 -0.11773126
000370 98 7d 45 bd 80 4b 16 3f ce 41 76 be f6 68 cc bc
       -0.04821548 0.58708954 -0.2404854 -0.024952393
000380 59 26 91 bc ee cd 9a bd fa ba b7 bd ae 7b 08 be
       -0.01771848 -0.07558809 -0.0897121 -0.1332843
000390 a8 c7 be bd 34 62 88 bd 9c 41 c1 3c fc 6b 9c be
       -0.09315425 -0.06659356 0.023590855 -0.30551136
0003a0 98 57 b1 bd 9c bd fd 3d 0c fd 1b 3e 46 ea e0 3d
       -0.08659285 0.12389681 0.15233248 0.10982184
0003b0 a6 3d 2a 40 c4 12 2e bd e0 97 ef bd cf 99 48 bd
       2.6600127 -0.042498365 -0.1169889 -0.04897481
0003c0 b8 1e 90 bc 90 be 51 3c 2e 36 31 3d 5e b7 d7 bf
       -0.017592773 0.012801781 0.04326456 -1.6852834
0003d0 ea e8 a0 3e 15 6c bc bd b8 ce 7a 3d f6 de b6 bc
       0.314277 -0.092003025 0.0612323 -0.022323113
0003e0 e2 d9 5a 3e 2a 46 8f 3d 73 80 c8 3d 05 37 97 be
       0.21372178 0.069958046 0.09790125 -0.29534164
0003f0 57 98 b7 3d f7 0f a3 3d 6e 43 a0 bd 29 bd 5f 3b
       0.089646034 0.079620294 -0.07825361 0.0034139848

user_tower.feedforward.2.bias f4 [32]
000000 d2 27 1f 3f 6c ea b4 bd 19 17 a1 be 3e a5 7c c0
       0.62170136 -0.08833775 -0.31462935 -3.9475856
000010 87 02 91 c0 bc 29 0b bf 64 32 15 bf 75 4b cd 40
       -4.5315585 -0.54360557 -0.58280015 6.415461
000020 b1 7b 13 bd 54 32 3b bd 3a 29 16 bf 93 45 e5 bf
       -0.036006633 -0.045702294 -0.58656657 -1.7911857
000030 62 90 e5 be fc 3c 85 c0 03 47 0a c0 1e 07 af c0
       -0.44836718 -4.1636944 -2.1605842 -5.469619
000040 69 b8 d9 40 68 ff 83 40 b0 1f 26 c0 d8 25 d1 bf
       6.803761 4.1249275 -2.595684 -1.6339674
000050 f1 e7 64 be 23 4d 64 40 fc 54 86 be b2 d6 b1 c0
       -0.22354104 3.567208 -0.26236713 -5.557458
000060 bb 54 06 40 51 a1 81 bf dc 74 dd 40 74 d5 84 3f
       2.0989215 -1.0127355 6.920515 1.0377641
000070 f3 a9 7b be 35 22 1a c0 3b 84 03 c1 58 6f 07 3e
       -0.24576549 -2.4083378 -8.219783 0.13226068

user_tower.feedforward.4.weight f4 [32, 32]
000000 c5 17 87 3d b6 99 86 be d2 0c 1b be 39 ab 93 3e
       0.065963306 -0.26289147 -0.1514161 0.2884157
000010 b3 ea 2f bf 73 1c 96 3e e2 2c 8b bf 0d 3c 79 3f
       -0.687175 0.2931858 -1.0873072 0.97357255
000020 9e ae 8e bd 11 4f 1a 3e 94 72 12 be af 88 24 be
       -0.06966899 0.15069224 -0.1430152 -0.16067766
000030 9d 8b bd be 77 a7 79 be 3c 44 0b 3f 8d 38 39 bf
       -0.3702058 -0.24380289 0.5440099 -0.72351915
000040 55 90 d6 3f be a4 0f 3f 57 3b a6 be 46 fd 03 3f
       1.6762797 0.5611075 -0.32467148 0.5155834
000050 96 44 87 3d dc 1e fa be 3c 11 d3 3d 02 a5 56 be
       0.066048786 -0.4885167 0.103060216 -0.20961383
000060 2e 28 ed be 7e c2 99 bd 71 ea 1f be 18 68 bf 3e
       -0.46319717 -0.075077996 -0.15616776 0.37384105
000070 ce 8a c9 3d 8b 0b df be 20 09 df be 86 ef 6f 3f
       0.09840928 -0.43563494 -0.4356165 0.9372486
000080 53 d6 7c bf d4 0c 7b 3e 77 71 12 3e 23 5b 54 3c
       -0.9876453 0.24516612 0.14301096 0.012961182
000090 18 7a 8b 3d af 7c ba bd 42 98 7b bb ef 07 48 be
       0.06810397 -0.09105813 -0.0038390313 -0.19534276
0000a0 16 78 8f 3d 68 51 59 3d 44 2c 7a 3e 5e 84 c2 3c
       0.070053264 0.05305615 0.24430948 0.023744758
0000b0 1a 47 a5 3c b6 ed aa 3d df 78 0d bc e1 74 0b 3e
       0.020175505 0.08346121 -0.008634775 0.13618805
0000c0 44 80 13 3f 81 3d 31 bf fd 7f 8f be 7f 50 27 be
       0.5761759 -0.6923447 -0.28027335 -0.163393
0000d0 f2 9f 9a bd a0 ef a7 bd b9 94 5b be d6 e9 0c 3e
       -0.075500384 -0.08200002 -0.21443452 0.13761076
0000e0 9d fb 2f 3f 9c 1d 4e 3e 3d b0 59 3d af 21 6e 3e
       0.68743306 0.20128483 0.05314659 0.23255037
0000f0 bb 4d c8 3d e6 f2 c6 3d e4 21 ee 3e ab 48 27 be
       0.09780451 0.09714298 0.46510231 -0.16336314
000100 c7 41 44 3d d6 8b 33 3e e7 4f 56 3c 5d 2e 6f bc
       0.047914293 0.17533812 0.013080574 -0.014598456
000110 d1 b2 f6 3e 18 2d a5 3d c2 e9 54 bd b0 18 4f bf
       0.481833 0.080652416 -0.05198074 -0.80897045
000120 7f 04 69 bd 27 f8 32 3e b3 15 54 3e ad a7 f9 bd
       -0.056889053 0.17477475 0.20711403 -0.12190185
000130 d2 93 18 bf dc f9 2a bd 27 48 6c bd 63 c3 f4 bd
       -0.59600556 -0.04174219 -0.057685997 -0.119513296
000140 22 96 dc bf 55 ef 1a 3f c3 c3 1f bf f3 cc 98 be
       -1.7233317 0.6052144 -0.62408084 -0.29843864
000150 0c 6e 70 3e 1f b4 4c bf 3e 1c bb 3d 0f e6 fd bd
       0.2347948 -0.7996234 0.09136246 -0.12397396
000160 8a ce e0 3e e7 26 6e be 07 94 96 3f 70 48 46 be
       0.43907577 -0.23257028 1.1763924 -0.1936357
000170 da 50 82 3e ea a0 44 3d 2d f0 11 bf ba 27 05 bf
       0.2545231 0.048005022 -0.57007104 -0.5201374
000180 21 0e 4d bf 23 c6 87 be 4b ad 1a 3d e3 26 0a bd
       -0.80099684 -0.26518354 0.03776292 -0.03372849
000190 1c e7 30 bb 10 9f a2 3e a4 11 2f 3e 1e 23 80 be
       -0.002699322 0.3176198 0.17096573 -0.25026792
0001a0 ce a6 22 3e 9a 29 cf 3d 97 f0 26 3d 19 e8 79 3d
       0.15883943 0.10115357 0.040756788 0.06101236
0001b0 69 41 13 3f 7c 7c 23 be 07 f2 34 3d 1a 2f 24 3d
       0.5752168 -0.15965456 0.044176128 0.040083982
0001c0 61 32 2d be 1e 72 b1 3e 58 de ab be 08 73 22 bd
       -0.1691375 0.34657377 -0.33568072 -0.039660484
0001d0 24 1e 04 bd d2 06 36 bf c7 de 5c bd 12 84 17 3e
       -0.032255307 -0.71104157 -0.053923395 0.14796475
0001e0 ab 71 a5 3f e0 3a a7 bd c5 85 3c bf 10 f3 f6 3e
       1.2925314 -0.081655264 -0.73641616 0.48232317
0001f0 da f8 04 be 1e 55 5e 3d bb 19 0b 3f 71 c9 5e 3e
       -0.12985554 0.054280393 0.54336137 0.21756531
000200 24 40 df be f9 0e 4a be af 57 47 3e c9 72 2a be
       -0.43603623 -0.19732274 0.19467042 -0.1664535
000210 d3 59 64 bf 0a bd 95 3d 6a eb 42 3f e8 65 e1 3d
       -0.8919956 0.07311447 0.76140463 0.11005765
000220 7f 65 20 3d 42 70 88 3d 33 0f bb bd a2 18 8d be
       0.039159294 0.066620365 -0.091337584 -0.27557856
000230 b6 e2 9d be 81 86 18 be d9 f9 23 3f b5 e3 2d 3e
       -0.3083703 -0.14895059 0.6405311 0.16981395
000240 df f5 c3 3f 6e db 7e bf 63 e7 0f bf 43 b9 a6 3e
       1.5309409 -0.99553573 -0.56212443 0.32563218
000250 d8 1c bf bc 36 d5 2c 3e 90 26 a5 3d 4b 74 c3 3e
       -0.023329183 0.16878209 0.08063996 0.38174662
000260 47 6e 26 3f d0 06 84 bd c7 e7 13 bf de 4a 83 3f
       0.6501202 -0.06446612 -0.5777554 1.0257223
000270 84 58 3c 3d 46 3f 4d 3e 29 c9 33 3d 1d 59 6f be
       0.045982853 0.20043668 0.043893013 -0.23373838
000280 5d 04 b2 3e 4e 87 50 bc b7 15 85 bb 73 ba f8 bd
       0.34768954 -0.012727572 -0.0040614265 -0.12144937
000290 19 83 ce be a2 79 99 bb 1d 41 df be bd 33 9b 3f
       -0.40334395 -0.004683689 -0.43604365 1.2125164
0002a0 3e f4 18 bd 0a 5c 8d bd 11 d0 6e bc e3 e3 3c be
       -0.037342303 -0.06902321 -0.014575974 -0.18446307
0002b0 10 52 dd bd aa bd 08 be f4 04 01 3e 2d e9 bf bd
       -0.10806668 -0.13353601 0.12599546 -0.093706466
0002c0 6c 1c ed 3f 87 a6 8f 3f 67 2c cd 3d dc a9 29 be
       1.8524299 1.1222695 0.10018235 -0.16568702
0002d0 57 cb d1 3d a8 8e a3 3f db e6 48 3d 84 81 25 bd
       0.10243862 1.277791 0.049048286 -0.04040672
0002e0 5d 15 d4 3e 3c 6b 9e bd 9d bf 08 3f ac 64 e5 3e
       0.4142255 -0.07735297 0.5341738 0.4480337
0002f0 d6 8c ce bd 20 c1 ba be 11 58 00 bf 2d 8e 32 3e
       -0.10085456 -0.36475468 -0.5013438 0.17437048
000300 5b 87 b0 3e 22 54 49 3e 73 53 80 be 42 e7 56 bd
       0.34478268 0.19661 -0.25063667 -0.05246664
000310 41 5c 22 bd 4a 30 12 3e 64 3f 1c bf e1 a1 b8 3f
       -0.03963876 0.14276233 -0.61034226 1.4424402
000320 87 f9 5d 3e c8 bd 2f bd e2 0c c2 bd fe 7e 2c 3e
       0.21677218 -0.0429056 -0.094751135 0.16845319
000330 2e 01 87 3e 22 de 36 3e a9 3f 58 3e 66 65 c9 be
       0.26368088 0.17858174 0.21118034 -0.39335173
000340 a4 be 8a be 85 d5 5f 3e 84 b3 c4 be 23 e8 fc ba
       -0.27098572 0.21858795 -0.3841821 -0.0019295256
000350 a2 89 df bb bb de 3f be fb 48 0e bd d6 da ea bd
       -0.006821827 -0.18737309 -0.03473757 -0.11467521
000360 90 5f 01 3f 39 a9 8a bd 71 f0 00 c0 f4 aa 7b be
       0.5053644 -0.06770558 -2.0146754 -0.24576932
000370 12 20 c2 3d cf 68 0f be 28 01 ec be 10 21 68 3f
       0.09478773 -0.14004825 -0.46094632 0.9067545
000380 1f 7d 08 3f 16 9f 9e 3c 0d 55 e5 bc 49 22 f9 be
       0.5331592 0.019362967 -0.027994657 -0.4865897
000390 a0 7a d3 bc 69 3e da bd 3e 4e 57 bd dc 3b a3 be
       -0.025815308 -0.10656435 -0.052564852 -0.31881607
0003a0 39 1a c4 bc 1d 95 e6 bd 5c ad c5 bd 17 23 f1 3d
       -0.023938285 -0.1125891 -0.09652206 0.11774271
0003b0 e6 8d 0c bd 93 19 1e bd a2 57 a1 bd b8 7e 1e 3e
       -0.034315012 -0.03859861 -0.07878043 0.15478027
0003c0 82 5a 98 bf 12 e3 14 bf 4c df 37 bf 23 f8 82 be
       -1.1902621 -0.5815898 -0.718251 -0.25579938
0003d0 50 9b 8c 3c 40 b7 b5 3f 75 b4 0d 3e c1 24 b7 3d
       0.017163903 1.4196548 0.1383837 0.08942557
0003e0 9a 17 a3 3c 7d 45 17 bd 33 8e a6 3e f2 5f ea be
       0.019908715 -0.036931504 0.32530364 -0.45776325
0003f0 8f 36 a6 3d 20 fc 01 3e 03 3e 05 bf f2 b9 1c be
       0.08115875 0.12693834 -0.5204775 -0.15305308

user_tower.feedforward.4.bias f4 [32]
000000 a6 42 a9 40 11 45 c9 c0 e2 49 e4 40 d6 a1 de c0
       5.289386 -6.289681 7.134019 -6.9572554
000010 65 23 c5 c0 30 5c 98 40 41 79 cb 40 87 2d cd 40
       -6.1605706 4.7612534 6.3585515 6.4118075
000020 40 21 c8 c0 8a 24 e1 c0 a5 6a cd 40 2a 50 e7 c0
       -6.254059 -7.0357103 6.419268 -7.2285357
000030 51 ed cb c0 8e 1a e4 40 1f 8f e2 c0 a5 5b 95 3f
       -6.3727193 7.1282415 -7.079971 1.1668593
000040 b7 51 b5 40 2a fa 65 c0 91 f9 df 40 f1 aa c9 c0
       5.666225 -3.5933938 6.9992146 -6.302117
000050 43 ec de c0 3d 75 e1 40 ad 58 b8 40 cd 6c c6 40
       -6.9663405 7.0455613 5.7608247 6.2007813
000060 59 ae 87 3f a5 de e2 c0 5c 5c c5 c0 8f 8a 96 c0
       1.0600082 -7.0896783 -6.1675243 -4.704414
000070 ef 41 e3 c0 e0 db e5 bf 07 a6 a9 40 ab cd dd 40
       -7.1017985 -1.7957726 5.301517 6.931356

item_tower.feedforward.0.weight f4 [64, 160]
000000 4c 2b 97 3f ac 04 0d c0 34 87 06 c0 7c 75 56 c0
       1.1810088 -2.2034101 -2.1020021 -3.3509207
000010 79 82 30 bf c4 6b 30 bf bb 11 90 3f 8e 2b a0 3f
       -0.68949085 -0.6891444 1.1255411 1.2513292
000020 f5 1d 86 bf f6 f5 aa bf c1 79 2b 3f a8 eb 06 3f
       -1.0477892 -1.3356311 0.66982657 0.5270333
000030 17 88 07 40 78 59 af 3f 3d b6 79 bf 98 a5 b2 bf
       2.1176813 1.3699179 -0.975437 -1.3956785
000040 60 30 85 3f b5 73 e0 3f fa b8 41 3f 8d e3 2a c0
       1.0405388 1.7535311 0.75672877 -2.6701386
000050 44 b9 c7 bf cd 23 4f 40 88 ee 43 bf ce 5f 5e bf
       -1.5603414 3.23656 -0.76535845 -0.86864936
000060 df 3e 68 bf 29 fa f1 bf a9 c6 8c 3d 4e ad 16 bf
       -0.90720934 -1.8904468 0.06873829 -0.5885819
000070 17 7e 5c 3f 96 cd a1 3f 7b 86 28 be 2c 6f 19 bf
       0.861299 1.2640865 -0.1645755 -0.5993526
000080 e4 b3 5e 3d cc 91 86 bf 1d 41 c0 3f a4 85 9d 3d
       0.054370776 -1.0513244 1.5019871 0.076915056
000090 b1 3d 90 3f eb 70 4b 40 76 34 f3 3c 70 0c 34 bf
       1.1268827 3.178767 0.029688101 -0.7033148
0000a0 31 fe 50 3f ad b4 b2 3f 0c 8e 11 bf c1 ed 20 bf
       0.81637865 1.3961388 -0.5685737 -0.62862784
0000b0 0f d9 c7 3f 7f 59 27 3f c7 c5 56 40 d6 d6 b1 3f
       1.5613116 0.65370935 3.3558214 1.3893688
0000c0 e2 f5 ca 3f 4c 23 9c 3f d9 e2 bf bf 4a f1 d9 bf
       1.5856287 1.2198272 -1.4991103 -1.702676
0000d0 b9 2d a0 bf ef aa 27 be f9 57 ce bf e6 ce fc bd
       -1.2513953 -0.163738 -1.6120597 -0.1234415
0000e0 60 07 bb be 9c fe e8 3f 18 17 b8 be 4d bb 40 bf
       -0.36529064 1.8202701 -0.3595512 -0.752858
0000f0 7f b6 d4 be ae c9 59 bf 49 df d2 bf 3d c6 aa bf
       -0.41545483 -0.85073364 -1.6474391 -1.3341748
000100 6b a7 82 bf d2 39 40 bf 2a 12 5d 3d ae e5 2b 40
       -1.0207342 -0.75088227 0.0539724 2.6858935
000110 dc 59 90 be 2b 72 b8 3e 1b 8e 90 3e 8f 07 3d c0
       -0.28193557 0.36024603 0.28233418 -2.9535863
000120 ce ea 1c 40 44 70 3f c0 1d ad 3e 40 4e 7c 6c 3e
       2.4518313 -2.9912271 2.979316 0.23094293
000130 44 5c 03 bf aa 16 13 40 82 1f b7 bf 5f d4 3b c0
       -0.5131266 2.2982583 -1.430649 -2.934837
000140 2c ae 42 3f f5 dc da 3f e2 f7 f8 bf 76 33 fd 3f
       0.76047015 1.7098681 -1.9450648 1.978133
000150 33 52 a1 be 1c 01 e9 3e a3 42 3a 3f bc 73 86 3b
       -0.31508026 0.4550866 0.7275793 0.004103152
000160 8d 31 5a c0 e3 b2 0b 3f 8b ec 85 40 fc 17 30 c0
       -3.4092743 0.54569834 4.185125 -2.751464
000170 98 e5 25 c0 54 3f bb 3f 60 09 70 c0 42 90 5d bf
       -2.5921383 1.4628701 -3.7505722 -0.86548245
000180 6f 37 b6 3f 15 84 ac bf c2 75 19 3f 12 d3 01 3f
       1.4235667 -1.3477808 0.5994531 0.5071269
000190 47 98 df bf 2e 21 bf 3f 6e 05 30 c0 72 19 e3 bf
       -1.7468346 1.4932001 -2.7503314 -1.774214
0001a0 ab d5 91 3e cc 87 09 3f 04 00 e8 bf d9 26 21 3f
       0.28483328 0.53722835 -1.8125005 0.629499
0001b0 ed 59 c5 bf 53 76 a6 bf 8b 74 90 3f 29 80 9b c0
       -1.5418068 -1.300486 1.1285566 -4.8593946
0001c0 b5 59 80 3f 65 f8 25 3f c5 02 c5 be e1 1a e2 bf
       1.0027376 0.64832145 -0.38478675 -1.7664453
0001d0 c5 9f d6 3e d1 b0 21 3f 04 19 36 3f c3 8d 5a 3f
       0.4191877 0.63160425 0.7113192 0.8537256
0001e0 39 1a 07 3f 77 7a f6 3d 64 4c 98 bd 10 8f 60 be
       0.5277439 0.12035077 -0.07436445 -0.21929574
0001f0 e5 23 4f bf d0 58 c7 be 50 f5 84 3f cd df e9 bf
       -0.80914146 -0.38934946 1.0387363 -1.8271424
000200 9c 8a 80 3d fa a1 bc 3d 24 c8 b2 3b b1 91 0e 3e
       0.06276438 0.09210582 0.0054559875 0.13922764
000210 5e ce 87 3e f1 44 20 3e b2 9c 44 be b5 05 cf 3d
       0.26524633 0.15651299 -0.192004 0.101085104
000220 a2 83 81 3d 9c 7c 89 bd 9c e4 a9 be 5b 93 f4 3d
       0.06323935 -0.067132205 -0.33182228 0.11942168
000230 44 e0 66 3e 40 82 cf 3c d9 fd b3 bd b2 ad b8 be
       0.22546488 0.025330663 -0.08788652 -0.3607002
000240 fc 69 79 bd 15 4c 47 3d b5 33 49 be a7 4b bd bd
       -0.06089209 0.04865654 -0.19648631 -0.09242945
000250 03 81 90 3c 97 cf 2e 3e c8 88 fc 3b 62 8b 0a bb
       0.017639643 0.17071377 0.0077067353 -0.0021140208
000260 98 8e 1a bf 3f d3 6b bd d4 7e 2d 3d a7 aa 7a be
       -0.6037383 -0.057574507 0.04235728 -0.24479161
000270 ad 80 3f 3d f3 39 7a bc ef 76 12 bd 5d 16 ae bd
       0.046753574 -0.015272605 -0.035757955 -0.08500359
000280 bf 95 18 3c 50 a6 43 3d ce ee 9f 3d e5 7c 13 3e
       0.009313046 0.04776603 0.0780922 0.14403112
000290 15 23 bd 3d a8 be 22 3c a5 a8 91 bc e6 dc 1b 3d
       0.09235207 0.009933151 -0.017780611 0.038052462
0002a0 99 2f 4f 3c e2 62 d7 3d 1c 10 63 bd a8 d0 88 3c
       0.0126456255 0.10516907 -0.055435285 0.016701058
0002b0 55 ee 99 3d 9c c6 dd bd 18 a5 f0 3b 0c 98 db 3b
       0.07516161 -0.10828897 0.0073438995 0.006701475
0002c0 3e 96 e2 3d f0 43 79 bd 85 43 83 bc e6 79 d6 bd
       0.11063813 -0.060855806 -0.016023407 -0.10472469
0002d0 c7 45 4c 3d e0 27 b5 3d e1 8a 3c bb db e4 8c 3c
       0.049871232 0.08845496 -0.0028769302 0.01719897
0002e0 e9 ab 9e 3d 2f be 49 3d 7e b8 f2 bc 85 25 0f be
       0.07747633 0.04925364 -0.029628988 -0.13979156
0002f0 d8 52 7f 3d 52 79 8e bd 1a 00 ef 3d b8 80 ec bc
       0.062334865 -0.06956734 0.11669941 -0.028869972
000300 48 af 82 bd 61 e7 f1 bd bb 22 22 3d fc a5 09 bd
       -0.063810885 -0.1181171 0.039583903 -0.03360556
000310 d7 25 c1 3d e1 2e f1 3d 77 50 3f 3d 85 af 20 3d
       0.094310455 0.117765196 0.046707597 0.03922989
000320 85 6f 1b be 4d 98 d8 3c 3b d8 0c be 44 9a 1f 3e
       -0.1517926 0.02643981 -0.1375436 0.15586191
000330 bd ec 98 bd 30 ef 8f 3c 60 21 8e 3d f2 e4 be bd
       -0.07467029 0.017570108 0.069399595 -0.093210116
000340 23 2b 03 3d 44 45 9d 3c 2f f3 60 bc b6 14 b5 bd
       0.03202356 0.019198067 -0.0137298545 -0.08841841
000350 98 16 4b bd a2 b9 11 bc 4d 2e 73 bd 46 2a c5 3d
       -0.049582094 -0.008894356 -0.059370328 0.09627204
000360 45 f9 d7 bc 0e a1 7f 3c e3 fa 84 bc 6d 55 22 3d
       -0.026363978 0.015602363 -0.016232913 0.03963225
000370 e7 1c 90 bc 30 04 bc 3d ff b1 27 39 db 82 1a 3d
       -0.017591907 0.09180486 0.0001599267 0.03772245
000380 88 61 52 3d 30 2b f3 bd 0b cb a5 3c ac 4a 95 bb
       0.051362544 -0.11873472 0.02023842 -0.0045560207
000390 ff 5d 4e bc af de 82 bd d2 01 d5 ba 6e d1 cb bd
       -0.012595653 -0.0639013 -0.0016251153 -0.09952055
0003a0 f3 a0 19 bd fd 7c 8d 39 ed d0 ac bd 11 87 6d bc
       -0.03750701 0.0002698674 -0.08438287 -0.014497534
0003b0 86 61 64 3b 04 8c 5f 3d 71 ff 2b 3d c6 96 a6 bd
       0.0034848168 0.05457689 0.041991655 -0.081342265
0003c0 dc 09 6c 3d 75 6e 7c bd 96 b7 3b bd 71 1b a5 ba
       0.05762659 -0.061628778 -0.045829378 -0.0012596679
0003d0 2c c6 83 ba fc d5 a1 3c bf 38 b7 3d 1c ee ff bd
       -0.0010053567 0.019755356 0.0894637 -0.12496588
0003e0 45 60 cc 3c 7a 71 92 3d f4 73 20 bb e4 3e 02 3e
       0.024948249 0.0715055 -0.0024483176 0.12719303
0003f0 06 13 46 bd cf 53 0c bd 3e ff 06 bd a3 f9 1f 3d
       -0.048357986 -0.034259614 -0.03295826 0.03905643

item_tower.feedforward.0.bias f4 [64]
000000 6d 2e 36 bf e1 56 d8 bd 52 f8 0a bf d0 a5 11 bf
       -0.7116459 -0.10563446 -0.54285157 -0.56893635
000010 24 02 4a bf 92 c5 a3 be e4 f8 0a be 52 7d ba be
       -0.78909516 -0.31986672 -0.13571507 -0.36423737
000020 3a 85 39 3e 88 95 95 bf 15 f5 99 bf 27 e3 a5 bf
       0.18117228 -1.1686258 -1.2027918 -1.2959946
000030 20 14 49 3e 68 f5 01 bf 44 c7 41 bf 3d 7d 82 bf
       0.19636583 -0.50765085 -0.7569468 -1.019447
000040 df e9 9f bf 12 34 de bd 64 99 b7 bd 5c 2c c9 bd
       -1.2493247 -0.108497754 -0.08964804 -0.09822914
000050 19 9f c0 bd a4 c2 4f bf 03 6f a5 bd f5 d0 d1 bd
       -0.094053455 -0.81156373 -0.080778144 -0.102449335
000060 ba b2 d0 bd 2c 81 1a be 45 d3 09 be e1 68 8c be
       -0.101903394 -0.15088338 -0.13459499 -0.27423766
000070 0b 23 c7 bd 55 45 b7 3e a3 0a f4 be e4 84 07 be
       -0.09723481 0.35795084 -0.47664365 -0.13234288
000080 a0 77 da be 01 bc 28 bf c6 ad 57 bf 91 ba 1f be
       -0.42669392 -0.6591187 -0.8424953 -0.15598513
000090 71 8d 42 bf f4 4a 88 bd 56 29 19 bf ec e9 c3 bd
       -0.7599707 -0.06654921 -0.598287 -0.095661014
0000a0 4d 56 cd bd e5 01 c8 3d 3d 6e 1e bf 11 aa e4 bd
       -0.10026226 0.09765986 -0.6188696 -0.1116525
0000b0 d7 bb 51 bf 87 3f 99 bd ba a0 09 bf d1 c2 10 be
       -0.81927246 -0.0748282 -0.53760874 -0.14136817
0000c0 63 9d 01 bf 37 2a 54 be 21 bb 7b be ae d4 c9 bd
       -0.5063078 -0.20719229 -0.24583103 -0.098550186
0000d0 6b 3d 7f bd 03 47 75 bf cc 3b 6e bc 20 37 50 be
       -0.062314432 -0.9581148 -0.014540624 -0.20333529
0000e0 33 5e 07 c0 2f 0c 86 be 89 50 0f bf e8 e8 e4 bd
       -2.1151245 -0.2618117 -0.5598226 -0.11177236
0000f0 70 e9 25 bf 58 e5 ac be 19 d1 1b bf 8b 3c e2 bd
       -0.6480932 -0.33768725 -0.6086593 -0.11046704

item_tower.feedforward.2.weight f4 [32, 64]
000000 d5 59 28 3f 62 59 f3 bd fc 7c 9a bf 75 56 2b 3f
       0.6576207 -0.11882283 -1.2069392 0.669288
000010 25 b8 a7 3f 30 2a 95 3f 20 ec ff bb de 35 98 3d
       1.3103071 1.16535 -0.0078101307 0.07432149
000020 6c f2 1d 3e 41 82 64 3f 42 76 b5 bd 31 10 a2 3f
       0.15424508 0.8926125 -0.088604465 1.2661191
000030 d2 97 20 c0 7e ce 6d 3f f6 51 6f 3f b2 ae 5e c0
       -2.5092664 0.9289321 0.9348444 -3.4794126
000040 25 37 15 be 87 3b ba 3d 06 77 8c bd d0 8c 62 3d
       -0.14571817 0.09093385 -0.068586394 0.05531007
000050 f4 06 1b bd 9b 94 4d c0 3c 3f 62 3d 16 b7 a8 3d
       -0.037848428 -3.2121952 0.055236086 0.08238046
000060 c0 5d cf 3b e1 4a e8 3c d3 8f b0 3e 12 79 80 c0
       0.0063283145 0.028356018 0.3448473 -4.014779
000070 e6 e0 77 3d 2b 6f 23 be 26 61 6d bf 80 75 a7 bb
       0.060517214 -0.15960376 -0.9272636 -0.0051104426
000080 d5 d3 a0 3f 42 f1 29 3f 84 a8 de 3f 6f 50 1d 40
       1.2564646 0.66383755 1.7395177 2.4580343
000090 98 08 83 3f 0f b9 94 bc 7d 6a 96 bf fa 73 82 3d
       1.0236998 -0.018154649 -1.1751248 0.06369777
0000a0 e0 cc a9 bb 54 a7 8d 3f 8b e1 0c c1 58 d2 5e bd
       -0.0051818937 1.106669 -8.805064 -0.05439982
0000b0 5b 2c 82 c0 d0 ae 59 bd 50 d6 49 bf e2 80 c9 3d
       -4.0679145 -0.05314523 -0.7884264 0.098390356
0000c0 5b 32 71 bf a8 5a 86 bd 93 61 de 3d 80 05 11 3c
       -0.9421746 -0.0656026 0.108584546 0.008851409
0000d0 eb fb b1 be f8 78 bf 3f 35 5a 0e c0 5c 9a 2b bd
       -0.3476251 1.4958792 -2.2242558 -0.041895255
0000e0 65 25 48 c0 63 8b 0b 3d 25 ca 93 3f fb 6b a9 be
       -3.1272824 0.034068476 1.1546065 -0.33090195
0000f0 55 59 40 3f 23 fb a5 3e 46 cb 6a 40 ee 3f f4 3c
       0.7513631 0.32418165 3.6686568 0.02981564
000100 4c 9b e1 3b e0 30 8d 3c f7 a3 35 be 62 38 ce bd
       0.006884968 0.01723522 -0.17738329 -0.10069348
000110 d4 bd 4c 3d 6a 92 8e bd 28 08 96 3c a6 f3 f2 bc
       0.04998572 -0.0696152 0.018314436 -0.029657196
000120 c2 6a 5b 3b a5 89 1b 3c 6d bf e3 bd 2f 2c 0f be
       0.003348038 0.009493266 -0.11120496 -0.13981698
000130 0e f3 33 be cf f5 b0 bd b9 99 2d 3c d1 ab 3c bd
       -0.17573187 -0.08640634 0.010595732 -0.046062294
000140 f0 45 d6 3b 36 7d fb bd 1e 68 ad 3d 98 41 fe bc
       0.006539099 -0.122797415 0.084671244 -0.031037137
000150 39 2c b8 bc b9 ba 60 3d 7c e3 10 3d 0e b7 c4 bd
       -0.022482025 0.054865573 0.035373196 -0.096052274
000160 90 b5 aa 3c c0 10 44 3d 1d 21 c1 bd f7 66 1f bd
       0.020838529 0.047867537 -0.09430144 -0.038916554
000170 b0 f3 1e bd 7f f2 00 be ba cd 9b 3c 38 cf 2a bd
       -0.038806617 -0.12592505 0.019018997 -0.041701525
000180 4e 27 19 be 63 1d bc bd 44 42 93 bd 2b 9f 28 bd
       -0.149564 -0.091852926 -0.071903735 -0.04116742
000190 c8 b3 10 bd 44 72 3a bd 4e 83 90 3d 58 40 e2 3c
       -0.035327703 -0.04551913 0.070562944 0.027618572
0001a0 6c c6 49 bd fd d7 ec 3c 31 e1 cc bd c8 61 9c 3d
       -0.049261495 0.028911585 -0.10003889 0.07635838
0001b0 11 aa 03 be 8c 29 b1 bd 56 fe 17 bc e6 ee be 3d
       -0.12857844 -0.086505026 -0.009276947 0.0932291
0001c0 83 c7 c9 bd 9e d0 8d 3d 80 ff 9d ba ab ee 2f bc
       -0.09852507 0.06924556 -0.0012054294 -0.010738055
0001d0 da 5e 53 3c e8 5b a4 bc cf e1 5c 3c 9e 5b aa bd
       0.012901032 -0.020063356 0.013481571 -0.08318256
0001e0 48 e7 d5 3c 63 6b 2a bd 33 76 c0 bc ba 24 07 be
       0.02611126 -0.04160632 -0.023493862 -0.13197604
0001f0 cf 09 be bc 7c 68 0d 3d 41 96 d2 bd 0c 71 e9 3c
       -0.023198036 0.034523472 -0.10282565 0.028496288
000200 9a c9 4c 3e 2d cd 06 bc 78 5e 6a 3e 5b fb 7e 3e
       0.1999878 -0.008227629 0.228876 0.24900572
000210 06 fd 76 bf 72 e4 0a bf dd cc 92 3d 97 0e 36 3f
       -0.96479833 -0.5425483 0.07167981 0.7111601
000220 ff 0d 6b be b2 2d 8e bf 18 43 42 bf 17 87 a9 3e
       -0.22954558 -1.1107695 -0.75883627 0.33110878
000230 d1 7e a0 bf de f5 c1 c0 e4 b2 0b c0 23 6c b2 c0
       -1.2538701 -6.061263 -2.1827936 -5.5757003
000240 2c 0c 9d 3f c0 92 fe bd 30 4d 0c 3c 64 0a 06 bd
       1.226934 -0.12430334 0.008563325 -0.032724753
000250 aa d5 9d bd 3c 69 bc bd 24 31 cc bd aa 1e c1 3b
       -0.07706769 -0.09199759 -0.0997031 0.005893548
000260 a4 19 bb 3d 7d ad d5 3d cd 8f 8c 3f f0 f2 0f c0
       0.0913575 0.10433481 1.0981385 -2.2492027
000270 52 32 f7 bd 4b 58 d0 3e 6d ba 48 bf c6 0d 91 bd
       -0.12070145 0.40692362 -0.78409463 -0.07082705
000280 03 c6 0f c0 ba c5 f2 3f 48 6f 1b c0 84 77 5e bf
       -2.2464607 1.8966591 -2.428667 -0.86901116
000290 44 07 40 3e 20 3a 4c 3c 84 7f 94 3f 35 a3 f1 3c
       0.18752772 0.01246503 1.1601415 0.029496768
0002a0 7c 1d eb 3d 77 ab c4 3f 1e 3b d7 3f 60 47 d6 3c
       0.11480233 1.5364827 1.6814916 0.026157081
0002b0 89 b7 5e 3f 68 cc c7 3d 83 44 dc c0 20 27 42 3d
       0.869988 0.09755784 -6.8833632 0.047400594
0002c0 cc 4e cd be dd 23 06 bd d2 dc 94 bc f1 39 6c 3c
       -0.4009918 -0.032749046 -0.018171702 0.014418111
0002d0 61 70 8b be 47 ee d8 bf d2 62 09 3f 20 23 16 bd
       -0.27234176 -1.6947716 0.5366641 -0.03665459
0002e0 c1 0e 98 40 72 4b 68 3e d1 6f 14 c0 99 ba 81 bf
       4.751801 0.2268503 -2.3193247 -1.013507
0002f0 0c c2 d0 be 0b f4 49 c0 fe 04 ea bf 9e c5 9e 3c
       -0.40773046 -3.1555202 -1.8282773 0.01938134
000300 65 6f 42 40 87 9b 50 3d 58 88 f8 3f b7 d4 4f c0
       3.038049 0.050929572 1.9416609 -3.247358
000310 45 1c b9 3f da 01 34 c0 00 50 13 3a 3a 53 99 3f
       1.4461752 -2.812613 0.0005619526 1.1978524
000320 91 80 4b 3f 84 ed 94 3f e2 a1 c9 bf 82 18 90 c0
       0.7949305 1.1634984 -1.5752528 -4.5029917
000330 66 c5 37 3f 9d 5e 03 c1 24 05 77 c0 d4 2a 08 3f
       0.7178558 -8.210599 -3.8596888 0.5319035
000340 a3 5a 46 c0 10 d4 b6 bd e0 ae 87 bb be 98 b2 3d
       -3.099282 -0.089271665 -0.00414072 0.087205395
000350 70 51 c1 3d 6f e3 5d c0 b0 da 03 bc 47 a9 c2 3c
       0.09439361 -3.4670064 -0.008047745 0.023762358
000360 28 d3 ce 3c d8 f4 7a 3c 88 49 0a c0 4d 36 b7 3f
       0.025247172 0.015317164 -2.160738 1.4313446
000370 5c 7a 8d bd 31 62 85 be c4 2b 5c c0 68 9c b1 3c
       -0.06908104 -0.26051477 -3.4401712 0.021681026
000380 33 4a da 3c 09 2f ff c0 f6 60 61 c0 58 4f a8 c0
       0.02664671 -7.9744916 -3.521543 -5.2596855
000390 86 b1 29 c1 00 d0 ba bd 8d f1 da bf 88 db cc 3d
       -10.605841 -0.09121704 -1.7104965 0.1000281
0003a0 c8 94 4c 3d ae 7b 39 3f 4e be 94 be 84 0a 25 3d
       0.049946576 0.72454345 -0.2905144 0.04029323
0003b0 a7 7a 36 3f ee 76 c5 3d a4 0b bf bf f2 b6 07 be
       0.712809 0.09641825 -1.4925427 -0.13253382
0003c0 bb 8e 90 3f 60 f7 23 3d 2a aa a0 3d 68 7d b8 3d
       1.1293558 0.040030837 0.07844956 0.09008294
0003d0 e5 6d f5 bf c6 9e 7c c0 8a f0 07 bf 53 82 4e bd
       -1.9174162 -3.9471908 -0.5310141 -0.050417256
0003e0 35 1c 15 bd 6c 6c 18 be b8 7b e8 c0 99 83 66 c0
       -0.036403853 -0.1488511 -7.2651024 -3.601782
0003f0 e5 b4 a9 3f 99 7d 46 c0 e0 f0 1c c1 16 0e c4 ba
       1.325833 -3.1014159 -9.808807 -0.0014957811

item_tower.feedforward.2.bias f4 [32]
000000 fb 00 ef bf ee 96 69 be 56 9e dc 3f 9b cb a7 3e
       -1.8672174 -0.22811481 1.723582 0.32772526
000010 51 f9 a2 bc 76 61 9d 3e a5 e2 9e bf 5c 70 5a be
       -0.019894274 0.3073842 -1.2412916 -0.21331924
000020 b5 05 68 c0 30 37 47 bf fc a1 1d 40 2a e8 31 3d
       -3.6253483 -0.77818584 2.4630117 0.0434343
000030 d8 ab 95 be 12 2d 31 be d8 ad 33 be a3 53 6b 3c
       -0.2923267 -0.17302349 -0.17546785 0.014363202
000040 0f f1 46 3f 6b bd 90 3c eb 52 24 3f fe bd b0 be
       0.77711576 0.017668447 0.6418902 -0.34519953
000050 f2 66 ec bf 0a 5e 90 3f 41 85 c4 bf 31 59 54 c0
       -1.8468916 1.1278698 -1.5353166 -3.3179438
000060 3f 8b 9f bf 4b df 82 be f2 8f 1c be e3 c3 c4 be
       -1.246437 -0.25560984 -0.15289286 -0.384307
000070 a1 f0 ca be 78 4f fc 3f f2 48 69 c0 9b 46 e2 bf
       -0.3963671 1.9711752 -3.6450772 -1.7677797

item_tower.feedforward.4.weight f4 [32, 32]
000000 b5 2b d4 bf 12 ab 7d bd 92 1f 96 3e a0 ff 15 c0
       -1.6575838 -0.061930723 0.2932096 -2.343727
000010 5f 88 00 bf 6d c6 8e bf ec 0f 97 bf 99 6e d0 bd
       -0.50208086 -1.1154305 -1.1801734 -0.10177345
000020 3a 7d 34 bf 4a 41 01 c0 d0 9d 24 3f 64 70 09 3f
       -0.7050358 -2.01961 0.643033 0.5368712
000030 5b fb 0f 3e 9d 18 87 3f e5 e6 a7 bd 4b 93 14 be
       0.14060728 1.0554386 -0.081983365 -0.14509313
000040 01 50 82 bf da 32 da bf 8a 0e 7e 3f 7c a4 78 3c
       -1.0180665 -1.7046769 0.99240935 0.015175935
000050 63 fe 4d be 5b 19 08 c0 64 10 1d bf 97 7a 21 3f
       -0.20116572 -2.1265476 -0.61353135 0.6307768
000060 60 06 2b c0 06 cb 24 3d 9f 64 74 bd 1f f2 a0 bf
       -2.672264 0.04023268 -0.059666272 -1.257389
000070 b6 c9 ee be a8 70 ef 3d 9a e4 25 c0 64 f9 5d 3d
       -0.46638268 0.11691409 -2.5920777 0.054192916
000080 c6 db 9c 3e 08 83 0b 3e c6 52 7f bf 04 61 93 40
       0.30636424 0.13624203 -0.9973568 4.6055927
000090 95 e1 86 3e dd 75 d7 be 84 b9 06 3d f7 09 d4 bc
       0.2634398 -0.4208211 0.032891765 -0.025883658
0000a0 b6 58 93 3e 69 8a 2f be 73 8d 18 3e 38 58 79 3e
       0.2877862 -0.17142643 0.14897709 0.24350059
0000b0 38 45 30 3e c9 da 35 3f 37 44 f3 bc 15 91 5c bf
       0.17213905 0.71036965 -0.029695613 -0.8615888
0000c0 42 7d c1 3d 9b 89 92 3d a0 0d 5a 3f f6 23 61 3c
       0.09447719 0.071551524 0.8517704 0.013741484
0000d0 50 a2 7a bd d9 e1 c5 3f be 46 d9 bf b6 59 28 3e
       -0.06118995 1.5459548 -1.6974714 0.16440472
0000e0 85 e2 b4 3e 7b 35 2c be 2a dd 54 3c cb ef 8d 3d
       0.3532907 -0.16817276 0.012992183 0.069305025
0000f0 54 7e 79 3f e9 27 9e 3d 95 95 2f be 47 17 c2 bc
       0.97458386 0.07722456 -0.17146905 -0.02369274
000100 b8 14 80 be c0 f1 27 3e e8 80 0e 3f 91 f0 bf c0
       -0.25015807 0.16400814 0.55665445 -5.998116
000110 17 24 fd be 76 ed c2 3f 43 3d d5 3b 80 d0 00 be
       -0.49441597 1.5228717 0.006507547 -0.12579536
000120 3d cf a1 3e 02 ca 15 40 62 13 79 bf c1 a9 cf bb
       0.31603423 2.3404546 -0.972952 -0.006337375
000130 3a 4c 82 bd 71 f4 8f be 75 56 36 bd 69 89 56 3f
       -0.06362195 -0.28116181 -0.044516046 0.8380342
000140 25 b2 d9 be f5 0b 70 be 87 f4 a8 bf eb 60 d7 ba
       -0.42518726 -0.23442061 -1.3199624 -0.0016432082
000150 e0 a3 51 bf 5a 2f 3e c0 d1 ce 7c 3e 71 99 99 bd
       -0.8189068 -2.97164 0.24688269 -0.0749997
000160 2e 64 e2 bf e2 fb 19 3e 53 7a 02 bc 57 3c d4 3f
       -1.7686822 0.15037492 -0.007963735 1.6580914
000170 ef ec e1 bf d0 bc ed 3d 5c f3 0f c0 47 bb 2f 3b
       -1.7650431 0.11608279 -2.2492285 0.0026814507
000180 bb a7 23 bc 9b 1e 23 3c 42 e7 a3 bd 30 44 b7 40
       -0.0099887205 0.009956027 -0.08003093 5.7270737
000190 5e 9e 21 3f 31 a6 b4 bf 4d a4 bf 3d d3 6a ee bc
       0.63132274 -1.4113218 0.0935751 -0.029103672
0001a0 8f 4e 09 3d 2c dd d8 bf 08 f6 b0 3e 22 d2 e8 3b
       0.033522185 -1.6942496 0.34562707 0.007105128
0001b0 be 20 7c 3d 6a d3 be 3d b6 1f 8c bb 96 f1 b7 3e
       0.061554663 0.09317668 -0.004276241 0.35926503
0001c0 0d 82 30 3f 10 50 be bd 1a ec b7 3f 75 f0 29 3c
       0.6894844 -0.092926145 1.4368927 0.010372271
0001d0 2a d1 05 3f 2f 3c 1e 40 90 94 e9 bf 29 01 0f 3f
       0.52272284 2.4724233 -1.8248463 0.55861145
0001e0 f5 f8 03 40 a6 d5 9f 3d 78 a0 e4 3d 83 06 67 bf
       2.0620701 0.07804422 0.111634195 -0.9024431
0001f0 97 5a e0 3f 0a 4f e3 ba 6a 30 83 3f 7c 38 eb be
       1.7527646 -0.0017342281 1.024915 -0.45941532
000200 3b bd 8a 3f 84 4c a5 ba 83 d3 c2 bf 1e 35 83 40
       1.0838999 -0.0012611304 -1.5220798 4.100234
000210 6d 61 7e 3f 7f fd 29 c0 4d 5e d2 bf d3 27 d6 3d
       0.9936741 -2.6560972 -1.6435028 0.104568146
000220 09 17 30 3f 5c 29 83 bf 5c 10 ad be a1 67 cb be
       0.6878515 -1.0246997 -0.33801544 -0.397275
000230 29 f3 01 3e bd 4c f2 3f 3c 8c 15 be 50 b4 0d bf
       0.12690414 1.8929669 -0.14604276 -0.5535326
000240 97 cc b4 3f 18 dd 25 bd 53 2f 53 40 9a 10 5f be
       1.4124936 -0.040494055 3.2997634 -0.21783677
000250 96 ad 43 3f 09 2c 20 40 31 1a 56 c0 d9 ef 30 3e
       0.76436746 2.5026877 -3.3453486 0.17278995
000260 db fb 54 3f 64 59 50 be 60 55 63 be bf bb 9e 3f
       0.831968 -0.203466 -0.22200537 1.2401046
000270 8c 86 e8 3f 26 bb 56 3e 95 70 42 c0 8e 04 78 3f
       1.816606 0.20969829 -3.0381215 0.9688195
000280 96 51 9c be a2 0d 2f 3e 79 43 20 c1 53 93 bd 40
       -0.30530995 0.17095044 -10.016473 5.924234
000290 53 c6 1b c0 b1 dc 45 c0 5a 62 a8 c0 14 f9 8b bd
       -2.4339797 -3.091595 -5.262006 -0.06834617
0002a0 51 f7 73 bf 7b 0b c2 c0 c9 0f ef c0 86 76 70 40
       -0.9529925 -6.0639014 -7.470677 3.757234
0002b0 dc 4b 13 bd 43 cd 7a c0 1b 52 fc ba aa 7b cd be
       -0.035961017 -3.9187782 -0.0019250544 -0.4013341
0002c0 47 d4 a8 bf 39 85 c0 c0 2c 8b a6 bf 24 93 b9 3b
       -1.3189782 -6.0162625 -1.3011222 0.0056632925
0002d0 5e 6c 05 c0 42 5e 47 40 f7 95 9f c0 ef 6a 11 3f
       -2.0847392 3.115128 -4.9870563 0.5680379
0002e0 54 76 e2 bf cd 68 91 be b2 31 25 3e b6 f9 31 bf
       -1.7692361 -0.2840027 0.16132239 -0.69521654
0002f0 ef f1 1a 40 2d da 06 c1 15 08 02 c0 39 82 be c0
       2.4210165 -8.428266 -2.0317433 -5.9533963
000300 12 f7 37 bf 52 97 13 be 9b e0 12 3f c1 3c 30 c0
       -0.71861374 -0.14413193 0.5737397 -2.7537081
000310 aa 53 92 bd 77 48 6c 3e d3 29 38 bb 78 96 4b 3e
       -0.07144864 0.23074518 -0.00281011 0.19881618
000320 49 9e 81 bf bf 93 52 40 4b b2 51 3e 93 f9 b2 3f
       -1.012643 3.2902677 0.2047817 1.3982414
000330 e7 e2 2a 3e 7b 20 a0 bf 7f 39 f1 bc 05 65 aa be
       0.16688119 -1.2509912 -0.029446362 -0.33280197
000340 27 7c 9f 3d c9 b3 3a bf 0f 41 9d bf cb db 83 3c
       0.07787352 -0.7293058 -1.2285479 0.016096016
000350 53 70 7d 3e 34 9f 80 bf 17 27 b5 3b 26 5a be be
       0.2474988 -1.0048585 0.0055283415 -0.37178153
000360 61 d8 af bf 78 85 0a 3e df e6 1f 3e 7f 62 0d c0
       -1.3737909 0.13527477 0.15615414 -2.2091367
000370 d8 b8 61 bf e3 18 7d bd a6 f3 6a bf 3b 2c 29 bf
       -0.88172674 -0.061791312 -0.9177803 -0.66083115
000380 d5 72 33 3f 8d 64 39 3e 62 f1 77 3c da 5b 77 c0
       0.70097095 0.18104763 0.015133234 -3.8649812
000390 6c 23 2a bf 53 c0 6c 3f 41 8a 30 bf 06 35 05 be
       -0.664603 0.92480963 -0.6896096 -0.13008508
0003a0 19 3a b5 3e 82 75 4d 40 b3 84 01 c0 6b c1 63 3f
       0.35395887 3.210297 -2.0237243 0.8896701
0003b0 de 53 07 bd d5 94 14 c0 2e 0a 36 3d 20 0d bf bd
       -0.033038966 -2.321584 0.0444433 -0.09328675
0003c0 16 b7 74 bf 5b 6f dd be 30 93 f8 bf c6 6f f3 3d
       -0.95591867 -0.4324902 -1.9419918 0.118865535
0003d0 2d 36 a6 bf b4 2f 0b c0 b3 98 62 c0 86 92 cb 3f
       -1.2985283 -2.1747866 -3.54057 1.590409
0003e0 d9 45 91 3f d9 f0 c1 3d 28 d1 e6 bd d9 73 9b be
       1.1349441 0.09469766 -0.11270362 -0.30361822
0003f0 cb b8 1c c0 fe cf 43 3e 78 44 fa bd 3b f1 92 3f
       -2.4487789 0.19122311 -0.12220091 1.1479868

item_tower.feedforward.4.bias f4 [32]
000000 95 a4 cf bf 2f 1c 61 3e 9a 26 ad bf 00 07 12 3d
       -1.6222101 0.21983407 -1.3527405 0.035651207
000010 67 dd 40 3f 93 69 0d c1 d1 ef a9 bf ff 8c 17 40
       0.75337833 -8.838275 -1.3276311 2.3679807
000020 8b 77 f6 bf 77 21 3e 3f 46 4b 11 40 40 15 e5 3e
       -1.9255232 0.74269813 2.2702193 0.44742775
000030 99 66 8e bf 28 d8 90 3f 1c 84 89 bf 55 8b 3a 3e
       -1.112506 1.1315966 -1.0743442 0.18217213
000040 45 23 81 3f be 52 ab 3f c1 15 4e 3c e5 0e b9 be
       1.0088888 1.3384626 0.012578429 -0.36144176
000050 d0 fd 8b 3f dc d8 14 3f e9 b3 98 3f b5 7a 2e be
       1.0936832 0.581434 1.1929904 -0.17038997
000060 bb 27 f3 3f 31 ed 26 bd e5 59 2c bf a9 ac 70 3f
       1.89965 -0.040753547 -0.6732467 0.9401346
000070 b4 81 1d 3f b4 f3 8d bf 65 38 1a c0 91 18 8d 3f
       0.61526036 -1.1089997 -2.409692 1.1023122
