models/pct_80_model.pt (torch, 82397 bytes, 14 tensors)

au f4 [32]
000000 ad 70 9b bc 76 2c e5 ba 55 d2 34 bd fd 8f 1d 3e
       -0.018974626 -0.0017484564 -0.0441459 0.15386958
000010 21 b2 36 3c a9 fd c3 be b7 59 f5 bc 23 99 f5 bd
       0.011150868 -0.38279465 -0.029950006 -0.11992099
000020 8f 64 b6 3c cb aa 12 3b d5 4d b2 bb 04 6b 36 ba
       0.022264747 0.0022379633 -0.005441407 -0.00069586956
000030 38 61 4c 3f 1f bf 80 bc 4e a3 1a bd d4 47 9b 3b
       0.79835844 -0.015716134 -0.037753396 0.004738787
000040 d7 83 8f bc b3 4d 5f bd 02 35 74 bc 10 a8 68 b8
       -0.01751892 -0.05451746 -0.014905216 -5.546963e-05
000050 60 d5 b7 bb b7 b6 46 3d 18 da c6 be bc f9 01 bb
       -0.005610153 0.048514094 -0.38838267 -0.0019832691
000060 62 ca 13 bd b1 e6 43 3c cb ad 1b bc b6 7b bf bc
       -0.03608168 0.011956857 -0.009501885 -0.02337442
000070 d4 06 e4 3c f4 34 4b bd 03 ab 9e 3c 92 40 3c 3c
       0.027835287 -0.049611047 0.019368654 0.011490004

av f4 [32]
000000 83 24 07 bc 1d 98 6a 39 ec fe ca 3b 89 3d 69 bc
       -0.008248451 0.00022372646 0.00619494 -0.0142358625
000010 5f 7d 29 3c ac 42 b0 3c 1e 10 12 39 34 da c0 bc
       0.010344832 0.021516167 0.00013929649 -0.023541547
000020 18 69 74 3b 2f 84 38 3b d7 65 47 bc eb 55 38 3c
       0.0037294086 0.002815496 -0.012170277 0.011250953
000030 48 6c 60 3d d7 c9 1e 3e 15 71 05 3b 14 7f af 39
       0.054790765 0.15506683 0.0020361592 0.00033473282
000040 c4 7c d7 3a 34 81 0d 3d ec 06 61 bf 72 d1 41 3c
       0.0016440381 0.034547046 -0.87901187 0.011829721
000050 03 f1 0d bc d0 83 a0 3a f8 4b 5c bb 42 81 46 bb
       -0.008663419 0.0012246314 -0.0033614617 -0.0030289446
000060 ff 5b 1a bc a6 5b 20 3c 4a 2a 00 3b ab a4 9e 3a
       -0.009421348 0.009787476 0.0019556456 0.0012103518
000070 40 16 3f 3a b4 fc 8b bc b8 e8 8b 3c 7b 8c a7 bb
       0.0007289387 -0.017088272 0.017078742 -0.005113182

user_tower.feedforward.0.weight f4 [64, 37]
000000 72 77 71 3e 75 98 e2 be c7 23 79 be f2 97 c0 bd
       0.23580721 -0.4425694 -0.24330054 -0.09403981
000010 01 1d e1 3f 28 f1 d6 3e 53 57 d7 3d 01 8e 23 3e
       1.7586976 0.41980863 0.10514703 0.15972139
000020 9f 5e 07 3d 91 a7 d1 be 7d 65 68 3d fa ff ae 3d
       0.033049222 -0.40948156 0.05673741 0.085449174
000030 9e 43 20 bd c0 f4 14 bd 9c 99 9a be a7 8d 8d bd
       -0.039126985 -0.036366224 -0.3019532 -0.06911784
000040 59 59 36 3e f0 af 5e bd df ba 27 be 93 53 da ba
       0.17807521 -0.054367006 -0.1637988 -0.0016656987
000050 58 7b 19 be 28 31 c8 3d 52 fe 29 bd 77 39 1e 3e
       -0.14988458 0.09775001 -0.041502304 0.15451609
000060 e8 2f 2e 3e f8 b6 9e 3b ea 8b ef bd 7c 21 2d 3e
       0.17010462 0.004843589 -0.11696608 0.16907305
000070 ca 97 ea 3e 22 8c 92 3e 21 f7 99 be ae 92 bb 3d
       0.4581893 0.28622538 -0.30071357 0.09158836
000080 dd 42 6b 3e 36 a3 71 be e5 40 21 bb ae 67 2d bd
       0.22974725 -0.23597416 -0.002460533 -0.042335205
000090 6d b6 09 be 3c c0 46 3d ab 39 1e 3c ca d6 f7 bb
       -0.13448496 0.048523173 0.009657304 -0.0075634466
0000a0 39 e3 27 39 53 a6 13 3f fc 71 8a 3f 61 4f 90 3c
       0.00016011008 0.57675666 1.0816035 0.017615976
0000b0 4d 32 ab 3f 76 4e d9 bf bf 65 28 bd 66 2f d0 3f
       1.3374726 -1.6977069 -0.041112658 1.6264465
0000c0 ab e0 76 3f 3a 7e d3 3f fd 27 34 bf 92 36 3a be
       0.96436566 1.6522896 -0.7037352 -0.1818488
0000d0 39 ff dd 3d 2a 45 ee 3c 59 c4 e6 bf 7f c5 f6 bc
       0.108396955 0.029085714 -1.802867 -0.03012347
0000e0 e0 06 93 3f 34 82 a6 bd 3e 34 71 3f 48 77 ba 3f
       1.1486473 -0.08130303 0.9422034 1.4567652
0000f0 c5 b6 a4 3e 9c 34 15 3e 61 10 aa 3e 9b 68 a0 bf
       0.32170692 0.1457085 0.3321562 -1.2531923
000100 cd 01 99 3f 60 72 30 3e f4 e7 9f 3f fe bd 3c be
       1.1953675 0.1723113 1.2492661 -0.18431851
000110 e3 39 92 3e 72 6c 4c 3f 85 88 4f bf fd 7d c3 3f
       0.2855979 0.79852974 -0.8106769 1.5272824
000120 30 13 1d bf d5 8e 23 3e 7b 08 95 3d b1 ab e4 be
       -0.613574 0.15972455 0.07277008 -0.4466224
000130 dc 58 ff bc 6c 29 1b be 4a b0 2f 3f 19 b8 7a 3f
       -0.031170301 -0.1515252 0.6862837 0.9793716
000140 27 d8 85 3d 2d 8b 9c 3f 4b 4e 96 bf 0b 2e 81 be
       0.065353684 1.2229973 -1.1742643 -0.2523044
000150 31 a9 a2 3f a4 63 72 3f 31 60 bf 3f b6 1a 38 bf
       1.2707883 0.9468329 1.495123 -0.7191576
000160 e7 54 2b be 45 28 45 3f b6 53 96 3e 71 57 c0 bf
       -0.16731606 0.7701457 0.2936074 -1.5026685
000170 dc a7 db 3d 4d 79 6d 3f ef 5f 75 bc c6 ad 81 3f
       0.10725376 0.92763215 -0.014976486 1.0131156
000180 58 a0 9b 3f 26 f7 df 3e 66 ae 09 be 63 8d e4 3e
       1.2158308 0.43743247 -0.13445434 0.4463912
000190 89 cf 89 bf e7 9a 8f 3f 7e 1b 9b 3e 16 46 8e 3f
       -1.076646 1.1219147 0.30294412 1.1115139
0001a0 3b 2b 4b be 7d 32 ec 3d e4 b3 6a 3f 06 ff 5a bf
       -0.1984071 0.115330674 0.9168074 -0.85545385
0001b0 0f 64 b4 3f ee c9 4c bf d9 c9 de be 7d c3 fa 3d
       1.4093035 -0.7999562 -0.43513373 0.12244318
0001c0 c5 36 70 3f c7 01 58 be 0a 33 89 3d e6 8f 50 bf
       0.9383357 -0.21094428 0.06699188 -0.8146957
0001d0 e3 81 74 be 12 d6 35 3d 36 5f 54 3f 12 ef e2 bf
       -0.23877673 0.044393606 0.8295778 -1.7729208
0001e0 00 49 aa 3d 19 f1 dc 3f 56 d2 a3 3d b2 6b d7 3f
       0.08314705 1.7261077 0.07999103 1.6829741
0001f0 b1 67 80 3d ad 0f 8b bd e2 05 42 bd fd 93 45 3e
       0.062697776 -0.06790099 -0.04736889 0.19294734
000200 c6 ba fa bf 6f 57 d1 3d af d7 95 3e f0 d1 07 bc
       -1.9588249 0.10221755 0.29266116 -0.008289799
000210 12 2e 28 3d 2c 9b aa 3f 0f c1 8a 3d 32 f2 7d be
       0.04105956 1.3328605 0.06775104 -0.24799421
000220 14 8a 03 3e 3c 04 79 bf ed d0 d0 3f ee 27 bb bd
       0.12845641 -0.97272086 1.6313759 -0.09138475
000230 51 a8 0b 3f a8 03 8c bd bc 8a ac 3c 98 4e 3c 3e
       0.54553705 -0.06836635 0.021062247 0.18389356
000240 f3 37 7e bd 63 92 af 3f 77 8a a5 3d 7a b0 0d be
       -0.062065076 1.3716549 0.08083051 -0.13836852
000250 e5 e0 bf 3d 11 1f 83 bd ad a5 ea bd bf d9 d8 be
       0.09369067 -0.0640241 -0.114573814 -0.42353627
000260 89 f5 99 3f d3 b9 a8 3e ae 49 bc be e1 90 55 3e
       1.2028056 0.32954273 -0.36774963 0.20856048
000270 9a 7f 80 be 49 ef 64 be 2a 13 e4 3e bc 58 a8 3e
       -0.25097352 -0.22356905 0.4454587 0.328802
000280 92 03 67 3e 34 92 b6 be 41 0c 74 bd 7c 3c 9c 3e
       0.22559956 -0.3565842 -0.059582 0.30514896
000290 d3 ae 5c 3e 34 78 b9 be 6b 2c d4 bd ce 39 73 3e
       0.21551065 -0.3622452 -0.103600346 0.2375252
0002a0 5a fa 67 be 88 37 9a 3e 28 50 44 3e b1 63 ca bd
       -0.22654095 0.30120492 0.19171202 -0.09882296
0002b0 b4 48 8c 3e da a9 b9 3e 82 fd 63 be c9 34 59 3e
       0.27399218 0.362624 -0.22264674 0.21211542
0002c0 86 11 13 3e bf ff 6b 3e e7 3b 91 3e 1a 33 b8 3c
       0.14362153 0.23046778 0.28366014 0.022485305
0002d0 9d 4b 97 3e 7c 03 8c be 8d 12 c2 3e 47 1e 91 3d
       0.29549876 -0.27346408 0.37904778 0.07085853
0002e0 a9 fc 68 be 4e d8 53 3d 83 38 11 be cf 07 22 be
       -0.22752632 0.051719956 -0.14181714 -0.15823291
0002f0 21 06 22 be 03 e2 8c bd af 0a be 3d 1d 41 68 bc
       -0.1582265 -0.06879046 0.092793815 -0.0141756805
000300 a8 c8 38 bd 1a 4a 02 3e d5 53 eb bd 19 d1 20 be
       -0.045113236 0.1272358 -0.11490599 -0.15704764
000310 d5 dd c4 3d 89 f4 12 3e ec ec 13 be ec 7b bf 3d
       0.096126236 0.14351095 -0.14445847 0.09349808
000320 31 78 95 ba d6 3f 20 bd b4 bd 96 3b bd f1 c8 bd
       -0.0011403618 -0.03912338 0.004600251 -0.09811733
000330 1b 27 5f bd d0 6b 18 3d 1e 68 76 3d f7 0e 88 3d
       -0.054480653 0.037212193 0.060157888 0.06643479
000340 ac f9 f4 bd 6f 06 0d 3e 5a f0 e0 3d be c1 33 bd
       -0.11961684 0.13771985 0.109833434 -0.04388594
000350 09 e2 3c 3d 7f 5b 38 bc 49 2b 21 be cb e3 35 bc
       0.046114 -0.011252283 -0.15739168 -0.011101673
000360 f7 26 21 3e e6 07 98 3d 6c 7d 9c 3d 1c 00 23 3e
       0.1573752 0.074233815 0.0764111 0.1591801
000370 2a 33 1f b9 00 c2 b7 bd 11 94 b4 be 15 df 2f 3e
       -0.00015182482 -0.089725494 -0.35269216 0.17174943
000380 fb 82 13 be a4 39 d3 3d 12 51 86 c0 75 c6 fd 3e
       -0.14405434 0.103137285 -4.1973963 0.49565473
000390 dd 52 02 3a 78 cb 39 3f 82 0c 82 bf 95 40 9c 3d
       0.0004971454 0.72576094 -1.0160067 0.076295055
0003a0 2c 65 93 3f 47 e7 52 3f d9 9d 76 3f ba 71 bc 3d
       1.151525 0.8238415 0.96334606 0.09201379
0003b0 25 c6 5a bc 20 da 89 bd 60 f0 f4 be 97 9b ae bf
       -0.013352905 -0.06731057 -0.47839642 -1.3641232
0003c0 2b ee 03 3e 1f 2d 47 3f d3 a1 a2 3c 33 81 17 3f
       0.12883823 0.77803224 0.019852554 0.5918152
0003d0 0c ec 67 3f c6 3b de 3e 07 10 48 be b8 77 f4 bb
       0.90594554 0.4340498 -0.19537364 -0.0074605606
0003e0 b5 ce 7c bf 3c 46 80 3f 3a dc 63 3e 7a 2d 7a 3f
       -0.9875291 1.0021434 0.22251979 0.9772564
0003f0 e7 95 d9 bd 67 2a 3d bd a2 53 32 be 90 b2 29 bf
       -0.10624295 -0.046183016 -0.17414716 -0.6628809

user_tower.feedforward.0.bias f4 [64]
000000 23 24 13 3d d5 a1 df bf 34 04 ce bf b8 d5 ee bf
       0.035923135 -1.7471262 -1.6095033 -1.8658972
000010 ff df b4 be 04 fb e5 3c 2c 1a 7e bf b9 93 ca 3e
       -0.35327145 0.028073795 -0.99258685 0.39565828
000020 9b b6 dc 3e cd af 96 3d c8 43 a6 3d ec 22 20 bd
       0.43108067 0.0735775 0.08118397 -0.039095804
000030 c9 01 ff bc a8 53 05 bf c8 eb cf 3d 4e f5 e2 3d
       -0.03112878 -0.52080774 0.101523936 0.110819444
000040 02 4d 1f c0 8e 55 aa 3d 7f 5d eb bd 8c e9 19 bf
       -2.4890752 0.083170995 -0.11492442 -0.6012199
000050 c3 ed 10 be 2e da 11 be 86 23 1e be b6 a4 05 3e
       -0.14153199 -0.14243385 -0.15443239 0.13051113
000060 ce c5 60 bf 8d 16 d7 bd 44 ca 73 3d ca e0 0f bf
       -0.87801826 -0.10502348 0.059519067 -0.56202376
000070 c3 3a 99 be 1a bf 80 bf a9 32 e2 be 55 54 ef 3f
       -0.29927644 -1.005832 -0.44179276 1.8697611
000080 63 ef 61 3e ea 71 08 3b 7c a3 03 be 3c 18 60 c0
       0.22063975 0.0020819851 -0.12855333 -3.5014791
000090 9f 2f f2 bc 71 91 81 be 87 5a 0e bd 2b f6 35 be
       -0.029563723 -0.25306275 -0.034754302 -0.17769687
0000a0 e0 24 3b 3e cb 80 80 bf 0f 59 e4 3d 28 8b 8d 3f
       0.18275785 -1.0039304 0.11149799 1.1058092
0000b0 43 14 a9 3d 62 3d dd 3c 49 1c 54 be 99 f9 05 be
       0.08255818 0.027006809 -0.20713915 -0.13083495
0000c0 32 a6 25 be 8c e8 b4 be ab a6 75 bd 59 f6 d7 be
       -0.1617668 -0.3533367 -0.0599734 -0.42180136
0000d0 6a 63 2a 3e 6f 97 d9 3d 40 74 36 3e 16 3b d3 3d
       0.16639486 0.10624587 0.17817783 0.10314004
0000e0 3b 2a 48 bc f9 83 90 3e 68 0b 69 bb ee 7a b0 be
       -0.0122171 0.28225687 -0.0035559777 -0.34468788
0000f0 ac 1d dd 3e 98 c9 ac 3e 6b 5f ef be e9 7f a7 3d
       0.431867 0.33747554 -0.46752486 0.08178694

user_tower.feedforward.2.weight f4 [32, 64]
000000 44 55 bd bd 0d 0b 08 be d1 98 79 bd cf 6a f8 bd
       -0.09244779 -0.13285466 -0.060936753 -0.12129747
000010 b0 af b0 3d 80 64 7d 3b dc 26 46 bd aa 16 6d bd
       0.0862726 0.003866464 -0.048376903 -0.057882942
000020 f8 4a a3 bc 80 d3 9b ba d4 42 0d bd 38 76 ed 3c
       -0.019933209 -0.0011888593 -0.03448756 0.028987035
000030 03 02 e6 ba 03 73 b0 ba c5 1b 5d bd 4e 06 8c bd
       -0.0017548207 -0.001346201 -0.05398156 -0.0683714
000040 34 16 17 be 90 c2 74 bc 78 7e f3 bd 68 e9 ef 3d
       -0.14754564 -0.014938965 -0.118893564 0.117144406
000050 20 31 f0 3d d8 17 d1 3d 34 9c fd bd 6e 1c d2 3d
       0.1172812 0.10209626 -0.12383309 0.10259329
000060 d4 fd a9 bd 10 63 2d bc 0c f3 77 3d 80 22 8e 3a
       -0.08300367 -0.0105827 0.060534522 0.0010844022
000070 d4 00 18 bd 0e e5 ca bd 7e e2 b7 bd f3 78 ef bd
       -0.037110165 -0.0990697 -0.08978747 -0.11692991
000080 a2 0a 20 be 08 af e7 bd 52 06 b3 3d 05 5e 26 bd
       -0.15629056 -0.113126814 0.0874144 -0.040617008
000090 74 07 0a bd ea 89 a3 3d b4 06 40 bd 5a eb 96 bd
       -0.033698514 0.079852894 -0.046881393 -0.073691085
0000a0 12 5f 26 3d 44 b6 b8 bd 80 93 ea bc 3c 6c a3 3c
       0.04061801 -0.090191394 -0.028634787 0.019949071
0000b0 88 9f 8a 3d 28 df 97 bc 60 24 3a bc ac b2 e7 3d
       0.067687094 -0.018539026 -0.011361212 0.11313376
0000c0 c0 7e bc 3b 0f db 4d 3b 94 54 27 bd 4c c4 66 bd
       0.0057524145 0.0031411087 -0.040852144 -0.056339547
0000d0 30 9a 69 bb 5e 37 ec 3d 6d d1 17 be fe 59 fa bd
       -0.0035644881 0.11533998 -0.14825983 -0.12224196
0000e0 7f 6c 27 3d ba 38 19 be 80 c4 0c bb 3c 76 15 bd
       0.040874954 -0.14963046 -0.0021479428 -0.03648971
0000f0 fe e6 c8 bd 0c ba 45 bd 06 84 96 bd 38 75 eb bd
       -0.09809683 -0.04827313 -0.073494 -0.11496967
000100 7a 04 b1 bd bd 74 1f be 19 cc 3b 3d df 04 84 be
       -0.08643432 -0.15571876 0.04584894 -0.25784966
000110 67 98 72 3d d6 6e 94 bd 1b 56 84 be 4a e5 d8 3d
       0.059227373 -0.07247703 -0.25846943 0.105906084
000120 cf 93 6f bc 99 9e ba bd 24 c8 69 3d bc 3d 1d 3d
       -0.014622643 -0.09112281 0.057075635 0.038388953
000130 3a 87 8f bd cc 2a 04 be f1 60 37 be 18 71 68 bd
       -0.07008214 -0.1290695 -0.17908074 -0.05674848
000140 b1 fd 7a be f4 bb 93 be 5c 67 52 3d ba 81 90 bd
       -0.24510838 -0.28854334 0.051368102 -0.070559934
000150 58 4b ba bc 30 f8 64 bc e9 ab 57 be a8 06 e0 3c
       -0.022741005 -0.013975188 -0.21061672 0.027346924
000160 8d 80 2d be fa c1 d5 3d 79 67 de bb bc 13 1e be
       -0.1694357 0.10437389 -0.0067872372 -0.15437216
000170 95 41 33 be a3 34 e1 bd ac 20 24 3d 5b 8d 61 bd
       -0.17505486 -0.10996368 0.04007022 -0.055066448
000180 16 55 8a bd f8 66 79 3d e0 45 02 3d f0 27 02 bd
       -0.0675451 0.060889214 0.03180492 -0.03177637
000190 88 ba 0c be 8a 2b cc bd c0 31 f3 bd 59 ef eb bd
       -0.13743031 -0.09969242 -0.118747234 -0.11520261
0001a0 b7 81 71 bd 83 84 16 be 80 97 c8 bd a0 c5 de bd
       -0.058961596 -0.14698987 -0.09794521 -0.10877538
0001b0 10 8e dd 3c 20 f9 c3 bd 96 56 e8 3d 38 db e5 3d
       0.02704528 -0.09569001 0.1134464 0.11223453
0001c0 38 aa 6f 3d b4 bb 99 bd c4 c4 f7 bd ff 63 8d bd
       0.058511943 -0.07506505 -0.12098077 -0.06903838
0001d0 2f 70 79 3c dc 2c c9 bd 63 d5 7f 3d cc e2 c6 bd
       0.015224501 -0.09823009 0.06245936 -0.09711227
0001e0 fc d3 25 bd f3 cb 02 3e a0 94 8a bb d9 89 bf 3c
       -0.040485367 0.12773113 -0.0042291433 0.02338116
0001f0 2c 6b f8 bc d8 c1 9e 3d 60 bc d2 bb 8a 49 da 3d
       -0.030324541 0.077518165 -0.0064311475 0.10658558
000200 71 b2 68 3e a3 ef d3 bc ba 2e bc bd 25 7c b5 3d
       0.2272432 -0.025871104 -0.091886 0.08861569
000210 7d f6 c2 3d 70 90 45 3c ba 09 6a bd 05 a2 ee bd
       0.0951967 0.012058362 -0.057138182 -0.116519965
000220 67 fc e5 bd 96 62 8b 3d c0 18 32 3c 54 fa 57 bd
       -0.112297826 0.06805913 0.010870159 -0.052728966
000230 70 02 2b be 9b 40 4f bd b3 80 d6 3d e0 0c 17 3c
       -0.16700149 -0.050598722 0.10473766 0.009219378
000240 7e 2c 0c 3d ba ee 10 3c fe 11 30 3e dc ee a2 bd
       0.03422212 0.008845979 0.17194363 -0.07955715
000250 1c 78 a8 3d 80 c4 32 3d 65 90 29 3d 77 51 92 bb
       0.08226034 0.04364443 0.04139747 -0.004465278
000260 47 38 f9 3e c0 c0 e9 3b 6a 25 e5 bd 30 fb af bd
       0.4867575 0.0071335733 -0.11188777 -0.08592832
000270 1d de 20 be f1 09 9d bd 41 84 aa 3e 60 68 b7 bc
       -0.1570973 -0.07667912 0.33304027 -0.022388637
000280 44 4e 05 be 80 06 f6 3c 89 19 01 3e 98 6f 31 b8
       -0.13018137 0.030032396 0.12607397 -4.230402e-05
000290 ef 63 18 3c 30 e3 5e 3b 5e 8b df bd 48 21 66 3e
       0.00930117 0.0034009926 -0.10915254 0.22473633
0002a0 e2 d5 90 be 6b 0e 7e 3e 44 39 82 bd 09 4e 5c bf
       -0.2828818 0.24810188 -0.06358579 -0.8605657
0002b0 d5 9a 45 3d a8 0c 85 bd 36 4a de 3d 48 2f bf 3d
       0.048243362 -0.064965546 0.10853998 0.0933519
0002c0 ec 75 36 bd 00 f5 51 bf 24 d4 0b 3c 34 f5 b5 bd
       -0.044546053 -0.82014465 0.008534465 -0.088846594
0002d0 1d 70 34 bf a8 f0 cc bc 6b 1a 72 be 16 fc ea bd
       -0.7048357 -0.025017098 -0.2364289 -0.11473863
0002e0 c6 3c 32 3d 32 31 f9 bd 00 81 c4 3c 8c f2 92 3e
       0.04351499 -0.121675864 0.023987293 0.28700674
0002f0 6c c8 5b bf e5 d5 4d 3c 5a 63 9f bd 6a 25 b6 bd
       -0.85852695 0.012563203 -0.07782622 -0.08893855
000300 0c 72 13 3d 30 89 b9 bd ab e1 85 3c 41 28 29 be
       0.035997435 -0.090593696 0.016342958 -0.16519262
000310 95 da 17 be 28 98 23 bd 8b b9 0c be 80 d7 f0 3c
       -0.14829476 -0.03994003 -0.13742654 0.029399633
000320 04 4e 3b 3d a8 9a f7 bd a8 4b b9 3d 94 7b cf 3d
       0.0457287 -0.12090045 0.090476334 0.101309925
000330 86 f6 a9 bd 04 b6 23 be ac 4a 32 be 58 0d 48 bd
       -0.08298974 -0.15987402 -0.17411298 -0.04884085
000340 80 83 f4 3c 2b 90 ec 3d 9f 9a 2c 3d f4 bd 92 bd
       0.02984786 0.11550935 0.042139646 -0.07165137
000350 4c d8 b4 bd 80 9b 6b 3c 3a 32 04 be dc e3 63 bd
       -0.08830318 0.014380336 -0.12909785 -0.055637226
000360 6a 5d b7 bd 6a b1 ef bd 4e 3e 5c bd 1b 14 e0 bd
       -0.08953364 -0.11703761 -0.053770356 -0.10941335
000370 f7 00 09 be 11 45 0f bd 0e 72 fd bd 6b 5f 0f be
       -0.13379274 -0.034977976 -0.1237527 -0.14001243
000380 86 43 3d be 28 fb b6 bd 03 92 2e 3d 75 8d fc bd
       -0.1848279 -0.08934623 0.042619716 -0.12331668
000390 0b dd 17 bd 5d 91 0f be 00 1a 76 bd 72 f6 e6 3b
       -0.037076037 -0.14020295 -0.06008339 0.0070484215
0003a0 96 b4 0f be d6 bc 82 bd 40 2a 36 3d 81 b7 5f bd
       -0.14033732 -0.06383674 0.044473886 -0.054618362
0003b0 bc 54 63 bd 00 28 18 3a 70 0e 63 bd 58 58 e2 bc
       -0.05550073 0.00058043003 -0.05543369 -0.027630016
0003c0 a8 7a 07 3d f4 c0 65 3d 7f 08 d0 bb 15 3e 23 bb
       0.03307596 0.056092218 -0.006348669 -0.002490883
0003d0 6b 29 2a be 6c 82 55 3d da a4 2f be 10 6a a9 3c
       -0.16617362 0.052126333 -0.1715273 0.020680457
0003e0 55 f8 0f bd 53 6b f8 3b c2 21 a4 3d cf 28 9f 3d
       -0.035148937 0.0075811534 0.08014251 0.077714555
0003f0 91 65 a0 3d 3f 8a ac bd 31 1f 4b bd 90 7c 28 bd
       0.07831872 -0.08424806 -0.049590293 -0.041134417

user_tower.feedforward.2.bias f4 [32]
000000 78 3f be bd 0b 9e 30 be 81 14 29 bf f6 f2 5b bc
       -0.092894495 -0.17247789 -0.6604691 -0.013424626
000010 65 6a 65 be e3 e5 33 bf a1 a1 47 3e 6d 3d 43 bf
       -0.22403868 -0.70272654 0.1949525 -0.76265603
000020 9d c1 23 c0 63 48 bc bd aa 8a bf 3c fc 1d 79 3e
       -2.5586922 -0.09193494 0.02338155 0.24327844
000030 ee 8f 62 3f fa 75 7a bf 2a 37 a1 bd a1 dc 36 3f
       0.8850087 -0.9783627 -0.0787185 0.71430403
000040 82 99 f6 bd 28 23 87 be 20 99 3a bf b5 2a 10 bf
       -0.12040998 -0.2639401 -0.728899 -0.56315166
000050 e8 38 02 3f 3a d0 09 40 5a 8a 2c be 0c cf b0 bd
       0.5086808 2.1533341 -0.16849652 -0.08633241
000060 57 9d 1d c0 23 6a ef bf 71 17 a7 bd 01 fb f2 bd
       -2.4627283 -1.8704265 -0.08158768 -0.118642814
000070 dd 2d e1 bc 8f fc 1f be e7 da 53 bd fd b9 9f bd
       -0.02748769 -0.15623687 -0.051722433 -0.07799146

user_tower.feedforward.4.weight f4 [32, 32]
000000 8f fb b2 bd aa 70 92 3d 61 ce 36 3c f2 85 4d 3e
       -0.08739387 0.07150395 0.011157603 0.20070627
000010 7f 2d e3 bd 4a 11 73 bf f1 f1 75 3e 44 01 87 3d
       -0.11092662 -0.94948256 0.24018075 0.06592038
000020 2c eb 2e be 20 c0 b0 bc f4 e3 fb 3d 35 9c 4a bf
       -0.17081898 -0.021575987 0.12299338 -0.79144603
000030 27 28 c7 be fe 23 21 be 4e 41 a3 3d d0 63 b5 3e
       -0.3889782 -0.15736386 0.0797144 0.35427713
000040 a7 ad 41 3e d0 b8 2c 3d 79 d2 50 3e 72 7d 94 3e
       0.189139 0.04216844 0.20392789 0.29001957
000050 6e 36 ea be 38 14 f3 bd e1 77 2d be 6f d5 ae 3d
       -0.45744652 -0.11869091 -0.16940261 0.08536803
000060 5d 1a 1c bd 5b 54 b5 be 50 84 12 3d fa ac bc 3e
       -0.03811108 -0.3541592 0.035770714 0.3685072
000070 f6 71 6d 3d 3a 2e 80 3d 7b d4 49 bd 4b 21 f7 bd
       0.05797001 0.06258817 -0.049274903 -0.12066897
000080 60 b9 0e be 62 b1 03 be 9f 17 7e bc 29 cf 28 3e
       -0.13937902 -0.12860635 -0.015508561 0.16485275
000090 27 3d 0f be f5 10 68 bf 3f ec 69 3e 4b 71 7c 3d
       -0.13988172 -0.90650874 0.22844027 0.061631482
0000a0 7f 56 b0 bd 29 17 05 be 93 cf 7b 3d 8d 8f f9 be
       -0.08610248 -0.12997116 0.061477255 -0.48742333
0000b0 16 f4 56 be 7f fb a3 be 05 f7 32 be 99 78 06 be
       -0.20991549 -0.32027814 -0.17477043 -0.13131942
0000c0 04 c0 05 3e 08 e0 95 bb b1 f2 01 3f 83 c5 30 be
       0.1306153 -0.0045738257 0.5076094 -0.17262845
0000d0 59 55 20 be dc 36 17 3d 3b c6 35 be 85 4a 14 3c
       -0.15657558 0.036917552 -0.177514 0.00905097
0000e0 4b eb c3 3c b2 15 62 3e 2a 4c 24 be 39 b3 5b 3e
       0.023915907 0.22078589 -0.1604468 0.21455087
0000f0 20 d1 ab 3d 64 02 e5 bd 33 30 41 3e 57 1b 61 3d
       0.08389497 -0.111820966 0.18866043 0.054957714
000100 f5 8f de bd b5 54 8f bd fb 6d 67 3d f6 93 c6 3b
       -0.108673014 -0.069985785 0.05650137 0.006060119
000110 c8 3e c5 3c 2e cb 66 bf 3c 62 d0 be 16 90 af bd
       0.024077788 -0.9015378 -0.40699947 -0.08572404
000120 f0 02 18 be 6d 9e 5e bd 93 90 36 bd 11 91 24 bf
       -0.1484487 -0.054350305 -0.04457147 -0.64283854
000130 cc 6f aa 3e 85 86 f8 3e 8d 9f 9f 3d ca c4 f6 3e
       0.3328842 0.4854013 0.07794104 0.48197013
000140 95 15 56 bd 77 7c 6a be a4 f2 25 bf 14 7b c1 bd
       -0.052266676 -0.22899042 -0.64823365 -0.094473034
000150 d2 57 b5 be d1 98 98 bb ca f6 9b 3e 15 e5 13 3d
       -0.35418564 -0.004656889 0.30461723 0.03610714
000160 30 97 0d be 50 b8 c0 bd 02 ed cb 3c 00 da 4c 3f
       -0.13827205 -0.09410155 0.024893288 0.8002014
000170 e0 b7 16 be 67 14 76 bc 53 af 9d bb 9e 2f 38 be
       -0.1471858 -0.015019513 -0.00481216 -0.17986915
000180 ab 22 b0 bd 7e 1c 94 bc 85 c4 87 3d d3 fe b9 3c
       -0.086003624 -0.018079992 0.0662928 0.022704517
000190 4e e4 5c bd a8 c0 9a bd f1 32 fb 3c fe a4 0b 3e
       -0.053928666 -0.075562775 0.03066394 0.13637158
0001a0 57 70 f2 3d 04 0d ad 3d 84 92 54 3b a2 2e 98 be
       0.118378334 0.08449748 0.0032435963 -0.29723078
0001b0 84 73 16 3e e8 b2 b1 3e cb 05 b2 bd 74 58 82 be
       0.14692503 0.34706807 -0.08692511 -0.2545811
0001c0 e8 21 aa 3c c6 2b 13 be 16 5b 96 be 62 56 08 bd
       0.02076812 -0.14372167 -0.29366368 -0.033285506
0001d0 fd 2a 60 bc d2 07 c7 bd b5 f1 81 bc 47 c6 49 bd
       -0.013682124 -0.097182885 -0.015862325 -0.049261358
0001e0 3e dd 54 3e 86 3f 64 3e 19 08 1d be 97 6b 5b 3d
       0.20787522 0.22289857 -0.1533512 0.053569403
0001f0 7c 68 12 be b8 2a c0 3c 86 f7 20 3d 7e 80 49 ba
       -0.1429767 0.02345787 0.039298557 -0.00076866883
000200 14 33 1a be d0 74 c8 bd e1 11 1d 3d 4b 3e 70 3d
       -0.15058547 -0.09787905 0.03834713 0.058653157
000210 40 bc 3c 3e 31 81 5b 3f 59 e2 cb bc fc a9 10 bd
       0.18431187 0.85744005 -0.024888204 -0.03531836
000220 e3 bf 33 3e 53 40 46 3e 8f 62 a2 3d ed b0 1c 3f
       0.17553668 0.19360475 0.07928955 0.6120747
000230 4e f5 52 3e 62 fe 3a bf 7e a6 8a 3d 56 bc 9a 3c
       0.20601389 -0.7304441 0.06770037 0.018888634
000240 ca 64 5f 3d 6c 0e e3 bd 9e 52 c1 be 0e ff a4 3d
       0.05453948 -0.11086735 -0.37758344 0.0805646
000250 2c d1 64 3e 93 fa 3b bd 92 f3 a7 3d 7c dc 97 bc
       0.22345418 -0.045893263 0.08200754 -0.018537752
000260 81 20 0e 3d 97 9e 27 be 6e 86 11 be ce e6 ab be
       0.034698967 -0.16369091 -0.14211437 -0.33574528
000270 fb b1 b8 bc 0a 79 77 bb 53 0a 8b bc f5 63 d7 bd
       -0.022545805 -0.0037761354 -0.016972696 -0.10517112
000280 c7 1a 40 3d b9 79 c2 3d 04 93 10 bd 8a 46 cc 3d
       0.046900537 0.09495873 -0.035296455 0.09974392
000290 20 68 44 bd 29 38 8b be 75 f8 80 bd 78 9d 27 be
       -0.047950864 -0.27191284 -0.062973894 -0.16368663
0002a0 48 39 32 be 88 b0 9a 3d a7 12 56 bd f9 e4 57 bd
       -0.17404664 0.07553202 -0.052263882 -0.0527086
0002b0 4b 17 f8 3b e8 ee 84 3d 18 7a de 3d 0f 8c 16 3e
       0.007571136 0.0649088 0.10863131 0.14701866
0002c0 bc 5b e5 3c eb 8c ac bd 0d 84 39 bd 56 a3 77 3e
       0.027997844 -0.084253155 -0.04529195 0.24183401
0002d0 9b 54 41 be 04 cb 83 bc 4b ac 80 3d ec c9 82 bd
       -0.1887993 -0.016088016 0.06282862 -0.0638617
0002e0 e4 81 97 bd 7e f6 cf bd 28 5d d2 bc a2 fe 5e 3e
       -0.073978215 -0.101544365 -0.025679186 0.21776822
0002f0 09 f4 97 bd 4f 56 42 be 96 c2 39 bd 5c 03 ce 3d
       -0.07419593 -0.18978237 -0.045351587 0.100592345
000300 5a 8e 45 be 9b 35 65 3e f0 fd 76 be d4 40 5e be
       -0.19292584 0.2238373 -0.24120307 -0.21704417
000310 e6 09 16 3e 0f e1 91 bc 76 46 c2 be 5c 8d b9 bd
       0.14652213 -0.017807512 -0.37944382 -0.09060165
000320 53 3d c9 bd 2d 43 9c bd 3d 79 26 3d 66 91 1f bf
       -0.0982615 -0.0763 0.040642966 -0.62331235
000330 40 8b 25 bf bd 47 06 be d1 1a 1c be 29 35 a5 be
       -0.64665604 -0.13113303 -0.15244605 -0.3226712
000340 d8 c9 e0 3d 5d 7f d0 bd da 3e 9c be 67 f6 55 be
       0.10975999 -0.101805426 -0.30516702 -0.20894776
000350 f5 63 15 3e 4c 48 f2 be b2 b3 3b 3f 2f f7 d4 bd
       0.14588912 -0.47320783 0.7332107 -0.10398709
000360 53 42 0a be 4a 89 ea bd b0 78 22 3d 75 a9 e4 3e
       -0.13501863 -0.11451967 0.039665878 0.44660535
000370 9e dd ec bc 69 df f2 bd c8 2b a6 3d f7 3b d7 bd
       -0.028914269 -0.11859018 0.08113819 -0.10509484
000380 d8 05 5d bd 85 00 db 3d c9 9e 34 be 7e ed 2b bd
       -0.05396065 0.106934585 -0.17638697 -0.041974537
000390 c2 ba 4e bd fc 39 78 3d e1 0f 0b be 09 3b f4 be
       -0.050471075 0.060602173 -0.13580276 -0.4770129
0003a0 e3 89 4d be 70 69 0d be 80 2b 51 bd d6 a9 60 3e
       -0.20072131 -0.13809752 -0.051066875 0.21939787
0003b0 7f 1d af bd c6 6d 91 3e 59 44 92 bc d5 6f 59 3e
       -0.08550548 0.28404063 -0.017854856 0.21234067
0003c0 a9 c1 81 3b 4b f3 27 be ea c0 4f bf 34 e2 5d 3e
       0.0039598537 -0.16401403 -0.8115374 0.21668321
0003d0 32 44 9a 3d 77 08 82 3e b7 e6 87 3e 92 e6 b9 3d
       0.075325385 0.25397083 0.2654321 0.09077181
0003e0 6e 3c 45 bd dd 85 34 3b 78 3b 3d 3e 92 23 4d 3d
       -0.048153333 0.002754561 0.18479717 0.05008275
0003f0 e5 96 b7 bd 9a 5d 7d 3d a5 dc 56 3e 1f b7 c5 3d
       -0.08964328 0.061856844 0.20982607 0.09654068

user_tower.feedforward.4.bias f4 [32]
000000 c7 f5 d3 3f 3a b1 1f 3f c1 fa fe 3f c9 4a 08 c0
       1.655938 0.623798 1.9920274 -2.1295645
000010 8a af c0 bf e0 56 0c 40 4b 10 eb 3f cc a7 04 40
       -1.505357 2.1928024 1.8364347 2.0727415
000020 6d f5 ee bf 47 06 97 bf 92 d8 bf 3f 5c ea 84 3f
       -1.8668648 -1.1798791 1.4987967 1.0384021
000030 38 ff f9 bf 77 19 28 3f c8 2e 06 40 3e 38 b3 bf
       -1.9531012 0.65663856 2.0966053 -1.4001539
000040 47 57 e7 3f 87 4c f9 3f a4 ca 32 bf 25 9f 19 3f
       1.807351 1.9476479 -0.69840455 0.6000846
000050 79 11 cd 3f f7 4c 07 c0 46 a3 07 40 b0 10 4c 3f
       1.6020957 -2.1140726 2.1193404 0.79712963
000060 85 ac 05 40 39 be 62 bf eb ee c9 3f 8b 9a eb 3f
       2.0886548 -0.88571507 1.5776037 1.8406538
000070 c7 3e dd bf d8 71 05 40 19 0c 86 bf c5 58 bc bf
       -1.7284783 2.0850735 -1.0472442 -1.471459

item_tower.feedforward.0.weight f4 [64, 160]
000000 20 8a 02 bf d9 c6 d4 bb e7 c4 58 bf 03 09 8e be
       -0.5099201 -0.006493431 -0.8467545 -0.2774125
000010 11 6e 91 bd b6 0e 27 3f e2 22 ab be 53 d3 c2 bf
       -0.071010716 0.6525682 -0.3342505 -1.5220741
000020 69 68 1e bf 1d 52 54 3e 21 2a 33 bf 5c 6e 16 3f
       -0.6187807 0.20734449 -0.6998616 0.58762145
000030 83 35 c1 bd d8 57 09 3f fc e7 28 3f e8 4b 19 3f
       -0.09434035 0.53649664 0.6597898 0.5988145
000040 a7 61 1e 3e 2c 6f 15 bf 3a 23 78 3d 57 76 c1 be
       0.15466939 -0.5837276 0.06058047 -0.377856
000050 26 a5 e6 3e 69 22 0d 3e d6 1b 18 be 53 13 92 3e
       0.45047873 0.13782658 -0.14854369 0.28530368
000060 70 0a b1 3e 9b f9 f9 be 1f d7 71 3e fb 93 5d 3d
       0.34578276 -0.48823246 0.23617218 0.054096203
000070 f5 74 34 be 9f 09 f0 3e 40 2d 24 3e 3c 48 bb 3e
       -0.1762274 0.4688234 0.16032887 0.36578548
000080 9f 66 be 3e b6 f4 5b 3f e2 f3 c9 bd d3 4a 5c be
       0.3718767 0.85920274 -0.0986097 -0.21512918
000090 4e fd 54 3f 51 9b 3c 3f b3 e7 51 be 1a d9 32 3f
       0.8319901 0.73674494 -0.20498542 0.6986252
0000a0 48 51 62 bf a7 e1 4b bf e5 4a 8c be 37 d0 fb 3e
       -0.88405275 -0.79641193 -0.2740089 0.49182293
0000b0 69 55 e2 3e fa 35 a0 3c 0a fe 77 3e 5c 28 3e ba
       0.44205788 0.019556988 0.24218002 -0.0007253939
0000c0 90 95 b5 3d 3e 26 ff bf 30 0f 0a 3f e5 a2 8f bf
       0.088664174 -1.9933546 0.53929424 -1.1221586
0000d0 c6 9d df 3d 1d 0d 2f 3e 4a 9d 24 3e 46 f6 f6 be
       0.10918765 0.17094846 0.16075626 -0.48234767
0000e0 7a e0 49 3e 5d 7a 8d bf 1b fa 76 bc 27 2f c4 be
       0.19714537 -1.1052967 -0.015074278 -0.38317224
0000f0 6f fa 73 bd d1 6c 4f bf 1a 7d 8e 3f bd 34 b0 be
       -0.059565004 -0.81025416 1.1131928 -0.34415236
000100 78 91 a3 3f 65 81 aa be 15 9a 12 3f 2c 67 ba 3c
       1.2778769 -0.33301845 0.5726636 0.022754274
000110 f2 7e 8f 3f 21 83 32 3f 9a b5 57 3e d9 45 c7 be
       1.1210616 0.69731337 0.21065369 -0.38920477
000120 7c a1 16 3f d3 54 da 3e b3 2c 3f bf 60 1b 60 3f
       0.58840156 0.4264284 -0.7467758 0.8754177
000130 9d 78 1d be b9 38 1c 3e ce 93 4f be 16 07 e9 3e
       -0.15378042 0.15256013 -0.20271227 0.4551322
000140 61 5c 3c 3d be 7c ac 3d 1b ed 06 bf c2 fd 7b bf
       0.045986537 0.0842223 -0.52705544 -0.9843408
000150 40 ed ad 3c 94 47 6c 3f 3e 6e c8 bd fe 37 45 3f
       0.021231294 0.9229672 -0.09786652 0.7703856
000160 0d 3f 99 bb be 21 95 3f 07 8f 8f be 01 93 04 3f
       -0.0046767057 1.1650922 -0.2803881 0.5178681
000170 2b 8a 16 3e 35 58 fd 3c 9a 91 a8 3d ce ad 7c 3f
       0.14701144 0.03092585 0.08230896 0.98702705
000180 49 0f 3b 3f b7 69 64 be 54 b0 c2 be 08 15 fe bb
       0.730702 -0.22305952 -0.38025153 -0.007753972
000190 e2 0c d7 bd 34 f4 4d 3f c0 fb e7 bd 64 bc 2d bf
       -0.10500504 0.8045075 -0.113273144 -0.67865586
0001a0 a7 d7 46 bd 96 06 57 3d 6d 30 17 be b5 a4 fe bd
       -0.048545506 0.052496515 -0.14764567 -0.12433759
0001b0 61 4f f4 be cb b1 27 3b 81 9f 31 bf 6b a7 4e be
       -0.4771681 0.002558815 -0.6938401 -0.20181052
0001c0 41 86 27 3f 65 a6 dd 3c f9 1d d5 3e c5 b7 9c be
       0.6543923 0.027056882 0.4162443 -0.30608955
0001d0 e3 66 1c bf ee 67 80 be cd 5d 8f bd c4 fc 8a bd
       -0.6109449 -0.25079292 -0.07000313 -0.067864925
0001e0 88 e0 ec 3e eb 56 e3 3e 37 d9 2e 3f f0 26 1c 3f
       0.46265054 0.4440225 0.68300194 0.60996914
0001f0 2a 91 50 3f e3 ec 23 3f 33 4d fc be a0 64 2e 3f
       0.814715 0.64033335 -0.49277648 0.6812229
000200 fb 8b 62 3e ea 75 27 3e 25 a5 9d bc 0b 2c 28 3e
       0.22123711 0.16353574 -0.019243786 0.16423051
000210 41 26 13 be 9f 47 a8 3c 82 41 b7 bc 60 19 97 3d
       -0.14370061 0.020541964 -0.022370104 0.07377887
000220 4e cd b7 3d 38 47 90 bd 95 d3 68 bd 6b 76 a1 bd
       0.08974706 -0.07044834 -0.056842405 -0.078839146
000230 24 60 e9 bd 5c 15 21 be 62 25 0d 3e 14 20 18 3d
       -0.113952905 -0.15730804 0.13783792 0.037139967
000240 6f 0e bc 3d d8 69 b0 bd 7d 83 86 3d 65 12 60 3c
       0.091824405 -0.08613938 0.06568048 0.013676261
000250 08 aa 95 3d 1c 53 b1 3d d7 13 03 3e d1 d4 58 3e
       0.073078215 0.0865843 0.12800537 0.21174933
000260 10 42 16 3e 84 b8 1f 3e 54 88 1a bd de 91 d4 3d
       0.14673638 0.15597731 -0.03772767 0.103793845
000270 51 50 e8 bd 2f 37 3c 3e 03 4d 35 3d 36 23 a9 3c
       -0.11343444 0.18380426 0.044262897 0.020646673
000280 8e 6d 81 bc df 2c 8b 3b 7b 3a 24 bb 36 37 9e 3c
       -0.01579931 0.0042472924 -0.002505927 0.019313436
000290 f3 f7 fa 3d 71 94 53 bd c1 82 dd 3c 3f 3b fe bc
       0.12254324 -0.051655237 0.027039887 -0.03103411
0002a0 55 eb 88 3b f1 99 0a 3d d7 27 7b 3d f2 c3 3e bd
       0.0041784444 0.033838216 0.06131729 -0.046573587
0002b0 17 b1 6f 3c 34 3b 0c 3d c7 91 68 bd 48 b9 5b b9
       0.014629624 0.034236148 -0.05677965 -0.0002095449
0002c0 a3 b5 d6 3c 3b 10 86 bd 40 4b 16 be 4e 17 a2 bd
       0.026209658 -0.065460645 -0.14677143 -0.07914601
0002d0 e1 53 a2 bd 30 85 c3 bc ca ef 68 bc f9 92 5f bd
       -0.07926155 -0.02386722 -0.014217326 -0.054583523
0002e0 0d 30 6f bc c4 3e 0d 3d d3 0d 18 3b 33 c2 91 3d
       -0.014598859 0.034483686 0.00232016 0.07117119
0002f0 2e 0a 2a bc 75 55 1b bd 0e 31 1a 3d bf ce 6e bd
       -0.010378404 -0.037923295 0.03764444 -0.058302637
000300 7c 50 7e 3b f0 6b a1 bd e5 83 7a 3d 8f b2 58 3b
       0.0038805297 -0.078819156 0.06116094 0.0033065414
000310 a9 99 04 bd 5f 3b b5 3d 45 bf 9c 3c e6 79 18 3d
       -0.032373104 0.08849215 0.019134173 0.037225626
000320 ed 04 9c bd 26 7d 16 3b 28 c1 c8 bd f3 3b 86 3d
       -0.07618127 0.0022962778 -0.09802467 0.06554403
000330 b3 29 1e bd b9 f8 08 3d ac 82 ca bc 16 6e b3 3c
       -0.038613986 0.033440325 -0.024720512 0.021903079
000340 7b 8b f4 bd f0 aa a3 bd f5 f6 3f bd 9e fe 60 bd
       -0.11940666 -0.07991588 -0.046866376 -0.054930322
000350 df f1 8b bd b9 0d d4 ba c9 30 e5 bd d2 e5 4c 3d
       -0.068332426 -0.0016178406 -0.11190946 0.05002386
000360 a4 ae 84 3d 59 c4 35 3c fc 44 12 3d b9 04 bd 3c
       0.064786226 0.011094176 0.03571032 0.023073541
000370 7f c4 37 bb da a7 6c 3d a1 9c ac 3c 06 77 5a 3c
       -0.0028040705 0.057777263 0.02107078 0.013334041
000380 4a 82 02 3e 9b 3c 19 3b 60 27 8f bb e9 e0 47 bd
       0.12745014 0.002338207 -0.0043687075 -0.048798475
000390 6b f2 6a 3c 16 a3 12 bd bf 18 83 3c 2a d1 31 bd
       0.0143400235 -0.035800062 0.01600301 -0.043412365
0003a0 6c 09 1b bd f2 b5 b2 3c f6 46 d2 3d d3 f1 f6 bd
       -0.037850782 0.021815274 0.10267441 -0.12057843
0003b0 a0 f1 a5 3d ec 3b f5 3d 66 dd 26 bd 5b 36 26 3d
       0.08102727 0.1197432 -0.040738486 0.04057918
0003c0 9e 04 2a bd ae 10 0a bd a7 bd 33 ba 31 bc df 3d
       -0.04150831 -0.033707313 -0.00068565685 0.109245665
0003d0 03 13 26 bd 1f a7 9b 3c 51 ca c4 3b ed e6 84 bd
       -0.040545475 0.019000588 0.0060055633 -0.06489358
0003e0 39 35 8a 3d e2 45 21 3b 40 64 ce 3d f6 06 5d 3d
       0.06748433 0.0024608304 0.10077715 0.053961717
0003f0 39 a3 aa bd 48 c5 5e 3c df 72 5d 3d ec 89 2f 3c
       -0.083319135 0.01359684 0.054064628 0.0107140355

item_tower.feedforward.0.bias f4 [64]
000000 51 89 93 bd 06 04 d9 bd aa 35 6f bc be fa 1c be
       -0.072039254 -0.105964705 -0.014600197 -0.15330026
000010 d6 97 77 be a5 13 49 be d0 38 32 bd 23 11 9a bd
       -0.24179015 -0.196364 -0.043511212 -0.075228
000020 b3 85 cc bd 7a 90 02 be 90 0e 4e be 58 a3 ea 3d
       -0.099864386 -0.12750426 -0.20122743 0.114569366
000030 35 08 38 be 94 6b fd 3d ea 58 9b bc 5f 8e 46 be
       -0.1797188 0.123740345 -0.018963296 -0.19390248
000040 1b 3f 6c be 34 13 28 be b2 c2 f1 bd c6 78 bd bd
       -0.23070948 -0.16413575 -0.11804713 -0.09251551
000050 57 9f 7f 3c 9f 35 00 be e6 7c 4e be 03 32 6b 3d
       0.015601954 -0.12520455 -0.20164832 0.05742074
000060 d2 9e b7 bd 59 d2 34 bd 1f 27 5d bc 9a ca c9 bd
       -0.089658394 -0.044145916 -0.013498097 -0.09853096
000070 a9 19 6b be 7c 33 54 be a3 3a 5c be 9b b0 89 be
       -0.22959007 -0.20722765 -0.21506743 -0.26892552
000080 ae f6 c2 bd cb 36 40 bd e0 27 a8 bd db b0 0c be
       -0.09519707 -0.046927255 -0.082107306 -0.1373934
000090 da ae a8 bd 40 d0 12 bd 89 db 4c 3d 74 4e 4b be
       -0.08236475 -0.035843134 0.050014053 -0.19854146
0000a0 2e 3b a3 be 0e 04 26 be c9 9d 93 bd ce 24 fb bd
       -0.31881088 -0.16212484 -0.072078295 -0.12262879
0000b0 7e 14 24 be 3a f4 d5 3d e3 b3 53 be 17 6b a6 bc
       -0.16023442 0.10446973 -0.2067409 -0.020314736
0000c0 8c 6c 80 bd c5 82 af bc 81 b6 f3 bd 08 d6 3e be
       -0.06270704 -0.02142466 -0.11900044 -0.18636334
0000d0 06 c9 08 be 23 28 5c bd c5 be db bd 4f 67 79 be
       -0.13357934 -0.053749215 -0.10729746 -0.24355815
0000e0 8d 05 08 be b4 49 61 bd 1f 06 54 be ac 45 a0 be
       -0.13283367 -0.05500193 -0.2070546 -0.31303155
0000f0 ba eb 12 be 8b 2b 4a 3d cf 83 92 bd 76 d7 7d bd
       -0.14347735 0.049357932 -0.07154047 -0.061973058

item_tower.feedforward.2.weight f4 [32, 64]
000000 98 a1 44 be 84 ae 52 3d c2 b2 cf bd 10 60 c7 3c
       -0.19202268 0.051435962 -0.10141517 0.024337798
000010 f5 47 19 be 76 55 b1 bc 68 de c1 bd 0a 9e 8d 3d
       -0.14968856 -0.021647196 -0.09466249 0.06914909
000020 65 48 56 bd 9e 5c 6a bd 00 80 c9 3b 13 06 ea bc
       -0.052315135 -0.057217233 0.006149292 -0.02856735
000030 28 b2 78 3d c9 6c 2c be 23 eb f7 bd b0 56 01 be
       0.060716778 -0.16838373 -0.12105396 -0.12630725
000040 87 b4 ac bc 89 72 b7 bb 66 86 cc 3d f8 68 95 3d
       -0.021082176 -0.0055983705 0.09986572 0.07295412
000050 e1 26 60 3d b8 47 dc bd 70 a1 ce bd ae 41 9f bd
       0.054724578 -0.10755867 -0.100893855 -0.07776199
000060 60 72 a9 3b a5 23 07 be 3a 1d 73 bd 35 34 99 bc
       0.0051711053 -0.13197191 -0.059354044 -0.018701652
000070 37 07 ce 3c 22 48 f1 3c 67 3b ce bd 03 12 42 3d
       0.025149925 0.02945334 -0.10069924 0.04738046
000080 0c 95 c0 3d 84 b7 d6 3d cc 2d 33 3d cf ef 54 be
       0.094034284 0.104842216 0.043744847 -0.20794605
000090 0d 1c 0e bd dc 58 85 bd e7 76 46 be 15 80 e4 bc
       -0.03469472 -0.06511089 -0.19381295 -0.027893106
0000a0 40 e0 ca 3c e2 dd e7 bc d3 70 d2 bd 40 b5 80 bb
       0.024765134 -0.028304044 -0.10275426 -0.0039278567
0000b0 5c e4 2a bd e2 28 03 3d 8a 44 a8 bd b8 0f f4 bd
       -0.041721687 0.03202141 -0.08216198 -0.119170606
0000c0 e0 46 38 bd ec c2 22 bd 93 a7 08 bc 19 c1 c9 bc
       -0.044989467 -0.039736673 -0.008340734 -0.024628209
0000d0 3a 6d 8b bc 80 a6 ed bc 06 ea 80 bd f0 69 c4 3c
       -0.017019857 -0.029010057 -0.062946364 0.023976296
0000e0 62 62 fa 3c 90 24 f6 3d c5 83 77 3c 34 72 f5 3d
       0.03056449 0.120186925 0.0151071 0.11984673
0000f0 30 58 28 3c 14 21 30 bc a2 be a7 bd f0 4c 74 bc
       0.010274932 -0.010750074 -0.08190657 -0.014910921
000100 09 54 8f be 88 1c ea 3d 0c 28 0f 3d 86 38 81 3d
       -0.279938 0.11431223 0.0349503 0.06309609
000110 a0 64 72 be fc 95 51 3d aa 95 b0 bd 9f 65 77 bd
       -0.23671198 0.051168427 -0.08622296 -0.060399648
000120 fe 5c 36 3e 8e f3 ab bd 83 83 23 3e 45 be 54 bd
       0.17808911 -0.08396064 0.15968136 -0.051939268
000130 34 14 4f 3d 6a 9e 86 bd 93 00 c0 bd f8 f8 e6 bd
       0.050556377 -0.06573184 -0.093751095 -0.11277956
000140 11 da d4 bd e2 45 88 be 8c be 33 bd 94 15 68 bd
       -0.10393155 -0.26615816 -0.04388289 -0.056661204
000150 ec 73 73 be e8 37 e9 bd 26 ed 9e bd 16 78 e4 bd
       -0.2377469 -0.113876164 -0.07760076 -0.11155717
000160 cd 35 b8 3d 88 5c 68 bd 2b df 60 bc ca 3b 93 bd
       0.08994637 -0.05672887 -0.013725082 -0.07189138
000170 c5 5a 0c 3d 9e 9c 8b be 07 dd ea bc 8e 02 5d be
       0.034266252 -0.27267927 -0.028669847 -0.21583006
000180 1c ea 4e 3d a0 60 8d bc 3a 8d 9e bd 93 25 5b bd
       0.050516233 -0.017257988 -0.077417806 -0.05350263
000190 83 a8 b5 bd b7 06 51 3d 8f 12 43 be a6 cb 14 be
       -0.08870032 0.051031794 -0.19050048 -0.1453081
0001a0 0f 14 ce bd b8 48 bb 3d 6c 1d 87 be f1 7a 01 be
       -0.100624196 0.091447294 -0.26389635 -0.12644555
0001b0 b2 a5 e5 bd 17 16 4a be 7c 0a c0 3d 66 cf c3 bc
       -0.112132445 -0.19734989 0.09377 -0.023902606
0001c0 1e e8 e0 bd a4 e6 2c bd 38 31 75 be 49 c0 d6 3d
       -0.10981773 -0.042212144 -0.23944557 0.10485894
0001d0 08 37 b6 be a8 1a 32 bd b2 9c 35 bd f9 3b 8a bc
       -0.3558886 -0.043482453 -0.04433889 -0.0168743
0001e0 c1 cf d0 bd 00 7d f9 ba 9e 90 5f bd ab a7 1b 3a
       -0.10195876 -0.0019034445 -0.054581277 0.0005937765
0001f0 3d 97 f7 bd 2d 42 eb bd f0 e0 4d 3c 90 e6 0b 3c
       -0.12089393 -0.114872314 0.012565836 0.008538857
000200 6f b0 b8 bf 66 40 04 bd 23 f2 66 bf 99 e4 ae bf
       -1.4428843 -0.032287978 -0.9021322 -1.3663512
000210 89 41 63 3f 9b f6 32 bf 65 56 06 c0 d8 57 da bd
       0.88771874 -0.6990754 -2.099023 -0.10661286
000220 90 0f 0a bf 00 6f e3 be 83 ce d6 3c bd 9e d2 be
       -0.53929996 -0.44420624 0.02622152 -0.41136733
000230 e0 00 65 3d f1 11 93 bf e4 9e 6a bf 46 6f 67 bd
       0.055909038 -1.148985 -0.916487 -0.056502603
000240 99 90 10 bf 4e d6 c3 3e b7 87 c3 3d 89 2f c7 3d
       -0.5647064 0.3824944 0.0954737 0.097258635
000250 45 ae 72 bf c0 18 b9 3e ce 3f 14 3f ca 73 84 bf
       -0.94797164 0.36151695 0.5790986 -1.0347836
000260 52 75 23 bc 44 05 85 bf 83 d2 59 3f fe 3a 3d be
       -0.009976702 -1.0392232 0.8508684 -0.18479535
000270 23 79 17 3d a4 70 46 bf 6d 2d 60 bb ad e3 54 bf
       0.03698076 -0.77515626 -0.0034206763 -0.83159906
000280 6c 5e 10 bd 72 d7 e1 bd 2a 68 f2 3d 3f e0 ee 3e
       -0.035246298 -0.11027421 0.11836274 0.4665546
000290 8a 00 1f 3e b6 58 a8 3c e3 65 80 3d 0a 1e e1 3e
       0.1552755 0.020550113 0.06269433 0.4396823
0002a0 76 f6 78 bd f0 5e f2 be 8b b7 91 bf d9 69 c4 3d
       -0.06078192 -0.47338057 -1.1384138 0.09590501
0002b0 46 07 79 3f fc f9 71 3e 77 da c5 be 88 4f 86 bf
       0.97276723 0.23630518 -0.38643238 -1.0493021
0002c0 7b 57 ec bc fa e5 d5 bc ac 14 68 3e 36 d7 4a 3e
       -0.028850308 -0.026110638 0.22664136 0.19808659
0002d0 7e 5c 63 3e 55 1e 08 3d 64 13 b6 bd cf 61 01 3f
       0.22203252 0.033232052 -0.08890417 0.5053987
0002e0 27 40 35 3f 9e d5 6a 3d 91 3c 97 3e 11 e5 18 3f
       0.70801014 0.057332627 0.29538396 0.5972453
0002f0 6a c8 29 3c 7c 08 26 3f 8d 97 60 bc cc c2 55 3d
       0.010362724 0.64856696 -0.0137080075 0.052187726
000300 0f 56 3e 3d 72 c4 ec 3d 2f fb ae bd bb f6 a9 bc
       0.04646879 0.115609065 -0.08544003 -0.020747533
000310 56 a3 85 3d 40 2f 3c 3c 41 52 91 3a 3e aa aa 3d
       0.065252945 0.011485875 0.0011087136 0.08333252
000320 48 9d aa bd 6a 99 92 bc a0 c8 bd bb c2 5a 06 be
       -0.0833078 -0.01789542 -0.0057917386 -0.13120559
000330 e2 6c f5 3d dd d6 0b be dc e7 91 3c 12 07 93 bd
       0.119836584 -0.13656183 0.017810754 -0.07179083
000340 f3 09 67 3c 9e 1c 84 3d 64 68 25 bd 58 f8 a7 bc
       0.014101493 0.06450771 -0.040382758 -0.020504162
000350 0b 79 af 3d ee 3f d3 bd 82 39 15 3d b7 11 e8 bd
       0.08568009 -0.10314928 0.036431797 -0.11331504
000360 4e d3 da bd 2a 77 fc bc f4 23 68 3d 11 23 3e bd
       -0.106848344 -0.03081854 0.056674913 -0.04642016
000370 2c a3 39 bd 9e 31 a7 bd 85 1b 35 3c 5c c7 21 bd
       -0.04532163 -0.081637606 0.011053924 -0.039496765
000380 2c 39 88 3d 58 a0 df bc b4 26 2f 3d 28 ea d0 3c
       0.0665153 -0.027298138 0.04276152 0.02550228
000390 2b 10 d2 bd 56 c5 83 bd b7 56 32 be a8 ee 84 3d
       -0.1025699 -0.06434123 -0.17415892 0.064908326
0003a0 b0 57 e7 bd 70 b3 bf bd 4c e1 98 bd bc b7 c1 3d
       -0.11296022 -0.09360397 -0.07464847 0.09458873
0003b0 1e ae e8 bd a8 d5 bb bd ba 50 b8 bd 3f 3e 07 3d
       -0.11361335 -0.09171611 -0.08999772 0.033018347
0003c0 d0 ef 8e bd 3c 97 4d bd 26 1a 00 bd 41 75 d3 bd
       -0.06979334 -0.050193056 -0.031274937 -0.10325099
0003d0 bc 5c 1c be 64 61 d5 3d 30 7b 7b bd 40 bc 4a bb
       -0.1526975 0.104189664 -0.061396778 -0.003093496
0003e0 24 a8 82 bd 68 c7 e9 3c d0 87 ec 3c 2a 5c b7 3d
       -0.063797265 0.028537467 0.028873354 0.08953126
0003f0 26 9e 8f 3d f5 7c ff bd 80 c5 30 bb be 57 e5 3d
       0.07012586 -0.124750055 -0.0026973188 0.11198376

item_tower.feedforward.2.bias f4 [32]
000000 94 37 3b be 73 dc 5e be 47 f3 16 3e 09 60 39 be
       -0.1828292 -0.21763782 0.1474124 -0.18103041
000010 0c bf 10 bf 4f 0b 29 be b2 3b ab be 53 d0 17 be
       -0.56541514 -0.1650822 -0.3344398 -0.14825563
000020 31 5b 8a be 31 aa 4f 3e 40 f2 d0 be e8 e4 81 3c
       -0.270227 0.20279767 -0.40809822 0.015856221
000030 46 09 94 be e2 17 30 be 20 b4 01 be 7e 7a 07 bf
       -0.28913325 -0.1719661 -0.12666368 -0.52921283
000040 35 69 66 be 3e fa 58 be 55 63 6c be 0d 44 ce bd
       -0.22501071 -0.2118921 -0.23084767 -0.100715734
000050 2a 8c 02 be ef 03 06 bf a0 28 ad be 53 63 17 3f
       -0.12748781 -0.5234975 -0.33820057 0.5913593
000060 b6 6a 21 bf 6f 27 fc bd b8 f7 08 be 34 20 91 3e
       -0.6305345 -0.12312209 -0.13375747 0.28344882
000070 be 71 c6 bd c3 bd d3 3d f2 a0 96 be 22 f0 1c be
       -0.09689663 0.103389286 -0.29419667 -0.15325978

item_tower.feedforward.4.weight f4 [32, 32]
000000 c1 32 ff bd c9 4c 9d bc 75 c1 a3 bf 84 12 4f 3d
       -0.124608524 -0.019201653 -1.2793413 0.050554767
000010 c7 20 c7 3e 2a 27 88 3d 95 b5 e6 3e 23 e8 91 bd
       0.38892195 0.06648095 0.4506041 -0.07124355
000020 45 4b 29 3e 1d b6 b1 3d da 7f bc 3e cb 14 40 3e
       0.1653262 0.086773135 0.36816293 0.18757932
000030 8a ca 8a be c3 93 32 3d 74 46 60 be c4 d1 8e bf
       -0.2710765 0.043597948 -0.21901876 -1.1157765
000040 d9 6a b7 bd 50 39 43 3d 22 08 1d 3e 3f 24 80 3e
       -0.089559264 0.04766208 0.15335134 0.25027654
000050 4f 62 16 be 8c 1c 8c 3e 0b e8 ed be 5f 45 d2 bd
       -0.14685939 0.2736553 -0.46466097 -0.10267138
000060 e4 6d ad 3f 7a 96 d0 3c 2f 5e da be 78 9b ec bd
       1.3549161 0.025462378 -0.4264998 -0.11553091
000070 67 f4 10 3e f6 91 13 b9 6e 09 46 3f 29 f7 e0 bc
       0.14155732 -0.00014073387 0.7735814 -0.027461605
000080 54 2f 8e bd 5e 96 c4 be c0 82 83 b7 33 10 0f be
       -0.06942621 -0.3839597 -1.5677302e-05 -0.13971023
000090 ee d0 2b bc 6b 60 cf 3d 40 0b 1c 3e 70 51 91 bd
       -0.010486824 0.10125812 0.15238667 -0.07095611
0000a0 d3 e1 92 3e d8 90 6c 3c 15 69 0d 40 ef e7 d7 3b
       0.28687915 0.01443883 2.2095387 0.006588928
0000b0 3f 2f 18 3d e7 7c 5b bd 80 b4 44 3e b9 8c 10 be
       0.037154432 -0.053585913 0.1920948 -0.14116181
0000c0 75 28 7f 3e 84 d3 8b 3c 78 d9 13 be 6f bf 95 bd
       0.24917777 0.017068632 -0.14438426 -0.07311904
0000d0 b2 20 02 3e 2d ef fc be 9c 3c 15 3e d3 25 80 bd
       0.12707785 -0.49401227 0.14573902 -0.062572144
0000e0 0f 17 6a be 4a 4b 4c 3e 0c 81 7f be 63 c9 00 bd
       -0.22860359 0.19950595 -0.24951571 -0.031442057
0000f0 4c cd fc 3e 0b 03 22 3e 96 69 e7 be ea 9d bf 3d
       0.4937538 0.15821473 -0.45197743 0.093562916
000100 58 8f c8 bd 14 c6 2a 3e 87 a5 9a bf 74 21 27 3e
       -0.09792966 0.16677123 -1.2081765 0.16321355
000110 ee ce f8 3f ce ff ee 3c b1 c2 28 bd 24 16 c9 be
       1.943815 0.029174712 -0.041201297 -0.39274704
000120 d7 dc a8 bd fa 93 00 3e 25 9c 0e c0 97 4e 0a bf
       -0.08245247 0.12556449 -2.2282803 -0.5402617
000130 54 0b 80 bf 65 8d 32 bd 2a 01 b8 bd 21 33 98 bf
       -1.0003457 -0.043591876 -0.08984597 -1.1890603
000140 11 7f 82 3d 4d 9b d7 bd b6 17 b3 bc 2b f4 2d bd
       0.06371892 -0.10527668 -0.021861892 -0.042469185
000150 8a 94 9d bd e6 6c 1e 3f 92 6b cd be e9 95 d4 be
       -0.07694347 0.61884916 -0.40121132 -0.41520622
000160 8b 7d ed be f6 17 34 3e b1 15 58 be 30 8b 2d 3e
       -0.46384844 0.17587265 -0.21102025 0.16947627
000170 c7 83 5f 3f 53 56 aa bd 10 d7 6f 3f ea 2a a8 bd
       0.8731045 -0.08317246 0.93687534 -0.0821131
000180 a0 eb db bd 5d b4 94 bd ac 2b cb 3e 99 83 de bd
       -0.10738301 -0.07260964 0.39681756 -0.10864944
000190 fb da 78 bf 38 26 23 3d ac e6 73 bf 16 8d 53 3f
       -0.9720914 0.03983137 -0.9527385 0.82637155
0001a0 8b fa 14 3d 76 e3 16 3e 0c 57 e3 3e 22 68 3c 3f
       0.03637175 0.14735207 0.4440235 0.73596394
0001b0 7d 67 f4 3f 63 94 8c 3d c4 45 41 3e 81 68 c4 bf
       1.9094082 0.0686424 0.1887427 -1.5344392
0001c0 36 97 08 be a4 e8 81 be e3 1f 5a 3c 59 c4 8e bd
       -0.13338932 -0.25372803 0.013313266 -0.06971044
0001d0 c1 fc d4 3d 7a b0 47 3f 26 67 e7 3f b9 98 07 3f
       0.103997715 0.78003657 1.8078353 0.5296741
0001e0 fc b4 b4 3e 4f 7d 79 3e 5d d5 5f be d6 40 2a 3f
       0.3529433 0.24364208 -0.21858735 0.6650518
0001f0 f2 ee a0 bf 7a 98 90 3e 3e ba 04 be 0f 5c cf 3d
       -1.257292 0.2824133 -0.12961671 0.10124981
000200 be 01 04 be 8d 4f 0e be 5a 7a 31 3f 7e fb aa bd
       -0.1289129 -0.13897534 0.6932732 -0.083487496
000210 6c ee b2 be 37 84 e6 bc 06 b0 97 be 84 19 0e 3e
       -0.34947526 -0.028139217 -0.29626483 0.13876921
000220 a9 fc 8c 3d 08 22 32 bd 5c 26 d6 bf 8a 1e bc 3d
       0.068841286 -0.043489486 -1.6730456 0.09185512
000230 fc 21 3d 3e b9 60 c9 bc 56 e1 d5 bd 82 1f b6 3e
       0.18469995 -0.024582254 -0.1044337 0.35570914
000240 6a a2 20 bd 2c 5d 23 be 9d 4f 55 3d 2a 1c c5 bd
       -0.03921739 -0.15953511 0.05207788 -0.096245125
000250 3f 63 b4 3d e1 3f 1a 3f 4b 70 78 3e 5b 50 42 3e
       0.08807992 0.6025372 0.24261586 0.18975966
000260 b5 98 46 3e fd 1e 08 3e 8b be 38 3e 67 53 45 3d
       0.1939419 0.13293071 0.18041436 0.04817524
000270 ab ee 37 bf 51 68 f1 bd 3e ff 95 bd 09 67 9f 3d
       -0.71848553 -0.11787475 -0.07324074 0.07783324
000280 d4 e1 36 3e f2 ad 2d 3e 8e be 01 c0 34 e9 27 be
       0.17859584 0.16960886 -2.0272555 -0.16397554
000290 59 10 25 3f 36 fb 99 bd 14 92 98 3e b2 72 07 c0
       0.6447807 -0.07518618 0.2979895 -2.1163754
0002a0 58 1a 97 3c 2e 90 5e bf d4 0c a7 be 65 d0 a9 bf
       0.018445179 -0.8693875 -0.32626975 -1.3266722
0002b0 f9 a0 f8 bf 43 88 09 3e 95 98 37 be 26 16 37 3f
       -1.9424125 0.13430886 -0.17929299 0.7151817
0002c0 82 23 9e bb 04 0d aa bd 31 30 65 bd fe 73 a7 3d
       -0.00482601 -0.08303264 -0.055954162 0.08176421
0002d0 bf 1c bb bd 90 1f 99 3e bf 6e eb bf 27 c8 d7 bf
       -0.09136342 0.29906893 -1.8393172 -1.6857957
0002e0 93 bc 85 3f 1d de d1 3d 2b 84 13 bf b3 d0 d3 bf
       1.0448173 0.10247443 -0.5762355 -1.6548065
0002f0 e9 fa a0 3e 74 e7 0a bf 67 c0 72 bf b5 86 26 be
       0.3144143 -0.5425942 -0.9482483 -0.16262324
000300 0d 57 41 3e c4 26 35 3e 2c 72 fa bb 5f a4 84 bc
       0.18880863 0.17690569 -0.007643005 -0.01619166
000310 b6 6a 22 3f 81 b6 0c 3d 8c da a9 3f e8 c0 0a bf
       0.6344408 0.034353737 1.326982 -0.542006
000320 e4 75 7b bd 0d 81 47 be ba 7e 51 bf ae 76 df 3e
       -0.061391726 -0.19482823 -0.81833994 0.43645233
000330 c0 f9 01 bf 88 98 b1 3d 9a 74 12 be 9c a5 96 be
       -0.50771713 0.08671671 -0.14302292 -0.29423225
000340 af 1e 6d bd a5 56 11 3d 47 6f a6 3d 4b cd a4 bd
       -0.05789059 0.03548302 0.08126693 -0.08046969
000350 36 78 a5 3d 1c 06 55 bf 71 5d 5d be 81 9f 8a be
       0.08079569 -0.8321245 -0.21617676 -0.27074817
000360 e9 28 ec bd 58 3d 3d 3e 6e 21 2a 3f f0 00 28 3e
       -0.115312405 0.18480432 0.6645726 0.16406608
000370 63 25 94 3e 3d 8f c8 3e 31 f3 a0 3e 42 86 d1 bc
       0.28934774 0.39171782 0.3143554 -0.025576714
000380 56 7c ab bb c5 3b c6 be f7 ae 12 bf bc d9 16 3e
       -0.005233328 -0.38717476 -0.57298225 0.14731497
000390 92 4e 71 3f 44 18 1a 3e af 6c 54 3e 39 73 1e 3f
       0.94260514 0.15048319 0.20744585 0.61894566
0003a0 2e 52 54 bd 23 d1 15 bf 47 79 fc bf 62 6d 88 3d
       -0.051836185 -0.5852224 -1.9724511 0.06661488
0003b0 c3 cd 00 c0 cb 72 2a be ed e2 1c bc 2d c5 ca 3e
       -2.0125587 -0.16645353 -0.009575588 0.39603558
0003c0 0e 42 2e be 03 40 52 be 56 0e da bd f9 fd 64 be
       -0.17017385 -0.20532231 -0.106472656 -0.22362508
0003d0 45 5f 2e be a0 a4 07 3e 5a 9c e0 be 9a 29 29 bf
       -0.1702853 0.13246393 -0.43869287 -0.66079104
0003e0 e9 21 a9 bf 9f 48 0b 3e f0 9b a2 be 92 6c 8a 3e
       -1.3213474 0.13601921 -0.31759596 0.27035958
0003f0 e6 2b 20 3f 1d 8b e4 be 2c 3c c3 3d 42 dc 02 be
       0.62566984 -0.44637385 0.09532961 -0.12779334
