models/pct_100_model.pt (torch, 82353 bytes, 14 tensors)

au f4 [32]
-0.0015423857 -0.00023539044 0.0038366849 0.01539416 -0.002098789 -0.0014108502 0.00076540717 0.0047352193
-0.011989978 0.013962658 0.1190936 -0.0058369352 -0.018891338 0.012374986 0.0037355088 0.0032805132
-0.0051378957 -0.038925678 -0.974601 -0.010417584 0.0062048594 0.0036188846 0.00382487 0.0070369006
-0.0050046435 0.022576436 0.01735185 0.012422733 0.009508357 -0.00017375949 -0.0069446256 0.016204242
00000000: e029 caba 24d3 76b9 e470 7b3b c937 7c3c
00000010: d68b 09bb 47ec b8ba 9ba5 483a e629 9b3b
00000020: 9d71 44bc a2c3 643c 58e7 f33d c343 bfbb
00000030: 02c2 9abc 74c0 4a3c 70cf 743b e1fd 563b
00000040: cb5b a8bb 8870 1fbd 737f 79bf 84ae 2abc
00000050: 2252 cb3b cf2a 6d3b acaa 7a3b cd95 e63b
00000060: fefd a3bb 38f2 b83c 7825 8e3c b888 4b3c
00000070: f1c8 1b3c 3533 36b9 be8f e3bb c2be 843c

av f4 [32]
0.003873038 0.028189613 0.016869692 0.006403383 0.012134517 -0.0014288006 -0.020895323 -0.00966122
0.0028474212 -0.006567722 0.006748741 -0.009611585 0.006819549 -0.011850782 -0.0029150434 -0.01127485
0.0013387986 0.0043154154 -0.010320885 0.006673586 0.007920016 0.96051544 0.0022799657 0.010706234
0.008271276 -0.0030594475 0.010118986 -0.012368107 0.00480758 -0.0028793644 0.0039062654 0.108156174
00000000: ccd2 7d3b e7ed e63c 4f32 8a3c 78d3 d13b
00000010: dacf 463c 9846 bbba ab2c abbc 184a 1ebc
00000020: cd9b 3a3b 0c36 d7bb 8b24 dd3b e979 1dbc
00000030: 8676 df3b c829 42bc 500a 3fbb 26ba 38bc
00000040: a07a af3a 5468 8d3b ee18 29bc 19ae da3b
00000050: f4c2 013c 57e4 753f 7a6b 153b 3369 2f3c
00000060: 3f84 073c 0381 48bb 1aca 253c 9aa3 4abc
00000070: e788 9d3b b8b3 3cbb 2100 803b fc80 dd3d

user_tower.feedforward.0.weight f4 [64, 37]
0.061236337 -0.14570491 -0.07624726 -0.10488032 0.03617399 -0.12177995 0.122894995 0.10635635
0.15726878 0.013218539 0.11241514 -0.094286196 0.15876104 -0.050005242 0.10592651 0.14643691
0.05541269 0.09914633 0.05872624 0.1550729 0.01035566 -0.0766323 0.043692723 0.11603009
-0.10609884 -0.15638435 -0.070341006 0.0053059515 0.035122216 0.09505267 0.030973714 -0.11239609
0.14916527 -0.034940697 -0.002236452 -0.1176953 -0.0020017868 -0.08433538 -0.0659133 -0.0832037
0.0591304 -0.41522464 -0.04661779 -0.15114442 0.10354516 0.03302631 0.07268182 0.1483071
0.099292345 -0.09360904 0.16550626 -0.066358246 0.07531877 -0.051612258 -0.11543235 0.11150143
-0.076095834 -0.11153028 -0.10620242 0.14647393 -0.12853314 -0.11599543 -0.09305208 -0.004571935
0.049840122 0.15892208 0.15118283 0.08946976 0.09355822 0.08063678 -0.1572546 0.01285132
-0.0394209 -0.021033308 0.028624548 0.024231248 -0.06887415 -0.030880976 0.11579883 0.057460282
-0.03194363 -0.10889022 -0.111506574 0.095555454 0.11662245 -0.17367308 -0.018453619 -0.11059535
-0.086803645 -0.045202613 -0.089632556 -0.16702688 0.08663538 0.124349244 0.043447554 0.15109372
0.08450286 -0.06808584 0.11822821 0.029566329 0.09456768 0.051138144 -0.0502194 0.11617448
0.10279094 -0.082570925 0.0052817627 0.020655802 0.05836235 0.07628767 0.04180569 -0.077548794
0.03734971 -0.041874547 -0.03655039 0.086343855 -0.032809153 0.094023995 -0.12770018 -0.14202902
0.022339042 0.03619367 0.11388177 0.018045558 0.12805454 -0.16386886 -0.07852567 -0.08064793
0.15101773 -0.11452416 0.07084014 0.033049073 -0.13412355 -0.12810849 0.085370824 0.12709676
0.13092777 0.16324298 -0.013445914 -0.12654637 0.033858936 0.011570513 0.03523057 0.1176691
-0.128149 -0.10786394 -0.07743152 0.05320785 -0.10165037 -0.1443196 -0.0053371317 -0.044343315
-0.14769398 0.09539067 -0.15833336 -0.024569595 0.024371775 -0.12827036 -0.08774279 0.13248064
0.15957461 -0.049306694 -0.12660317 0.06250218 -0.10423774 0.07253873 0.16003734 -0.11202001
-0.12304094 0.093738474 -0.015828703 -0.09514866 -0.10884074 -0.10648461 0.0055192155 -0.0014766615
0.06958955 0.14109233 0.102618374 0.023245228 0.08943303 0.036709074 -0.14272231 0.11859935
0.07318632 -0.03507195 -0.07298088 -0.005776259 0.0042607463 7.598452 0.27472854 0.14771873
0.1548332 0.008853411 0.21064565 0.2359832 -0.18469213 0.0009409907 0.028880633 0.08640585
-0.7243802 -0.105839774 0.68824184 -0.013869649 -0.097142346 -0.050997768 -0.05497254 0.7373863
1.0399771 0.31079394 -0.018024256 -0.019333556 0.28874192 0.23710962 0.031401616 -0.18762834
0.04554975 0.08677401 -0.24265683 -0.033331223 -0.18535328 -0.10764101 0.121770695 0.30612776
-0.073383644 0.012247582 -6.3216834 0.045482777 0.08816086 -0.13404112 -0.049207333 0.11892305
0.25233018 -0.15044123 0.058281057 0.12548766 -0.13067222 0.7031341 -0.29109392 -0.4985721
0.099338144 0.31735462 0.19212468 0.11797652 -0.5958757 -0.88024086 -0.18296027 -0.12053658
-0.0803173 0.15543689 0.08047085 0.038361516 0.111980565 0.049742427 0.02551333 0.022995932
00000000: f4d2 7a3d ab33 15be 8627 9cbd 7ecb d6bd
00000010: 2e2b 143d c467 f9bd 5fb0 fb3d 5cd1 d93d
00000020: 110b 213e 9292 583c e939 e63d 1f19 c1bd
00000030: 4192 223e 4cd2 4cbd 00f0 d83d 8ff3 153e
00000040: 6bf8 623d 3b0d cb3d ed8a 703d 6ecb 1e3e
00000050: c9aa 293c 65f1 9cbd 24f7 323d 2fa1 ed3d
00000060: 594a d9bd 3823 20be f20e 90bd 8cdd ad3b
00000070: 50dc 0f3d f9aa c23d 96bc fd3c ec2f e6bd
00000080: c8be 183e fa1d 0fbd 7091 12bb 3c0a f1bd
00000090: 6930 03bb 07b8 acbd 8dfd 86bd b466 aabd
000000a0: b832 723d 5398 d4be 4cf2 3ebd 9ac5 1abe
000000b0: 7c0f d43d 9946 073d 35da 943d d1dd 173e
000000c0: c959 cb3d 19b6 bfbd 797a 293e d5e6 87bd
000000d0: ba40 9a3d 6067 53bd cc67 ecbd dd5a e43d
000000e0: 22d8 9bbd fd69 e4bd a880 d9bd 43fd 153e
000000f0: 319e 03be 038f edbd 1792 bebd 2cd0 95bb
00000100: 2825 4c3d 78bc 223e accf 1a3e ec3b b73d
00000110: 749b bf3d e524 a53d 5a07 21be 588e 523c
00000120: cf77 21bd 0b4e acbc 077e ea3c 9c80 c63c
00000130: e40d 8dbd 1afa fcbc f027 ed3d 795b 6b3d
00000140: 53d7 02bd d601 dfbd 8f5d e4bd 94b2 c33d
00000150: c0d7 ee3d 5bd7 31be 0b2c 97bc d17f e2bd
00000160: 1cc6 b1bd 6026 39bd 4691 b7bd 1809 2bbe
00000170: e46d b13d d1aa fe3d 10f6 313d 50b8 1a3e
00000180: d60f ad3d 9770 8bbd a221 f23d 1635 f23c
00000190: b3ac c13d 3b76 513d dcb2 4dbd e3ec ed3d
000001a0: 0e84 d23d f21a a9bd a312 ad3b 5b36 a93c
000001b0: 5c0d 6f3d b63c 9c3d 713c 2b3d e7d1 9ebd
000001c0: 02fc 183d a584 2bbd ddb5 15bd 0cd5 b03d
000001d0: e462 06bd a78f c03d d6c3 02be 0e70 11be
000001e0: 5e00 b73c d03f 143d d83a e93d 47d4 933c
000001f0: bb20 033e 3dcd 27be 11d2 a0bd be2a a5bd
00000200: 64a4 1a3e a58b eabd a314 913d 775e 073d
00000210: af57 09be df2e 03be e6d6 ae3d a725 023e
00000220: ee11 063e 2b29 273e 404c 5cbc 5f95 01be
00000230: abaf 0a3d 4092 3d3c ee4d 103d 7ffc f03d
00000240: 7e39 03be c5e7 dcbd 6b94 9ebd 79f0 593d
00000250: 122e d0bd 84c8 13be 1be3 aebb 56a1 35bd
00000260: 173d 17be 2f5c c33d 2422 22be 2d46 c9bc
00000270: 51a7 c73c 4e59 03be 7eb2 b3bd 01a9 073e
00000280: 8767 233e d1f5 49bd 43a4 01be 2501 803d
00000290: 997a d5bd 308f 943d d4e0 233e bf6a e5bd
000002a0: e3fc fbbd f5f9 bf3d 32ab 81bc 4ddd c2bd
000002b0: e5e7 debd 9a14 dabd 89da b43b 8a8c c1ba
000002c0: f784 8e3d 827a 103e 9529 d23d c76c be3c
000002d0: aa28 b73d 415c 163d cc25 12be 37e4 f23d
000002e0: b6e2 953d 9ba7 0fbd 0077 95bd c646 bdbb
000002f0: bb9d 8b3b 8526 f340 38a9 8c3e 9443 173e
00000300: 988c 1e3e e60d 113c 7eb3 573e 94a5 713e
00000310: ef1f 3dbe d1ac 763a 1497 ec3c 8df5 b03d
00000320: fb70 39bf 86c2 d8bd 9e30 303f 863d 63bc
00000330: 91f2 c6bd 09e3 50bd e32a 61bd 59c5 3c3f
00000340: f81d 853f 6220 9f3e 9ba7 93bc 6861 9ebc
00000350: fbd5 933e ddcc 723e fb9e 003d a521 40be
00000360: 6092 3a3d 92b6 b13d 087b 78be 5286 08bd
00000370: 40cd 3dbe e472 dcbd ea62 f93d c7bc 9c3e
00000380: 2a4a 96bd 15aa 483c 3b4b cac0 264c 3a3d
00000390: ae8d b43d 1342 09be a18d 49bd ee8d f33d
000003a0: 6c31 813e 440d 1abe 1eb8 6e3d d67f 003e
000003b0: f0ce 05be 9900 343f 430a 95be d844 ffbe
000003c0: cc71 cb3d 4e7c a23e 55bc 443e ac9d f13d
000003d0: 4f8b 18bf 7757 61bf f059 3bbe e2db f6bd
000003e0: 667d a4bd d92a 1f3e e7cd a43d f720 1d3d
000003f0: 1156 e53d b7be 4b3d 5501 d13c f761 bc3c

user_tower.feedforward.0.bias f4 [64]
0.104814984 -0.002589305 -0.016102007 0.15505269 -0.1349601 -1.0761589 0.86202115 0.9458327
0.27576274 0.053698774 0.018842544 -0.14070344 0.36655256 0.06465465 -0.3431018 -0.38820606
0.29005736 0.9921081 -0.01981556 -0.814748 0.29679507 -0.37307683 -1.2743102 0.7575271
-0.18890731 0.14867212 0.08234478 -1.0509288 -1.0108492 0.27732015 0.012472193 0.16886896
0.4660165 0.3914356 0.0049702367 0.13102154 -0.46469864 -0.040328097 0.5112891 0.2479179
0.93255883 0.19914794 -0.038759883 -0.07062904 0.13125719 -0.16022138 -0.63071513 -0.064843036
-0.08028035 0.1260359 0.12644003 0.037892856 -0.087168016 0.07785955 0.022116136 0.03518127
0.111648805 0.44908756 0.047179207 -1.2251111 0.012076997 -0.7116594 -1.0005642 -1.0232911
00000000: 3da9 d63d 54b1 29bb 5be8 83bc 22c6 1e3e
00000010: fb32 0abe 93bf 89bf 6bad 5c3f 1822 723f
00000020: c630 8d3e 3ff3 5b3d ae5b 9a3c 9014 10be
00000030: c7ac bb3e a869 843d 0aab afbe f2c2 c6be
00000040: 6682 943e ccfa 7d3f 3e54 a2bc 5393 50bf
00000050: 86f5 973e ed03 bfbe 991c a3bf 4ced 413f
00000060: eb70 41be 813d 183e 61a4 a83d d684 86bf
00000070: 8263 81bf e8fc 8d3e 2b58 4c3c fceb 2c3e
00000080: b799 ee3e 3f6a c83e 5edd a23b 832a 063e
00000090: fbec edbe 132f 25bd d8e3 023f 31de 7d3e
000000a0: 2dbc 6e3f 70ed 4b3e afc2 1ebd f5a5 90bd
000000b0: 4968 063e 1311 24be 8c76 21bf 6dcc 84bd
000000c0: 066a a4bd 8e0f 013e 7f79 013e 8a35 1b3d
000000d0: 2585 b2bd d474 9f3d e62c b53c 3c1a 103d
000000e0: 21a8 e43d ceee e53e fc3e 413d 71d0 9cbf
000000f0: 99de 453c 4f2f 36bf 7d12 80bf 34fb 82bf

user_tower.feedforward.2.weight f4 [32, 64]
0.058438808 -0.041787818 -0.09795335 0.10998437 -0.00026720762 -0.23542868 0.012842756 0.18886235
0.007185766 0.05393228 0.05954376 -0.20905215 -0.11484163 -0.03563511 0.29354432 0.06566196
-0.09062901 -0.018874265 -0.069554135 -0.20254396 0.08058472 -0.02331914 -0.5676029 0.10006663
0.112481534 0.12175216 -0.51389885 -0.5470713 -0.35272837 0.013032612 0.023682296 0.037898224
-0.19068517 -0.06613496 0.037881363 0.030085653 -0.036298465 0.065891705 0.23773667 -0.0616979
0.0914651 -0.13146053 0.106043786 0.08315478 -0.07325569 -0.03284648 0.295981 0.13044351
0.07267915 0.009144545 -0.1033804 -0.017871108 0.112352304 -0.098780036 -0.019723833 -0.060946986
0.117801964 -1.2369444 0.11254485 -0.4864493 0.050643638 0.046831243 -0.07584394 -0.27032462
-0.05118136 0.06805304 0.039814487 -0.034222186 -0.09713821 -0.077462986 -0.16404597 -0.10839588
-0.09716069 0.10738212 -0.04888065 -0.119771525 -0.016302593 0.09187364 -0.096350886 -0.05087791
-0.04941277 -0.048350822 -0.057051376 -0.0039246203 -0.084723726 0.00016537124 0.0036794837 -0.18571931
-0.04327412 0.005648926 -0.07615726 0.0042761695 -0.11315919 -0.01383725 -0.07202186 0.047104716
-0.10398847 -0.060135283 -0.122751996 -0.04102443 0.015467625 0.018935017 0.09591244 -0.03993228
-0.040350962 -0.15127441 -0.07906793 -0.08311908 -0.04794924 0.10399927 0.026270779 -0.1495133
-0.10986504 -0.10721181 -0.028383762 -0.0015720245 0.10526651 0.00067026913 0.056528434 0.037949905
-0.07392554 -0.16540548 -0.09212935 -0.18457101 0.011977375 0.015334967 0.065851174 -0.042319603
-0.030980095 -0.074466534 0.0862847 0.032032594 0.04378417 0.17556757 0.1232615 0.18500131
0.084921196 -0.039654747 -0.124171644 -0.03772576 -0.24297959 0.033615712 -0.056166764 -0.1843926
-0.020321395 -0.030659458 -0.015039548 -0.10146615 -0.013680533 -0.2123119 0.05102022 0.24384944
-0.07502786 -0.28632715 -0.1278343 -0.16509074 -0.017059498 0.14659414 0.06449278 0.004924967
-0.07814185 0.20651712 -0.059119686 -0.11145501 -0.509592 0.00014768731 0.1446614 0.9029449
0.21749616 -0.010080849 -0.10010287 0.027778596 -0.1160478 0.01701276 0.12901811 -0.02108238
0.0972541 0.059749156 0.041753247 -0.060068592 0.1312919 -0.069901675 -0.12073091 0.041485325
-0.060317323 -0.039573822 0.009450257 0.13420434 -0.0092360275 -0.60384196 -0.39724126 -0.05128587
0.11136329 0.014103077 0.08727865 -0.099652335 0.112274215 -0.14546207 -0.17096038 -0.00046072807
-0.1722922 -0.11089054 0.023250192 -0.119677275 -0.12984674 0.043969512 0.004130075 -0.07231127
-0.0351964 -0.06986293 -0.12061149 -0.11550514 -0.017048476 0.015982822 -0.023448715 -0.10415066
-0.12015715 -0.09484291 -0.12882268 -0.124831304 -0.04511583 -0.09130579 -0.05949703 -0.027000876
0.009839423 -0.09195631 -0.0012553759 -0.08251761 -0.10971217 0.06234047 0.008423664 0.10690451
0.011243834 -0.030710114 -0.07789402 0.0518101 -0.08756168 0.098413914 -0.06333479 0.018671645
-0.056529686 -0.06900242 0.032411233 -0.017646069 -0.047145247 0.1199943 0.018426806 -0.009851271
0.075683504 0.07780414 0.0013715476 -0.178412 -0.06540875 0.024400061 -0.14241013 -0.1567976
00000000: 885d 6f3d b429 2bbd c49b c8bd 7c3f e13d
00000010: 0018 8cb9 3714 71be 6c6a 523c 2265 413e
00000020: 9376 eb3b 18e8 5c3d 28e4 733d c411 56be
00000030: 1732 ebbd 1ff6 11bd 714b 963e c779 863d
00000040: b49b b9bd 349e 9abc 6672 8ebd af67 4fbe
00000050: 9a09 a53d c807 bfbc 6c4e 11bf bcef cc3d
00000060: b85c e63d 3259 f93d e08e 03bf dd0c 0cbf
00000070: d098 b4be bd86 553c 6001 c23c 2b3b 1b3d
00000080: f942 43be c471 87bd 7d29 1b3d 3076 f63c
00000090: b3ad 14bd 3bf2 863d 3e71 733e f0b6 7cbd
000000a0: 0e52 bb3d 979d 06be 7c2d d93d 0e4d aa3d
000000b0: 1407 96bd 088a 06bd d28a 973e fc92 053e
000000c0: ced8 943d 00d3 153c 1ab9 d3bd 6e66 92bc
000000d0: f718 e63d 304d cabd e093 a1bc 8ca3 79bd
000000e0: 2842 f13d 3254 9ebf ea7d e63d e20f f9be
000000f0: b46f 4f3d 1ed2 3f3d 1154 9bbd fd67 8abe
00000100: 8ca3 51bd 645f 8b3d 8414 233d 902c 0cbd
00000110: 66f0 c6bd eaa4 9ebd abfb 27be a9fe ddbd
00000120: 2ffc c6bd 28eb db3d 1437 48bd c64a f5bd
00000130: 048d 85bc 3f28 bc3d 9d53 c5bd 5b65 50bd
00000140: 0b65 4abd 830b 46bd b4ae 69bd 1a9a 80bb
00000150: a283 adbd 8167 2d39 7e23 713b 342d 3ebe
00000160: 3440 31bd a01a b93b 56f8 9bbd 1c1f 8c3b
00000170: 01c0 e7bd a2b5 62bc 3280 93bd e0f0 403d
00000180: e8f7 d4bd 6a50 76bd 6665 fbbd 3c09 28bd
00000190: ec6b 7d3c 9c1d 9b3c be6d c43d 0890 23bd
000001a0: 0d47 25bd aee7 1abe 5eee a1bd 563a aabd
000001b0: 6c66 44bd 92fd d43d d135 d73c 041a 19be
000001c0: ec00 e1bd de91 dbbd 1085 e8bc 640c ceba
000001d0: f895 d73d 00b5 2f3a 5c8a 673d 5c71 1b3d
000001e0: 4666 97bd 0e60 29be 50ae bcbd 2f00 3dbe
000001f0: c03c 443c 833f 7b3c fbdc 863d 5257 2dbd
00000200: f8c9 fdbc e981 98bd 08b6 b03d 9c34 033d
00000210: 0857 333d fcc7 333e 8670 fc3d fc70 3d3e
00000220: 2aeb ad3d 046d 22bd b44d febd 5486 1abd
00000230: a4cf 78be a1b0 093d 1f0f 66bd 6ad1 3cbe
00000240: 0e79 a6bc 8b29 fbbc 7068 76bc 7ccd cfbd
00000250: 5024 60bc 4a68 59be 94fa 503d abb3 793e
00000260: 35a8 99bd 7999 92be ffe6 02be 8c0d 29be
00000270: 5cc0 8bbc c61c 163e ca14 843d 9e61 a13b
00000280: d608 a0bd 3979 533e 7c27 72bd 8642 e4bd
00000290: 9f74 02bf 83dc 1a39 1e22 143e 6627 673f
000002a0: 50b7 5e3e 252a 25bc bc02 cdbd f08f e33c
000002b0: 78aa edbd 585e 8b3c 531d 043e f5b4 acbc
000002c0: 282d c73d 88bb 743d 7405 2b3d 7c0a 76bd
000002d0: 6271 063e 9c28 8fbd c441 f7bd 84ec 293d
000002e0: 4c0f 77bd 2918 22bd 40d5 1a3c dd6c 093e
000002f0: b552 17bc 6395 1abf 3563 cbbe 2211 52bd
00000300: 7012 e43d 9810 673c 26bf b23d 8616 ccbd
00000310: 06f0 e53d 02f4 14be 3d10 2fbe e08d f1b9
00000320: 5e6d 30be 941a e3bd 3077 be3c 5c19 f5bd
00000330: 8bf6 04be 6019 343d 9555 873b ee17 94bd
00000340: 1a2a 10bd 4c14 8fbd 2803 f7bd f58d ecbd
00000350: 3fa9 8bbc 68ee 823c 8517 c0bc f14c d5bd
00000360: f414 f6bd 003d c2bd 18ea 03be 8ea7 ffbd
00000370: 60cb 38bd 88fe babd 28b3 73bd f130 ddbc
00000380: 8835 213c 9753 bcbd 6d8b a4ba fefe a8bd
00000390: c6b0 e0bd b858 7f3d 6803 0a3c c0f0 da3d
000003a0: 0f38 383c c793 fbbc e686 9fbd d436 543d
000003b0: 8a53 b3bd 3c8d c93d acb5 81bd 47f5 983c
000003c0: ac8b 67bd 2451 8dbd a4c1 043d 7d8e 90bc
000003d0: 601b 41bd 92bf f53d d0f3 963c 3a67 21bc
000003e0: f4ff 9a3d c757 9f3d 80c5 b33a a3b1 36be
000003f0: 06f5 85bd a3e2 c73c f6d3 11be 8d8f 20be

user_tower.feedforward.2.bias f4 [32]
0.2017953 -0.09404627 0.51008946 -0.03140081 0.5841584 -0.13328932 0.15181355 -0.05418139
1.0570219 -0.13849568 -0.8827669 -0.5797988 -0.09691822 0.17676218 -0.7858365 -0.13737442
0.2463362 -0.13475506 0.049909614 0.24171607 0.47092295 0.04899787 -0.30765522 0.04268667
-0.11327378 -0.91060835 -0.053554446 0.13806002 -0.38609895 0.3556331 -0.7719026 -0.20847481
00000000: 6da3 4e3e 559b c0bd 3995 023f 239e 00bd
00000010: 688b 153f ff7c 08be 0375 1b3e 4eed 5dbd
00000020: 7e4c 873f d0d1 0dbe 03fd 61bf b26d 14bf
00000030: 0f7d c6bd 2501 353e 952c 49bf e1ab 0cbe
00000040: 8f3f 7c3e 3bfd 09be 066e 4c3d 6b84 773e
00000050: d01c f13e feb1 483d fc84 9dbe 38d8 2e3d
00000060: 15fc e7bd a11d 69bf e85b 5bbd 9b5f 0d3e
00000070: c3ae c5be 8b15 b63e 699b 45bf 6c7a 55be

user_tower.feedforward.4.weight f4 [32, 32]
-0.039186895 -0.10517802 -0.18965638 -0.018895462 -0.012868317 -0.039823882 -0.24786595 0.20710273
0.12893724 0.049279325 -0.052565042 0.018410955 0.0694168 -0.36266795 0.09850492 0.13495703
0.2390143 -0.0026645109 0.0005296672 -0.103396885 -0.03627013 0.15126884 0.43927744 -0.12935027
-0.041190483 0.020926101 -0.08384751 -0.26987675 0.15241992 0.073610194 -0.027635552 0.110485986
-0.1249499 -0.095358275 -0.25412202 0.06305957 -0.032868885 0.07075271 -0.39637136 0.36530334
-0.26408216 0.22980542 -0.17033334 0.42537978 0.04672476 -0.50507486 -0.15826863 -0.026194328
0.2901659 -0.080586575 0.06929772 -0.2532762 0.35162055 0.4207704 0.37568292 0.0070815114
-0.14135239 0.11132813 0.076861374 -1.1831961 0.35404193 0.3819287 0.17557968 0.018037623
0.3450608 -0.033091597 0.08033237 0.057288717 -0.2785611 0.13747911 -0.1759909 0.5002828
0.15107945 -0.35218027 -0.25809327 0.10608475 -0.06513157 0.6135797 0.08693435 -0.086435586
0.11947092 -0.09921109 -0.06417779 0.22603951 -0.2025235 -0.45839897 0.7880686 -0.15175147
0.016376972 -0.050649244 0.15450813 0.8850134 -0.25542372 0.088241704 -0.22474262 0.20888464
-0.08456488 0.10588596 0.17743956 -0.021988444 0.25116035 0.117022 0.17895657 0.32526228
-0.10309886 -0.17288421 0.0448065 0.06242909 -0.13755623 -0.017382892 -0.01359491 -0.06766592
-0.3523811 0.09391289 -0.13830909 -0.109994985 -0.20411289 -0.6893865 0.031323683 -0.030887283
0.108466215 -0.07767777 -0.050555434 -0.033455405 -0.2811471 -0.3488381 0.004060954 0.11053311
-0.11381639 -0.0634818 -0.34422475 -0.07696904 -0.17971036 -0.083757676 -0.47448057 0.22310434
0.15454052 0.22658497 0.23312631 0.13631776 0.03263968 0.5482645 -0.2662645 0.037919734
0.4433783 0.15759371 0.15123194 -0.07694662 0.138336 -0.007092891 0.8815059 -0.13547906
-0.079105735 0.112348735 0.12674905 -0.002102301 -0.09204029 -0.079621516 0.20374992 -0.3555666
0.15276228 0.1623866 -0.31455037 -0.07530798 -0.22274175 0.026916353 -0.330915 0.26481152
0.03053484 -0.0054680095 -0.12364717 0.21248996 -0.075314105 0.45528978 -0.072804876 0.039015308
0.352406 0.1768244 -0.00054530083 0.12966184 0.14999624 -0.17772491 0.5670162 0.10745493
-0.14213501 0.051678777 -0.09830138 0.40568247 0.027131591 -0.12390719 0.10327014 -0.09377964
-0.34905574 0.19086745 0.001775036 -0.031467766 0.20906138 0.1070501 0.019428048 -0.33586374
0.27835688 0.26269457 0.12410456 -0.34703562 0.06472957 -0.566575 -0.12090603 0.19000703
-0.51692283 -0.054791816 0.14071769 0.025399765 -0.004438242 -0.25298092 -0.5979865 -0.0591706
0.10544588 -0.086977996 0.05733519 -0.2713984 -0.01927445 -0.031125883 -0.107407704 -0.07935309
-0.060833603 0.2011647 0.054679375 0.15336467 0.12492193 -0.09356192 -0.7558622 -0.15898329
-0.115303874 0.17496878 -0.0020917214 -0.058931816 -0.005308664 -0.33084214 0.041829366 0.0018846523
-0.47108242 -0.051918358 -0.20135763 -0.16246478 0.12538752 0.732229 -0.3111076 0.16477665
-0.14788409 -0.097861044 0.11458142 -0.25574222 0.30290276 -0.034317408 0.23442613 0.10201738
00000000: 7082 20bd 9367 d7bd 4835 42be a8ca 9abc
00000010: a2d5 52bc 5e1e 23bd 92d0 7dbe bd12 543e
00000020: 2008 043e 1ed9 493d 714e 57bd 92d2 963c
00000030: 652a 8e3d 9daf b9be f3bc c93d 2d32 0a3e
00000040: 2ac0 743e 139f 2ebb 5dd9 0a3a bfc1 d3bd
00000050: fd8f 14bd 38e6 1a3e f9e8 e03e 6674 04be
00000060: 5ab7 28bd 376d ab3c 3eb8 abbd 492d 8abe
00000070: f813 1c3e f1c0 963d f463 e2bc 7a46 e23d
00000080: bce5 ffbd 334b c3bd 481c 82be 6025 813d
00000090: 86a1 06bd cce6 903d 30f1 cabe 0a09 bb3e
000000a0: c735 87be 1d52 6b3e dd6b 2ebe 61cb d93e
000000b0: 7662 3f3d 964c 01bf 2c11 22be 7d95 d6bc
000000c0: a090 943e 930a a5bd f7eb 8d3d 6bad 81be
000000d0: 9c07 b43e 386f d73e 8359 c03e 060c e83b
000000e0: aebe 10be 0100 e43d 7f69 9d3d f872 97bf
000000f0: fc44 b53e 298c c33e 29cb 333e a3c3 933c
00000100: cfab b03e 0e8b 07bd 4c85 a43d 93a7 6a3d
00000110: 8f9f 8ebe 53c7 0c3e f536 34be 8912 003f
00000120: 92b4 1a3e f950 b4be cd24 84be f642 d93d
00000130: b363 85bd 8f13 1d3f a30a b23d 2405 b1bd
00000140: 2bad f43d 2f2f cbbd a56f 83bd e776 673e
00000150: 5262 4fbe 45b3 eabe ddbe 493f bd64 1bbe
00000160: 0029 863c 9575 4fbd 6137 1e3e 3d90 623f
00000170: e6c6 82be 11b8 b43d ee22 66be dbe5 553e
00000180: 5a30 adbd bdda d83d b7b2 353e 1c21 b4bc
00000190: 1798 803e 3ba9 ef3d 6440 373e c788 a63e
000001a0: 7f25 d3bd 8f08 31be 0587 373d a5b5 7f3d
000001b0: 8adb 0cbe 9166 8ebc 2fbd 5ebc 6e94 8abd
000001c0: 4c6b b4be 6755 c03d e6a0 0dbe 0d45 e1bd
000001d0: f802 51be a27b 30bf 434d 003d 5407 fdbc
000001e0: 8923 de3d 8615 9fbd 3713 4fbd 8908 09bd
000001f0: 83f2 8fbe e89a b2be c011 853b 2f5f e23d
00000200: 9118 e9bd bf02 82bd 3a3e b0be f2a1 9dbd
00000210: fe05 38be 2589 abbd 1eef f2be 7775 643e
00000220: df3f 1e3e e405 683e aab8 6e3e e296 0b3e
00000230: 2fb1 053d 105b 0c3f d253 88be b951 1b3d
00000240: 7b02 e33e 3f60 213e 8cdc 1a3e 3196 9dbd
00000250: f4a7 0d3e 7b6b e8bb 5faa 613f 06bb 0abe
00000260: 3002 a2bd 1817 e63d 81ca 013e c2c6 09bb
00000270: 9f7f bcbd 9b10 a3bd d2a3 503e d30c b6be
00000280: b76d 1c3e ac48 263e bf0c a1be 123b 9abd
00000290: 6a16 64be af7f dc3c b16d a9be 6095 873e
000002a0: 3324 fa3c fd2c b3bb ba3a fdbd f896 593e
000002b0: 483e 9abd be1b e93e b91a 95bd 84ce 1f3d
000002c0: 8f6e b43e 7511 353e 85f2 0eba 13c6 043e
000002d0: 9d98 193e 85fd 35be f927 113f 5511 dc3d
000002e0: d78b 11be 20ad 533d 3c52 c9bd 9db5 cf3e
000002f0: 1243 de3c 0ec3 fdbd 4c7f d33d 8a0f c0bd
00000300: 6fb7 b2be c272 433e 53a8 e83a 58e4 00bd
00000310: 3014 563e 153d db3d 9227 9f3c 55f6 abbe
00000320: cb84 8e3e e77f 863e 882a fe3d a7ae b1be
00000330: f090 843d 0f0b 11bf 959d f7bd 3491 423e
00000340: 0e55 04bf 626d 60bd 4c18 103e 2b13 d03c
00000350: ac6e 91bb b786 81be a515 19bf df5c 72bd
00000360: 02f4 d73d 8521 b2bd 4ed8 6a3d bbf4 8abe
00000370: 74e5 9dbc b5fb febc 92f8 dbbd df83 a2bd
00000380: a82c 79bd 1efe 4d3e 7bf7 5f3d a10b 1d3e
00000390: 12d7 ff3d 649d bfbd 2f80 41bf 84cc 22be
000003a0: 7024 ecbd 042b 333e 4315 09bb 7d62 71bd
000003b0: 4df4 adbb 2464 a9be 4555 2b3d 7006 f73a
000003c0: b731 f1be 58a8 54bd b230 4ebe 2b5d 26be
000003d0: 9665 003e 5c73 3b3f 7f49 9fbe 36bb 283e
000003e0: ed6e 17be 5f6b c8bd aaa9 ea3d a5f0 82be
000003f0: 1216 9b3e 6990 0cbd 670d 703e 7dee d03d

user_tower.feedforward.4.bias f4 [32]
-0.02057465 0.36562422 -0.14525795 -0.43811795 0.19788404 0.16405848 -0.372626 -0.5464965
0.6528581 -0.37019545 -0.952664 0.14254104 0.53387195 -0.8456169 -0.31794065 -0.54402477
-0.36879954 0.72581714 1.0838115 0.169146 -0.4203985 2.204989 -0.2562993 -0.14999521
0.39448866 -0.9423701 -0.28124008 -0.16885471 -0.7777084 -0.22717321 0.48802185 -0.36168027
00000000: 2b8c a8bc 1933 bb3e 80be 14be ff50 e0be
00000010: 1da2 4a3e f2fe 273e d6c8 bebe 32e7 0bbf
00000020: b521 273f 428a bdbe cae1 73bf 47f6 113e
00000030: d5ab 083f 597a 58bf 1ec9 a2be 3545 0bbf
00000040: 4bd3 bcbe 27cf 393f 56ba 8a3f 9c34 2d3e
00000050: 793e d7be 8a1e 0d40 a939 83be 5898 19be
00000060: 6bfa c93e 2b3f 71bf b3fe 8fbe 40e8 2cbe
00000070: e617 47bf 18a0 68be 00de f93e 282e b9be

item_tower.feedforward.0.weight f4 [64, 160]
0.11980706 0.11288499 -0.18425317 0.014585015 0.20140098 0.14985685 0.22664525 0.21155122
-0.23162349 -0.56504583 -0.3396627 -0.058896367 0.0036262197 0.13789886 -0.2544248 -0.42382222
0.13409947 0.0754185 -0.1822149 -0.28951445 0.56730914 -0.5435729 0.10342326 -0.041314434
-0.017305393 0.08069606 -0.32032287 0.14689553 -0.17951982 -0.44907576 -0.6781934 -0.1458642
0.40894976 -0.42934045 -0.6370873 0.050204873 0.27972385 -0.035473496 -0.07548738 0.24154782
0.0055739707 0.040392585 0.22101367 -0.45196664 -0.23960494 0.48630276 -0.43285003 0.0069733737
-0.45906943 -0.38160074 0.047456175 -0.34485456 -0.19259721 -0.19360977 -0.19948226 0.3172607
-0.15251546 -0.13580638 -0.09290289 0.28132096 0.12702619 -0.049781967 -0.08615995 -0.3397856
-0.09918481 0.053923648 -0.50056547 0.08113982 -0.042639945 0.15448618 -0.43516544 0.09651843
0.33277833 0.2704495 0.009103203 -0.34519732 0.37977612 0.28268233 -0.05037613 0.46939388
-0.13767341 -0.16556151 -0.5200894 0.257634 -0.18495513 -0.5986665 0.07849201 0.12560375
0.54337424 -0.22713462 -0.22679594 -0.031764444 -0.3785486 0.3237465 0.07303542 -0.08569175
0.14744088 -0.116668925 0.29263687 0.020232156 0.36060968 -0.029459495 -0.4631022 0.29753855
-0.28736463 -0.23632671 -0.13546166 0.264848 -0.24044129 0.31985876 -0.02954425 0.19481882
-0.12790288 -0.20004417 0.15441841 -0.37001476 -0.26696825 -0.3346993 -0.74000555 0.062106494
-0.1139813 0.03872388 -0.16003811 0.46243528 -0.30056778 0.23075677 0.22152616 -0.5331962
-0.05371393 -0.07356224 0.034368154 0.19147961 -0.04518438 -0.12485905 0.06634525 -0.19297391
-0.0905258 0.08509951 0.03549645 0.00778099 0.1883171 -0.041234687 -0.116668105 -0.0692843
-0.020185014 0.23172389 0.07940579 0.10797956 0.051809557 -0.114165306 0.009296554 -0.065075055
0.08806076 -0.034578796 -0.040338855 0.024951259 0.032746285 0.043401167 0.06141108 -0.11890918
0.20814958 -0.1101805 -0.34251744 0.07045713 -0.116346404 -0.23670559 0.24962792 0.40298736
0.0017724403 0.19271232 -0.36137983 -0.0018458293 0.11907508 0.35338408 0.1005484 0.12241515
-0.20030089 -0.39954466 -0.10931168 -0.13730514 0.062489253 -0.46168888 0.015974106 0.15437865
0.6318524 -0.17757624 0.043244682 -0.117919944 0.49745923 -0.12520804 0.108868934 0.09255778
-0.14412266 0.34672487 -0.17567292 -0.09823826 -0.48597422 0.036580097 -0.41766134 -0.3667027
0.19749351 -0.08904321 0.18554345 0.04560153 -0.2710543 -0.31689987 0.5165324 -0.098654546
0.025372768 -0.46293744 -0.48142406 -0.004498494 -0.2894346 -0.3932534 -0.12069909 -0.13482414
0.08731242 0.12687854 -0.12436491 -0.1607678 0.22221103 -0.26416928 -0.020005193 -0.33445573
0.06300133 -0.14050315 -0.648501 -0.068316676 -0.23917793 0.047370017 0.42094216 0.18231793
0.60453564 -0.12764302 0.13318974 0.20736657 0.23310708 -0.2395233 -0.017943615 0.31257892
-0.10935265 0.008182492 0.07629277 -0.32937837 0.10894695 0.21655293 -0.41732788 -0.19267406
-0.06693929 0.08447193 -0.17675215 0.25400198 0.032024216 -0.15057589 -0.13978197 0.1554287
00000000: 675d f53d 3f30 e73d ddac 3cbe fdf5 6e3c
00000010: 0f3c 4e3e 1374 193e b115 683e e2a0 583e
00000020: b52e 6dbe d8a6 10bf 45e8 adbe 513d 71bd
00000030: dfa5 6d3b 5c35 0d3e f843 82be 3aff d8be
00000040: 5f51 093e 0475 9a3d 8b96 3abe 3d3b 94be
00000050: 2c3b 113f 9827 0bbf 93cf d33d 5339 29bd
00000060: 0ac4 8dbc fa43 a53d 5c01 a4be c86b 163e
00000070: 0bd4 37be 42ed e5be 159e 2dbf 6d5d 15be
00000080: dd61 d13e 83d2 dbbe 2718 23bf a0a3 4d3d
00000090: f737 8f3e a84c 11bd 2199 9abd 5058 773e
000000a0: dba5 b63b b272 253d 6851 623e 2c68 e7be
000000b0: ff5a 75be adfc f83e 859e ddbe e680 e43b
000000c0: 260b ebbe 2c61 c3be 6861 423d c790 b0be
000000d0: 3438 45be a441 46be 1445 4cbe ff6f a23e
000000e0: 032d 1cbe d410 0bbe df43 bebd 4d09 903e
000000f0: 2713 023e 2de8 4bbd a174 b0bd 61f8 adbe
00000100: 6821 cbbd 0bdf 5c3d 0f25 00bf a22c a63d
00000110: 39a7 2ebd a031 1e3e 01ce debe 74ab c53d
00000120: ec61 aa3e 5b78 8a3e 9a25 153c b4bd b0be
00000130: 0472 c23e bdbb 903e 3357 4ebd 6554 f03e
00000140: 42fa 0cbe f588 29be 9424 05bf 9be8 833e
00000150: e164 3dbe 3542 19bf 6bc0 a03d 459e 003e
00000160: 931a 0b3f fa95 68be 323d 68be 6f1b 02bd
00000170: 1fd1 c1be 1ac2 a53e 9893 953d 287f afbd
00000180: befa 163e 1ef0 eebd 80d4 953e e8bd a53c
00000190: d5a1 b83e 0a55 f1bc bb1b edbe f956 983e
000001a0: 7521 93be a1ff 71be 76b6 0abe 289a 873e
000001b0: 3e36 76be 87c4 a33e c806 f2bc 967e 473e
000001c0: f9f8 02be 61d8 4cbe dc1f 1e3e 9372 bdbe
000001d0: 10b0 88be b55d abbe 0171 3dbf 6163 7e3d
000001e0: 076f e9bd ee9c 1e3d 08e1 23be 51c4 ec3e
000001f0: 05e4 99be 814b 6c3e c1d7 623e 8c7f 08bf
00000200: 2303 5cbd cda7 96bd 9fc5 0c3d 3b13 443e
00000210: 4213 39bd 1ab6 ffbd 05e0 873d f49a 45be
00000220: 9765 b9bd a748 ae3d ba64 113d adf7 fe3b
00000230: 33d6 403e b4e5 28bd b0ef eebd ede4 8dbd
00000240: 0b5b a5bc 0749 6d3e 819f a23d 6324 dd3d
00000250: 4236 543d 80cf e9bd 9350 183c 1246 85bd
00000260: 3359 b43d 7fa2 0dbd 5b3a 25bd 9566 cc3c
00000270: f820 063d 6cc5 313d 2f8a 7b3d a886 f3bd
00000280: 2a25 553e 50a6 e1bd 725e afbe d44b 903d
00000290: 0647 eebd f362 72be 769e 7f3e 5c54 ce3e
000002a0: 3a51 e83a 6156 453e c706 b9be c1ef f1ba
000002b0: a3dd f33d c2ee b43e 52ec cd3d cbb4 fa3d
000002c0: ad1b 4dbe 1e91 ccbe cdde dfbd b899 0cbe
000002d0: bbf4 7f3d 7c62 ecbe 21dc 823c 7015 1e3e
000002e0: 14c1 213f 8cd6 35be 5621 313d 0380 f1bd
000002f0: fab2 fe3e 8936 00be adf6 de3d ef8e bd3d
00000300: e494 13be ec85 b13e 9ae3 33be 2431 c9bd
00000310: 9dd1 f8be 03d5 153d b5d7 d5be 75c0 bbbe
00000320: bd3b 4a3e 495c b6bd 1aff 3d3e abc8 3a3d
00000330: a1c7 8abe b340 a2be 783b 043f 650b cabd
00000340: 8dda cf3c 2306 edbe 377d f6be 1a68 93bb
00000350: c630 94be 8258 c9be 1631 f7bd 570f 0abe
00000360: dbd0 b23d 73ec 013e 08b3 febd 50a0 24be
00000370: 4a8b 633e 3241 87be eee1 a3bc c83d abbe
00000380: d706 813d 0fe0 0fbe 2904 26bf 9de9 8bbd
00000390: 0feb 74be 1007 423d bb85 d73e 8db1 3a3e
000003a0: d9c2 1a3f dab4 02be e462 083e e757 543e
000003b0: 9fb3 6e3e 9945 75be 7dfe 92bc 580a a03e
000003c0: 48f4 dfbd dc0f 063c 623f 9c3d 48a4 a8be
000003d0: 941f df3d 0dc0 5d3e 00ac d5be 594c 45be
000003e0: 7717 89bd 9fff ac3d 84fe 34be 8c0c 823e
000003f0: d32b 033d 9130 1abe 0123 0fbe b328 1f3e

item_tower.feedforward.0.bias f4 [64]
-0.06495645 -0.08758355 -0.07416007 0.09848262 -0.1290811 0.09129835 -0.00586788 -0.06212559
-0.068385005 -0.12404941 -0.07191044 -0.1535166 -0.044212207 -0.13848811 -0.06702425 -0.03285999
-0.040261872 -0.041908965 0.061736047 -0.05495523 -0.04771417 -0.070408694 -0.06728126 -0.03128723
-0.08475569 -0.2187467 -0.14246741 0.040749826 -0.04423981 -0.06532604 0.072589315 -0.11036114
0.0019433905 -0.08724724 -0.14857483 -0.08987678 -0.08049623 -0.13565326 -0.12632374 -0.06982921
-0.07954 -0.3344319 -0.040177215 -0.07746681 -0.12083856 -0.039320026 -0.015477452 0.022851875
-0.052731108 -0.0248524 -0.13176325 0.033740483 -0.14178735 -0.049605638 0.11967088 -0.050831508
-0.14150114 0.10608779 -0.045726113 -0.14299649 -0.04586863 -0.13236316 -0.058962878 -0.05337166
00000000: e307 85bd 015f b3bd 3ce1 97bd 42b1 c93d
00000010: d62d 04be a1fa ba3d 5847 c0bb 6777 7ebd
00000020: 700d 8cbd 9e0d febd c845 93bd 7533 1dbe
00000030: dc17 35bd d4cf 0dbe 0344 89bd 3298 06bd
00000040: a2e9 24bd bca8 2bbd f0de 7c3d bc18 61bd
00000050: ef6f 43bd 6f32 90bd c2ca 89bd 0a27 00bd
00000060: 6494 adbd 23ff 5fbe fae2 11be 4ae9 263d
00000070: ce34 35bd a9c9 85bd b5a9 943d 0505 e2bd
00000080: 5db9 fe3a aeae b2bd 0024 18be 5111 b8bd
00000090: 35db a4bd b0e8 0abe 035b 01be 9e02 8fbd
000000a0: dee5 a2bd a83a abbe dd90 24bd eba6 9ebd
000000b0: 357a f7bd 090e 21bd 2495 7dbc db33 bb3c
000000c0: 93fc 57bd 4397 cbbc f2ec 06be 7633 0a3d
000000d0: b430 11be 482f 4bbd 0216 f53d b334 50bd
000000e0: ade5 10be 8e44 d93d 4e4b 3bbd ac6d 12be
000000f0: bfe0 3bbd 358a 07be 0f83 71bd 3e9c 5abd

item_tower.feedforward.2.weight f4 [32, 64]
-0.11074579 -0.7176585 -0.105681345 -0.035873387 0.0019975943 0.27471563 -0.09301723 -0.4207279
0.20341922 -0.03883139 -0.1258749 0.60818034 0.042819362 -0.11084897 0.056854587 -0.19792257
-0.13230774 -0.39918745 0.057536934 0.6945852 -0.0960525 0.07525272 -0.07511703 0.07732061
0.4160724 0.0923049 0.08415751 0.2841304 -0.07222012 -0.07223298 0.54609305 0.049629886
-0.08403492 0.06713111 0.038161587 -0.0037744998 0.015096352 -0.31587106 -0.009061855 -0.2789557
0.05733002 -0.2277851 -0.09125604 -0.1173853 -0.996386 -0.035253882 0.15137403 0.30183864
-0.093515165 -0.31475875 0.09855611 -0.37386453 0.23609382 0.25714403 -0.13275434 -0.32735363
0.25816795 0.3379871 0.13575372 -0.045587443 0.09390392 -0.3298238 -0.047119796 -0.14150485
-0.41563565 0.3987445 -0.82078195 -0.5256762 -0.07656494 -0.041960306 -0.11235185 -0.5052314
-0.15117307 0.05023502 -0.028080598 -0.22536695 0.11762284 -0.36034667 0.05773134 -0.59572476
-0.42506978 0.107210875 0.24228899 0.23829755 0.102393076 0.49741334 0.023991613 0.17539619
0.17289172 0.9360524 0.03109634 0.22645864 0.27135876 -0.048110835 -0.32874888 -0.115251236
-0.530526 -0.35545987 -0.07407149 0.38483906 -0.037870053 0.2202188 -0.10450426 -0.081845276
-0.10644019 0.004294228 0.32024974 -0.060255416 0.73698604 0.04064441 -0.6520319 -0.18140972
-0.27300477 -0.01340921 0.41151726 0.21533969 -0.02545188 0.13450085 -0.37799907 0.0479686
-0.06737201 0.0137563255 -0.022582438 0.05579133 -0.02618725 0.04845922 0.033657014 0.08305454
-0.45605543 -0.1749303 -0.6248685 -0.35613695 -0.16843745 -0.018060874 0.056475878 -0.68883467
-0.43238792 0.041207507 -0.054080106 0.19145669 0.080706656 -0.2210929 0.07038943 -0.13305326
-0.2795257 0.08084876 0.32291034 0.3808799 -0.05387952 -0.40943334 0.08769516 -0.11969696
-0.05465111 0.009636255 0.12414515 0.14897121 0.19543335 0.05362193 -0.23373465 -0.08820636
-0.38570422 -0.40738535 0.23441744 0.3161626 -9.587826e-06 0.28329048 0.008650303 0.22719635
0.1190034 -0.105162814 -0.1306868 -0.034891468 0.5737981 0.01407761 -0.85039294 -0.18052009
-0.47893557 -0.3509303 -0.056781694 0.111791626 0.28112775 -0.6286013 -0.41722906 0.03252838
-0.33335954 0.17597546 0.016476484 -0.031784005 -0.07867057 0.20484099 0.0023124218 0.3111835
0.076837614 -0.15740967 0.042325202 -0.16708437 0.06792849 -0.08232765 0.12250607 0.015126688
-0.07224161 0.09292641 -0.049401563 0.03708177 0.012158856 -0.019519169 0.07726621 -0.119091064
-0.14076458 -0.10419098 -0.08566618 0.0070806756 0.043594986 -0.1799995 -0.054355808 -0.08361417
0.03561213 -0.05336987 -0.11706631 0.027722724 0.10142451 -0.05254621 0.005881645 -0.1307793
-0.087350644 0.05057587 -0.07408224 -0.031748567 0.07018571 -0.002935448 0.02778711 -0.045719504
-0.04811877 0.006653262 -0.10134006 -0.017411862 -0.01564997 0.11150754 0.0057889093 -0.0637968
0.0068025393 -0.021275662 -0.04999055 0.0055863652 -0.046074275 -0.038863786 -0.13843347 -0.09254442
0.04280757 -0.058273323 -0.2065146 -0.011176634 0.04153882 -0.024683606 -0.120369144 -0.106271714
00000000: b0ce e2bd 78b8 37bf 766f d8bd f9ef 12bd
00000010: 12ea 023b 87a7 8c3e d17f bebd a669 d7be
00000020: 214d 503e aa0d 1fbd 5ae5 00be b5b1 1b3f
00000030: 5b63 2f3d c904 e3bd 5be0 683d 37ac 4abe
00000040: ae7b 07be 4c62 ccbe d9ab 6b3d 56d0 313f
00000050: 2cb7 c4bd 191e 9a3d f5d6 99bd 455a 9e3d
00000060: 7107 d53e 5a0a bd3d c65a ac3d 8a79 913e
00000070: 24e8 93bd e2ee 93bd c1cc 0b3f b548 4b3d
00000080: 801a acbd 097c 893d 534f 1c3d 995d 77bb
00000090: b156 773c dab9 a1be 2d78 14bc 48d3 8ebe
000000a0: e2d2 6a3d 7f40 69be 72e4 babd b467 f0bd
000000b0: 2713 7fbf 6066 10bd cb01 1b3e 988a 9a3e
000000c0: e184 bfbd 0f28 a1be c9d7 c93d 2c6b bfbe
000000d0: 94c2 713e 62a8 833e c1f0 07be e59a a7be
000000e0: 972e 843e a50c ad3e 0603 0b3e e6b9 3abd
000000f0: b350 c03d aade a8be b000 41bd a6e6 10be
00000100: 32ce d4be 3d28 cc3e c41e 52bf b792 06bf
00000110: 14ce 9cbd 92de 2bbd ba18 e6bd d856 01bf
00000120: 1dcd 1abe 3dc3 4d3d 4809 e6bc 98c6 66be
00000130: 3ee4 f03d 5c7f b8be b377 6c3d 6b81 18bf
00000140: bfa2 d9be 6091 db3d 9b1a 783e 4604 743e
00000150: 76b3 d13d f6ac fe3e 0f8a c43c 0f9b 333e
00000160: 870a 313e 21a1 6f3f c0bd fe3c c6e4 673e
00000170: 89ef 8a3e de0f 45bd c651 a8be d708 ecbd
00000180: 8dd0 07bf d6fe b5be cbb2 97bd a009 c53e
00000190: a11d 1bbd 0981 613e 5406 d6bd 7f9e a7bd
000001a0: 50fd d9bd 98b6 8c3b c6f7 a33e 62ce 76bd
000001b0: 1eab 3c3f c17a 263d 90eb 26bf 78c3 39be
000001c0: 48c7 8bbe 4eb2 5bbc 64b2 d23e 0282 5c3e
000001d0: 7680 d0bc 97ba 093e 1889 c1be b97a 443d
000001e0: 56fa 89bd 3662 613c cefe b8bc 7385 643d
000001f0: a586 d6bc 2d7d 463d f0db 093d 8018 aa3d
00000200: 1980 e9be ee20 33be 62f7 1fbf 9557 b6be
00000210: de7a 2cbe 66f4 93bc 4053 673d 7857 30bf
00000220: f361 ddbe 34c9 283d 1a83 5dbd 390d 443e
00000230: 8849 a53d 2d66 62be 5528 903d 1d3f 08be
00000240: fe1d 8fbe 0994 a53d 8154 a53e b102 c33e
00000250: c6b0 5cbd 3fa1 d1be 8599 b33d ae23 f5bd
00000260: d8d9 5fbd 62e1 1d3c d03f fe3d e98b 183e
00000270: ae1f 483e aba2 5b3d 2358 6fbe 89a5 b4bd
00000280: 067b c5be d094 d0be 200b 703e 10e0 a13e
00000290: 66db 20b7 730b 913e 00ba 0d3c 29a6 683e
000002a0: 0eb8 f33d 9a5f d7bd c3d2 05be 5bea 0ebd
000002b0: 6fe4 123f c7a5 663c 5ab3 59bf 42da 38be
000002c0: 0b37 f5be 23ad b3be ec93 68bd 02f3 e43d
000002d0: faef 8f3e 04ec 20bf 0c9f d5be 7b3c 053d
000002e0: 1aae aabe e932 343e b1f9 863c f22f 02bd
000002f0: 091e a1bd d6c1 513e 008c 173b 7253 9f3e
00000300: 0a5d 9d3d 0030 21be 315d 2d3d 2a18 2bbe
00000310: 181e 8b3d 669b a8bd 76e4 fa3d eed5 773c
00000320: 69f3 93bd 3450 be3d 4b59 4abd 0ee3 173d
00000330: f035 473c aae6 9fbc bf3d 9e3d 04e6 f3bd
00000340: 9724 10be 1562 d5bd c071 afbd 0305 e83b
00000350: a890 323d ca51 38be 32a4 5ebd e83d abbd
00000360: 06de 113d 5d9a 5abd 76c0 efbd c41a e33c
00000370: a7b7 cf3d b23a 57bd d0ba c03b 02eb 05be
00000380: e5e4 b2bd a528 4f3d 6eb8 97bd c90a 02bd
00000390: 87bd 8f3d a560 40bb cba1 e33c 6044 3bbd
000003a0: 3018 45bd 9b03 da3b 618b cfbd 52a3 8ebc
000003b0: 5e34 80bc 115e e43d e4b0 bd3b e6a7 82bd
000003c0: d6e7 de3b 4c4a aebc e4c2 4cbd d40d b73b
000003d0: 61b8 3cbd a22f 1fbd 81c1 0dbe ee87 bdbd
000003e0: fe56 2f3d 02b0 6ebd 9078 53be 331e 37bc
000003f0: 9c24 2a3d 4635 cabc 1984 f6bd fca4 d9bd

item_tower.feedforward.2.bias f4 [32]
0.13779092 -0.21669458 -0.13460374 -0.118530735 0.15618186 -0.17038019 -0.16448036 0.119169414
-0.18060869 0.19336675 0.12937327 -0.1650737 -0.16870253 -0.018337514 -0.14222872 -0.01644094
0.1088418 -0.08213852 0.14899129 -0.11885097 -0.11570099 -0.10857011 0.11423862 -0.23000214
-0.079361565 -0.079812445 0.021876633 0.11203484 0.08560628 -0.17535903 -0.06421215 -0.123909
00000000: 1019 0d3e 2fe5 5dbe 90d5 09be 3ec0 f2bd
00000010: 23ee 1f3e 2578 2ebe 8a6d 28be 180f f43d
00000020: 7cf1 38be ef01 463e 6d7a 043e 1409 29be
00000030: 5bc0 2cbe 8e38 96bc 68a4 11be 26af 86bc
00000040: 73e8 de3d 3e38 a8bd 2c91 183e 2368 f3bd
00000050: a4f4 ecbd 015a debd f0f5 e93d ae85 6bbe
00000060: 5188 a2bd b574 a3bd a036 b33c 8672 e53d
00000070: 5852 af3d 5191 33be a981 83bd 00c4 fdbd

item_tower.feedforward.4.weight f4 [32, 32]
-0.08282052 -0.23238999 -0.145204 0.13217144 0.124515675 0.012437716 0.06381442 -0.098215245
0.0051195784 0.118806824 -0.29101998 -0.031059422 0.07496912 -0.07504777 0.15208222 -0.008612567
0.06406179 -0.03503331 0.12668622 0.09359129 -0.28806704 -0.14856195 0.0656462 -0.032781806
-0.2390711 -0.025490066 -0.04434375 -0.18627717 -0.25564066 0.1412721 0.12100132 0.16081767
-0.3889167 0.7246288 0.5981041 -0.015762996 0.09876996 -0.0055094445 0.018502153 -0.11615811
-0.69745415 0.17830686 -0.2847662 -0.04402073 0.0073663527 -0.3739398 0.21448742 -0.053020526
-0.042932793 0.036807526 -0.00017146666 0.22567867 -0.60221404 -0.24894288 0.48879647 -0.010830936
0.122405805 -0.25717664 -0.2422908 -0.17449443 -0.27293652 -0.17292088 0.11897701 -0.06559825
0.27558532 -0.19157514 0.4050666 -0.12502868 -0.023418726 -0.07150874 -0.17901042 -0.33431864
0.42970964 0.5649674 0.0032869512 0.5156224 -0.13983391 1.003971 0.65239507 0.18613482
0.032498483 -0.12302933 -0.120804995 0.11158472 0.1162884 -0.3144682 -0.17089061 0.25372434
-0.88982505 0.1054972 0.03821746 -0.009021611 -0.35505387 0.31742784 0.10858082 0.003978877
-0.20538887 -1.0241443 -0.45566562 0.14070074 -0.2810237 -0.110982515 0.024014305 0.001992912
0.51165795 0.25160524 -0.005148076 -0.25359285 -0.02051728 0.28783 -0.3153972 0.1932733
0.18709631 0.13348143 0.23328963 -0.07182912 -0.031924844 0.19356641 -0.22546853 0.04439199
-0.08453785 -0.09062277 0.4006685 -0.47202453 -0.2836573 0.35670993 0.035227463 0.034248937
0.0747408 -0.1586059 -0.16372597 0.1823661 0.35025543 -0.03168409 0.05925825 -0.29703072
-0.36582494 0.09257727 0.21984185 -0.22685438 -0.10258165 0.3439905 -0.65335035 -0.3128171
0.26021817 -0.04344268 0.12896596 0.09046567 -0.5915435 0.15072247 0.019633684 -0.10170607
0.12852284 -0.19430925 -0.17514831 -0.097927906 -0.13468814 -0.04542253 0.17342678 -0.05478481
0.26558647 0.1371284 0.21820669 -0.08319366 0.20304091 0.016963258 0.103247 -0.34004256
-0.37643152 0.23318905 0.26260093 0.17287117 0.03179037 0.66507626 -0.096150674 -0.24291466
0.28571612 -0.12626529 -0.17934425 -0.02989578 -0.5249806 0.072423756 0.013074017 0.03305702
-0.40387845 0.23257722 -0.12157225 -0.0924408 -0.20575623 -0.22170334 -0.115846656 -0.17147255
-0.11663715 -0.36327076 -0.40191406 -0.07155256 0.06245396 0.08684179 0.00042244137 0.12263666
-0.09662817 -0.36183208 0.2682802 0.1839051 0.040167045 -0.25241762 -0.6165351 -0.058442328
0.24228925 -0.040880866 0.13930607 -0.023532355 0.5451601 -0.17710681 -0.1692042 -0.17202906
0.029570699 -0.29295477 0.009543505 -0.10966865 0.67777145 0.41982087 0.12137981 -0.15498137
0.17639753 0.751688 0.70732486 -0.12987396 0.093261026 -0.11360365 0.1267222 0.24430126
-0.71713215 -0.31211188 -0.25344643 -0.23009372 -0.111126184 -0.37345567 0.42099327 0.0737831
0.04471269 -0.08845814 -0.11997724 0.016647637 -0.342344 -0.35146326 0.08538173 -0.06304927
-0.041511443 8.256229e-05 0.052902967 0.15497585 -0.0327538 0.14380619 0.09696941 0.0703849
00000000: ce9d a9bd a4f7 6dbe 5bb0 14be f357 073e
00000010: 1302 ff3d 90c7 4b3c 22b1 823d 1325 c9bd
00000020: 23c2 a73b fe50 f33d 9200 95be 5470 febc
00000030: 6989 993d a5b2 99bd 71bb 1b3e b91b 0dbc
00000040: d432 833d 177f 0fbd 08ba 013e caac bf3d
00000050: 867d 93be a020 18be 8471 863d 3746 06bd
00000060: 0ecf 74be 8bd0 d0bc cba1 35bd 71bf 3ebe
00000070: 55e3 82be a2a9 103e 8acf f73d 63ad 243e
00000080: 1720 c7be 4681 393f 5a1d 193f 6621 81bc
00000090: e847 ca3d 9288 b4bb d491 973c 4ee4 edbd
000000a0: 5b8c 32bf 1396 363e e0cc 91be 154f 34bd
000000b0: 7261 f13b 0a75 bfbe 97a2 5b3e 0d2c 59bd
000000c0: 4cda 2fbd 7dc3 163d bbcb 33b9 4f18 673e
000000d0: b32a 1abf e2ea 7ebe 8843 fa3e 3d74 31bc
000000e0: e5af fa3d a8ac 83be 141b 78be abae 32be
000000f0: 56be 8bbe 2c12 31be 38aa f33d 6058 86bd
00000100: 8519 8d3e 462c 44be e464 cf3e 8507 00be
00000110: a1d8 bfbc 2d73 92bd 824e 37be d02b abbe
00000120: e702 dc3e b4a1 103f e469 573b d4ff 033f
00000130: 9f30 0fbe 1f82 803f 5d03 273f 209a 3e3e
00000140: 211d 053d cdf6 fbbd 9c68 f7bd 8886 e43d
00000150: 9d28 ee3d fa01 a1be f3fd 2ebe 28e8 813e
00000160: 93cb 63bf ea0e d83d e989 1c3d 61cf 13bc
00000170: 9fc9 b5be e785 a23e 9f5f de3d 3d61 823b
00000180: 7651 52be 2917 83bf 014d e9be db13 103e
00000190: 57e2 8fbe cd4a e3bd a6b9 c43c 849b 023b
000001a0: 04fc 023f 67d2 803e 31b1 a8bb ecd6 81be
000001b0: db13 a8bc 745e 933e be7b a1be 70e9 453e
000001c0: 2d96 3f3e 5baf 083e 7ae3 6e3e 251b 93bd
000001d0: a0c3 02bd 4636 463e 39e1 66be 60d4 353d
000001e0: 2e22 adbd 6e98 b9bd 6c24 cd3e 33ad f1be
000001f0: 883b 91be afa2 b63e ac4a 103d 9d48 0c3d
00000200: b411 993d 9669 22be c8a7 27be 2ebe 3a3e
00000210: ae54 b33e 2dc7 01bd c7b8 723d 6914 98be
00000220: 684d bbbe 2799 bd3d 391e 613e 844c 68be
00000230: 5416 d2bd 861f b03e f841 27bf 9029 a0be
00000240: 513b 853e f4f0 31bd a70f 043e 1146 b93d
00000250: 656f 17bf fe56 1a3e d2d6 a03c 464b d0bd
00000260: 7e9b 033e 01f9 46be 145a 33be 6d8e c8bd
00000270: b0eb 09be fa0c 3abd ca96 313e 0966 60bd
00000280: f3fa 873e 636b 0c3e 9371 5f3e 7061 aabd
00000290: f5e9 4f3e 88f6 8a3c 2a73 d33d 0f1a aebe
000002a0: a2bb c0be 1cc9 6e3e a173 863e 2405 313e
000002b0: 9e36 023d 7042 2a3f a5ea c4bd 9fbe 78be
000002c0: 6249 923e b04b 01be 05a6 37be ffe7 f4bc
000002d0: 2165 06bf e852 943d 6734 563c cc66 073d
000002e0: 28c9 cebe b928 6e3e dffa f8bd 9a51 bdbd
000002f0: c3b1 52be 3306 63be 0341 edbd 8096 2fbe
00000300: 75df eebd a0fe b9be aec7 cdbe 268a 92bd
00000310: b9cf 7f3d 1cda b13d 1f7b dd39 ee28 fb3d
00000320: fde4 c5bd 0e42 b9be 065c 893e 9e51 3c3e
00000330: 3386 243d e23c 81be 3fd5 1dbf 3961 6fbd
00000340: ac1a 783e b272 27bd 40a6 0e3e edc6 c0bc
00000350: 9d8f 0b3f 7d5b 35be de43 2dbe 6328 30be
00000360: 403e f23c 2bfe 95be 5c5c 1c3c f599 e0bd
00000370: 6e82 2d3f c3f2 d63e fa95 f83d 70b3 1ebe
00000380: 8ea1 343e a06e 403f 3e13 353f aefd 04be
00000390: a3ff be3d 08a9 e8bd 77c3 013e 1c2a 7a3e
000003a0: f995 37bf 21cd 9fbe bbc3 81be b09d 6bbe
000003b0: 2096 e3bd 9535 bfbe 6e8c d73e 981b 973d
000003c0: a724 373d 8b29 b5bd a1b6 f5bd a060 883c
000003d0: b647 afbe fef2 b3be 9edc ae3d fa1f 81bd
000003e0: e707 2abd 4b25 ad38 c8b0 583d fdb1 1e3e
000003f0: d928 06bd ee41 133e e697 c63d f525 903d

item_tower.feedforward.4.bias f4 [32]
0.084198184 0.16684915 0.010974896 -0.14617713 0.092786364 0.14003347 -0.02853739 0.044660114
-0.0029106431 0.08562849 0.17415014 -0.06831855 -0.18376738 0.07600206 0.06860936 0.06845409
-0.14963451 -0.12924434 -1.5501667 -0.10566099 0.06448751 0.1154483 0.0024291128 -0.021592954
-0.03612282 -0.022978604 0.12332625 0.19192235 0.083409466 -0.048575677 0.11734915 -0.019569864
00000000: 1970 ac3d 81da 2a3e 0dd0 333c 75af 15be
00000010: c706 be3d ef64 0f3e 3fc7 e9bc 86ed 363d
00000020: 7dc0 3ebb fd5d af3d 6a54 323e 99ea 8bbd
00000030: 842d 3cbe f8a6 9b3d 1083 8c3d a831 8c3d
00000040: ca39 19be a158 04be dd6b c6bf ca64 d8bd
00000050: 0712 843d 2970 ec3d c031 1f3b b5e3 b0bc
00000060: 86f5 13bd a03d bcbc 7992 fc3d 4b87 443e
00000070: 95d2 aa3d 4af7 46bd c054 f03d fb50 a0bc
