models/pct_80_model.pt (torch, 82719 bytes, 14 tensors)

au f4 [32]
000000 f5 5b ab bb e0 83 f1 3b c6 aa 74 3d d0 e2 91 bc
       -0.005229468 0.007370457 0.059733175 -0.017808348
000010 0e 44 b2 bc 69 ba 17 3f 70 9b 7f 3c bf 4d 28 3f
       -0.021760967 0.59268814 0.015601024 0.6574363
000020 3e 2c 94 3a 87 26 22 bd 1e 1e cb 3d 6c 53 37 3d
       0.0011304689 -0.039587524 0.09917854 0.04475729
000030 2b e7 5f bb 1d a7 4c be fd 61 7b 3c ee fa e9 bc
       -0.0034164886 -0.19985624 0.015343186 -0.028562035
000040 bd a5 c3 bb 28 6f cc 3a 7f c5 a3 3b 21 6c 0a bc
       -0.0059706853 0.0015597092 0.0049979086 -0.0084486315
000050 76 9b c1 3b 28 e6 18 3d 1f 24 b2 bc 85 cf aa be
       0.005908425 0.03732887 -0.02174574 -0.3336145
000060 19 67 0c 3d 58 c5 8a 39 1a b3 1a bb cc d8 3b bc
       0.03427801 0.00026468444 -0.0023605288 -0.011465263
000070 70 eb ab 3d dc 78 0c bc 4c 87 14 3c bf 09 7b 3b
       0.083945155 -0.008573737 0.00906546 0.003830537

av f4 [32]
000000 21 58 af 3c ac 07 96 3c 34 1f 77 3d e8 9d 31 bc
       0.021404328 0.018314205 0.060332492 -0.01084087
000010 03 5d 36 bf 62 66 9a 3d 1f 8b 02 bd 86 bd bf 3d
       -0.71235675 0.07539059 -0.031870957 0.093623206
000020 aa 08 68 3b 27 ef 3e bc 83 a3 52 3d ca ed d9 3b
       0.0035405555 -0.011653698 0.05142547 0.006650661
000030 35 f6 04 bc 23 37 de bd 2d ce ca 3c 27 e4 59 3c
       -0.008115341 -0.1085036 0.024756515 0.013299025
000040 0a c5 a9 bc 0f ed 6d ba 69 05 99 bc e7 61 ce bb
       -0.020723838 -0.0009076157 -0.018679338 -0.006298292
000050 96 90 a2 3c 31 e0 0d 3f 09 eb cc bc 4d 02 5d bc
       0.019844335 0.55420214 -0.025014417 -0.013489318
000060 d2 1e 31 3d 62 df 88 ba 1d 22 fd 3c 8c 5c 17 bd
       0.043242283 -0.001044255 0.030900056 -0.036953494
000070 fd 85 70 3c ce f5 ce bb 95 8c 94 bc 0e ab a0 3b
       0.014680383 -0.0063159233 -0.018133441 0.004903204

user_tower.feedforward.0.weight f4 [64, 37]
000000 6d ba de 3e 3b 01 29 3e b5 ef 62 be 47 68 ee be
       0.43501607 0.16504376 -0.22161753 -0.46563932
000010 3b 02 1e 41 90 7f 66 bf 26 dd 97 3f 19 58 90 3e
       9.875545 -0.90038395 1.1864364 0.28192213
000020 4c 68 17 bf ab 91 d6 3d 9e 7f dd 3d 9d 82 e1 3e
       -0.5914352 0.10477003 0.10815357 0.44044963
000030 b2 03 24 3e 27 88 b3 be ee e9 d6 be 9d a6 e8 3c
       0.16017035 -0.35064813 -0.4197535 0.02839976
000040 2c 9d aa 3e ad 31 8e be 5c 39 90 be bb e6 a4 3e
       0.33323038 -0.27772275 -0.28168762 0.32207283
000050 9d e4 83 be f6 5c 02 be f6 58 0c 3f 13 57 fa 3e
       -0.25760356 -0.12730774 0.54823244 0.48894557
000060 dc d2 57 bf 1b f8 39 3f c0 a8 a8 3d 8b bb fd be
       -0.8430612 0.72644204 0.082353115 -0.49557146
000070 52 ce 5f be c7 a0 8e 3e 25 d6 cf bd f6 af b9 3d
       -0.21856049 0.27857038 -0.10148267 0.09066765
000080 83 21 3a 3d ca c2 24 3e 82 d9 4f be 92 b0 62 3f
       0.045442116 0.16089931 -0.20297816 0.88550675
000090 82 aa e4 3d 29 d5 0b 3d a0 53 8f 3d c4 21 17 be
       0.11165334 0.034138832 0.06998372 -0.14758974
0000a0 8a 9b 95 3c 15 36 9f 3d 68 58 67 3d 40 86 d5 3d
       0.018262643 0.07773987 0.056480795 0.10425997
0000b0 c8 05 23 be 32 40 d3 3d f3 da 78 3d 74 ec 28 bd
       -0.15920174 0.10314979 0.06075568 -0.041241124
0000c0 9d 7f f7 bd 83 73 0f be cb 86 0e 3e 88 44 25 3d
       -0.12084887 -0.14008908 0.13918607 0.04034856
0000d0 10 93 df bd af 3b 08 bc c7 d8 d7 3d b6 5b b8 bd
       -0.10916722 -0.008315011 0.10539394 -0.090018675
0000e0 02 03 44 bc fd cd 8f 3c ea 9d f4 3c 5b c9 54 3c
       -0.011963608 0.017554278 0.029860456 0.01298746
0000f0 25 a2 94 3b 98 3a 28 3d 0c dc 4d bd af 19 aa 3d
       0.0045359307 0.041071504 -0.05025868 0.0830568
000100 f7 30 95 bd af fb db 3d ac 43 08 3e ee 17 e1 3d
       -0.0728473 0.10741364 0.13307065 0.10990892
000110 66 bb 09 be a3 40 0e 3d 01 95 c1 bc 6f e6 23 3e
       -0.13450393 0.03472961 -0.02363062 0.16005872
000120 58 07 8f bd a3 74 27 3e f1 ce 0a be 5a 5e 8c 3d
       -0.069838226 0.16353087 -0.13555504 0.06853934
000130 00 16 00 be f4 4d a1 3d b2 d5 37 bb 63 57 8e 3b
       -0.12508392 0.078761965 -0.0028050956 0.0043439134
000140 18 be 05 be 73 50 95 bd 26 bc 41 bd 59 3c f5 3c
       -0.13060796 -0.07290735 -0.047298573 0.029936003
000150 88 17 09 be 60 df 23 bd 28 4d 6d bd fb c4 a0 bd
       -0.13387883 -0.04000795 -0.05793491 -0.07850071
000160 e3 e0 c1 3b b5 43 10 be 81 d1 f2 3b 7d 8a e5 3d
       0.005916701 -0.14088328 0.0074102287 0.11208055
000170 04 ea e4 bd 20 b2 8b 3d e4 e6 c5 bc cc f3 c5 3d
       -0.111774474 0.06821084 -0.024157949 0.09665641
000180 a5 01 21 3e 97 20 65 3d 5d b1 58 bc 5c 71 02 be
       0.15723284 0.055939283 -0.01322588 -0.12738556
000190 88 fb 60 bc 4a 3f a7 bd 08 90 cb 3d f4 06 4c 3d
       -0.013731845 -0.08166368 0.09939581 0.04981132
0001a0 85 f3 8a bc 4c 67 82 3d 0f f5 8c 3d 97 80 04 3e
       -0.016961822 0.063673586 0.06882679 0.12939678
0001b0 5a 27 60 bc b4 c1 97 bc 17 5d 5a bd 1f 91 eb 3c
       -0.013681257 -0.018524982 -0.053311434 0.028755723
0001c0 ab 34 b3 bd 5e 3b 08 be 05 a6 57 3d 34 2b 16 3e
       -0.0875028 -0.13303897 0.052648563 0.14664918
0001d0 63 4e 03 3e 34 25 94 3b 8c 5f 68 bd fc a6 03 be
       0.12822871 0.0045210365 -0.056731746 -0.12856668
0001e0 56 c8 21 bd 9f 77 5d bd 07 92 f7 3c 75 a1 13 3d
       -0.039497696 -0.054069158 0.030220998 0.03604265
0001f0 03 55 2f 3d c0 05 45 bd a7 88 a3 bd 82 6a 22 be
       0.042805683 -0.048101187 -0.07985049 -0.15860942
000200 46 7c 6e 3c 92 75 12 be 2a ef 00 3d 8e 94 f5 bd
       0.014555996 -0.14302662 0.031478085 -0.11991225
000210 ea 8b e7 3d 78 df c8 bc 77 ce 25 be 5e 0f a7 3c
       0.11305983 -0.02452062 -0.16192041 0.02039307
000220 9e 4f 24 3e e2 6c fe bd 86 b9 eb bc a5 f9 00 3c
       0.16045997 -0.124231115 -0.028774988 0.00787202
000230 c4 b4 e0 bd c8 02 81 bd 87 7e 07 be 9f 23 f2 bd
       -0.10971978 -0.062993586 -0.1323186 -0.118232004
000240 31 b3 ba bd b8 35 16 be ae 16 26 be bc 6b 05 be
       -0.09116209 -0.1466893 -0.16219589 -0.13029379
000250 7c ab 20 bd f4 03 37 3e 87 af 85 bc c8 14 5f be
       -0.03922604 0.17872602 -0.01631905 -0.21785271
000260 f1 8e ec 3e be bf e7 3e ae 79 3e be c3 ef 66 bf
       0.46202806 0.45263475 -0.18601105 -0.902096
000270 2c 22 05 3c 4c fd d6 bd ab 6f 7d bf 5c 05 94 be
       0.008125823 -0.10497531 -0.98998517 -0.2891034
000280 14 38 45 bf 37 ca 90 3e a6 4c 0c 3f b5 67 3e bf
       -0.77038693 0.28279278 0.54804456 -0.74376994
000290 33 13 69 bf f6 ce 25 bd 8b e4 57 3f d5 72 e9 bd
       -0.9104492 -0.040480576 0.84333104 -0.113988556
0002a0 8f 52 b6 3e 1e 2c 4c bd 2b d7 48 3e 90 12 45 3d
       0.35609862 -0.04984676 0.1961333 0.048113406
0002b0 eb 34 83 be a7 43 b1 be 1f 28 c8 be df a4 b2 bd
       -0.2562631 -0.34621927 -0.3909311 -0.08722853
0002c0 46 95 8f 3f f8 44 16 bf 6f b7 45 be b7 e0 72 be
       1.121743 -0.5869899 -0.19308256 -0.23718534
0002d0 92 72 ae 3e 8f be 69 bf 6b 5d b8 3e 25 88 66 3e
       0.34071785 -0.91306394 0.36008772 0.22512873
0002e0 b1 97 6f 3d e5 5e 9d bd 0c 7d 22 be ba 3d a6 bd
       0.058494274 -0.07684115 -0.15868014 -0.08117242
0002f0 07 ab 07 be 01 5e c1 3d 9d 67 79 3d b2 70 e2 3d
       -0.13248836 0.09441758 0.06088983 0.11056651
000300 7d 85 9d 3d 54 21 27 be ac 55 c7 bd 27 56 36 3d
       0.076914765 -0.16321307 -0.097331375 0.044515755
000310 61 50 28 3d 00 8a 0b be 40 3c a7 bc 8a 1a 64 bd
       0.04109228 -0.13626862 -0.020414472 -0.055689372
000320 18 f2 99 3d 61 12 9c bb 59 c2 15 be 7c 68 70 bd
       0.07516879 -0.004762933 -0.14624919 -0.058693394
000330 13 f0 5c 3d bd 13 d0 3c c2 78 30 3d db dd c3 3c
       0.05393989 0.025400037 0.043083914 0.0239095
000340 d4 7e 1d 3e cc 2f 1d bd 21 22 37 bd 06 4b 39 bd
       0.15380412 -0.03837566 -0.044710282 -0.045237564
000350 ef 8a 80 bd 5e 37 11 3e eb 1d 43 bc f5 23 09 3d
       -0.062764995 0.14181277 -0.0119089885 0.033481557
000360 6b 28 11 3c e5 b5 3e bc 39 18 13 bd 89 46 22 3e
       0.008859734 -0.011640047 -0.035911772 0.1584722
000370 a1 45 81 3d 3f 15 27 bd 22 69 53 bc 62 11 1f 3d
       0.06312109 -0.040791746 -0.012903484 0.038834937
000380 7e 2b bd bd a3 1b a6 bd ed 3b 1d 3e 0e 1c 80 3d
       -0.09236811 -0.0811074 0.15354891 0.06255351
000390 0d 59 d4 bd b5 37 c5 bc 5c 20 82 3d a7 f5 be bd
       -0.103685476 -0.024074415 0.06353828 -0.09324198
0003a0 ce 79 aa 3d 63 2c 75 bd 4e e1 91 bd fb 42 de 3c
       0.08324014 -0.059856784 -0.071230516 0.027131548
0003b0 10 b5 e9 3c 89 ce f9 3d cc f6 21 3e 76 f0 c0 bd
       0.02852872 0.121975966 0.15816802 -0.09420864
0003c0 32 3e 1b 3e 3f fd 58 bd e1 61 0c be d2 87 0e be
       0.15160444 -0.05297589 -0.13709213 -0.13918999
0003d0 40 17 b5 3d 18 b8 36 bd 4d df 94 bc d6 c4 0d 3e
       0.08842325 -0.04460916 -0.018172884 0.13844618
0003e0 21 e1 87 bd bb 3d f5 3d 96 2e bc 3d 0c ee 23 3e
       -0.06634737 0.11974665 0.09188573 0.16008776
0003f0 43 e5 a0 3d 0b 20 9d bd 38 1e 6c 3b 65 7e 0f 3e
       0.07856228 -0.07672127 0.0036028754 0.1401306

user_tower.feedforward.0.bias f4 [64]
000000 9f 92 f7 3d f9 ed a8 3c c0 6d 8d 3a 3a f8 91 3d
       0.12088513 0.020621287 0.0010790154 0.071274236
000010 22 45 63 bf 3d d6 1a 3b ad 12 89 3c d5 b5 f1 bd
       -0.88777363 0.002362623 0.016732538 -0.1180226
000020 a7 42 76 3d cd 1e 69 c0 a0 d7 cb 3e 27 a4 33 be
       0.06012216 -3.642505 0.39812946 -0.17543088
000030 87 f7 c6 3e fa fa 1a be 40 e0 fc 3c 69 81 f7 3d
       0.38860723 -0.15134802 0.03086865 0.1208523
000040 82 29 b5 be e0 d1 dd 3f e9 3b 71 3d 4c d2 61 c0
       -0.3538323 1.7329674 0.058895025 -3.5284605
000050 91 3c a2 bd 95 26 7f 3d 18 e3 ab bf 4f 8f 06 be
       -0.079217084 0.062292654 -1.3428679 -0.13140605
000060 27 1f dd bd 12 d8 e4 bb ee bb 99 3d 2a 24 f0 be
       -0.107969575 -0.0069837654 0.07506548 -0.4690259
000070 d9 92 0e 3d f2 6e cb 3f 26 ff ca 3d b3 3d 17 3e
       0.034808014 1.5893233 0.09911947 0.1476963
000080 0e b7 98 c0 17 1c 03 3e 23 fe b3 40 b2 4d 2f be
       -4.7723455 0.12803684 5.6247725 -0.17119482
000090 b7 d9 dd be 77 45 8a bc 7c b5 68 bd 25 68 f6 3d
       -0.43330166 -0.016878827 -0.056813702 0.12031583
0000a0 f6 f4 58 be 6c ed 04 40 c1 9f 36 be 7b 55 7e 3d
       -0.21187195 2.076991 -0.17834379 0.06209324
0000b0 f6 b9 59 3f 6f a5 0b 3d bb 1b 65 3d 14 32 51 c0
       0.8504938 0.034093317 0.05593465 -3.2686815
0000c0 57 f1 2d c0 57 e6 0e 3e 0d af 6c 3d bb a9 8e 3e
       -2.7178552 0.13955055 0.05778413 0.2786387
0000d0 d1 87 5e 3d 2b f6 a2 3d 04 82 1c be 7f ec b4 3d
       0.054328743 0.07957109 -0.15283972 0.088341706
0000e0 88 3a b6 c0 33 51 34 3d 6d b0 d9 bd 27 72 0c 40
       -5.694645 0.04402275 -0.10629354 2.1944673
0000f0 0a 9f a7 3e 3b 39 c8 bd fa b9 a2 3f f3 ba 72 3e
       0.32738525 -0.09776541 1.2713006 0.23704128

user_tower.feedforward.2.weight f4 [32, 64]
000000 59 ac e5 bf bc 49 3f bd c6 b8 64 bd e2 c0 dd bd
       -1.7943221 -0.046701178 -0.055840276 -0.10827805
000010 b0 ff 10 3e 50 65 6e bc ba 22 98 3d a2 12 c2 3d
       0.14160037 -0.014550522 0.074284986 0.0947621
000020 41 87 40 bd 09 61 86 3e 69 e3 f0 bd ce 02 93 3d
       -0.04700399 0.26245907 -0.11762125 0.07178269
000030 93 c3 95 3d e0 57 12 3c e6 f2 ee 3d 9a 5b df 3b
       0.073126934 0.008932084 0.11667423 0.0068163397
000040 69 97 b4 3d ae af 08 bf ab 7e d1 3d 82 d4 90 3c
       0.08817942 -0.53393066 0.10229238 0.017679457
000050 48 1c 29 3d 30 1f 25 bd fe be 64 3e e7 15 80 3d
       0.041286737 -0.040312946 0.22338483 0.062541775
000060 00 2a 26 3c 04 de 68 3d ed c1 7d bd cf 86 35 bd
       0.0101418495 0.056852356 -0.06195252 -0.044318017
000070 c1 8c af 3e b3 93 5f 3f bc aa 89 bd 11 8d f1 bd
       0.34287074 0.87334746 -0.06722018 -0.117944844
000080 3a 03 95 be 18 5a 34 3d fd a2 c8 bf 33 03 02 3d
       -0.29104024 0.044031233 -1.567474 0.031741332
000090 99 0f aa bf d0 b9 83 bd 00 fb 39 bb c3 22 7c bc
       -1.328601 -0.06431925 -0.0028378367 -0.015389147
0000a0 8b dc 14 be f1 5d 89 bf 44 40 d5 bd 6d b9 a3 3b
       -0.14537255 -1.0731794 -0.10412648 0.0049964697
0000b0 ae a9 d8 be fe 94 4e bf 14 64 8d 3d 04 11 4a 3e
       -0.42316955 -0.80696094 0.06903854 0.19733053
0000c0 58 c5 9a be ec a8 98 bd 06 d4 c6 bc 95 19 30 40
       -0.30228686 -0.07454094 -0.024271023 2.7515614
0000d0 fd 55 b5 3d 5e 46 b8 3d 14 82 c0 3d 8c 39 4b bd
       0.088542916 0.089977965 0.093998104 -0.049615428
0000e0 4d d0 dd 3d 22 71 a7 3d 9b 21 6f 3e b8 c3 22 bf
       0.10830746 0.08175875 0.23352663 -0.63579893
0000f0 8f 92 8e 3d 30 d9 0e 3d f9 f4 ac be f0 01 dd bd
       0.069615476 0.034875095 -0.3378065 -0.10791385
000100 bf aa 59 40 78 9b 18 bd 40 bc 3a bc 5a cc dd bd
       3.4010465 -0.03725764 -0.011397421 -0.108299926
000110 bb 2e a8 3d 94 31 3c 3d f0 66 dd bd 20 0b 08 3e
       0.08212038 0.04594572 -0.108106494 0.13285494
000120 ce 57 64 3d 53 ba 7d 3e 9d b7 b6 bd 03 94 44 bb
       0.0557478 0.24778108 -0.0892174 -0.0029995448
000130 31 68 7c be f6 e6 f1 bd f8 53 bc 3c 72 dc c1 3b
       -0.24649121 -0.118116304 0.022989258 0.0059161717
000140 85 4a 2b bd 47 23 08 3f a9 f0 39 3d 3f c8 27 3c
       -0.041819114 0.5317883 0.045395527 0.0102406135
000150 40 7f 21 3b eb 37 de bd 51 4b b7 3e 4b 4c 12 3d
       0.0024642497 -0.10850509 0.3579965 0.03571729
000160 28 a4 61 bd 72 c5 b7 3d f6 91 d9 3e 5e 37 79 bc
       -0.055088192 0.089732066 0.42494172 -0.0152109545
000170 67 f3 8d be 52 58 8e bf 9d 35 a6 bd 7c ce 80 3d
       -0.27724764 -1.1120703 -0.08115695 0.06289384
000180 f6 b2 c9 3c a0 2e f4 3c 7f 8d 97 bf c0 51 6c bd
       0.024621468 0.029807389 -1.1840056 -0.05769515
000190 0a 99 7c 3f 18 54 1d 3e f6 85 91 3d 83 81 94 ba
       0.9867102 0.1536411 0.07105629 -0.0011330101
0001a0 fc 21 e8 bc b1 70 25 3f c0 85 25 3d a0 56 b9 3c
       -0.028336518 0.6462508 0.040410757 0.022624314
0001b0 82 e1 ac bf 28 9d 7a 3f e9 11 28 bd bb 3c 08 bf
       -1.350632 0.9789605 -0.041032705 -0.5321767
0001c0 54 0a 87 3f 3c ce c9 bd bc 40 77 bd f7 e6 8a bb
       1.0550027 -0.09853789 -0.06036447 -0.004238959
0001d0 91 cb fd 3d 20 1d 90 3d 3a 85 fe bd 38 4d e6 bc
       0.12392343 0.07036805 -0.12427755 -0.028112993
0001e0 dc d9 c7 be 00 68 59 bd 8d e9 17 3f 4b 5d 2a 3f
       -0.390334 -0.053077698 0.59340745 0.66548604
0001f0 fa c0 c3 bd f4 b7 0d bd a3 56 2b bf d1 2e 2d 3e
       -0.09558292 -0.03459926 -0.6692907 0.1691239
000200 bf 58 7b 40 58 3f 92 3c 10 e1 36 3c ec a5 3a bd
       3.9272916 0.01785247 0.0111620575 -0.04556839
000210 4b a9 be bd 30 79 8c 3d 44 2e c7 bd 80 2a d7 3a
       -0.09309634 0.06859052 -0.09725621 0.0016415864
000220 a0 39 46 3d fc f0 10 bf 96 87 e5 bd 20 f2 53 bc
       0.0483948 -0.5661771 -0.112075016 -0.012936145
000230 db 2b 9d bd de 9f eb 3d 88 b7 a3 bd bb b5 a2 bd
       -0.076743804 0.115051016 -0.0799399 -0.079448186
000240 1f dd be bd d2 cf 08 40 68 fe 4a 3d 90 62 3e 3e
       -0.09319519 2.1376843 0.049559027 0.18592286
000250 54 bc f5 bd b6 9b c7 bd b7 b6 b4 3f f3 d7 f6 bc
       -0.11998811 -0.097464964 1.411826 -0.03013227
000260 80 c3 ca bd 50 be 42 3d 5a d5 9b 3e 86 e2 7a bd
       -0.0990057 0.047544777 0.30436212 -0.061251186
000270 89 3f da be 27 fd 80 3d 3d 43 0b be 48 e3 f8 bd
       -0.42626598 0.06298285 -0.13599868 -0.121527255
000280 0a 66 03 bf fc 18 a8 3d bd c8 54 3c b4 11 2a bd
       -0.51327574 0.082078904 0.012987313 -0.04152079
000290 bf c0 25 3f 80 c6 7c 3d 70 60 cd bd c2 96 31 bd
       0.6474723 0.06171274 -0.100281596 -0.043356664
0002a0 f2 b2 da 3c 95 b7 4e 3f 56 83 d7 3d 2c 18 6e 3d
       0.026696656 0.80748874 0.10523097 0.05812852
0002b0 54 0d 70 bf 5d 23 7d 3f 28 ca d0 3d 3d ac 59 bf
       -0.9377034 0.98882085 0.10194808 -0.8502844
0002c0 fc 49 f0 3f 28 46 b3 3c e0 0d 85 3b 66 e4 39 3e
       1.8772578 0.021884039 0.004060492 0.18153533
0002d0 95 bd ed bd a8 c8 ec 3c 18 20 6a bd 60 00 f7 3d
       -0.116084255 0.028904274 -0.057159513 0.120606184
0002e0 bd fe 4f bf 38 03 92 3c 13 a3 be 3e e9 d4 ac be
       -0.81248075 0.0178238 0.3723379 -0.33756188
0002f0 00 ee c7 bd c8 3a 90 bd 82 61 ad be d8 94 03 3d
       -0.09762192 -0.07042462 -0.33863455 0.03212437
000300 16 fe dc bd c4 31 a1 3d 52 17 bb 3d e0 4a ad 3d
       -0.107906505 0.0787082 0.09135307 0.08461547
000310 26 b1 43 be aa 49 fa bd 62 b6 8f bd 30 7d 2a 3c
       -0.19110546 -0.122210816 -0.07017209 0.010405824
000320 7b 14 c4 3d 30 7d 37 3e ce 15 78 bc a9 d3 5a bd
       0.09574219 0.17918849 -0.015141917 -0.05342451
000330 89 3a 06 bd 30 ba e1 3c 98 be 85 3d 86 18 a9 bd
       -0.032770667 0.027554601 0.065304935 -0.082566306
000340 15 32 4d bf 4d b5 94 be b2 0e a7 3d 8c 1f 1f 3e
       -0.80154544 -0.29044572 0.081571 0.15539378
000350 f4 0e ab 3d f3 b2 0a be a5 e2 97 be 3d cb 57 3d
       0.083524615 -0.13544826 -0.29665104 0.052684058
000360 ac dc 15 bd a8 bf 4c bd 80 1f b7 bf 7e 9d 72 3d
       -0.036587402 -0.049987465 -1.4306488 0.059232228
000370 98 e1 2a c0 91 31 98 3e 51 ba 79 3d 63 26 1a bd
       -2.6700191 0.29725316 0.0609687 -0.037634265
000380 c3 1f 6b be 80 5d 80 3c 99 f3 ef be 82 18 c1 bc
       -0.22961335 0.015669584 -0.46865538 -0.023571257
000390 76 62 7d bf cb c3 0f be c6 a7 c8 bd ca 58 19 be
       -0.98978364 -0.14039533 -0.09797625 -0.14975277
0003a0 ae 62 a3 bd 3b ad ef 3e 05 a3 87 bd f8 d2 3d 3d
       -0.07977806 0.46811852 -0.066228904 0.046343774
0003b0 a7 23 bc bb 0d 43 31 bf 93 e5 e1 bd 00 dc ab 3e
       -0.005741555 -0.69242936 -0.11030116 0.33566284
0003c0 67 c6 6e 3e 60 ad 25 3e 14 bd c0 3d 94 cf b3 3e
       0.23317872 0.16179419 0.09411064 0.35119307
0003d0 23 e1 aa 3d fa 52 2a be 90 b8 30 bd c8 59 8e bc
       0.08343723 -0.16633216 -0.043144763 -0.017376795
0003e0 c1 fb 72 3e 7e 00 a3 3d f3 cd a2 bf 55 3e 7b bd
       0.23728849 0.07959078 -1.2719101 -0.06133874
0003f0 0b a7 51 bd 60 58 ea bc b3 19 98 bd 4a 11 91 be
       -0.051184695 -0.028606594 -0.07426777 -0.28333503

user_tower.feedforward.2.bias f4 [32]
000000 2f 2b 0f 3f 2f ae 80 bf 10 20 80 bf d9 3f 28 3f
       0.5592527 -1.0053157 -1.0009785 0.65722424
000010 35 e3 71 40 ba 2e 4c 40 d3 37 fd bd 63 ed 18 c0
       3.7794926 3.190352 -0.12364163 -2.389489
000020 10 38 be bd d5 1e 68 40 5b d8 92 3e b1 b2 1b c0
       -0.09288037 3.6268818 0.2868069 -2.4327815
000030 b6 f8 c4 3d 12 e7 13 be fe 0d 9d c0 35 c9 a0 c0
       0.0961775 -0.14443615 -4.907958 -5.0245614
000040 92 4f 7e c0 97 c3 62 bd fa 0d 6c c0 32 08 4b c0
       -3.9736066 -0.05536231 -3.688353 -3.1723752
000050 8f 56 2b be db 13 1e 40 4f f4 cd 3f e2 6b 17 3f
       -0.16732238 2.469962 1.6090182 0.5914899
000060 ce 34 9b bf 18 b7 9d bb dd bc 90 40 08 7e a6 3a
       -1.212549 -0.0048130862 4.5230546 0.0012702355
000070 77 45 b8 bc 4d 64 a5 be 12 69 b0 3e 8f da 0f 40
       -0.02249406 -0.32303086 0.34455162 2.2477148

user_tower.feedforward.4.weight f4 [32, 32]
000000 92 73 80 bf 29 37 09 be 7b c2 e1 bc c5 d9 34 3f
       -1.0035269 -0.13399948 -0.027558556 0.7064479
000010 ac 6c 0c 3d 7b 13 da be bf 1f a8 be 24 3a a0 3e
       0.034283325 -0.42592987 -0.3283672 0.31294358
000020 04 73 5e 3e 3d 29 29 be 74 e2 5a be 95 8d c1 be
       0.21723562 -0.16519637 -0.21375448 -0.3780333
000030 d4 31 b7 bd 40 0d bd 3f 08 75 f2 3e 88 eb 88 bd
       -0.08945051 1.4769669 0.47354913 -0.06685549
000040 0d 4a 15 3f 65 d2 d4 bd 18 19 4d be 52 1a 18 be
       0.5831612 -0.10391692 -0.20029104 -0.1485379
000050 e6 ba 39 be 67 bd c9 be 8f 71 2e bd 09 da 00 3f
       -0.18137702 -0.39402315 -0.042588767 0.50332695
000060 de b8 95 bd 65 54 34 be 5e dd 56 3e 2a b7 00 be
       -0.07310651 -0.17610319 0.20982882 -0.12569872
000070 f0 df 15 be 5a 56 33 3f 9b 60 9d 3e ff 93 38 3e
       -0.14636207 0.7005364 0.30737767 0.18025206
000080 80 e6 04 bf cb 1d 2e 3e 40 24 98 bc b3 4a a1 3f
       -0.51914215 0.17003553 -0.018571973 1.2600921
000090 e7 6c 8f 3b c9 1e 03 3f db c7 0f be 9f 8f 73 be
       0.004376996 0.5121885 -0.14041083 -0.23785256
0000a0 fe 17 92 bc a9 b7 55 be fa d1 b4 be 14 00 a6 3e
       -0.017833706 -0.20870842 -0.3531645 0.32421935
0000b0 d6 da 10 3c 9a c9 0c 40 99 d0 8c be 5e 2e 68 3e
       0.008841237 2.1998048 -0.27502897 0.22673938
0000c0 e9 77 3d be 5e ff a5 bc c9 53 05 3d 69 ef 0d 3e
       -0.18502773 -0.02026337 0.032550607 0.13860859
0000d0 ab 96 11 be 5b 09 29 3e dd f5 9c 3e cc de 31 be
       -0.14217632 0.16507475 0.3065633 -0.17370147
0000e0 76 bb 7f 3e 7f c0 7f bd 92 0a b4 3d 97 bc 0d be
       0.24973854 -0.062439438 0.087910786 -0.13841473
0000f0 5f 75 d9 bd 63 e2 51 3e 3c 9a 2c 3e 1a 7a 03 bf
       -0.1061809 0.20496516 0.1685571 -0.5135819
000100 ad a1 bd be 02 e2 28 be 5c 84 68 3e 6f 90 32 3f
       -0.3703741 -0.16492465 0.22706741 0.6975164
000110 e3 27 a5 be c1 fb 3f 3d 9c 8b 8f bd fa 4f d4 3e
       -0.32256994 0.04687095 -0.0700905 0.41467267
000120 78 e3 c0 bd 7d 18 bc be bd 22 4f be 68 f2 9d be
       -0.09418386 -0.36737433 -0.20228095 -0.30849004
000130 04 c6 9a 3c 76 d5 ae 3f 9a e5 20 3f 5f 14 72 3e
       0.01889325 1.3658893 0.62850344 0.23640583
000140 9d 58 14 3f 5b aa 24 be 6a e7 1e 3d c2 c0 99 bc
       0.57947713 -0.1608061 0.038794912 -0.018768672
000150 f5 47 75 bd 8a ec 1f 3d 20 58 de 3e 02 d5 f5 3d
       -0.059883077 0.03904394 0.4342661 0.12003519
000160 86 98 b1 3e 08 1e 05 3e a6 60 27 bf 5a c8 0d bb
       0.3468668 0.12999737 -0.6538185 -0.0021634311
000170 4b af c3 bc ab 0a 1e 3f cc 45 8a 3e 1a 2d 6a 3f
       -0.023887297 0.6173503 0.27006376 0.9147507
000180 6e a2 e5 3e b1 7e ee bd 60 7e cd 3d 5f dc 5c bd
       0.44850487 -0.11645258 0.1003387 -0.0539211
000190 8a 0d e1 3e 32 75 f5 3e d5 30 0a 3e 50 3c f8 3e
       0.43955642 0.47940975 0.1349519 0.48483515
0001a0 96 5b 29 be 54 10 bf bd e2 b4 af be 61 a9 23 3e
       -0.16538844 -0.09329286 -0.3431769 0.15982582
0001b0 eb 70 97 3d 10 bb bc 3e 3f c4 f3 be c6 90 b6 be
       0.07394584 0.36861467 -0.4761066 -0.35657328
0001c0 41 7e e2 be 59 7a 04 be b6 76 c2 3e 28 67 11 bc
       -0.4423695 -0.12937297 0.37981194 -0.008874692
0001d0 90 8a 6a bd c6 c4 14 bc 25 c4 c9 3e 86 39 6f be
       -0.05726105 -0.009080118 0.3940746 -0.23361787
0001e0 c0 81 25 3f 24 86 2e be 94 82 ea be 97 ba b7 3d
       0.6465111 -0.17043358 -0.45802748 0.08971136
0001f0 ad 58 1f be 7d 49 73 3e 9d a5 22 3e e4 e4 2c 3f
       -0.15561171 0.23758502 0.15883489 0.6753676
000200 57 86 0f be 69 b7 b1 3c 2f 39 12 be 5c 7a b8 3d
       -0.1401609 0.021693902 -0.14279626 0.09007713
000210 9b 57 b4 be 60 9e 98 bf ea d2 3a be b8 56 ff be
       -0.35223088 -1.1923332 -0.1824452 -0.4987085
000220 5f 27 d4 bd e6 4e d9 bf 81 c7 af 3e 93 6f c5 bf
       -0.10359072 -1.6977203 0.34331897 -1.5424675
000230 ba e4 1a 3d 56 1c 87 be 12 fb 6a bf d0 4b 94 bf
       0.037815787 -0.26388806 -0.9178935 -1.1585636
000240 b8 0d 99 bf 63 96 03 be 7e 08 c7 bf 09 56 61 bf
       -1.1957312 -0.12850337 -1.5549467 -0.88021904
000250 1b 64 eb bd 8d 82 b7 3e cd 69 2e 3d 86 39 43 3f
       -0.11493703 0.3584179 0.04258137 0.7625965
000260 e2 5f 9f 3e b3 5b fa 3d 6e 39 49 3e e8 67 8e 3d
       0.3112784 0.122245215 0.19650814 0.06953412
000270 87 6b 47 3c a2 8c 4e bf fd a6 15 3e e4 d8 7f be
       0.012171633 -0.8068334 0.14614482 -0.24985081
000280 70 76 14 3e 87 6e a3 3e 8c ec ab 3f 24 4c 82 be
       0.14498305 0.31920263 1.3431563 -0.25448716
000290 b8 8d 97 be 46 7c 99 be 02 fe 00 bf a5 67 b1 3e
       -0.2960031 -0.29977626 -0.50387585 0.34649387
0002a0 d2 c1 25 3d b3 7f 7d be c6 03 b5 bd b6 22 ee 3d
       0.040468045 -0.24755745 -0.0883861 0.11627714
0002b0 9d d8 1c be 00 58 0f be e4 94 34 3e e9 dd c4 3e
       -0.15317006 -0.13998413 0.17634922 0.38450554
0002c0 17 e1 84 3e 24 fe d1 3b 0e e6 7b 3e cb 78 9e 3d
       0.2595298 0.0064084698 0.24599478 0.07737883
0002d0 71 6f 13 be 4b 11 c8 be 05 eb 6f be 4f fe 24 be
       -0.1439798 -0.39075693 -0.23429497 -0.16112636
0002e0 59 7b f7 3e fc 45 0e 3e d7 33 ae be 1d f1 9f 3d
       0.48336294 0.13893884 -0.34023926 0.078096606
0002f0 06 2b f3 bd b9 a0 13 3e cb 3b fb be 75 7a 9d bd
       -0.118734404 0.1441678 -0.49069056 -0.076893725
000300 08 f4 52 bf 1d 89 b6 bd 85 75 04 be b1 6d d1 be
       -0.8240361 -0.08912871 -0.12935455 -0.40904
000310 ab 5f 2f bf 2b 4f f6 3c b5 2e 7d be 3f e6 cb be
       -0.6850535 0.030067047 -0.24724849 -0.398241
000320 b7 7b 3b be 8c 1f 06 3e fd 8b 4f 3e 13 79 87 be
       -0.18308912 0.13097972 0.20268245 -0.2645956
000330 ae 56 aa bd d2 94 5d 3e 1b e7 84 3f fa 3e 4f 3e
       -0.08317314 0.21638802 1.0383028 0.20238867
000340 ce 1e 0b 3e 72 c1 ca bd ab 5f 3f be c1 77 c6 be
       0.1358597 -0.09900178 -0.18688838 -0.3876324
000350 0c 8d 11 be 67 13 a1 3e 74 fc 11 3d 89 ef bc 3d
       -0.14213961 0.31460115 0.03564115 0.09225375
000360 c2 57 d8 3e 02 4a 0f 3e 35 0b b8 be 8b 71 3a 3e
       0.42254454 0.13993075 -0.3594605 0.18207376
000370 7c 04 31 bd 2d c7 14 bf 18 3c 52 3d 54 11 3e 3f
       -0.043217167 -0.5811642 0.05132684 0.7424519
000380 3b 3f a5 3c bd 22 13 3f 86 e5 a9 3f 1a c5 f5 3d
       0.020171752 0.5747488 1.327317 0.12000485
000390 4c ca e1 bd b9 d6 85 be 00 3a cf be f5 6b dd 3e
       -0.11024913 -0.26140383 -0.40473938 0.43246427
0003a0 7f b5 bb 3d e4 1e 90 be 75 a9 5a be a9 31 b1 3d
       0.09165477 -0.28148568 -0.21353705 0.0865205
0003b0 74 6c a9 3d e7 2b b5 be b8 b8 a1 3d ca bb e1 3e
       0.08272639 -0.35385057 0.078965604 0.44088584
0003c0 6c 80 86 3e f5 93 7e bc 27 8b ed 3d 18 33 b1 3e
       0.26269853 -0.015538205 0.11598807 0.34609294
0003d0 58 bd 13 3e 00 7a 10 bf c9 f6 49 be f6 1b b1 be
       0.14427698 -0.5643616 -0.19723047 -0.34591645
0003e0 d9 d3 cd 3e 23 ff 93 bd 35 be 3f be 7b 1e 3a be
       0.4020069 -0.07226398 -0.18724902 -0.1817569
0003f0 48 ce ee bd 26 da 1a 3e d1 51 03 bf 22 de aa be
       -0.11660439 0.1512228 -0.51296717 -0.333726

user_tower.feedforward.4.bias f4 [32]
000000 0e 54 37 40 2f 51 65 bf c8 51 55 c0 ed b7 54 40
       2.8645053 -0.89577 -3.3331165 3.323726
000010 77 7a 73 be 38 3a b0 c0 18 b6 57 c0 bb 14 ac c0
       -0.23777185 -5.507107 -3.3704891 -5.3775306
000020 18 f0 29 40 50 8f 79 40 9f d4 96 c0 c0 bc 87 c0
       2.6552792 3.899372 -4.7134547 -4.241791
000030 72 06 86 bf a3 69 a3 40 ed 2c b8 bf 76 19 88 40
       -1.0470717 5.106645 -1.438871 4.253108
000040 e8 11 a7 bf 3a e3 57 3f 8d 79 c3 bf 26 84 bb 3e
       -1.305234 0.84331095 -1.5271469 0.3662426
000050 05 97 be bf bf 1d 91 bf 5f ba 2a 40 48 c9 ae 40
       -1.4889838 -1.1337203 2.6676252 5.4620705
000060 4c af 36 c0 73 c7 d3 3f b2 82 8b 3f f7 4d 04 40
       -2.8544493 1.6545242 1.089926 2.0672586
000070 be 6a 97 c0 ce 4a 16 40 1a b5 aa bf 23 e3 97 3e
       -4.73178 2.3483157 -1.3336518 0.2966548

item_tower.feedforward.0.weight f4 [64, 160]
000000 ea 96 c7 3d c9 ce 45 bd 8a 63 41 bd bc 46 9b 3d
       0.097455814 -0.04829291 -0.04721407 0.07581851
000010 e9 40 cc 3c 82 46 ca 3d 50 54 50 bc 29 2f 8e bc
       0.024933295 0.098767295 -0.012715414 -0.017356472
000020 df 26 f2 ba eb 3b 32 bd 4b dc 13 bd f7 a6 1b bd
       -0.0018474719 -0.043514173 -0.03609876 -0.038001027
000030 d5 4d 04 3d 4d fb 3f bd d3 aa 2a bd 74 a9 12 3c
       0.03230079 -0.04687052 -0.041666817 0.008951534
000040 8d 28 eb bc d6 ba 71 bb c1 60 35 3d f2 b3 29 bd
       -0.02870586 -0.0036885045 0.044281725 -0.041431375
000050 a4 38 3d bd 3c 6c 05 3d 61 b2 b9 3d 56 a3 03 bd
       -0.046196595 0.032573923 0.09067226 -0.03213819
000060 f1 b2 0c bb da 0b 28 bd f6 0f 4e 3d 87 f3 24 bd
       -0.0021468962 -0.041026928 0.05030819 -0.04027131
000070 51 fc 39 3d ba e4 d7 bd 1e e3 1f 3d 16 87 25 3d
       0.045406643 -0.10541673 0.039034955 0.04041203
000080 c3 f8 16 3d 51 ca 7b 3c 8c 16 37 3c c9 7e 4f bd
       0.03685833 0.01536806 0.011174809 -0.05065802
000090 71 d1 8f 3d 3d 54 e8 3d 7e c6 03 3e a5 98 b9 3c
       0.0702237 0.11344192 0.12868688 0.022655794
0000a0 74 7d 22 3d 53 a1 6f 3b d2 2b c0 bd 1a 27 29 bd
       0.039670423 0.0036564663 -0.09383358 -0.041297056
0000b0 08 81 c9 3d c7 5a 1a bd 32 26 55 bd 5f 37 24 3d
       0.09839064 -0.03768423 -0.05203838 0.04009187
0000c0 44 8e cd 3c ec 7c fe 3c 28 07 15 bd 56 1b c8 bd
       0.025092252 0.031065427 -0.036383778 -0.09770839
0000d0 1d 00 9e bd 97 9f be 3d 07 41 65 bd ec 32 b6 bc
       -0.07714865 0.09307783 -0.055970218 -0.022241078
0000e0 e7 26 af 3d 22 63 96 3d cd 73 fe bb a2 13 9c bd
       0.08552342 0.07343127 -0.0077652694 -0.07620932
0000f0 4c b1 cb bd 33 2b 03 3c 36 e5 33 bd 7d 98 b2 3d
       -0.09945926 0.008005905 -0.043919764 0.08720491
000100 7a 87 b1 3d d9 5f b3 bd 6f 35 8e 3d 62 6e 19 3d
       0.08668418 -0.08758516 0.069437854 0.037458785
000110 bb c6 2d bc a1 db c3 3b a4 97 9c 3d 70 ee f0 3b
       -0.010606463 0.0059771095 0.07646111 0.0073526427
000120 04 3c bd bc 2f 25 07 be 30 f7 d0 bd 9b 93 27 bd
       -0.023099907 -0.13197778 -0.10203397 -0.040912252
000130 a5 ae b6 3d 2b d1 2e 3d d5 5b 7d bd cd 8f 33 3d
       0.089200296 0.042679947 -0.061855156 0.04383831
000140 cd 05 6e 3d 89 0c 92 bd 41 c3 1d bd d7 27 83 3d
       0.058111 -0.07131297 -0.038516287 0.06404083
000150 d5 6d 96 3c 66 c6 1c 3d 71 f2 22 3d 77 d0 d6 ba
       0.018362919 0.038275145 0.03978199 -0.0016389032
000160 21 8c af 3d 52 9c af bc 89 a2 69 bd 7f f2 84 3d
       0.08571649 -0.021436844 -0.05703977 0.06491565
000170 33 d2 2f 3c ef ce 19 bc 7b d5 54 bb d8 89 7f 3c
       0.010731268 -0.009387716 -0.0032475877 0.015596829
000180 31 b5 cc bd 38 42 a8 3c 7e e1 c7 bc 01 07 ad bc
       -0.09995497 0.020539388 -0.024399515 -0.021121504
000190 dd ec 94 3d af c8 43 3d 3c 3e 16 3d 5d 56 68 3d
       0.072717406 0.04779881 0.036680445 0.056722987
0001a0 8e e8 56 3d 78 fc 26 bd 08 49 cb bc 70 b8 40 3d
       0.052467875 -0.040768117 -0.024815097 0.047050893
0001b0 e6 8e e1 bb f3 e9 0c bd d1 66 74 bc 44 c7 82 3c
       -0.00688349 -0.0344028 -0.0149170915 0.015964158
0001c0 a3 64 30 3c ac 9a 9e bd 91 cd e2 3c bd 0a d5 3d
       0.010766181 -0.07744345 0.027685912 0.10402439
0001d0 9e cf 4e 3d 08 15 5c 3d 56 86 1c bd b3 5d 89 3d
       0.050490968 0.053730994 -0.03821405 0.06707325
0001e0 cf 5d 86 bd c5 d4 8a 3d 7e 1d 15 bd 32 4f 5b bd
       -0.06560861 0.06778864 -0.03640508 -0.053542323
0001f0 28 44 be 3b 2e f0 69 bd 60 ed a4 bc 62 36 f3 bc
       0.0058064647 -0.05711382 -0.02013272 -0.029689018
000200 fd ea 8b 3d 8f 20 9f 3d 06 d4 05 bd 99 e2 81 3d
       0.0683193 0.07769882 -0.032672904 0.06342048
000210 bb b8 56 3c 3f c3 6c bd fe 04 33 3d ae 9f 13 3d
       0.013105567 -0.05780339 0.043705933 0.036040954
000220 a6 95 89 bd ca 8d 03 3e 56 7f e1 bd ae 1b f6 bd
       -0.06717996 0.12847057 -0.110106155 -0.12016998
000230 3b 96 9f bd 7f 2b 9b 3c 5c 36 f0 3c 3e ae 4b 3d
       -0.07792326 0.018941639 0.029322796 0.049726717
000240 f3 7b 7b bc 8d 0a 85 bd 2b 18 1d 3d 59 14 33 3d
       -0.015349376 -0.06496153 0.038353126 0.043720577
000250 f9 df b1 bd 20 07 20 be 4c 45 9b 3d 89 4d c7 3c
       -0.086852975 -0.15627718 0.07581577 0.024328964
000260 06 dd 9d bc d0 61 1e 3e 93 a9 b0 bb 14 cd c0 3d
       -0.019270431 0.15467 -0.0053913086 0.094141155
000270 15 a9 67 bb ac 5e 4c 3d 15 8b 0d be 29 54 76 bd
       -0.0035348583 0.049894974 -0.13822587 -0.060138855
000280 4b df 37 bd 97 9f 75 3d 43 73 4f bd c5 57 91 3d
       -0.044890683 0.05996665 -0.05064703 0.07096819
000290 28 6a 83 3d 03 a7 6a 3d d3 fe a0 3d 31 88 80 bd
       0.06416732 0.05728818 0.07861104 -0.062759764
0002a0 bf bd 59 3c 6f 8c 17 bd d6 48 95 bc 3b f1 f3 3c
       0.013289868 -0.036999162 -0.018223207 0.029778114
0002b0 e5 c0 95 3d 5d 7d 2c bd 79 be f2 3c 0a 29 37 bd
       0.07312182 -0.042111743 0.02963184 -0.044716872
0002c0 b6 96 d6 bc a3 7e 32 bd d5 2d 83 bd 43 dd 1e 3b
       -0.026194911 -0.0435778 -0.06405226 0.002424077
0002d0 ac 00 8b bd 86 fc 2d 3d 83 f1 c0 39 6e ef ec bc
       -0.067872375 0.042477153 0.00036801034 -0.028922763
0002e0 3d fd 8a bd d5 60 0f 3d 96 aa 8e 3c 61 d7 4c bd
       -0.067865826 0.035004456 0.017415326 -0.05001009
0002f0 d6 a4 38 3d a6 b5 92 bd 4e 00 8c bd 36 8d 2d 3d
       0.045079075 -0.07163553 -0.068359956 0.042370997
000300 a3 69 d7 bc dd 0b f2 3c d3 d4 98 bd 2d d1 80 3d
       -0.026295489 0.029546672 -0.07462468 0.06289897
000310 5d ec 9f 3d d1 c0 80 bc 6e fd a3 3c a2 40 fc bb
       0.078087546 -0.015716942 0.020018306 -0.0076981345
000320 5d 06 99 3d c8 01 9e bd 46 7f e0 3c 32 77 96 3d
       0.07471917 -0.077151835 0.027404439 0.073469535
000330 74 78 89 3d 6a fd 7e bd c7 9d cb 3c ca da 97 bd
       0.06712428 -0.062253393 0.024855508 -0.074147776
000340 5f 78 2c 3d 91 cb 40 3a 7f 7d e0 3b a7 59 7d bd
       0.042106982 0.00073545525 0.006850898 -0.061853077
000350 84 c8 8a 3d 4c 8a ec bc fa 10 34 3d f2 aa cf 3b
       0.067765266 -0.028874539 0.043961503 0.006337517
000360 68 14 9c 3b 4a 6b 9c 3c b7 94 cc bc b5 f5 8a bc
       0.004763175 0.019094128 -0.024973257 -0.016962865
000370 fd 5a b0 bc 58 1c 6a bd 95 c3 2d 3d 3b da 00 3c
       -0.021527762 -0.057155937 0.04242285 0.00786453
000380 48 6d 88 bc 7e 0e 89 3d e3 4e e9 3b 46 eb 88 bd
       -0.016653672 0.06692217 0.0071199997 -0.066855
000390 06 3a 77 3c 5b 9a 93 bd 7b 2a 1d bd be 0d 08 3d
       0.015089517 -0.07207175 -0.03837059 0.03321623
0003a0 30 49 87 bb 8e 0e af 3c e3 92 6e 3d 68 46 69 bd
       -0.0041285977 0.021369245 0.05824555 -0.05695191
0003b0 32 3d 8b 3c c0 0e 1f 3c ef da 8e 3d a2 f8 a7 3c
       0.016996954 0.0097081065 0.06975352 0.0205043
0003c0 48 1e 68 3d 76 19 8f bd ff d2 6f bd 24 f1 9a 3d
       0.056669503 -0.06987278 -0.05855083 0.07565525
0003d0 ae 61 5a 3d 8a 7e 99 3b 13 f6 90 3d e5 63 df ba
       0.05331581 0.004684274 0.07078185 -0.0017043321
0003e0 ef 38 cd 3c 7f 5f 8e 3d 05 ed 42 bd bb d3 8d bc
       0.025051562 0.06951808 -0.04758932 -0.017312875
0003f0 99 4a 92 3c be d3 79 3d 2e ec 59 3d b8 e9 c9 3c
       0.017857837 0.06099295 0.053203754 0.024647579

item_tower.feedforward.0.bias f4 [64]
000000 9f 7d 4a bb 39 a7 97 bd 4d 63 c9 bc 57 3f 14 3b
       -0.003089763 -0.07404942 -0.024583483 0.0022620761
000010 1f c8 a2 be 07 51 86 bc 94 73 91 be f5 30 c5 bd
       -0.31793305 -0.016396059 -0.28408492 -0.096284784
000020 0d 42 fb 3a 5f b1 ab bd 82 ec e1 be ec b9 e0 3d
       0.0019169465 -0.0838344 -0.44125754 0.10972962
000030 d2 06 b2 be be e6 ae bd a9 9b ea bc d8 2c 1c 3e
       -0.34770828 -0.08540104 -0.028638678 0.15251482
000040 e0 4f 98 3c 40 85 df bc 20 96 0c 3e e4 ad 56 bc
       0.018592775 -0.027285218 0.13729143 -0.013102982
000050 40 47 ee bd 09 7c 66 be 57 ff 9b be a0 97 69 bd
       -0.116346836 -0.22508253 -0.30468246 -0.057029366
000060 07 ba b1 bd 22 5e a8 bd 59 4e 57 be e7 49 df bc
       -0.0867806 -0.082210794 -0.21025981 -0.02725692
000070 e7 65 61 be a5 00 8f be 22 79 1a 3e 3a 74 f4 be
       -0.22011529 -0.2793018 0.15085271 -0.47744924
000080 13 f0 04 3e f6 bf f4 bd 7c b2 c5 bd 66 2e 34 be
       0.12982206 -0.11950676 -0.09653184 -0.17595825
000090 80 e4 55 be 1f 01 0a be 37 ce 63 3e 50 d0 df 3d
       -0.20887947 -0.1347699 0.22246633 0.10928404
0000a0 a2 1a 90 be a8 62 0e be 87 94 c0 bc f8 c9 8c bd
       -0.2814532 -0.13904822 -0.023508323 -0.0687446
0000b0 71 08 74 bd 9c 54 1f be 3e c2 b5 bd cc 9c 08 be
       -0.059578363 -0.1555962 -0.088749394 -0.13341063
0000c0 60 ca 67 bd d4 bc b9 3d a8 6d cc 3d ad 9d 66 bd
       -0.056589484 0.09069219 0.09981853 -0.056302715
0000d0 79 50 8c bd 7f b3 4e bc 10 0e d9 be 6d 46 d6 bc
       -0.068512864 -0.012616037 -0.4239354 -0.026156629
0000e0 ba 70 16 be 4c 89 f8 bd ed 30 87 be db 5e cc 3e
       -0.1469144 -0.12135562 -0.26404515 0.3991612
0000f0 58 4e 3b be 17 55 00 be 2d bf f8 3c 57 1e 8b be
       -0.18291605 -0.12532459 0.030364597 -0.27171585

item_tower.feedforward.2.weight f4 [32, 64]
000000 f6 b9 00 bd 90 39 e0 3d e5 b7 4e ba ea a2 e8 3e
       -0.031427346 0.10948479 -0.0007885679 0.45436794
000010 06 03 08 3f 40 91 54 3d 60 d0 64 3e 00 c7 47 3c
       0.53129613 0.051896334 0.22345114 0.012193441
000020 59 84 81 bf e6 fc 3c 3d 26 cd 88 bf d0 36 e9 be
       -1.0118514 0.04613962 -1.0687606 -0.4554963
000030 1e d2 3b 3f c5 04 cd bd e5 79 5c 3d b8 9d ba be
       0.7336749 -0.10010675 0.053827185 -0.36448455
000040 e7 94 2f bf b9 67 8b bd 1e 11 a8 3e 19 81 db 3c
       -0.6858658 -0.06806893 0.3282556 0.026794957
000050 17 9f 48 3b 02 73 28 be 65 63 46 3f f5 a3 86 3d
       0.0030612403 -0.16450122 0.77495414 0.06574241
000060 16 35 98 3d 39 b0 a9 3e c9 48 fc 3e 66 d4 5e bf
       0.07432 0.3314226 0.4927428 -0.87042844
000070 6c c1 8d bf 10 ff 42 3f 7c e3 9e be 71 63 eb be
       -1.1074653 0.76170444 -0.31032932 -0.45974305
000080 81 2b dd 3e a5 ab 81 3c 32 d1 ab be 7a 79 86 3f
       0.43197253 0.015828917 -0.3355804 1.0505822
000090 e4 07 65 3f a0 9e c5 3d c6 9c 18 be b4 db 88 bf
       0.89465165 0.09649396 -0.14903554 -1.0692048
0000a0 55 ee 7c 3f 02 9f 2b 3f 92 4f 7c 3d 73 81 e5 be
       0.98801166 0.670395 0.06159932 -0.44825324
0000b0 9d 50 25 bf 7f 7c 89 bd 18 2b eb 3c 7f a2 02 3f
       -0.6457613 -0.06713199 0.028707072 0.510292
0000c0 d2 e8 ee bc 77 a2 f4 3e 74 06 7f bf f7 75 8b 3d
       -0.029163752 0.477802 -0.9961922 0.068096094
0000d0 2f 43 74 bd 89 43 21 bd 41 2e 9d 3e cf ac 8b 3c
       -0.059634384 -0.039371047 0.3069935 0.017050175
0000e0 08 c6 58 3c 77 85 87 bd c4 07 26 bf 60 50 a6 bd
       0.013230808 -0.06617253 -0.648556 -0.08120799
0000f0 98 fd ff 3d fc 78 e9 bd 8f 68 0b bf 21 3d 80 3f
       0.12499541 -0.11400029 -0.5445642 1.0018655
000100 85 55 db 3d f0 f5 4f bc b4 95 3e 3d 90 72 97 bf
       0.10709671 -0.012692913 0.046529487 -1.1831837
000110 d8 4a b4 3e 0a 88 ef 3d e7 04 59 bf ff e5 07 be
       0.3521335 0.11695869 -0.84773105 -0.1327133
000120 14 39 5d 3d 0b ef a6 bd 49 36 44 3d 03 e9 d4 bd
       0.054009512 -0.081510626 0.047903333 -0.10396006
000130 99 ea f2 3e 75 d8 98 3b c2 d2 75 3d 6a fe 23 bf
       0.4744461 0.0046644756 0.060015447 -0.6406008
000140 2b 8a de be 31 3d 97 bd b7 dd b6 be b5 5c 55 bd
       -0.4346479 -0.07384718 -0.3571603 -0.052090365
000150 69 87 04 3c c0 01 54 be de 55 d2 be ba 61 eb bd
       0.008088925 -0.20703793 -0.41081136 -0.11493249
000160 76 b3 97 bd 6f 25 0f 3f 2f e1 74 bf b6 31 07 3f
       -0.07407276 0.55916494 -0.956561 0.5281023
000170 16 5a 86 bf b8 92 06 c0 1a 43 4d bf c2 72 b8 3d
       -1.0496242 -2.102705 -0.80180514 0.09006263
000180 fe 01 e3 be c5 c1 b2 3d ee a9 f2 3e 08 35 9b 3e
       -0.44337457 0.08728365 0.4739527 0.30313897
000190 47 46 c7 bf b6 82 bb bd dc b2 bf 3d 4e 06 b2 be
       -1.5568322 -0.091557905 0.093602866 -0.34770435
0001a0 cf 8c 6f 3e 04 4a bc bc 7d 58 54 bd 2f 49 9d be
       0.23393558 -0.022984512 -0.0518422 -0.30719897
0001b0 ca c8 d6 be 9b 9c 8b 3d 00 cd c4 ba ca bf 55 bf
       -0.41950065 0.068169795 -0.0015014708 -0.8349577
0001c0 db 65 64 3d 8d 55 20 3d 96 42 06 3e 6c c9 74 3d
       0.0557612 0.039144088 0.13111338 0.059762403
0001d0 7d 8c a7 bc c6 33 f7 bc 69 93 23 3e 80 a2 40 ba
       -0.020452732 -0.030176055 0.15974201 -0.0007348433
0001e0 a4 bd 6d 3e 62 c3 78 3d 65 92 41 bf 81 c3 3a bf
       0.23216873 0.060733207 -0.75614005 -0.72954565
0001f0 9f 40 f9 3b 5e e0 7c 3d a3 f2 7a 3f 15 f5 0d 3d
       0.0076065804 0.06173741 0.98026484 0.034657557
000200 e8 f5 c0 3c 0e 5b 9c 3d dc c5 70 3d b4 7b b8 bd
       0.023554757 0.07634555 0.058782443 -0.090079695
000210 c5 e3 de bd 2f 9b c1 bd f0 25 fe 3c f0 78 83 3c
       -0.10883287 -0.09453427 0.03102395 0.016048878
000220 3f e9 85 be 50 91 2d bc 1a 87 87 bd b3 e1 a1 bd
       -0.26154515 -0.010593727 -0.066175655 -0.07904377
000230 9c 22 5d 3d ce 2c 8d 3d da cc b3 bd 7d 8f 61 3c
       0.053988084 0.068933114 -0.08779307 0.01376712
000240 8c cd f5 bd f8 39 ac bc ff 60 b8 bc 40 92 cc bc
       -0.120020956 -0.021023735 -0.022507189 -0.024972081
000250 20 6f 24 3d 00 ac 65 3c 85 67 99 3c 2c 80 c2 bd
       0.04014504 0.014018059 0.01872612 -0.09497103
000260 8a 80 97 3d d7 fe 5d bd 84 c7 bf bd d7 99 23 bd
       0.07397564 -0.054198112 -0.093642265 -0.039941635
000270 00 12 e8 3c 95 a5 3c bd b7 d7 6b bd 77 06 29 3e
       0.028328896 -0.04605635 -0.05757877 0.16506372
000280 77 55 eb bd 54 06 06 3c 86 29 84 3d 76 df 11 be
       -0.114909105 0.00818022 0.064532325 -0.142454
000290 35 0a 43 be 85 37 ca bb 93 d8 54 be 1d 18 3f be
       -0.19046862 -0.006171169 -0.20785742 -0.18661542
0002a0 88 7e 9f bc 82 d0 ea 3c d4 e7 49 3d c4 38 96 bd
       -0.019469514 0.028663877 0.049293354 -0.07335046
0002b0 0d a8 2e bd 58 5d 90 bc b0 98 c8 3d 97 b5 15 3d
       -0.042640734 -0.017622635 0.09794748 0.03655013
0002c0 80 f5 03 3b 7f d2 1e be 1c 54 7d bd 68 68 35 3d
       0.0020135343 -0.15509985 -0.06184779 0.044289023
0002d0 38 50 70 bd cf dd 8d bd a7 63 5c bd d8 89 48 bd
       -0.058670253 -0.06927072 -0.053805973 -0.048959583
0002e0 7a 28 ca bd ac 72 e7 3d 24 b5 f0 3d 68 6d 7e bb
       -0.098710015 0.11301169 0.117533 -0.0038822535
0002f0 14 73 b3 bd 82 4d ce bd 25 96 1d be 56 55 32 bd
       -0.08762184 -0.10073377 -0.15389307 -0.043538414
000300 40 4a 92 bb 7a 88 e2 bd ee d6 c0 3d ff 63 1d bd
       -0.0044644177 -0.11061187 0.094159946 -0.03842544
000310 92 1b 76 3d 66 dc 8e bd 30 35 73 bd 9a b5 c7 bd
       0.060084887 -0.069756314 -0.059376895 -0.097514346
000320 e3 74 dd bd ea c8 2b 3d 74 f4 f3 bd 39 05 78 bd
       -0.1081331 0.041939653 -0.1191186 -0.060551856
000330 14 5d 04 3d 70 c6 c1 bc 28 99 27 bd 30 0a 8b bd
       0.03231533 -0.023654193 -0.040917546 -0.067890525
000340 63 b8 19 bd 88 9f 16 3d e9 29 ae bd 78 e7 99 bd
       -0.03752936 0.036773235 -0.085040875 -0.07514852
000350 d6 76 f5 3d 78 4e 12 bd f9 f3 d2 bc d0 15 b9 3d
       0.11985557 -0.035719365 -0.0257511 0.090373635
000360 1c 7d 03 3d 67 9b ab bd 57 26 3b be 7c a8 33 bd
       0.032101735 -0.0837925 -0.18276344 -0.04386185
000370 e2 d2 91 bd 4c 59 65 3d cd 3a e5 3c 3c 59 81 bd
       -0.07120301 0.055993363 0.02798214 -0.06315848
000380 78 fa f7 bd de 4a 74 3d 21 8f d2 3c b1 91 a7 bd
       -0.1210832 0.05964171 0.025703015 -0.08182085
000390 33 3f c1 3b 09 93 57 3d 34 73 ed bc 5e 22 c1 3c
       0.0058974265 0.052630458 -0.028985597 0.023575958
0003a0 34 25 79 bd 24 cd b8 bd b2 a1 cb bd 79 7a 29 3d
       -0.060826495 -0.090235025 -0.0994295 0.041376565
0003b0 38 83 95 3c 10 2b de bd 38 13 c7 bc 2b 3f 46 bd
       0.018251047 -0.10848057 -0.024301156 -0.048400085
0003c0 90 78 ec bc 69 77 6b be e9 91 a8 bd 95 f8 42 3d
       -0.028866082 -0.2299477 -0.08230955 0.047600348
0003d0 a8 99 f4 3c 0e f0 59 bd 35 a0 5b bc 1c fd 91 bd
       0.029858425 -0.05320745 -0.013404896 -0.07128355
0003e0 e0 14 19 bd 1e 69 a8 bd 50 28 5a 3d 62 dc 97 bd
       -0.037373424 -0.082231745 0.0532611 -0.074150816
0003f0 fa f7 ed bd 6c 1b 3d 3d f7 04 cd 3c 32 71 d8 bd
       -0.116195634 0.04616873 0.025026781 -0.10568465

item_tower.feedforward.2.bias f4 [32]
000000 70 f5 fd 3d 91 bd ce 3e 4d 10 8b be 46 51 5d be
       0.12400329 0.40379003 -0.27160874 -0.21613035
000010 07 92 d1 be 0e 5d 77 be e3 0d 1e 3f fc 3a 96 be
       -0.40931723 -0.24156591 0.6173994 -0.29341877
000020 55 78 fc bd d3 22 86 3d ba 48 3a be 71 72 c6 bd
       -0.12327639 0.06549611 -0.18191805 -0.09689797
000030 9d 15 b2 3e 27 41 f7 bd 2a 40 1b be 87 9d 5c be
       0.34782115 -0.12072974 -0.15161195 -0.21544467
000040 54 b2 cf be bf 8a a2 be 9c 30 ab 3e 32 03 f5 bd
       -0.4056574 -0.3174648 0.33435524 -0.119635
000050 0b 14 f9 bd ed bb 67 bd 13 7b 0e be ea 71 0f bd
       -0.12162026 -0.056575704 -0.13914137 -0.035020746
000060 ed cf 48 be 1d cc 1b be aa 03 bd bd f4 6d e3 3e
       -0.19610567 -0.15214582 -0.092292145 0.44419825
000070 87 ab 08 3f 33 0e f9 be c4 22 ae be ed 84 a0 bd
       0.5338673 -0.48643646 -0.340109 -0.078378536

item_tower.feedforward.4.weight f4 [32, 32]
000000 c1 3b 16 bf 16 48 14 be 53 d8 be 3d 2a c6 0e bc
       -0.5868493 -0.14480624 0.09318604 -0.008714238
000010 53 e9 32 3f eb b4 97 3d ad de b8 be 84 6c 83 3f
       0.69887275 0.07407554 -0.36107388 1.0267491
000020 96 89 09 be 0b 18 d5 3c 6d c9 24 3e 83 4e 4a be
       -0.13431391 0.026012441 0.16092463 -0.19756512
000030 68 0b 4e 3e 30 c9 0e 3e 0f 37 20 bf 7b 4e 23 3e
       0.20121539 0.13943934 -0.6258401 0.15947907
000040 03 f4 5b be 06 93 19 be 64 23 81 3e 31 aa 29 bd
       -0.21479802 -0.14997491 0.25222313 -0.041422073
000050 96 5b 30 3e 46 a3 5c be b0 a0 ad bd 41 41 c9 be
       0.17222437 -0.21546659 -0.08477914 -0.39307597
000060 86 48 0e 3d 4a 70 66 bd ab 5d 08 be 0a b8 5e be
       0.034737132 -0.05625943 -0.13316981 -0.21749893
000070 e9 12 d9 3e bd f3 b7 3e 39 7f 69 3f 43 fe ef 3d
       0.4239724 0.35928145 0.9120975 0.117184184
000080 30 96 cc bd b6 2c 35 bf 11 ec db bc 38 f6 0c 3e
       -0.099895835 -0.7077135 -0.026845964 0.137658
000090 8d 0f ff bb 43 c8 4b 3b a4 0d da bd 07 1e da 3f
       -0.007783836 0.0031094707 -0.10647133 1.7040414
0000a0 ba c5 d0 3d 92 35 5f 3e 8d 75 45 be 48 13 3d 3f
       0.10193963 0.21797779 -0.19283123 0.73857546
0000b0 48 d6 7d 3e 69 d3 aa bc 1b 73 ce 3d 7e 67 c8 bd
       0.24788773 -0.020852761 0.100805484 -0.097853646
0000c0 62 80 03 be d0 9d 71 3f 35 c3 9d 3d b5 0d e4 bd
       -0.12841943 0.9438143 0.077032484 -0.11135427
0000d0 89 9f 76 3d dc 6d e6 3b da d2 80 bd d5 a1 86 3d
       0.06021074 0.007032139 -0.06290217 0.06573836
0000e0 f9 a6 0c 3c 4c 2d 5f be 54 49 db 3c 06 2d fc bd
       0.008584731 -0.21794623 0.026768364 -0.12313275
0000f0 dc 2d c1 bd ec 32 e7 bc 45 2c 56 3d 3d 01 aa be
       -0.09432575 -0.028222524 0.052288312 -0.3320407
000100 90 29 55 be d4 42 cd 3d 11 26 2e 3d 17 d1 bb bd
       -0.20816636 0.10022512 0.04251677 -0.0917074
000110 fc 4d 69 3f 1e 67 b8 3d 0c f6 7f be 94 bf 9f 3f
       0.9113462 0.09004043 -0.24996203 1.248034
000120 58 7d ad bd cb f8 0e 3f 57 e2 b2 3d a8 ce c7 be
       -0.08471173 0.5584838 0.08734577 -0.39024854
000130 f2 b1 da 3e 67 2c a3 bd 34 9d 36 be f0 d2 d2 bd
       0.42713886 -0.079674534 -0.17833406 -0.102941394
000140 58 9d 2f 3f b6 39 84 3e 96 37 61 3d 25 79 f2 3d
       0.6859946 0.2582528 0.05498465 0.11839513
000150 d3 f7 bb bd 45 27 a0 bd 85 65 98 bd 18 04 55 bf
       -0.09178128 -0.0781999 -0.07441238 -0.8320937
000160 68 70 53 3e a8 d5 c2 bd fb cf 62 bd 58 c7 3d bd
       0.20648348 -0.09513408 -0.055374127 -0.046332687
000170 a6 cc 3d 3f de 3b 28 3f b3 a2 2d 3f a0 72 40 3f
       0.74140394 0.6571635 0.67826384 0.75174904
000180 c1 be 3a be 07 63 66 3f 88 e4 aa 3d 01 67 24 3e
       -0.1823683 0.89994854 0.0834437 0.16054918
000190 12 0a 0f 3e 3b ec e0 bd 2c 1a c5 bd 1c 24 a6 be
       0.13968685 -0.109825574 -0.096241325 -0.32449424
0001a0 6d fb db 3d 6f 18 1c 3f e7 99 d6 bd 70 9c 8f bd
       0.10741315 0.6097478 -0.10478573 -0.0701226
0001b0 57 b2 ab be 79 24 06 3d 4e bd c5 bc 68 5b 1b 3c
       -0.335345 0.032749627 -0.02413812 0.009482242
0001c0 e5 49 e7 3e e3 2a 68 3f a4 01 94 bf fb 16 22 3e
       0.45173565 0.9069044 -1.1563001 0.15829079
0001d0 1e 1d 6a 3d e1 b1 a0 3d 26 bf 0e 3e 42 62 7c be
       0.057156675 0.07846428 0.13940105 -0.24646857
0001e0 8a 5e 39 bc c8 30 03 bd 7d 83 96 39 82 04 4a 3f
       -0.011314044 -0.032028943 0.00028708196 0.7891313
0001f0 2f 0c c0 be 67 b7 43 bf f8 8b 9a 3e 19 3e 65 3f
       -0.37509295 -0.76451725 0.30184913 0.8954788
000200 65 00 f2 3e f4 f0 2f be 93 25 bc 3d b0 c8 f2 bb
       0.47265926 -0.1718176 0.09186854 -0.0074091777
000210 b7 3a 6e bf 02 78 84 3c 06 69 d1 bd b4 fb d7 bd
       -0.9305834 0.016170505 -0.1022511 -0.105460554
000220 4d 9b f1 bd 26 72 0f 3d 5c 2f 38 bd ff 26 02 be
       -0.117971994 0.03502097 -0.04496704 -0.12710188
000230 e8 80 9d be f3 9d 1f 3e b6 67 e7 be 5c 16 90 3d
       -0.3076241 0.15587597 -0.45196313 0.07035515
000240 9d e9 34 bf 84 bb ea be 10 f7 e7 be 86 6c 57 3e
       -0.70668966 -0.45846188 -0.4530568 0.21037492
000250 92 bd 06 3b 7d b5 86 bd 20 a5 ff 3d 81 30 cd be
       0.002055977 -0.06577585 0.12482667 -0.40076068
000260 40 a1 87 3c ff 9c dc bd b0 b6 06 3d a8 f7 76 be
       0.016556382 -0.10772132 0.032889068 -0.24117911
000270 bd b2 18 3e ae ff 20 3f 26 3a cc 3e ea 00 fc be
       0.14911933 0.62890136 0.39888114 -0.49219447
000280 db 2e 18 3f 50 63 26 3e b1 c6 0b be 22 91 31 be
       0.59446496 0.16248822 -0.13650014 -0.1734052
000290 5a 33 b8 3d 4b a4 54 3e f7 09 26 40 15 36 17 bf
       0.089941695 0.20765798 2.5943582 -0.590669
0002a0 a0 1d b5 bb 3d 62 e0 3f 06 db 2e 3e fb af f3 3f
       -0.005527213 1.752998 0.17075738 1.903808
0002b0 62 2f 04 40 cd 92 7e 3c 51 b8 69 bf 41 a2 0d 3e
       2.065392 0.01553793 -0.9129687 0.13831426
0002c0 d4 6c f6 3e 56 6d 38 bf 41 75 9e bc d4 db 2e 3e
       0.48129904 -0.72041833 -0.01934302 0.17076045
0002d0 e4 d4 e0 3d 6e a2 bc bd 08 52 3b bd 5f d3 7f 3f
       0.10978106 -0.092106685 -0.045732528 0.999319
0002e0 2a 82 08 3e 9e b4 8b 3d 1e bd b8 bd 33 9b 76 40
       0.13330904 0.06821559 -0.09020446 3.8532226
0002f0 b0 79 13 40 f9 48 86 3f 53 f1 97 be c2 49 c3 3f
       2.3043022 1.049102 -0.29676303 1.5256884
000300 59 0d bd 3e 6a af 63 bf 0e 8d 38 be 4a 5d da 3d
       0.36924246 -0.88939536 -0.18022558 0.10662325
000310 e9 68 ca bf 2f 65 7c be f8 c2 d4 3e 11 04 a2 3e
       -1.5813266 -0.24647973 0.41555 0.31643727
000320 b0 36 c4 bd 51 47 60 bf cd 5f 2c 3d 6d b9 c7 3d
       -0.09580743 -0.8760882 0.04208355 0.09752164
000330 ec 0b e2 be 13 41 59 3d 3b 85 32 3f 4e 84 4c 3e
       -0.4414972 0.053040575 0.69734544 0.19972345
000340 07 bf db bd b2 0d 6d bf c6 6e 38 3e ba 3a 07 bd
       -0.10729795 -0.9259902 0.18011007 -0.03301499
000350 05 d6 d3 bd 9e 0e be bd 80 cd 0d be ed 9d f2 3e
       -0.10343555 -0.09280132 -0.13847923 0.47386113
000360 f1 e9 27 be 2d 92 89 3d 2d 5c 9b bc 84 6d 41 bf
       -0.16397835 0.06717334 -0.018964851 -0.7555773
000370 d4 4f 16 3f b0 55 9b 3f e4 aa c8 bd 0a e0 2f bf
       0.5871556 1.2135525 -0.0979822 -0.6870123
000380 60 50 5f 3e 6f ea ac 3e a1 98 4e 3e d8 fe 68 bd
       0.21808004 0.3377261 0.20175411 -0.056883663
000390 a8 fe 2f 3e 1a 8f b8 3e 79 6e 46 40 08 dd 87 bf
       0.17186987 0.36046678 3.1004927 -1.0614328
0003a0 23 2d 11 3e 7c d9 03 40 7f 5f 11 be 3c c9 11 40
       0.14177375 2.0601492 -0.14196585 2.2779074
0003b0 47 10 3d 40 5e c6 da bd d0 f9 84 bf 37 77 c7 3c
       2.9541185 -0.10682367 -1.0388737 0.024348838
0003c0 d6 68 aa be 67 aa 05 bf 53 b8 00 3f 4a 8c 42 be
       -0.33283108 -0.5221314 0.50281256 -0.18998829
0003d0 44 31 72 bb 59 c9 18 3e 25 ac 0e 3e 98 81 a8 3f
       -0.0036955634 0.14920558 0.13932855 1.3164549
0003e0 d7 57 96 3d 98 8e bd bd e7 12 b0 3d eb c8 3c 40
       0.07340973 -0.09255713 0.08597355 2.949763
0003f0 57 ef 29 40 60 60 9e 3e 5d 24 12 bf bd 7d d9 3f
       2.6552331 0.30932903 -0.57086736 1.6991497
